…
      sampler {
        min_scale: 0.3
        max_scale: 1
        min_aspect_ratio: 0.5
        max_aspect_ratio: 2
      }
      sample_constraint {
        min_object_coverage: 0.9
      }
      max_sample: 1
      max_trials: 50
    }
    batch_sampler {
      sampler {
        min_scale: 0.3
        max_scale: 1
        min_aspect_ratio: 0.5
        max_aspect_ratio: 2
      }
      sample_constraint {
        max_jaccard_overlap: 1
      }
      max_sample: 1
      max_trials: 50
    }
    label_map_file: "data/text/labelmap_voc.prototxt"
  }
}
layer {
  name: "conv1_1"
  type: "Convolution"
  bottom: "data"
  top: "conv1_1"
  param {
    lr_mult: 0
    decay_mult: 0
  }
  param {
    lr_mult: 0
    decay_mult: 0
  }
  convolution_param {
    num_output: 64
    pad: 1
    kernel_size: 3
    weight_filler {
      type: "xavier"
    }
    bias_filler {
      type: "constant"
      value: 0
    }
  }
}
layer {
  name: "relu1_1"
  type: "ReLU"
  bottom: "conv1_1"
  top: "conv1_1"
}
layer {
  name: "conv1_2"
  type: "Convolution"
  bottom: "conv1_1"
  top: "conv1_2"
  param {
    lr_mult: 0
    decay_mult: 0
  }
  param {
    lr_mult: 0
    decay_mult: 0
  }
  convolution_param {
    num_output: 64
    pad: 1
    kernel_size: 3
    weight_filler {
      type: "xavier"
    }
    bias_filler {
      type: "constant"
      value: 0
    }
  }
}
layer {
  name: "relu1_2"
  type: "ReLU"
  bottom: "conv1_2"
  top: "conv1_2"
}
layer {
  name: "pool1"
  type: "Pooling"
  bottom: "conv1_2"
  top: "pool1"
  pooling_param {
    pool: MAX
    kernel_size: 2
    stride: 2
  }
}
layer {
  name: "conv2_1"
  type: "Convolution"
  bottom: "pool1"
  top: "conv2_1"
  param {
    lr_mult: 0
    decay_mult: 0
  }
  param {
    lr_mult: 0
    decay_mult: 0
  }
  convolution_param {
    num_output: 128
    pad: 1
    kernel_size: 3
    weight_filler {
      type: "xavier"
    }
    bias_filler {
      type: "constant"
      value: 0
    }
  }
}
layer {
  name: "relu2_1"
  type: "ReLU"
  bottom: "conv2_1"
  top: "conv2_1"
}
layer {
  name: "conv2_2"
  type: "Convolution"
  bottom: "conv2_1"
  top: "conv2_2"
  param {
    lr_mult: 0
    decay_mult: 0
  }
  param {
    lr_mult: 0
    decay_mult: 0
  }
  convolution_param {
    num_output: 128
    pad: 1
    kernel_size: 3
    weight_filler {
      type: "xavier"
    }
    bias_filler {
      type: "constant"
      value: 0
    }
  }
}
layer {
  name: "relu2_2"
  type: "ReLU"
  bottom: "conv2_2"
  top: "conv2_2"
}
layer {
  name: "pool2"
  type: "Pooling"
  bottom: "conv2_2"
  top: "pool2"
  pooling_param {
    pool: MAX
    kernel_size: 2
    stride: 2
  }
}
layer {
  name: "conv3_1"
  type: "Convolution"
  bottom: "pool2"
  top: "conv3_1"
  param {
    lr_mult: 1
    decay_mult: 1
  }
  param {
    lr_mult: 2
    decay_mult: 0
  }
  convolution_param {
    num_output: 256
    pad: 1
    kernel_size: 3
    weight_filler {
      type: "xavier"
    }
    bias_filler {
      type: "constant"
      value: 0
    }
  }
}
layer {
  name: "relu3_1"
  type: "ReLU"
  bottom: "conv3_1"
  top: "conv3_1"
}
layer {
  name: "conv3_2"
  type: "Convolution"
  bottom: "conv3_1"
  top: "conv3_2"
  param {
    lr_mult: 1
    decay_mult: 1
  }
  param {
    lr_mult: 2
    decay_mult: 0
  }
  convolution_param {
    num_output: 256
    pad: 1
    kernel_size: 3
    weight_filler {
      type: "xavier"
    }
    bias_filler {
      type: "constant"
      value: 0
    }
  }
}
layer {
  name: "relu3_2"
  type: "ReLU"
  bottom: "conv3_2"
  top: "conv3_2"
}
layer {
  name: "conv3_3"
  type: "Convolution"
  bottom: "conv3_2"
  top: "conv3_3"
  param {
    lr_mult: 1
    decay_mult: 1
  }
  param {
    lr_mult: 2
    decay_mult: 0
  }
  convolution_param {
    num_output: 256
    pad: 1
    kernel_size: 3
    weight_filler {
      type: "xavier"
    }
    bias_filler {
      type: "constant"
      value: 0
    }
  }
}
layer {
  name: "relu3_3"
  type: "ReLU"
  bottom: "conv3_3"
  top: "conv3_3"
}
layer {
  name: "pool3"
  type: "Pooling"
  bottom: "conv3_3"
  top: "pool3"
  pooling_param {
    pool: MAX
    kernel_size: 2
    stride: 2
  }
}
layer {
  name: "conv4_1"
  type: "Convolution"
  bottom: "pool3"
  top: "conv4_1"
  param {
    lr_mult: 1
    decay_mult: 1
  }
  param {
    lr_mult: 2
    decay_mult: 0
  }
  convolution_param {
    num_output: 512
    pad: 1
    kernel_size: 3
    weight_filler {
      type: "xavier"
    }
    bias_filler {
      type: "constant"
      value: 0
    }
  }
}
layer {
  name: "relu4_1"
  type: "ReLU"
  bottom: "conv4_1"
  top: "conv4_1"
}
layer {
  name: "conv4_2"
  type: "Convolution"
  bottom: "conv4_1"
  top: "conv4_2"
  param {
    lr_mult: 1
    decay_mult: 1
  }
  param {
    lr_mult: 2
    decay_mult: 0
  }
  convolution_param {
    num_output: 512
    pad: 1
    kernel_size: 3
    weight_filler {
      type: "xavier"
    }
    bias_filler {
      type: "constant"
      value: 0
    }
  }
}
layer {
  name: "relu4_2"
  type: "ReLU"
  bottom: "conv4_2"
  top: "conv4_2"
}
layer {
  name: "conv4_3"
  type: "Convolution"
  bottom: "conv4_2"
  top: "conv4_3"
  param {
    lr_mult: 1
    decay_mult: 1
  }
  param {
    lr_mult: 2
    decay_mult: 0
  }
  convolution_param {
    num_output: 512
    pad: 1
    kernel_size: 3
    weight_filler {
      type: "xavier"
    }
    bias_filler {
      type: "constant"
      value: 0
    }
  }
}
layer {
  name: "relu4_3"
  type: "ReLU"
  bottom: "conv4_3"
  top: "conv4_3"
}
layer {
  name: "pool4"
  type: "Pooling"
  bottom: "conv4_3"
  top: "pool4"
  pooling_param {
    pool: MAX
    kernel_size: 2
    stride: 2
  }
}
layer {
  name: "conv5_1"
  type: "Convolution"
  bottom: "pool4"
  top: "conv5_1"
  param {
    lr_mult: 1
    decay_mult: 1
  }
  param {
    lr_mult: 2
    decay_mult: 0
  }
  convolution_param {
    num_output: 512
    pad: 1
    kernel_size: 3
    weight_filler {
      type: "xavier"
    }
    bias_filler {
      type: "constant"
      value: 0
    }
    dilation: 1
  }
}
layer {
  name: "relu5_1"
  type: "ReLU"
  bottom: "conv5_1"
  top: "conv5_1"
}
layer {
  name: "conv5_2"
  type: "Convolution"
  bottom: "conv5_1"
  top: "conv5_2"
  param {
    lr_mult: 1
    decay_mult: 1
  }
  param {
    lr_mult: 2
    decay_mult: 0
  }
  convolution_param {
    num_output: 512
    pad: 1
    kernel_size: 3
    weight_filler {
      type: "xavier"
    }
    bias_filler {
      type: "constant"
      value: 0
    }
    dilation: 1
  }
}
layer {
  name: "relu5_2"
  type: "ReLU"
  bottom: "conv5_2"
  top: "conv5_2"
}
layer {
  name: "conv5_3"
  type: "Convolution"
  bottom: "conv5_2"
  top: "conv5_3"
  param {
    lr_mult: 1
    decay_mult: 1
  }
  param {
    lr_mult: 2
    decay_mult: 0
  }
  convolution_param {
    num_output: 512
    pad: 1
    kernel_size: 3
    weight_filler {
      type: "xavier"
    }
    bias_filler {
      type: "constant"
      value: 0
    }
    dilation: 1
  }
}
layer {
  name: "relu5_3"
  type: "ReLU"
  bottom: "conv5_3"
  top: "conv5_3"
}
layer {
  name: "pool5"
  type: "Pooling"
  bottom: "conv5_3"
  top: "pool5"
  pooling_param {
    pool: MAX
    kernel_size: 3
    stride: 1
    pad: 1
  }
}
layer {
  name: "fc6"
  type: "Convolution"
  bottom: "pool5"
  top: "fc6"
  param {
    lr_mult: 1
    decay_mult: 1
  }
  param {
    lr_mult: 2
    decay_mult: 0
  }
  convolution_param {
    num_output: 1024
    pad: 6
    kernel_size: 3
    weight_filler {
      type: "xavier"
    }
    bias_filler {
      type: "constant"
      value: 0
    }
    dilation: 6
  }
}
layer {
  name: "relu6"
  type: "ReLU"
  bottom: "fc6"
  top: "fc6"
}
layer {
  name: "fc7"
  type: "Convolution"
  bottom: "fc6"
  top: "fc7"
  param {
    lr_mult: 1
    decay_mult: 1
  }
  param {
    lr_mult: 2
    decay_mult: 0
  }
  convolution_param {
    num_output: 1024
    kernel_size: 1
    weight_filler {
      type: "xavier"
    }
    bias_filler {
      type: "constant"
      value: 0
    }
  }
}
layer {
  name: "relu7"
  type: "ReLU"
  bottom: "fc7"
  top: "fc7"
}
layer {
  name: "conv6_1"
  type: "Convolution"
  bottom: "fc7"
  top: "conv6_1"
  param {
    lr_mult: 1
    decay_mult: 1
  }
  param {
    lr_mult: 2
    decay_mult: 0
  }
  convolution_param {
    num_output: 256
    pad: 0
    kernel_size: 1
    stride: 1
    weight_filler {
      type: "xavier"
    }
    bias_filler {
      type: "constant"
      value: 0
    }
  }
}
layer {
  name: "conv6_1_relu"
  type: "ReLU"
  bottom: "conv6_1"
  top: "conv6_1"
}
layer {
  name: "conv6_2"
  type: "Convolution"
  bottom: "conv6_1"
  top: "conv6_2"
  param {
    lr_mult: 1
    decay_mult: 1
  }
  param {
    lr_mult: 2
    decay_mult: 0
  }
  convolution_param {
    num_output: 512
    pad: 1
    kernel_size: 3
    stride: 2
    weight_filler {
      type: "xavier"
    }
    bias_filler {
      type: "constant"
      value: 0
    }
  }
}
layer {
  name: "conv6_2_relu"
  type: "ReLU"
  bottom: "conv6_2"
  top: "conv6_2"
}
layer {
  name: "conv7_1"
  type: "Convolution"
  bottom: "conv6_2"
  top: "conv7_1"
  param {
    lr_mult: 1
    decay_mult: 1
  }
  param {
    lr_mult: 2
    decay_mult: 0
  }
  convolution_param {
    num_output: 128
    pad: 0
    kernel_size: 1
    stride: 1
    weight_filler {
      type: "xavier"
    }
    bias_filler {
      type: "constant"
      value: 0
    }
  }
}
layer {
  name: "conv7_1_relu"
  type: "ReLU"
  bottom: "conv7_1"
  top: "conv7_1"
}
layer {
  name: "conv7_2"
  type: "Convolution"
  bottom: "conv7_1"
  top: "conv7_2"
  param {
    lr_mult: 1
    decay_mult: 1
  }
  param {
    lr_mult: 2
    decay_mult: 0
  }
  convolution_param {
    num_output: 256
    pad: 1
    kernel_size: 3
    stride: 2
    weight_filler {
      type: "xavier"
    }
    bias_filler {
      type: "constant"
      value: 0
    }
  }
}
layer {
  name: "conv7_2_relu"
  type: "ReLU"
  bottom: "conv7_2"
  top: "conv7_2"
}
layer {
  name: "conv8_1"
  type: "Convolution"
  bottom: "conv7_2"
  top: "conv8_1"
  param {
    lr_mult: 1
    decay_mult: 1
  }
  param {
    lr_mult: 2
    decay_mult: 0
  }
  convolution_param {
    num_output: 128
    pad: 0
    kernel_size: 1
    stride: 1
    weight_filler {
      type: "xavier"
    }
    bias_filler {
      type: "constant"
      value: 0
    }
  }
}
layer {
  name: "conv8_1_relu"
  type: "ReLU"
  bottom: "conv8_1"
  top: "conv8_1"
}
layer {
  name: "conv8_2"
  type: "Convolution"
  bottom: "conv8_1"
  top: "conv8_2"
  param {
    lr_mult: 1
    decay_mult: 1
  }
  param {
    lr_mult: 2
    decay_mult: 0
  }
  convolution_param {
    num_output: 256
    pad: 0
    kernel_size: 3
    stride: 1
    weight_filler {
      type: "xavier"
    }
    bias_filler {
      type: "constant"
      value: 0
    }
  }
}
layer {
  name: "conv8_2_relu"
  type: "ReLU"
  bottom: "conv8_2"
  top: "conv8_2"
}
layer {
  name: "conv9_1"
  type: "Convolution"
  bottom: "conv8_2"
  top: "conv9_1"
  param {
    lr_mult: 1
    decay_mult: 1
  }
  param {
    lr_mult: 2
    decay_mult: 0
  }
  convolution_param {
    num_output: 128
    pad: 0
    kernel_size: 1
    stride: 1
    weight_filler {
      type: "xavier"
    }
    bias_filler {
      type: "constant"
      value: 0
    }
  }
}
layer {
  name: "conv9_1_relu"
  type: "ReLU"
  bottom: "conv9_1"
  top: "conv9_1"
}
layer {
  name: "conv9_2"
  type: "Convolution"
  bottom: "conv9_1"
  top: "conv9_2"
  param {
    lr_mult: 1
    decay_mult: 1
  }
  param {
    lr_mult: 2
    decay_mult: 0
  }
  convolution_param {
    num_output: 256
    pad: 0
    kernel_size: 3
    stride: 1
    weight_filler {
      type: "xavier"
    }
    bias_filler {
      type: "constant"
      value: 0
    }
  }
}
layer {
  name: "conv9_2_relu"
  type: "ReLU"
  bottom: "conv9_2"
  top: "conv9_2"
}
layer {
  name: "conv4_3_norm"
  type: "Normalize"
  bottom: "conv4_3"
  top: "conv4_3_norm"
  norm_param {
    across_spatial: false
    scale_filler {
      type: "constant"
      value: 20
    }
    channel_shared: false
  }
}
layer {
  name: "conv4_3_norm_mbox_loc"
  type: "Convolution"
  bottom: "conv4_3_norm"
  top: "conv4_3_norm_mbox_loc"
  param {
    lr_mult: 1
    decay_mult: 1
  }
  param {
    lr_mult: 2
    decay_mult: 0
  }
  convolution_param {
    num_output: 240
    weight_filler {
      type: "xavier"
    }
    bias_filler {
      type: "constant"
      value: 0
    }
    pad_h: 1
    pad_w: 2
    kernel_h: 3
    kernel_w: 5
    stride_h: 1
    stride_w: 1
  }
}
layer {
  name: "conv4_3_norm_mbox_loc_perm"
  type: "Permute"
  bottom: "conv4_3_norm_mbox_loc"
  top: "conv4_3_norm_mbox_loc_perm"
  permute_param {
    order: 0
    order: 2
    order: 3
    order: 1
  }
}
layer {
  name: "conv4_3_norm_mbox_loc_flat"
  type: "Flatten"
  bottom: "conv4_3_norm_mbox_loc_perm"
  top: "conv4_3_norm_mbox_loc_flat"
  flatten_param {
    axis: 1
  }
}
layer {
  name: "conv4_3_norm_mbox_conf"
  type: "Convolution"
  bottom: "conv4_3_norm"
  top: "conv4_3_norm_mbox_conf"
  param {
    lr_mult: 1
    decay_mult: 1
  }
  param {
    lr_mult: 2
    decay_mult: 0
  }
  convolution_param {
    num_output: 40
    weight_filler {
      type: "xavier"
    }
    bias_filler {
      type: "constant"
      value: 0
    }
    pad_h: 1
    pad_w: 2
    kernel_h: 3
    kernel_w: 5
    stride_h: 1
    stride_w: 1
  }
}
layer {
  name: "conv4_3_norm_mbox_conf_perm"
  type: "Permute"
  bottom: "conv4_3_norm_mbox_conf"
  top: "conv4_3_norm_mbox_conf_perm"
  permute_param {
    order: 0
    order: 2
    order: 3
    order: 1
  }
}
layer {
  name: "conv4_3_norm_mbox_conf_flat"
  type: "Flatten"
  bottom: "conv4_3_norm_mbox_conf_perm"
  top: "conv4_3_norm_mbox_conf_flat"
  flatten_param {
    axis: 1
  }
}
layer {
  name: "conv4_3_norm_mbox_priorbox"
  type: "PriorBox"
  bottom: "conv4_3_norm"
  bottom: "data"
  top: "conv4_3_norm_mbox_priorbox"
  prior_box_param {
    min_size: 30
    max_size: 60
    aspect_ratio: 2
    aspect_ratio: 3
    aspect_ratio: 4
    aspect_ratio: 5
    flip: true
    clip: false
    variance: 0.1
    variance: 0.1
    variance: 0.2
    variance: 0.2
    step: 8
    offset: 0.5
    denser_prior_boxes: true
  }
}
layer {
  name: "fc7_mbox_loc"
  type: "Convolution"
  bottom: "fc7"
  top: "fc7_mbox_loc"
  param {
    lr_mult: 1
    decay_mult: 1
  }
  param {
    lr_mult: 2
    decay_mult: 0
  }
  convolution_param {
    num_output: 240
    weight_filler {
      type: "xavier"
    }
    bias_filler {
      type: "constant"
      value: 0
    }
    pad_h: 1
    pad_w: 2
    kernel_h: 3
    kernel_w: 5
    stride_h: 1
    stride_w: 1
  }
}
layer {
  name: "fc7_mbox_loc_perm"
  type: "Permute"
  bottom: "fc7_mbox_loc"
  top: "fc7_mbox_loc_perm"
  permute_param {
    order: 0
    order: 2
    order: 3
    order: 1
  }
}
layer {
  name: "fc7_mbox_loc_flat"
  type: "Flatten"
  bottom: "fc7_mbox_loc_perm"
  top: "fc7_mbox_loc_flat"
  flatten_param {
    axis: 1
  }
}
layer {
  name: "fc7_mbox_conf"
  type: "Convolution"
  bottom: "fc7"
  top: "fc7_mbox_conf"
  param {
    lr_mult: 1
    decay_mult: 1
  }
  param {
    lr_mult: 2
    decay_mult: 0
  }
  convolution_param {
    num_output: 40
    weight_filler {
      type: "xavier"
    }
    bias_filler {
      type: "constant"
      value: 0
    }
    pad_h: 1
    pad_w: 2
    kernel_h: 3
    kernel_w: 5
    stride_h: 1
    stride_w: 1
  }
}
layer {
  name: "fc7_mbox_conf_perm"
  type: "Permute"
  bottom: "fc7_mbox_conf"
  top: "fc7_mbox_conf_perm"
  permute_param {
    order: 0
    order: 2
    order: 3
    order: 1
  }
}
layer {
  name: "fc7_mbox_conf_flat"
  type: "Flatten"
  bottom: "fc7_mbox_conf_perm"
  top: "fc7_mbox_conf_flat"
  flatten_param {
    axis: 1
  }
}
layer {
  name: "fc7_mbox_priorbox"
  type: "PriorBox"
  bottom: "fc7"
  bottom: "data"
  top: "fc7_mbox_priorbox"
  prior_box_param {
    min_size: 30
    max_size: 90
    aspect_ratio: 2
    aspect_ratio: 3
    aspect_ratio: 4
    aspect_ratio: 5
    flip: true
    clip: false
    variance: 0.1
    variance: 0.1
    variance: 0.2
    variance: 0.2
    step: 16
    offset: 0.5
    denser_prior_boxes: true
  }
}
layer {
  name: "conv6_2_mbox_loc"
  type: "Convolution"
  bottom: "conv6_2"
  top: "conv6_2_mbox_loc"
  param {
    lr_mult: 1
    decay_mult: 1
  }
  param {
    lr_mult: 2
    decay_mult: 0
  }
  convolution_param {
    num_output: 240
    weight_filler {
      type: "xavier"
    }
    bias_filler {
      type: "constant"
      value: 0
    }
    pad_h: 1
    pad_w: 2
    kernel_h: 3
    kernel_w: 5
    stride_h: 1
    stride_w: 1
  }
}
layer {
  name: "conv6_2_mbox_loc_perm"
  type: "Permute"
  bottom: "conv6_2_mbox_loc"
  top: "conv6_2_mbox_loc_perm"
  permute_param {
    order: 0
    order: 2
    order: 3
    order: 1
  }
}
layer {
  name: "conv6_2_mbox_loc_flat"
  type: "Flatten"
  bottom: "conv6_2_mbox_loc_perm"
  top: "conv6_2_mbox_loc_flat"
  flatten_param {
    axis: 1
  }
}
layer {
  name: "conv6_2_mbox_conf"
  type: "Convolution"
  bottom: "conv6_2"
  top: "conv6_2_mbox_conf"
  param {
    lr_mult: 1
    decay_mult: 1
  }
  param {
    lr_mult: 2
    decay_mult: 0
  }
  convolution_param {
    num_output: 40
    weight_filler {
      type: "xavier"
    }
    bias_filler {
      type: "constant"
      value: 0
    }
    pad_h: 1
    pad_w: 2
    kernel_h: 3
    kernel_w: 5
    stride_h: 1
    stride_w: 1
  }
}
layer {
  name: "conv6_2_mbox_conf_perm"
  type: "Permute"
  bottom: "conv6_2_mbox_conf"
  top: "conv6_2_mbox_conf_perm"
  permute_param {
    order: 0
    order: 2
    order: 3
    order: 1
  }
}
layer {
  name: "conv6_2_mbox_conf_flat"
  type: "Flatten"
  bottom: "conv6_2_mbox_conf_perm"
  top: "conv6_2_mbox_conf_flat"
  flatten_param {
    axis: 1
  }
}
layer {
  name: "conv6_2_mbox_priorbox"
  type: "PriorBox"
  bottom: "conv6_2"
  bottom: "data"
  top: "conv6_2_mbox_priorbox"
  prior_box_param {
    min_size: 90
    max_size: 150
    aspect_ratio: 2
    aspect_ratio: 3
    aspect_ratio: 4
    aspect_ratio: 5
    flip: true
    clip: false
    variance: 0.1
    variance: 0.1
    variance: 0.2
    variance: 0.2
    step: 32
    offset: 0.5
    denser_prior_boxes: true
  }
}
layer {
  name: "conv7_2_mbox_loc"
  type: "Convolution"
  bottom: "conv7_2"
  top: "conv7_2_mbox_loc"
  param {
    lr_mult: 1
    decay_mult: 1
  }
  param {
    lr_mult: 2
    decay_mult: 0
  }
  convolution_param {
    num_output: 240
    weight_filler {
      type: "xavier"
    }
    bias_filler {
      type: "constant"
      value: 0
    }
    pad_h: 1
    pad_w: 2
    kernel_h: 3
    kernel_w: 5
    stride_h: 1
    stride_w: 1
  }
}
layer {
  name: "conv7_2_mbox_loc_perm"
  type: "Permute"
  bottom: "conv7_2_mbox_loc"
  top: "conv7_2_mbox_loc_perm"
  permute_param {
    order: 0
    order: 2
    order: 3
    order: 1
  }
}
layer {
  name: "conv7_2_mbox_loc_flat"
  type: "Flatten"
  bottom: "conv7_2_mbox_loc_perm"
  top: "conv7_2_mbox_loc_flat"
  flatten_param {
    axis: 1
  }
}
layer {
  name: "conv7_2_mbox_conf"
  type: "Convolution"
  bottom: "conv7_2"
  top: "conv7_2_mbox_conf"
  param {
    lr_mult: 1
    decay_mult: 1
  }
  param {
    lr_mult: 2
    decay_mult: 0
  }
  convolution_param {
    num_output: 40
    weight_filler {
      type: "xavier"
    }
    bias_filler {
      type: "constant"
      value: 0
    }
    pad_h: 1
    pad_w: 2
    kernel_h: 3
    kernel_w: 5
    stride_h: 1
    stride_w: 1
  }
}
layer {
  name: "conv7_2_mbox_conf_perm"
  type: "Permute"
  bottom: "conv7_2_mbox_conf"
  top: "conv7_2_mbox_conf_perm"
  permute_param {
    order: 0
    order: 2
    order: 3
    order: 1
  }
}
layer {
  name: "conv7_2_mbox_conf_flat"
  type: "Flatten"
  bottom: "conv7_2_mbox_conf_perm"
  top: "conv7_2_mbox_conf_flat"
  flatten_param {
    axis: 1
  }
}
layer {
  name: "conv7_2_mbox_priorbox"
  type: "PriorBox"
  bottom: "conv7_2"
  bottom: "data"
  top: "conv7_2_mbox_priorbox"
  prior_box_param {
    min_size: 150
    max_size: 210
    aspect_ratio: 2
    aspect_ratio: 3
    aspect_ratio: 4
    aspect_ratio: 5
    flip: true
    clip: false
    variance: 0.1
    variance: 0.1
    variance: 0.2
    variance: 0.2
    step: 64
    offset: 0.5
    denser_prior_boxes: true
  }
}
layer {
  name: "conv8_2_mbox_loc"
  type: "Convolution"
  bottom: "conv8_2"
  top: "conv8_2_mbox_loc"
  param {
    lr_mult: 1
    decay_mult: 1
  }
  param {
    lr_mult: 2
    decay_mult: 0
  }
  convolution_param {
    num_output: 240
    weight_filler {
      type: "xavier"
    }
    bias_filler {
      type: "constant"
      value: 0
    }
    pad_h: 1
    pad_w: 2
    kernel_h: 3
    kernel_w: 5
    stride_h: 1
    stride_w: 1
  }
}
layer {
  name: "conv8_2_mbox_loc_perm"
  type: "Permute"
  bottom: "conv8_2_mbox_loc"
  top: "conv8_2_mbox_loc_perm"
  permute_param {
    order: 0
    order: 2
    order: 3
    order: 1
  }
}
layer {
  name: "conv8_2_mbox_loc_flat"
  type: "Flatten"
  bottom: "conv8_2_mbox_loc_perm"
  top: "conv8_2_mbox_loc_flat"
  flatten_param {
    axis: 1
  }
}
layer {
  name: "conv8_2_mbox_conf"
  type: "Convolution"
  bottom: "conv8_2"
  top: "conv8_2_mbox_conf"
  param {
    lr_mult: 1
    decay_mult: 1
  }
  param {
    lr_mult: 2
    decay_mult: 0
  }
  convolution_param {
    num_output: 40
    weight_filler {
      type: "xavier"
    }
    bias_filler {
      type: "constant"
      value: 0
    }
    pad_h: 1
    pad_w: 2
    kernel_h: 3
    kernel_w: 5
    stride_h: 1
    stride_w: 1
  }
}
layer {
  name: "conv8_2_mbox_conf_perm"
  type: "Permute"
  bottom: "conv8_2_mbox_conf"
  top: "conv8_2_mbox_conf_perm"
  permute_param {
    order: 0
    order: 2
    order: 3
    order: 1
  }
}
layer {
  name: "conv8_2_mbox_conf_flat"
  type: "Flatten"
  bottom: "conv8_2_mbox_conf_perm"
  top: "conv8_2_mbox_conf_flat"
  flatten_param {
    axis: 1
  }
}
layer {
  name: "conv8_2_mbox_priorbox"
  type: "PriorBox"
  bottom: "conv8_2"
  bottom: "data"
  top: "conv8_2_mbox_priorbox"
  prior_box_param {
    min_size: 210
    max_size: 270
    aspect_ratio: 2
    aspect_ratio: 3
    aspect_ratio: 4
    aspect_ratio: 5
    flip: true
    clip: false
    variance: 0.1
    variance: 0.1
    variance: 0.2
    variance: 0.2
    step: 100
    offset: 0.5
    denser_prior_boxes: true
  }
}
layer {
  name: "conv9_2_mbox_loc"
  type: "Convolution"
  bottom: "conv9_2"
  top: "conv9_2_mbox_loc"
  param {
    lr_mult: 1
    decay_mult: 1
  }
  param {
    lr_mult: 2
    decay_mult: 0
  }
  convolution_param {
    num_output: 240
    weight_filler {
      type: "xavier"
    }
    bias_filler {
      type: "constant"
      value: 0
    }
    pad_h: 1
    pad_w: 2
    kernel_h: 3
    kernel_w: 5
    stride_h: 1
    stride_w: 1
  }
}
layer {
  name: "conv9_2_mbox_loc_perm"
  type: "Permute"
  bottom: "conv9_2_mbox_loc"
  top: "conv9_2_mbox_loc_perm"
  permute_param {
    order: 0
    order: 2
    order: 3
    order: 1
  }
}
layer {
  name: "conv9_2_mbox_loc_flat"
  type: "Flatten"
  bottom: "conv9_2_mbox_loc_perm"
  top: "conv9_2_mbox_loc_flat"
  flatten_param {
    axis: 1
  }
}
layer {
  name: "conv9_2_mbox_conf"
  type: "Convolution"
  bottom: "conv9_2"
  top: "conv9_2_mbox_conf"
  param {
    lr_mult: 1
    decay_mult: 1
  }
  param {
    lr_mult: 2
    decay_mult: 0
  }
  convolution_param {
    num_output: 40
    weight_filler {
      type: "xavier"
    }
    bias_filler {
      type: "constant"
      value: 0
    }
    pad_h: 1
    pad_w: 2
    kernel_h: 3
    kernel_w: 5
    stride_h: 1
    stride_w: 1
  }
}
layer {
  name: "conv9_2_mbox_conf_perm"
  type: "Permute"
  bottom: "conv9_2_mbox_conf"
  top: "conv9_2_mbox_conf_perm"
  permute_param {
    order: 0
    order: 2
    order: 3
    order: 1
  }
}
layer {
  name: "conv9_2_mbox_conf_flat"
  type: "Flatten"
  bottom: "conv9_2_mbox_conf_perm"
  top: "conv9_2_mbox_conf_flat"
  flatten_param {
    axis: 1
  }
}
layer {
  name: "conv9_2_mbox_priorbox"
  type: "PriorBox"
  bottom: "conv9_2"
  bottom: "data"
  top: "conv9_2_mbox_priorbox"
  prior_box_param {
    min_size: 270
    max_size: 330
    aspect_ratio: 2
    aspect_ratio: 3
    aspect_ratio: 4
    aspect_ratio: 5
    flip: true
    clip: false
    variance: 0.1
    variance: 0.1
    variance: 0.2
    variance: 0.2
    step: 300
    offset: 0.5
    denser_prior_boxes: true
  }
}
layer {
  name: "mbox_loc"
  type: "Concat"
  bottom: "conv4_3_norm_mbox_loc_flat"
  bottom: "fc7_mbox_loc_flat"
  bottom: "conv6_2_mbox_loc_flat"
  bottom: "conv7_2_mbox_loc_flat"
  bottom: "conv8_2_mbox_loc_flat"
  bottom: "conv9_2_mbox_loc_flat"
  top: "mbox_loc"
  concat_param {
    axis: 1
  }
}
layer {
  name: "mbox_conf"
  type: "Concat"
  bottom: "conv4_3_norm_mbox_conf_flat"
  bottom: "fc7_mbox_conf_flat"
  bottom: "conv6_2_mbox_conf_flat"
  bottom: "conv7_2_mbox_conf_flat"
  bottom: "conv8_2_mbox_conf_flat"
  bottom: "conv9_2_mbox_conf_flat"
  top: "mbox_conf"
  concat_param {
    axis: 1
  }
}
layer {
  name: "mbox_priorbox"
  type: "Concat"
  bottom: "conv4_3_norm_mbox_priorbox"
  bottom: "fc7_mbox_priorbox"
  bottom: "conv6_2_mbox_priorbox"
  bottom: "conv7_2_mbox_priorbox"
  bottom: "conv8_2_mbox_priorbox"
  bottom: "conv9_2_mbox_priorbox"
  top: "mbox_priorbox"
  concat_param {
    axis: 2
  }
}
layer {
  name: "mbox_loss"
  type: "MultiBoxLoss"
  bottom: "mbox_loc"
  bottom: "mbox_conf"
  bottom: "mbox_priorbox"
  bottom: "label"
  top: "mbox_loss"
  include {
    phase: TRAIN
  }
  propagate_down: true
  propagate_down: true
  propagate_down: false
  propagate_down: false
  loss_param {
    normalization: VALID
  }
  multibox_loss_param {
    loc_loss_type: SMOOTH_L1
    conf_loss_type: SOFTMAX
    loc_weight: 0.2
    num_classes: 2
    share_location: true
    match_type: PER_PREDICTION
    overlap_threshold: 0.5
    use_prior_for_matching: true
    background_label_id: 0
    use_difficult_gt: false
    neg_pos_ratio: 3
    neg_overlap: 0.5
    code_type: CENTER_SIZE
    ignore_cross_boundary_bbox: false
    mining_type: MAX_NEGATIVE
    use_polygon: true
  }
}
I0409 18:58:24.278668 23994 layer_factory.hpp:77] Creating layer data
I0409 18:58:24.279175 23994 net.cpp:100] Creating Layer data
I0409 18:58:24.279206 23994 net.cpp:408] data -> data
I0409 18:58:24.279254 23994 net.cpp:408] data -> label
I0409 18:58:24.280382 24000 db_lmdb.cpp:35] Opened lmdb ./data/text_train_lmdb/
I0409 18:58:24.302737 23994 annotated_data_layer.cpp:62] output data size: 16,3,384,384
I0409 18:58:24.351383 23994 net.cpp:150] Setting up data
I0409 18:58:24.351421 23994 net.cpp:157] Top shape: 16 3 384 384 (7077888)
I0409 18:58:24.351428 23994 net.cpp:157] Top shape: 1 1 22 16 (352)
I0409 18:58:24.351433 23994 net.cpp:165] Memory required for data: 28312960
I0409 18:58:24.351442 23994 layer_factory.hpp:77] Creating layer data_data_0_split
I0409 18:58:24.351464 23994 net.cpp:100] Creating Layer data_data_0_split
I0409 18:58:24.351472 23994 net.cpp:434] data_data_0_split <- data
I0409 18:58:24.351497 23994 net.cpp:408] data_data_0_split -> data_data_0_split_0
I0409 18:58:24.351512 23994 net.cpp:408] data_data_0_split -> data_data_0_split_1
I0409 18:58:24.351519 23994 net.cpp:408] data_data_0_split -> data_data_0_split_2
I0409 18:58:24.351528 23994 net.cpp:408] data_data_0_split -> data_data_0_split_3
I0409 18:58:24.351537 23994 net.cpp:408] data_data_0_split -> data_data_0_split_4
I0409 18:58:24.351544 23994 net.cpp:408] data_data_0_split -> data_data_0_split_5
I0409 18:58:24.351550 23994 net.cpp:408] data_data_0_split -> data_data_0_split_6
I0409 18:58:24.351671 23994 net.cpp:150] Setting up data_data_0_split
I0409 18:58:24.351681 23994 net.cpp:157] Top shape: 16 3 384 384 (7077888)
I0409 18:58:24.351686 23994 net.cpp:157] Top shape: 16 3 384 384 (7077888)
I0409 18:58:24.351692 23994 net.cpp:157] Top shape: 16 3 384 384 (7077888)
I0409 18:58:24.351697 23994 net.cpp:157] Top shape: 16 3 384 384 (7077888)
I0409 18:58:24.351702 23994 net.cpp:157] Top shape: 16 3 384 384 (7077888)
I0409 18:58:24.351706 23994 net.cpp:157] Top shape: 16 3 384 384 (7077888)
I0409 18:58:24.351713 23994 net.cpp:157] Top shape: 16 3 384 384 (7077888)
I0409 18:58:24.351718 23994 net.cpp:165] Memory required for data: 226493824
I0409 18:58:24.351722 23994 layer_factory.hpp:77] Creating layer conv1_1
I0409 18:58:24.351739 23994 net.cpp:100] Creating Layer conv1_1
I0409 18:58:24.351745 23994 net.cpp:434] conv1_1 <- data_data_0_split_0
I0409 18:58:24.351753 23994 net.cpp:408] conv1_1 -> conv1_1
I0409 18:58:24.683446 23994 net.cpp:150] Setting up conv1_1
I0409 18:58:24.683495 23994 net.cpp:157] Top shape: 16 64 384 384 (150994944)
I0409 18:58:24.683507 23994 net.cpp:165] Memory required for data: 830473600
I0409 18:58:24.683552 23994 layer_factory.hpp:77] Creating layer relu1_1
I0409 18:58:24.683578 23994 net.cpp:100] Creating Layer relu1_1
I0409 18:58:24.683591 23994 net.cpp:434] relu1_1 <- conv1_1
I0409 18:58:24.683607 23994 net.cpp:395] relu1_1 -> conv1_1 (in-place)
I0409 18:58:24.684159 23994 net.cpp:150] Setting up relu1_1
I0409 18:58:24.684185 23994 net.cpp:157] Top shape: 16 64 384 384 (150994944)
I0409 18:58:24.684196 23994 net.cpp:165] Memory required for data: 1434453376
I0409 18:58:24.684208 23994 layer_factory.hpp:77] Creating layer conv1_2
I0409 18:58:24.684233 23994 net.cpp:100] Creating Layer conv1_2
I0409 18:58:24.684243 23994 net.cpp:434] conv1_2 <- conv1_1
I0409 18:58:24.684258 23994 net.cpp:408] conv1_2 -> conv1_2
I0409 18:58:24.688459 23994 net.cpp:150] Setting up conv1_2
I0409 18:58:24.688488 23994 net.cpp:157] Top shape: 16 64 384 384 (150994944)
I0409 18:58:24.688529 23994 net.cpp:165] Memory required for data: 2038433152
I0409 18:58:24.688551 23994 layer_factory.hpp:77] Creating layer relu1_2
I0409 18:58:24.688567 23994 net.cpp:100] Creating Layer relu1_2
I0409 18:58:24.688578 23994 net.cpp:434] relu1_2 <- conv1_2
I0409 18:58:24.688594 23994 net.cpp:395] relu1_2 -> conv1_2 (in-place)
I0409 18:58:24.688901 23994 net.cpp:150] Setting up relu1_2
I0409 18:58:24.688925 23994 net.cpp:157] Top shape: 16 64 384 384 (150994944)
I0409 18:58:24.688935 23994 net.cpp:165] Memory required for data: 2642412928
I0409 18:58:24.688941 23994 layer_factory.hpp:77] Creating layer pool1
I0409 18:58:24.688957 23994 net.cpp:100] Creating Layer pool1
I0409 18:58:24.688966 23994 net.cpp:434] pool1 <- conv1_2
I0409 18:58:24.688982 23994 net.cpp:408] pool1 -> pool1
I0409 18:58:24.689070 23994 net.cpp:150] Setting up pool1
I0409 18:58:24.689090 23994 net.cpp:157] Top shape: 16 64 192 192 (37748736)
I0409 18:58:24.689098 23994 net.cpp:165] Memory required for data: 2793407872
I0409 18:58:24.689108 23994 layer_factory.hpp:77] Creating layer conv2_1
I0409 18:58:24.689126 23994 net.cpp:100] Creating Layer conv2_1
I0409 18:58:24.689136 23994 net.cpp:434] conv2_1 <- pool1
I0409 18:58:24.689149 23994 net.cpp:408] conv2_1 -> conv2_1
I0409 18:58:24.692098 23994 net.cpp:150] Setting up conv2_1
I0409 18:58:24.692126 23994 net.cpp:157] Top shape: 16 128 192 192 (75497472)
I0409 18:58:24.692134 23994 net.cpp:165] Memory required for data: 3095397760
I0409 18:58:24.692157 23994 layer_factory.hpp:77] Creating layer relu2_1
I0409 18:58:24.692173 23994 net.cpp:100] Creating Layer relu2_1
I0409 18:58:24.692184 23994 net.cpp:434] relu2_1 <- conv2_1
I0409 18:58:24.692198 23994 net.cpp:395] relu2_1 -> conv2_1 (in-place)
I0409 18:58:24.692487 23994 net.cpp:150] Setting up relu2_1
I0409 18:58:24.692512 23994 net.cpp:157] Top shape: 16 128 192 192 (75497472)
I0409 18:58:24.692523 23994 net.cpp:165] Memory required for data: 3397387648
I0409 18:58:24.692534 23994 layer_factory.hpp:77] Creating layer conv2_2
I0409 18:58:24.692553 23994 net.cpp:100] Creating Layer conv2_2
I0409 18:58:24.692564 23994 net.cpp:434] conv2_2 <- conv2_1
I0409 18:58:24.692577 23994 net.cpp:408] conv2_2 -> conv2_2
I0409 18:58:24.697150 23994 net.cpp:150] Setting up conv2_2
I0409 18:58:24.697177 23994 net.cpp:157] Top shape: 16 128 192 192 (75497472)
I0409 18:58:24.697190 23994 net.cpp:165] Memory required for data: 3699377536
I0409 18:58:24.697206 23994 layer_factory.hpp:77] Creating layer relu2_2
I0409 18:58:24.697218 23994 net.cpp:100] Creating Layer relu2_2
I0409 18:58:24.697229 23994 net.cpp:434] relu2_2 <- conv2_2
I0409 18:58:24.697243 23994 net.cpp:395] relu2_2 -> conv2_2 (in-place)
I0409 18:58:24.697788 23994 net.cpp:150] Setting up relu2_2
I0409 18:58:24.697813 23994 net.cpp:157] Top shape: 16 128 192 192 (75497472)
I0409 18:58:24.697821 23994 net.cpp:165] Memory required for data: 4001367424
I0409 18:58:24.697829 23994 layer_factory.hpp:77] Creating layer pool2
I0409 18:58:24.697841 23994 net.cpp:100] Creating Layer pool2
I0409 18:58:24.697854 23994 net.cpp:434] pool2 <- conv2_2
I0409 18:58:24.697870 23994 net.cpp:408] pool2 -> pool2
I0409 18:58:24.697949 23994 net.cpp:150] Setting up pool2
I0409 18:58:24.697968 23994 net.cpp:157] Top shape: 16 128 96 96 (18874368)
I0409 18:58:24.697978 23994 net.cpp:165] Memory required for data: 4076864896
I0409 18:58:24.697986 23994 layer_factory.hpp:77] Creating layer conv3_1
I0409 18:58:24.698004 23994 net.cpp:100] Creating Layer conv3_1
I0409 18:58:24.698015 23994 net.cpp:434] conv3_1 <- pool2
I0409 18:58:24.698031 23994 net.cpp:408] conv3_1 -> conv3_1
I0409 18:58:24.704988 23994 net.cpp:150] Setting up conv3_1
I0409 18:58:24.705015 23994 net.cpp:157] Top shape: 16 256 96 96 (37748736)
I0409 18:58:24.705025 23994 net.cpp:165] Memory required for data: 4227859840
I0409 18:58:24.705049 23994 layer_factory.hpp:77] Creating layer relu3_1
I0409 18:58:24.705062 23994 net.cpp:100] Creating Layer relu3_1
I0409 18:58:24.705070 23994 net.cpp:434] relu3_1 <- conv3_1
I0409 18:58:24.705081 23994 net.cpp:395] relu3_1 -> conv3_1 (in-place)
I0409 18:58:24.705409 23994 net.cpp:150] Setting up relu3_1
I0409 18:58:24.705432 23994 net.cpp:157] Top shape: 16 256 96 96 (37748736)
I0409 18:58:24.705441 23994 net.cpp:165] Memory required for data: 4378854784
I0409 18:58:24.705448 23994 layer_factory.hpp:77] Creating layer conv3_2
I0409 18:58:24.705466 23994 net.cpp:100] Creating Layer conv3_2
I0409 18:58:24.705474 23994 net.cpp:434] conv3_2 <- conv3_1
I0409 18:58:24.705488 23994 net.cpp:408] conv3_2 -> conv3_2
I0409 18:58:24.715649 23994 net.cpp:150] Setting up conv3_2
I0409 18:58:24.715680 23994 net.cpp:157] Top shape: 16 256 96 96 (37748736)
I0409 18:58:24.715690 23994 net.cpp:165] Memory required for data: 4529849728
I0409 18:58:24.715704 23994 layer_factory.hpp:77] Creating layer relu3_2
I0409 18:58:24.715718 23994 net.cpp:100] Creating Layer relu3_2
I0409 18:58:24.715726 23994 net.cpp:434] relu3_2 <- conv3_2
I0409 18:58:24.715739 23994 net.cpp:395] relu3_2 -> conv3_2 (in-place)
I0409 18:58:24.716044 23994 net.cpp:150] Setting up relu3_2
I0409 18:58:24.716068 23994 net.cpp:157] Top shape: 16 256 96 96 (37748736)
I0409 18:58:24.716076 23994 net.cpp:165] Memory required for data: 4680844672
I0409 18:58:24.716084 23994 layer_factory.hpp:77] Creating layer conv3_3
I0409 18:58:24.716106 23994 net.cpp:100] Creating Layer conv3_3
I0409 18:58:24.716115 23994 net.cpp:434] conv3_3 <- conv3_2
I0409 18:58:24.716130 23994 net.cpp:408] conv3_3 -> conv3_3
I0409 18:58:24.724782 23994 net.cpp:150] Setting up conv3_3
I0409 18:58:24.724804 23994 net.cpp:157] Top shape: 16 256 96 96 (37748736)
I0409 18:58:24.724809 23994 net.cpp:165] Memory required for data: 4831839616
I0409 18:58:24.724817 23994 layer_factory.hpp:77] Creating layer relu3_3
I0409 18:58:24.724828 23994 net.cpp:100] Creating Layer relu3_3
I0409 18:58:24.724833 23994 net.cpp:434] relu3_3 <- conv3_3
I0409 18:58:24.724840 23994 net.cpp:395] relu3_3 -> conv3_3 (in-place)
I0409 18:58:24.725234 23994 net.cpp:150] Setting up relu3_3
I0409 18:58:24.725251 23994 net.cpp:157] Top shape: 16 256 96 96 (37748736)
I0409 18:58:24.725255 23994 net.cpp:165] Memory required for data: 4982834560
I0409 18:58:24.725260 23994 layer_factory.hpp:77] Creating layer pool3
I0409 18:58:24.725270 23994 net.cpp:100] Creating Layer pool3
I0409 18:58:24.725275 23994 net.cpp:434] pool3 <- conv3_3
I0409 18:58:24.725281 23994 net.cpp:408] pool3 -> pool3
I0409 18:58:24.725337 23994 net.cpp:150] Setting up pool3
I0409 18:58:24.725344 23994 net.cpp:157] Top shape: 16 256 48 48 (9437184)
I0409 18:58:24.725347 23994 net.cpp:165] Memory required for data: 5020583296
I0409 18:58:24.725352 23994 layer_factory.hpp:77] Creating layer conv4_1
I0409 18:58:24.725363 23994 net.cpp:100] Creating Layer conv4_1
I0409 18:58:24.725368 23994 net.cpp:434] conv4_1 <- pool3
I0409 18:58:24.725376 23994 net.cpp:408] conv4_1 -> conv4_1
I0409 18:58:24.734670 24001 blocking_queue.cpp:50] Waiting for data
I0409 18:58:24.740550 23994 net.cpp:150] Setting up conv4_1
I0409 18:58:24.740569 23994 net.cpp:157] Top shape: 16 512 48 48 (18874368)
I0409 18:58:24.740574 23994 net.cpp:165] Memory required for data: 5096080768
I0409 18:58:24.740582 23994 layer_factory.hpp:77] Creating layer relu4_1
I0409 18:58:24.740592 23994 net.cpp:100] Creating Layer relu4_1
I0409 18:58:24.740597 23994 net.cpp:434] relu4_1 <- conv4_1
I0409 18:58:24.740604 23994 net.cpp:395] relu4_1 -> conv4_1 (in-place)
I0409 18:58:24.740806 23994 net.cpp:150] Setting up relu4_1
I0409 18:58:24.740821 23994 net.cpp:157] Top shape: 16 512 48 48 (18874368)
I0409 18:58:24.740825 23994 net.cpp:165] Memory required for data: 5171578240
I0409 18:58:24.740829 23994 layer_factory.hpp:77] Creating layer conv4_2
I0409 18:58:24.740844 23994 net.cpp:100] Creating Layer conv4_2
I0409 18:58:24.740849 23994 net.cpp:434] conv4_2 <- conv4_1
I0409 18:58:24.740857 23994 net.cpp:408] conv4_2 -> conv4_2
I0409 18:58:24.769453 23994 net.cpp:150] Setting up conv4_2
I0409 18:58:24.769486 23994 net.cpp:157] Top shape: 16 512 48 48 (18874368)
I0409 18:58:24.769491 23994 net.cpp:165] Memory required for data: 5247075712
I0409 18:58:24.769526 23994 layer_factory.hpp:77] Creating layer relu4_2
I0409 18:58:24.769537 23994 net.cpp:100] Creating Layer relu4_2
I0409 18:58:24.769543 23994 net.cpp:434] relu4_2 <- conv4_2
I0409 18:58:24.769552 23994 net.cpp:395] relu4_2 -> conv4_2 (in-place)
I0409 18:58:24.769760 23994 net.cpp:150] Setting up relu4_2
I0409 18:58:24.769774 23994 net.cpp:157] Top shape: 16 512 48 48 (18874368)
I0409 18:58:24.769778 23994 net.cpp:165] Memory required for data: 5322573184
I0409 18:58:24.769783 23994 layer_factory.hpp:77] Creating layer conv4_3
I0409 18:58:24.769798 23994 net.cpp:100] Creating Layer conv4_3
I0409 18:58:24.769804 23994 net.cpp:434] conv4_3 <- conv4_2
I0409 18:58:24.769812 23994 net.cpp:408] conv4_3 -> conv4_3
I0409 18:58:24.798744 23994 net.cpp:150] Setting up conv4_3
I0409 18:58:24.798774 23994 net.cpp:157] Top shape: 16 512 48 48 (18874368)
I0409 18:58:24.798780 23994 net.cpp:165] Memory required for data: 5398070656
I0409 18:58:24.798789 23994 layer_factory.hpp:77] Creating layer relu4_3
I0409 18:58:24.798801 23994 net.cpp:100] Creating Layer relu4_3
I0409 18:58:24.798808 23994 net.cpp:434] relu4_3 <- conv4_3
I0409 18:58:24.798816 23994 net.cpp:395] relu4_3 -> conv4_3 (in-place)
I0409 18:58:24.799211 23994 net.cpp:150] Setting up relu4_3
I0409 18:58:24.799227 23994 net.cpp:157] Top shape: 16 512 48 48 (18874368)
I0409 18:58:24.799232 23994 net.cpp:165] Memory required for data: 5473568128
I0409 18:58:24.799237 23994 layer_factory.hpp:77] Creating layer conv4_3_relu4_3_0_split
I0409 18:58:24.799243 23994 net.cpp:100] Creating Layer conv4_3_relu4_3_0_split
I0409 18:58:24.799247 23994 net.cpp:434] conv4_3_relu4_3_0_split <- conv4_3
I0409 18:58:24.799257 23994 net.cpp:408] conv4_3_relu4_3_0_split -> conv4_3_relu4_3_0_split_0
I0409 18:58:24.799265 23994 net.cpp:408] conv4_3_relu4_3_0_split -> conv4_3_relu4_3_0_split_1
I0409 18:58:24.799315 23994 net.cpp:150] Setting up conv4_3_relu4_3_0_split
I0409 18:58:24.799326 23994 net.cpp:157] Top shape: 16 512 48 48 (18874368)
I0409 18:58:24.799332 23994 net.cpp:157] Top shape: 16 512 48 48 (18874368)
I0409 18:58:24.799336 23994 net.cpp:165] Memory required for data: 5624563072
I0409 18:58:24.799340 23994 layer_factory.hpp:77] Creating layer pool4
I0409 18:58:24.799347 23994 net.cpp:100] Creating Layer pool4
I0409 18:58:24.799355 23994 net.cpp:434] pool4 <- conv4_3_relu4_3_0_split_0
I0409 18:58:24.799362 23994 net.cpp:408] pool4 -> pool4
I0409 18:58:24.799409 23994 net.cpp:150] Setting up pool4
I0409 18:58:24.799418 23994 net.cpp:157] Top shape: 16 512 24 24 (4718592)
I0409 18:58:24.799422 23994 net.cpp:165] Memory required for data: 5643437440
I0409 18:58:24.799425 23994 layer_factory.hpp:77] Creating layer conv5_1
I0409 18:58:24.799441 23994 net.cpp:100] Creating Layer conv5_1
I0409 18:58:24.799448 23994 net.cpp:434] conv5_1 <- pool4
I0409 18:58:24.799455 23994 net.cpp:408] conv5_1 -> conv5_1
I0409 18:58:24.827623 23994 net.cpp:150] Setting up conv5_1
I0409 18:58:24.827646 23994 net.cpp:157] Top shape: 16 512 24 24 (4718592)
I0409 18:58:24.827651 23994 net.cpp:165] Memory required for data: 5662311808
I0409 18:58:24.827659 23994 layer_factory.hpp:77] Creating layer relu5_1
I0409 18:58:24.827669 23994 net.cpp:100] Creating Layer relu5_1
I0409 18:58:24.827675 23994 net.cpp:434] relu5_1 <- conv5_1
I0409 18:58:24.827682 23994 net.cpp:395] relu5_1 -> conv5_1 (in-place)
I0409 18:58:24.827888 23994 net.cpp:150] Setting up relu5_1
I0409 18:58:24.827901 23994 net.cpp:157] Top shape: 16 512 24 24 (4718592)
I0409 18:58:24.827905 23994 net.cpp:165] Memory required for data: 5681186176
I0409 18:58:24.827910 23994 layer_factory.hpp:77] Creating layer conv5_2
I0409 18:58:24.827924 23994 net.cpp:100] Creating Layer conv5_2
I0409 18:58:24.827930 23994 net.cpp:434] conv5_2 <- conv5_1
I0409 18:58:24.827940 23994 net.cpp:408] conv5_2 -> conv5_2
I0409 18:58:24.856339 23994 net.cpp:150] Setting up conv5_2
I0409 18:58:24.856362 23994 net.cpp:157] Top shape: 16 512 24 24 (4718592)
I0409 18:58:24.856367 23994 net.cpp:165] Memory required for data: 5700060544
I0409 18:58:24.856375 23994 layer_factory.hpp:77] Creating layer relu5_2
I0409 18:58:24.856405 23994 net.cpp:100] Creating Layer relu5_2
I0409 18:58:24.856413 23994 net.cpp:434] relu5_2 <- conv5_2
I0409 18:58:24.856427 23994 net.cpp:395] relu5_2 -> conv5_2 (in-place)
I0409 18:58:24.856631 23994 net.cpp:150] Setting up relu5_2
I0409 18:58:24.856644 23994 net.cpp:157] Top shape: 16 512 24 24 (4718592)
I0409 18:58:24.856648 23994 net.cpp:165] Memory required for data: 5718934912
I0409 18:58:24.856652 23994 layer_factory.hpp:77] Creating layer conv5_3
I0409 18:58:24.856665 23994 net.cpp:100] Creating Layer conv5_3
I0409 18:58:24.856673 23994 net.cpp:434] conv5_3 <- conv5_2
I0409 18:58:24.856683 23994 net.cpp:408] conv5_3 -> conv5_3
I0409 18:58:24.887445 23994 net.cpp:150] Setting up conv5_3
I0409 18:58:24.887480 23994 net.cpp:157] Top shape: 16 512 24 24 (4718592)
I0409 18:58:24.887486 23994 net.cpp:165] Memory required for data: 5737809280
I0409 18:58:24.887501 23994 layer_factory.hpp:77] Creating layer relu5_3
I0409 18:58:24.887540 23994 net.cpp:100] Creating Layer relu5_3
I0409 18:58:24.887549 23994 net.cpp:434] relu5_3 <- conv5_3
I0409 18:58:24.887562 23994 net.cpp:395] relu5_3 -> conv5_3 (in-place)
I0409 18:58:24.887965 23994 net.cpp:150] Setting up relu5_3
I0409 18:58:24.887982 23994 net.cpp:157] Top shape: 16 512 24 24 (4718592)
I0409 18:58:24.887989 23994 net.cpp:165] Memory required for data: 5756683648
I0409 18:58:24.887993 23994 layer_factory.hpp:77] Creating layer pool5
I0409 18:58:24.888003 23994 net.cpp:100] Creating Layer pool5
I0409 18:58:24.888011 23994 net.cpp:434] pool5 <- conv5_3
I0409 18:58:24.888018 23994 net.cpp:408] pool5 -> pool5
I0409 18:58:24.888079 23994 net.cpp:150] Setting up pool5
I0409 18:58:24.888089 23994 net.cpp:157] Top shape: 16 512 24 24 (4718592)
I0409 18:58:24.888093 23994 net.cpp:165] Memory required for data: 5775558016
I0409 18:58:24.888098 23994 layer_factory.hpp:77] Creating layer fc6
I0409 18:58:24.888114 23994 net.cpp:100] Creating Layer fc6
I0409 18:58:24.888121 23994 net.cpp:434] fc6 <- pool5
I0409 18:58:24.888131 23994 net.cpp:408] fc6 -> fc6
I0409 18:58:24.943578 23994 net.cpp:150] Setting up fc6
I0409 18:58:24.943611 23994 net.cpp:157] Top shape: 16 1024 24 24 (9437184)
I0409 18:58:24.943616 23994 net.cpp:165] Memory required for data: 5813306752
I0409 18:58:24.943626 23994 layer_factory.hpp:77] Creating layer relu6
I0409 18:58:24.943639 23994 net.cpp:100] Creating Layer relu6
I0409 18:58:24.943645 23994 net.cpp:434] relu6 <- fc6
I0409 18:58:24.943655 23994 net.cpp:395] relu6 -> fc6 (in-place)
I0409 18:58:24.943922 23994 net.cpp:150] Setting up relu6
I0409 18:58:24.943935 23994 net.cpp:157] Top shape: 16 1024 24 24 (9437184)
I0409 18:58:24.943939 23994 net.cpp:165] Memory required for data: 5851055488
I0409 18:58:24.943943 23994 layer_factory.hpp:77] Creating layer fc7
I0409 18:58:24.943959 23994 net.cpp:100] Creating Layer fc7
I0409 18:58:24.943964 23994 net.cpp:434] fc7 <- fc6
I0409 18:58:24.943974 23994 net.cpp:408] fc7 -> fc7
I0409 18:58:24.957772 23994 net.cpp:150] Setting up fc7
I0409 18:58:24.957792 23994 net.cpp:157] Top shape: 16 1024 24 24 (9437184)
I0409 18:58:24.957796 23994 net.cpp:165] Memory required for data: 5888804224
I0409 18:58:24.957805 23994 layer_factory.hpp:77] Creating layer relu7
I0409 18:58:24.957813 23994 net.cpp:100] Creating Layer relu7
I0409 18:58:24.957818 23994 net.cpp:434] relu7 <- fc7
I0409 18:58:24.957826 23994 net.cpp:395] relu7 -> fc7 (in-place)
I0409 18:58:24.958247 23994 net.cpp:150] Setting up relu7
I0409 18:58:24.958264 23994 net.cpp:157] Top shape: 16 1024 24 24 (9437184)
I0409 18:58:24.958269 23994 net.cpp:165] Memory required for data: 5926552960
I0409 18:58:24.958274 23994 layer_factory.hpp:77] Creating layer fc7_relu7_0_split
I0409 18:58:24.958284 23994 net.cpp:100] Creating Layer fc7_relu7_0_split
I0409 18:58:24.958289 23994 net.cpp:434] fc7_relu7_0_split <- fc7
I0409 18:58:24.958297 23994 net.cpp:408] fc7_relu7_0_split -> fc7_relu7_0_split_0
I0409 18:58:24.958305 23994 net.cpp:408] fc7_relu7_0_split -> fc7_relu7_0_split_1
I0409 18:58:24.958325 23994 net.cpp:408] fc7_relu7_0_split -> fc7_relu7_0_split_2
I0409 18:58:24.958353 23994 net.cpp:408] fc7_relu7_0_split -> fc7_relu7_0_split_3
I0409 18:58:24.958443 23994 net.cpp:150] Setting up fc7_relu7_0_split
I0409 18:58:24.958453 23994 net.cpp:157] Top shape: 16 1024 24 24 (9437184)
I0409 18:58:24.958459 23994 net.cpp:157] Top shape: 16 1024 24 24 (9437184)
I0409 18:58:24.958464 23994 net.cpp:157] Top shape: 16 1024 24 24 (9437184)
I0409 18:58:24.958469 23994 net.cpp:157] Top shape: 16 1024 24 24 (9437184)
I0409 18:58:24.958472 23994 net.cpp:165] Memory required for data: 6077547904
I0409 18:58:24.958477 23994 layer_factory.hpp:77] Creating layer conv6_1
I0409 18:58:24.958492 23994 net.cpp:100] Creating Layer conv6_1
I0409 18:58:24.958498 23994 net.cpp:434] conv6_1 <- fc7_relu7_0_split_0
I0409 18:58:24.958508 23994 net.cpp:408] conv6_1 -> conv6_1
I0409 18:58:24.962817 23994 net.cpp:150] Setting up conv6_1
I0409 18:58:24.962834 23994 net.cpp:157] Top shape: 16 256 24 24 (2359296)
I0409 18:58:24.962839 23994 net.cpp:165] Memory required for data: 6086985088
I0409 18:58:24.962846 23994 layer_factory.hpp:77] Creating layer conv6_1_relu
I0409 18:58:24.962857 23994 net.cpp:100] Creating Layer conv6_1_relu
I0409 18:58:24.962863 23994 net.cpp:434] conv6_1_relu <- conv6_1
I0409 18:58:24.962873 23994 net.cpp:395] conv6_1_relu -> conv6_1 (in-place)
I0409 18:58:24.963279 23994 net.cpp:150] Setting up conv6_1_relu
I0409 18:58:24.963295 23994 net.cpp:157] Top shape: 16 256 24 24 (2359296)
I0409 18:58:24.963299 23994 net.cpp:165] Memory required for data: 6096422272
I0409 18:58:24.963304 23994 layer_factory.hpp:77] Creating layer conv6_2
I0409 18:58:24.963320 23994 net.cpp:100] Creating Layer conv6_2
I0409 18:58:24.963325 23994 net.cpp:434] conv6_2 <- conv6_1
I0409 18:58:24.963332 23994 net.cpp:408] conv6_2 -> conv6_2
I0409 18:58:24.978307 23994 net.cpp:150] Setting up conv6_2
I0409 18:58:24.978325 23994 net.cpp:157] Top shape: 16 512 12 12 (1179648)
I0409 18:58:24.978329 23994 net.cpp:165] Memory required for data: 6101140864
I0409 18:58:24.978351 23994 layer_factory.hpp:77] Creating layer conv6_2_relu
I0409 18:58:24.978359 23994 net.cpp:100] Creating Layer conv6_2_relu
I0409 18:58:24.978364 23994 net.cpp:434] conv6_2_relu <- conv6_2
I0409 18:58:24.978372 23994 net.cpp:395] conv6_2_relu -> conv6_2 (in-place)
I0409 18:58:24.978587 23994 net.cpp:150] Setting up conv6_2_relu
I0409 18:58:24.978602 23994 net.cpp:157] Top shape: 16 512 12 12 (1179648)
I0409 18:58:24.978606 23994 net.cpp:165] Memory required for data: 6105859456
I0409 18:58:24.978611 23994 layer_factory.hpp:77] Creating layer conv6_2_conv6_2_relu_0_split
I0409 18:58:24.978621 23994 net.cpp:100] Creating Layer conv6_2_conv6_2_relu_0_split
I0409 18:58:24.978627 23994 net.cpp:434] conv6_2_conv6_2_relu_0_split <- conv6_2
I0409 18:58:24.978636 23994 net.cpp:408] conv6_2_conv6_2_relu_0_split -> conv6_2_conv6_2_relu_0_split_0
I0409 18:58:24.978643 23994 net.cpp:408] conv6_2_conv6_2_relu_0_split -> conv6_2_conv6_2_relu_0_split_1
I0409 18:58:24.978651 23994 net.cpp:408] conv6_2_conv6_2_relu_0_split -> conv6_2_conv6_2_relu_0_split_2
I0409 18:58:24.978657 23994 net.cpp:408] conv6_2_conv6_2_relu_0_split -> conv6_2_conv6_2_relu_0_split_3
I0409 18:58:24.978739 23994 net.cpp:150] Setting up conv6_2_conv6_2_relu_0_split
I0409 18:58:24.978749 23994 net.cpp:157] Top shape: 16 512 12 12 (1179648)
I0409 18:58:24.978754 23994 net.cpp:157] Top shape: 16 512 12 12 (1179648)
I0409 18:58:24.978758 23994 net.cpp:157] Top shape: 16 512 12 12 (1179648)
I0409 18:58:24.978762 23994 net.cpp:157] Top shape: 16 512 12 12 (1179648)
I0409 18:58:24.978766 23994 net.cpp:165] Memory required for data: 6124733824
I0409 18:58:24.978770 23994 layer_factory.hpp:77] Creating layer conv7_1
I0409 18:58:24.978782 23994 net.cpp:100] Creating Layer conv7_1
I0409 18:58:24.978790 23994 net.cpp:434] conv7_1 <- conv6_2_conv6_2_relu_0_split_0
I0409 18:58:24.978798 23994 net.cpp:408] conv7_1 -> conv7_1
I0409 18:58:24.980950 23994 net.cpp:150] Setting up conv7_1
I0409 18:58:24.980967 23994 net.cpp:157] Top shape: 16 128 12 12 (294912)
I0409 18:58:24.980984 23994 net.cpp:165] Memory required for data: 6125913472
I0409 18:58:24.980995 23994 layer_factory.hpp:77] Creating layer conv7_1_relu
I0409 18:58:24.981004 23994 net.cpp:100] Creating Layer conv7_1_relu
I0409 18:58:24.981012 23994 net.cpp:434] conv7_1_relu <- conv7_1
I0409 18:58:24.981019 23994 net.cpp:395] conv7_1_relu -> conv7_1 (in-place)
I0409 18:58:24.981420 23994 net.cpp:150] Setting up conv7_1_relu
I0409 18:58:24.981436 23994 net.cpp:157] Top shape: 16 128 12 12 (294912)
I0409 18:58:24.981441 23994 net.cpp:165] Memory required for data: 6127093120
I0409 18:58:24.981446 23994 layer_factory.hpp:77] Creating layer conv7_2
I0409 18:58:24.981462 23994 net.cpp:100] Creating Layer conv7_2
I0409 18:58:24.981467 23994 net.cpp:434] conv7_2 <- conv7_1
I0409 18:58:24.981475 23994 net.cpp:408] conv7_2 -> conv7_2
I0409 18:58:24.986209 23994 net.cpp:150] Setting up conv7_2
I0409 18:58:24.986227 23994 net.cpp:157] Top shape: 16 256 6 6 (147456)
I0409 18:58:24.986232 23994 net.cpp:165] Memory required for data: 6127682944
I0409 18:58:24.986239 23994 layer_factory.hpp:77] Creating layer conv7_2_relu
I0409 18:58:24.986249 23994 net.cpp:100] Creating Layer conv7_2_relu
I0409 18:58:24.986255 23994 net.cpp:434] conv7_2_relu <- conv7_2
I0409 18:58:24.986261 23994 net.cpp:395] conv7_2_relu -> conv7_2 (in-place)
I0409 18:58:24.986665 23994 net.cpp:150] Setting up conv7_2_relu
I0409 18:58:24.986682 23994 net.cpp:157] Top shape: 16 256 6 6 (147456)
I0409 18:58:24.986686 23994 net.cpp:165] Memory required for data: 6128272768
I0409 18:58:24.986690 23994 layer_factory.hpp:77] Creating layer conv7_2_conv7_2_relu_0_split
I0409 18:58:24.986698 23994 net.cpp:100] Creating Layer conv7_2_conv7_2_relu_0_split
I0409 18:58:24.986703 23994 net.cpp:434] conv7_2_conv7_2_relu_0_split <- conv7_2
I0409 18:58:24.986712 23994 net.cpp:408] conv7_2_conv7_2_relu_0_split -> conv7_2_conv7_2_relu_0_split_0
I0409 18:58:24.986721 23994 net.cpp:408] conv7_2_conv7_2_relu_0_split -> conv7_2_conv7_2_relu_0_split_1
I0409 18:58:24.986729 23994 net.cpp:408] conv7_2_conv7_2_relu_0_split -> conv7_2_conv7_2_relu_0_split_2
I0409 18:58:24.986737 23994 net.cpp:408] conv7_2_conv7_2_relu_0_split -> conv7_2_conv7_2_relu_0_split_3
I0409 18:58:24.986825 23994 net.cpp:150] Setting up conv7_2_conv7_2_relu_0_split
I0409 18:58:24.986835 23994 net.cpp:157] Top shape: 16 256 6 6 (147456)
I0409 18:58:24.986840 23994 net.cpp:157] Top shape: 16 256 6 6 (147456)
I0409 18:58:24.986845 23994 net.cpp:157] Top shape: 16 256 6 6 (147456)
I0409 18:58:24.986850 23994 net.cpp:157] Top shape: 16 256 6 6 (147456)
I0409 18:58:24.986852 23994 net.cpp:165] Memory required for data: 6130632064
I0409 18:58:24.986856 23994 layer_factory.hpp:77] Creating layer conv8_1
I0409 18:58:24.986869 23994 net.cpp:100] Creating Layer conv8_1
I0409 18:58:24.986876 23994 net.cpp:434] conv8_1 <- conv7_2_conv7_2_relu_0_split_0
I0409 18:58:24.986886 23994 net.cpp:408] conv8_1 -> conv8_1
I0409 18:58:24.988507 23994 net.cpp:150] Setting up conv8_1
I0409 18:58:24.988524 23994 net.cpp:157] Top shape: 16 128 6 6 (73728)
I0409 18:58:24.988528 23994 net.cpp:165] Memory required for data: 6130926976
I0409 18:58:24.988538 23994 layer_factory.hpp:77] Creating layer conv8_1_relu
I0409 18:58:24.988544 23994 net.cpp:100] Creating Layer conv8_1_relu
I0409 18:58:24.988550 23994 net.cpp:434] conv8_1_relu <- conv8_1
I0409 18:58:24.988559 23994 net.cpp:395] conv8_1_relu -> conv8_1 (in-place)
I0409 18:58:24.988766 23994 net.cpp:150] Setting up conv8_1_relu
I0409 18:58:24.988780 23994 net.cpp:157] Top shape: 16 128 6 6 (73728)
I0409 18:58:24.988785 23994 net.cpp:165] Memory required for data: 6131221888
I0409 18:58:24.988788 23994 layer_factory.hpp:77] Creating layer conv8_2
I0409 18:58:24.988802 23994 net.cpp:100] Creating Layer conv8_2
I0409 18:58:24.988809 23994 net.cpp:434] conv8_2 <- conv8_1
I0409 18:58:24.988819 23994 net.cpp:408] conv8_2 -> conv8_2
I0409 18:58:24.993716 23994 net.cpp:150] Setting up conv8_2
I0409 18:58:24.993733 23994 net.cpp:157] Top shape: 16 256 4 4 (65536)
I0409 18:58:24.993738 23994 net.cpp:165] Memory required for data: 6131484032
I0409 18:58:24.993758 23994 layer_factory.hpp:77] Creating layer conv8_2_relu
I0409 18:58:24.993768 23994 net.cpp:100] Creating Layer conv8_2_relu
I0409 18:58:24.993775 23994 net.cpp:434] conv8_2_relu <- conv8_2
I0409 18:58:24.993783 23994 net.cpp:395] conv8_2_relu -> conv8_2 (in-place)
I0409 18:58:24.994189 23994 net.cpp:150] Setting up conv8_2_relu
I0409 18:58:24.994211 23994 net.cpp:157] Top shape: 16 256 4 4 (65536)
I0409 18:58:24.994216 23994 net.cpp:165] Memory required for data: 6131746176
I0409 18:58:24.994221 23994 layer_factory.hpp:77] Creating layer conv8_2_conv8_2_relu_0_split
I0409 18:58:24.994231 23994 net.cpp:100] Creating Layer conv8_2_conv8_2_relu_0_split
I0409 18:58:24.994236 23994 net.cpp:434] conv8_2_conv8_2_relu_0_split <- conv8_2
I0409 18:58:24.994243 23994 net.cpp:408] conv8_2_conv8_2_relu_0_split -> conv8_2_conv8_2_relu_0_split_0
I0409 18:58:24.994256 23994 net.cpp:408] conv8_2_conv8_2_relu_0_split -> conv8_2_conv8_2_relu_0_split_1
I0409 18:58:24.994263 23994 net.cpp:408] conv8_2_conv8_2_relu_0_split -> conv8_2_conv8_2_relu_0_split_2
I0409 18:58:24.994271 23994 net.cpp:408] conv8_2_conv8_2_relu_0_split -> conv8_2_conv8_2_relu_0_split_3
I0409 18:58:24.994359 23994 net.cpp:150] Setting up conv8_2_conv8_2_relu_0_split
I0409 18:58:24.994369 23994 net.cpp:157] Top shape: 16 256 4 4 (65536)
I0409 18:58:24.994374 23994 net.cpp:157] Top shape: 16 256 4 4 (65536)
I0409 18:58:24.994379 23994 net.cpp:157] Top shape: 16 256 4 4 (65536)
I0409 18:58:24.994382 23994 net.cpp:157] Top shape: 16 256 4 4 (65536)
I0409 18:58:24.994386 23994 net.cpp:165] Memory required for data: 6132794752
I0409 18:58:24.994390 23994 layer_factory.hpp:77] Creating layer conv9_1
I0409 18:58:24.994402 23994 net.cpp:100] Creating Layer conv9_1
I0409 18:58:24.994410 23994 net.cpp:434] conv9_1 <- conv8_2_conv8_2_relu_0_split_0
I0409 18:58:24.994421 23994 net.cpp:408] conv9_1 -> conv9_1
I0409 18:58:24.995873 23994 net.cpp:150] Setting up conv9_1
I0409 18:58:24.995890 23994 net.cpp:157] Top shape: 16 128 4 4 (32768)
I0409 18:58:24.995896 23994 net.cpp:165] Memory required for data: 6132925824
I0409 18:58:24.995904 23994 layer_factory.hpp:77] Creating layer conv9_1_relu
I0409 18:58:24.995913 23994 net.cpp:100] Creating Layer conv9_1_relu
I0409 18:58:24.995920 23994 net.cpp:434] conv9_1_relu <- conv9_1
I0409 18:58:24.995929 23994 net.cpp:395] conv9_1_relu -> conv9_1 (in-place)
I0409 18:58:24.996327 23994 net.cpp:150] Setting up conv9_1_relu
I0409 18:58:24.996343 23994 net.cpp:157] Top shape: 16 128 4 4 (32768)
I0409 18:58:24.996347 23994 net.cpp:165] Memory required for data: 6133056896
I0409 18:58:24.996352 23994 layer_factory.hpp:77] Creating layer conv9_2
I0409 18:58:24.996366 23994 net.cpp:100] Creating Layer conv9_2
I0409 18:58:24.996371 23994 net.cpp:434] conv9_2 <- conv9_1
I0409 18:58:24.996381 23994 net.cpp:408] conv9_2 -> conv9_2
I0409 18:58:25.001508 23994 net.cpp:150] Setting up conv9_2
I0409 18:58:25.001526 23994 net.cpp:157] Top shape: 16 256 2 2 (16384)
I0409 18:58:25.001531 23994 net.cpp:165] Memory required for data: 6133122432
I0409 18:58:25.001538 23994 layer_factory.hpp:77] Creating layer conv9_2_relu
I0409 18:58:25.001549 23994 net.cpp:100] Creating Layer conv9_2_relu
I0409 18:58:25.001554 23994 net.cpp:434] conv9_2_relu <- conv9_2
I0409 18:58:25.001560 23994 net.cpp:395] conv9_2_relu -> conv9_2 (in-place)
I0409 18:58:25.001768 23994 net.cpp:150] Setting up conv9_2_relu
I0409 18:58:25.001781 23994 net.cpp:157] Top shape: 16 256 2 2 (16384)
I0409 18:58:25.001786 23994 net.cpp:165] Memory required for data: 6133187968
I0409 18:58:25.001791 23994 layer_factory.hpp:77] Creating layer conv9_2_conv9_2_relu_0_split
I0409 18:58:25.001798 23994 net.cpp:100] Creating Layer conv9_2_conv9_2_relu_0_split
I0409 18:58:25.001806 23994 net.cpp:434] conv9_2_conv9_2_relu_0_split <- conv9_2
I0409 18:58:25.001812 23994 net.cpp:408] conv9_2_conv9_2_relu_0_split -> conv9_2_conv9_2_relu_0_split_0
I0409 18:58:25.001822 23994 net.cpp:408] conv9_2_conv9_2_relu_0_split -> conv9_2_conv9_2_relu_0_split_1
I0409 18:58:25.001830 23994 net.cpp:408] conv9_2_conv9_2_relu_0_split -> conv9_2_conv9_2_relu_0_split_2
I0409 18:58:25.001912 23994 net.cpp:150] Setting up conv9_2_conv9_2_relu_0_split
I0409 18:58:25.001924 23994 net.cpp:157] Top shape: 16 256 2 2 (16384)
I0409 18:58:25.001930 23994 net.cpp:157] Top shape: 16 256 2 2 (16384)
I0409 18:58:25.001935 23994 net.cpp:157] Top shape: 16 256 2 2 (16384)
I0409 18:58:25.001942 23994 net.cpp:165] Memory required for data: 6133384576
I0409 18:58:25.001946 23994 layer_factory.hpp:77] Creating layer conv4_3_norm
I0409 18:58:25.001966 23994 net.cpp:100] Creating Layer conv4_3_norm
I0409 18:58:25.001972 23994 net.cpp:434] conv4_3_norm <- conv4_3_relu4_3_0_split_1
I0409 18:58:25.001981 23994 net.cpp:408] conv4_3_norm -> conv4_3_norm
I0409 18:58:25.002178 23994 net.cpp:150] Setting up conv4_3_norm
I0409 18:58:25.002189 23994 net.cpp:157] Top shape: 16 512 48 48 (18874368)
I0409 18:58:25.002193 23994 net.cpp:165] Memory required for data: 6208882048
I0409 18:58:25.002205 23994 layer_factory.hpp:77] Creating layer conv4_3_norm_conv4_3_norm_0_split
I0409 18:58:25.002213 23994 net.cpp:100] Creating Layer conv4_3_norm_conv4_3_norm_0_split
I0409 18:58:25.002218 23994 net.cpp:434] conv4_3_norm_conv4_3_norm_0_split <- conv4_3_norm
I0409 18:58:25.002225 23994 net.cpp:408] conv4_3_norm_conv4_3_norm_0_split -> conv4_3_norm_conv4_3_norm_0_split_0
I0409 18:58:25.002233 23994 net.cpp:408] conv4_3_norm_conv4_3_norm_0_split -> conv4_3_norm_conv4_3_norm_0_split_1
I0409 18:58:25.002243 23994 net.cpp:408] conv4_3_norm_conv4_3_norm_0_split -> conv4_3_norm_conv4_3_norm_0_split_2
I0409 18:58:25.002302 23994 net.cpp:150] Setting up conv4_3_norm_conv4_3_norm_0_split
I0409 18:58:25.002311 23994 net.cpp:157] Top shape: 16 512 48 48 (18874368)
I0409 18:58:25.002317 23994 net.cpp:157] Top shape: 16 512 48 48 (18874368)
I0409 18:58:25.002322 23994 net.cpp:157] Top shape: 16 512 48 48 (18874368)
I0409 18:58:25.002326 23994 net.cpp:165] Memory required for data: 6435374464
I0409 18:58:25.002329 23994 layer_factory.hpp:77] Creating layer conv4_3_norm_mbox_loc
I0409 18:58:25.002341 23994 net.cpp:100] Creating Layer conv4_3_norm_mbox_loc
I0409 18:58:25.002346 23994 net.cpp:434] conv4_3_norm_mbox_loc <- conv4_3_norm_conv4_3_norm_0_split_0
I0409 18:58:25.002352 23994 net.cpp:408] conv4_3_norm_mbox_loc -> conv4_3_norm_mbox_loc
I0409 18:58:25.024922 23994 net.cpp:150] Setting up conv4_3_norm_mbox_loc
I0409 18:58:25.024941 23994 net.cpp:157] Top shape: 16 240 48 48 (8847360)
I0409 18:58:25.024946 23994 net.cpp:165] Memory required for data: 6470763904
I0409 18:58:25.024955 23994 layer_factory.hpp:77] Creating layer conv4_3_norm_mbox_loc_perm
I0409 18:58:25.024966 23994 net.cpp:100] Creating Layer conv4_3_norm_mbox_loc_perm
I0409 18:58:25.024971 23994 net.cpp:434] conv4_3_norm_mbox_loc_perm <- conv4_3_norm_mbox_loc
I0409 18:58:25.024982 23994 net.cpp:408] conv4_3_norm_mbox_loc_perm -> conv4_3_norm_mbox_loc_perm
I0409 18:58:25.025126 23994 net.cpp:150] Setting up conv4_3_norm_mbox_loc_perm
I0409 18:58:25.025137 23994 net.cpp:157] Top shape: 16 48 48 240 (8847360)
I0409 18:58:25.025141 23994 net.cpp:165] Memory required for data: 6506153344
I0409 18:58:25.025144 23994 layer_factory.hpp:77] Creating layer conv4_3_norm_mbox_loc_flat
I0409 18:58:25.025157 23994 net.cpp:100] Creating Layer conv4_3_norm_mbox_loc_flat
I0409 18:58:25.025164 23994 net.cpp:434] conv4_3_norm_mbox_loc_flat <- conv4_3_norm_mbox_loc_perm
I0409 18:58:25.025172 23994 net.cpp:408] conv4_3_norm_mbox_loc_flat -> conv4_3_norm_mbox_loc_flat
I0409 18:58:25.025218 23994 net.cpp:150] Setting up conv4_3_norm_mbox_loc_flat
I0409 18:58:25.025228 23994 net.cpp:157] Top shape: 16 552960 (8847360)
I0409 18:58:25.025234 23994 net.cpp:165] Memory required for data: 6541542784
I0409 18:58:25.025240 23994 layer_factory.hpp:77] Creating layer conv4_3_norm_mbox_conf
I0409 18:58:25.025260 23994 net.cpp:100] Creating Layer conv4_3_norm_mbox_conf
I0409 18:58:25.025269 23994 net.cpp:434] conv4_3_norm_mbox_conf <- conv4_3_norm_conv4_3_norm_0_split_1
I0409 18:58:25.025279 23994 net.cpp:408] conv4_3_norm_mbox_conf -> conv4_3_norm_mbox_conf
I0409 18:58:25.030400 23994 net.cpp:150] Setting up conv4_3_norm_mbox_conf
I0409 18:58:25.030417 23994 net.cpp:157] Top shape: 16 40 48 48 (1474560)
I0409 18:58:25.030422 23994 net.cpp:165] Memory required for data: 6547441024
I0409 18:58:25.030431 23994 layer_factory.hpp:77] Creating layer conv4_3_norm_mbox_conf_perm
I0409 18:58:25.030441 23994 net.cpp:100] Creating Layer conv4_3_norm_mbox_conf_perm
I0409 18:58:25.030447 23994 net.cpp:434] conv4_3_norm_mbox_conf_perm <- conv4_3_norm_mbox_conf
I0409 18:58:25.030454 23994 net.cpp:408] conv4_3_norm_mbox_conf_perm -> conv4_3_norm_mbox_conf_perm
I0409 18:58:25.030586 23994 net.cpp:150] Setting up conv4_3_norm_mbox_conf_perm
I0409 18:58:25.030596 23994 net.cpp:157] Top shape: 16 48 48 40 (1474560)
I0409 18:58:25.030601 23994 net.cpp:165] Memory required for data: 6553339264
I0409 18:58:25.030604 23994 layer_factory.hpp:77] Creating layer conv4_3_norm_mbox_conf_flat
I0409 18:58:25.030611 23994 net.cpp:100] Creating Layer conv4_3_norm_mbox_conf_flat
I0409 18:58:25.030614 23994 net.cpp:434] conv4_3_norm_mbox_conf_flat <- conv4_3_norm_mbox_conf_perm
I0409 18:58:25.030622 23994 net.cpp:408] conv4_3_norm_mbox_conf_flat -> conv4_3_norm_mbox_conf_flat
I0409 18:58:25.030658 23994 net.cpp:150] Setting up conv4_3_norm_mbox_conf_flat
I0409 18:58:25.030668 23994 net.cpp:157] Top shape: 16 92160 (1474560)
I0409 18:58:25.030671 23994 net.cpp:165] Memory required for data: 6559237504
I0409 18:58:25.030676 23994 layer_factory.hpp:77] Creating layer conv4_3_norm_mbox_priorbox
I0409 18:58:25.030685 23994 net.cpp:100] Creating Layer conv4_3_norm_mbox_priorbox
I0409 18:58:25.030690 23994 net.cpp:434] conv4_3_norm_mbox_priorbox <- conv4_3_norm_conv4_3_norm_0_split_2
I0409 18:58:25.030696 23994 net.cpp:434] conv4_3_norm_mbox_priorbox <- data_data_0_split_1
I0409 18:58:25.030704 23994 net.cpp:408] conv4_3_norm_mbox_priorbox -> conv4_3_norm_mbox_priorbox
I0409 18:58:25.030741 23994 net.cpp:150] Setting up conv4_3_norm_mbox_priorbox
I0409 18:58:25.030750 23994 net.cpp:157] Top shape: 1 2 184320 (368640)
I0409 18:58:25.030755 23994 net.cpp:165] Memory required for data: 6560712064
I0409 18:58:25.030761 23994 layer_factory.hpp:77] Creating layer fc7_mbox_loc
I0409 18:58:25.030772 23994 net.cpp:100] Creating Layer fc7_mbox_loc
I0409 18:58:25.030777 23994 net.cpp:434] fc7_mbox_loc <- fc7_relu7_0_split_1
I0409 18:58:25.030787 23994 net.cpp:408] fc7_mbox_loc -> fc7_mbox_loc
I0409 18:58:25.074951 23994 net.cpp:150] Setting up fc7_mbox_loc
I0409 18:58:25.074985 23994 net.cpp:157] Top shape: 16 240 24 24 (2211840)
I0409 18:58:25.074990 23994 net.cpp:165] Memory required for data: 6569559424
I0409 18:58:25.075000 23994 layer_factory.hpp:77] Creating layer fc7_mbox_loc_perm
I0409 18:58:25.075011 23994 net.cpp:100] Creating Layer fc7_mbox_loc_perm
I0409 18:58:25.075021 23994 net.cpp:434] fc7_mbox_loc_perm <- fc7_mbox_loc
I0409 18:58:25.075029 23994 net.cpp:408] fc7_mbox_loc_perm -> fc7_mbox_loc_perm
I0409 18:58:25.075168 23994 net.cpp:150] Setting up fc7_mbox_loc_perm
I0409 18:58:25.075178 23994 net.cpp:157] Top shape: 16 24 24 240 (2211840)
I0409 18:58:25.075182 23994 net.cpp:165] Memory required for data: 6578406784
I0409 18:58:25.075186 23994 layer_factory.hpp:77] Creating layer fc7_mbox_loc_flat
I0409 18:58:25.075193 23994 net.cpp:100] Creating Layer fc7_mbox_loc_flat
I0409 18:58:25.075197 23994 net.cpp:434] fc7_mbox_loc_flat <- fc7_mbox_loc_perm
I0409 18:58:25.075206 23994 net.cpp:408] fc7_mbox_loc_flat -> fc7_mbox_loc_flat
I0409 18:58:25.075240 23994 net.cpp:150] Setting up fc7_mbox_loc_flat
I0409 18:58:25.075249 23994 net.cpp:157] Top shape: 16 138240 (2211840)
I0409 18:58:25.075253 23994 net.cpp:165] Memory required for data: 6587254144
I0409 18:58:25.075258 23994 layer_factory.hpp:77] Creating layer fc7_mbox_conf
I0409 18:58:25.075273 23994 net.cpp:100] Creating Layer fc7_mbox_conf
I0409 18:58:25.075279 23994 net.cpp:434] fc7_mbox_conf <- fc7_relu7_0_split_2
I0409 18:58:25.075289 23994 net.cpp:408] fc7_mbox_conf -> fc7_mbox_conf
I0409 18:58:25.083679 23994 net.cpp:150] Setting up fc7_mbox_conf
I0409 18:58:25.083714 23994 net.cpp:157] Top shape: 16 40 24 24 (368640)
I0409 18:58:25.083719 23994 net.cpp:165] Memory required for data: 6588728704
I0409 18:58:25.083726 23994 layer_factory.hpp:77] Creating layer fc7_mbox_conf_perm
I0409 18:58:25.083736 23994 net.cpp:100] Creating Layer fc7_mbox_conf_perm
I0409 18:58:25.083742 23994 net.cpp:434] fc7_mbox_conf_perm <- fc7_mbox_conf
I0409 18:58:25.083750 23994 net.cpp:408] fc7_mbox_conf_perm -> fc7_mbox_conf_perm
I0409 18:58:25.083889 23994 net.cpp:150] Setting up fc7_mbox_conf_perm
I0409 18:58:25.083899 23994 net.cpp:157] Top shape: 16 24 24 40 (368640)
I0409 18:58:25.083904 23994 net.cpp:165] Memory required for data: 6590203264
I0409 18:58:25.083907 23994 layer_factory.hpp:77] Creating layer fc7_mbox_conf_flat
I0409 18:58:25.083915 23994 net.cpp:100] Creating Layer fc7_mbox_conf_flat
I0409 18:58:25.083920 23994 net.cpp:434] fc7_mbox_conf_flat <- fc7_mbox_conf_perm
I0409 18:58:25.083930 23994 net.cpp:408] fc7_mbox_conf_flat -> fc7_mbox_conf_flat
I0409 18:58:25.083964 23994 net.cpp:150] Setting up fc7_mbox_conf_flat
I0409 18:58:25.083973 23994 net.cpp:157] Top shape: 16 23040 (368640)
I0409 18:58:25.083977 23994 net.cpp:165] Memory required for data: 6591677824
I0409 18:58:25.083982 23994 layer_factory.hpp:77] Creating layer fc7_mbox_priorbox
I0409 18:58:25.083992 23994 net.cpp:100] Creating Layer fc7_mbox_priorbox
I0409 18:58:25.083997 23994 net.cpp:434] fc7_mbox_priorbox <- fc7_relu7_0_split_3
I0409 18:58:25.084004 23994 net.cpp:434] fc7_mbox_priorbox <- data_data_0_split_2
I0409 18:58:25.084012 23994 net.cpp:408] fc7_mbox_priorbox -> fc7_mbox_priorbox
I0409 18:58:25.084045 23994 net.cpp:150] Setting up fc7_mbox_priorbox
I0409 18:58:25.084056 23994 net.cpp:157] Top shape: 1 2 46080 (92160)
I0409 18:58:25.084062 23994 net.cpp:165] Memory required for data: 6592046464
I0409 18:58:25.084067 23994 layer_factory.hpp:77] Creating layer conv6_2_mbox_loc
I0409 18:58:25.084079 23994 net.cpp:100] Creating Layer conv6_2_mbox_loc
I0409 18:58:25.084085 23994 net.cpp:434] conv6_2_mbox_loc <- conv6_2_conv6_2_relu_0_split_1
I0409 18:58:25.084092 23994 net.cpp:408] conv6_2_mbox_loc -> conv6_2_mbox_loc
I0409 18:58:25.106680 23994 net.cpp:150] Setting up conv6_2_mbox_loc
I0409 18:58:25.106699 23994 net.cpp:157] Top shape: 16 240 12 12 (552960)
I0409 18:58:25.106704 23994 net.cpp:165] Memory required for data: 6594258304
I0409 18:58:25.106712 23994 layer_factory.hpp:77] Creating layer conv6_2_mbox_loc_perm
I0409 18:58:25.106724 23994 net.cpp:100] Creating Layer conv6_2_mbox_loc_perm
I0409 18:58:25.106730 23994 net.cpp:434] conv6_2_mbox_loc_perm <- conv6_2_mbox_loc
I0409 18:58:25.106739 23994 net.cpp:408] conv6_2_mbox_loc_perm -> conv6_2_mbox_loc_perm
I0409 18:58:25.106883 23994 net.cpp:150] Setting up conv6_2_mbox_loc_perm
I0409 18:58:25.106892 23994 net.cpp:157] Top shape: 16 12 12 240 (552960)
I0409 18:58:25.106896 23994 net.cpp:165] Memory required for data: 6596470144
I0409 18:58:25.106900 23994 layer_factory.hpp:77] Creating layer conv6_2_mbox_loc_flat
I0409 18:58:25.106907 23994 net.cpp:100] Creating Layer conv6_2_mbox_loc_flat
I0409 18:58:25.106914 23994 net.cpp:434] conv6_2_mbox_loc_flat <- conv6_2_mbox_loc_perm
I0409 18:58:25.106922 23994 net.cpp:408] conv6_2_mbox_loc_flat -> conv6_2_mbox_loc_flat
I0409 18:58:25.106953 23994 net.cpp:150] Setting up conv6_2_mbox_loc_flat
I0409 18:58:25.106961 23994 net.cpp:157] Top shape: 16 34560 (552960)
I0409 18:58:25.106967 23994 net.cpp:165] Memory required for data: 6598681984
I0409 18:58:25.106972 23994 layer_factory.hpp:77] Creating layer conv6_2_mbox_conf
I0409 18:58:25.106984 23994 net.cpp:100] Creating Layer conv6_2_mbox_conf
I0409 18:58:25.106992 23994 net.cpp:434] conv6_2_mbox_conf <- conv6_2_conv6_2_relu_0_split_2
I0409 18:58:25.106999 23994 net.cpp:408] conv6_2_mbox_conf -> conv6_2_mbox_conf
I0409 18:58:25.112056 23994 net.cpp:150] Setting up conv6_2_mbox_conf
I0409 18:58:25.112074 23994 net.cpp:157] Top shape: 16 40 12 12 (92160)
I0409 18:58:25.112079 23994 net.cpp:165] Memory required for data: 6599050624
I0409 18:58:25.112099 23994 layer_factory.hpp:77] Creating layer conv6_2_mbox_conf_perm
I0409 18:58:25.112112 23994 net.cpp:100] Creating Layer conv6_2_mbox_conf_perm
I0409 18:58:25.112118 23994 net.cpp:434] conv6_2_mbox_conf_perm <- conv6_2_mbox_conf
I0409 18:58:25.112125 23994 net.cpp:408] conv6_2_mbox_conf_perm -> conv6_2_mbox_conf_perm
I0409 18:58:25.112262 23994 net.cpp:150] Setting up conv6_2_mbox_conf_perm
I0409 18:58:25.112273 23994 net.cpp:157] Top shape: 16 12 12 40 (92160)
I0409 18:58:25.112277 23994 net.cpp:165] Memory required for data: 6599419264
I0409 18:58:25.112282 23994 layer_factory.hpp:77] Creating layer conv6_2_mbox_conf_flat
I0409 18:58:25.112287 23994 net.cpp:100] Creating Layer conv6_2_mbox_conf_flat
I0409 18:58:25.112294 23994 net.cpp:434] conv6_2_mbox_conf_flat <- conv6_2_mbox_conf_perm
I0409 18:58:25.112303 23994 net.cpp:408] conv6_2_mbox_conf_flat -> conv6_2_mbox_conf_flat
I0409 18:58:25.112334 23994 net.cpp:150] Setting up conv6_2_mbox_conf_flat
I0409 18:58:25.112344 23994 net.cpp:157] Top shape: 16 5760 (92160)
I0409 18:58:25.112347 23994 net.cpp:165] Memory required for data: 6599787904
I0409 18:58:25.112352 23994 layer_factory.hpp:77] Creating layer conv6_2_mbox_priorbox
I0409 18:58:25.112361 23994 net.cpp:100] Creating Layer conv6_2_mbox_priorbox
I0409 18:58:25.112368 23994 net.cpp:434] conv6_2_mbox_priorbox <- conv6_2_conv6_2_relu_0_split_3
I0409 18:58:25.112375 23994 net.cpp:434] conv6_2_mbox_priorbox <- data_data_0_split_3
I0409 18:58:25.112385 23994 net.cpp:408] conv6_2_mbox_priorbox -> conv6_2_mbox_priorbox
I0409 18:58:25.112421 23994 net.cpp:150] Setting up conv6_2_mbox_priorbox
I0409 18:58:25.112429 23994 net.cpp:157] Top shape: 1 2 11520 (23040)
I0409 18:58:25.112432 23994 net.cpp:165] Memory required for data: 6599880064
I0409 18:58:25.112437 23994 layer_factory.hpp:77] Creating layer conv7_2_mbox_loc
I0409 18:58:25.112450 23994 net.cpp:100] Creating Layer conv7_2_mbox_loc
I0409 18:58:25.112457 23994 net.cpp:434] conv7_2_mbox_loc <- conv7_2_conv7_2_relu_0_split_1
I0409 18:58:25.112464 23994 net.cpp:408] conv7_2_mbox_loc -> conv7_2_mbox_loc
I0409 18:58:25.124558 23994 net.cpp:150] Setting up conv7_2_mbox_loc
I0409 18:58:25.124577 23994 net.cpp:157] Top shape: 16 240 6 6 (138240)
I0409 18:58:25.124583 23994 net.cpp:165] Memory required for data: 6600433024
I0409 18:58:25.124590 23994 layer_factory.hpp:77] Creating layer conv7_2_mbox_loc_perm
I0409 18:58:25.124600 23994 net.cpp:100] Creating Layer conv7_2_mbox_loc_perm
I0409 18:58:25.124605 23994 net.cpp:434] conv7_2_mbox_loc_perm <- conv7_2_mbox_loc
I0409 18:58:25.124614 23994 net.cpp:408] conv7_2_mbox_loc_perm -> conv7_2_mbox_loc_perm
I0409 18:58:25.124748 23994 net.cpp:150] Setting up conv7_2_mbox_loc_perm
I0409 18:58:25.124759 23994 net.cpp:157] Top shape: 16 6 6 240 (138240)
I0409 18:58:25.124763 23994 net.cpp:165] Memory required for data: 6600985984
I0409 18:58:25.124768 23994 layer_factory.hpp:77] Creating layer conv7_2_mbox_loc_flat
I0409 18:58:25.124773 23994 net.cpp:100] Creating Layer conv7_2_mbox_loc_flat
I0409 18:58:25.124780 23994 net.cpp:434] conv7_2_mbox_loc_flat <- conv7_2_mbox_loc_perm
I0409 18:58:25.124788 23994 net.cpp:408] conv7_2_mbox_loc_flat -> conv7_2_mbox_loc_flat
I0409 18:58:25.124820 23994 net.cpp:150] Setting up conv7_2_mbox_loc_flat
I0409 18:58:25.124830 23994 net.cpp:157] Top shape: 16 8640 (138240)
I0409 18:58:25.124836 23994 net.cpp:165] Memory required for data: 6601538944
I0409 18:58:25.124841 23994 layer_factory.hpp:77] Creating layer conv7_2_mbox_conf
I0409 18:58:25.124861 23994 net.cpp:100] Creating Layer conv7_2_mbox_conf
I0409 18:58:25.124866 23994 net.cpp:434] conv7_2_mbox_conf <- conv7_2_conv7_2_relu_0_split_2
I0409 18:58:25.124874 23994 net.cpp:408] conv7_2_mbox_conf -> conv7_2_mbox_conf
I0409 18:58:25.128584 23994 net.cpp:150] Setting up conv7_2_mbox_conf
I0409 18:58:25.128602 23994 net.cpp:157] Top shape: 16 40 6 6 (23040)
I0409 18:58:25.128607 23994 net.cpp:165] Memory required for data: 6601631104
I0409 18:58:25.128614 23994 layer_factory.hpp:77] Creating layer conv7_2_mbox_conf_perm
I0409 18:58:25.128635 23994 net.cpp:100] Creating Layer conv7_2_mbox_conf_perm
I0409 18:58:25.128643 23994 net.cpp:434] conv7_2_mbox_conf_perm <- conv7_2_mbox_conf
I0409 18:58:25.128651 23994 net.cpp:408] conv7_2_mbox_conf_perm -> conv7_2_mbox_conf_perm
I0409 18:58:25.128793 23994 net.cpp:150] Setting up conv7_2_mbox_conf_perm
I0409 18:58:25.128805 23994 net.cpp:157] Top shape: 16 6 6 40 (23040)
I0409 18:58:25.128809 23994 net.cpp:165] Memory required for data: 6601723264
I0409 18:58:25.128813 23994 layer_factory.hpp:77] Creating layer conv7_2_mbox_conf_flat
I0409 18:58:25.128821 23994 net.cpp:100] Creating Layer conv7_2_mbox_conf_flat
I0409 18:58:25.128829 23994 net.cpp:434] conv7_2_mbox_conf_flat <- conv7_2_mbox_conf_perm
I0409 18:58:25.128834 23994 net.cpp:408] conv7_2_mbox_conf_flat -> conv7_2_mbox_conf_flat
I0409 18:58:25.128870 23994 net.cpp:150] Setting up conv7_2_mbox_conf_flat
I0409 18:58:25.128881 23994 net.cpp:157] Top shape: 16 1440 (23040)
I0409 18:58:25.128885 23994 net.cpp:165] Memory required for data: 6601815424
I0409 18:58:25.128890 23994 layer_factory.hpp:77] Creating layer conv7_2_mbox_priorbox
I0409 18:58:25.128899 23994 net.cpp:100] Creating Layer conv7_2_mbox_priorbox
I0409 18:58:25.128903 23994 net.cpp:434] conv7_2_mbox_priorbox <- conv7_2_conv7_2_relu_0_split_3
I0409 18:58:25.128909 23994 net.cpp:434] conv7_2_mbox_priorbox <- data_data_0_split_4
I0409 18:58:25.128916 23994 net.cpp:408] conv7_2_mbox_priorbox -> conv7_2_mbox_priorbox
I0409 18:58:25.128952 23994 net.cpp:150] Setting up conv7_2_mbox_priorbox
I0409 18:58:25.128962 23994 net.cpp:157] Top shape: 1 2 2880 (5760)
I0409 18:58:25.128964 23994 net.cpp:165] Memory required for data: 6601838464
I0409 18:58:25.128968 23994 layer_factory.hpp:77] Creating layer conv8_2_mbox_loc
I0409 18:58:25.128979 23994 net.cpp:100] Creating Layer conv8_2_mbox_loc
I0409 18:58:25.128986 23994 net.cpp:434] conv8_2_mbox_loc <- conv8_2_conv8_2_relu_0_split_1
I0409 18:58:25.128995 23994 net.cpp:408] conv8_2_mbox_loc -> conv8_2_mbox_loc
I0409 18:58:25.140933 23994 net.cpp:150] Setting up conv8_2_mbox_loc
I0409 18:58:25.140951 23994 net.cpp:157] Top shape: 16 240 4 4 (61440)
I0409 18:58:25.140956 23994 net.cpp:165] Memory required for data: 6602084224
I0409 18:58:25.140981 23994 layer_factory.hpp:77] Creating layer conv8_2_mbox_loc_perm
I0409 18:58:25.140993 23994 net.cpp:100] Creating Layer conv8_2_mbox_loc_perm
I0409 18:58:25.140998 23994 net.cpp:434] conv8_2_mbox_loc_perm <- conv8_2_mbox_loc
I0409 18:58:25.141005 23994 net.cpp:408] conv8_2_mbox_loc_perm -> conv8_2_mbox_loc_perm
I0409 18:58:25.141147 23994 net.cpp:150] Setting up conv8_2_mbox_loc_perm
I0409 18:58:25.141158 23994 net.cpp:157] Top shape: 16 4 4 240 (61440)
I0409 18:58:25.141162 23994 net.cpp:165] Memory required for data: 6602329984
I0409 18:58:25.141166 23994 layer_factory.hpp:77] Creating layer conv8_2_mbox_loc_flat
I0409 18:58:25.141173 23994 net.cpp:100] Creating Layer conv8_2_mbox_loc_flat
I0409 18:58:25.141180 23994 net.cpp:434] conv8_2_mbox_loc_flat <- conv8_2_mbox_loc_perm
I0409 18:58:25.141189 23994 net.cpp:408] conv8_2_mbox_loc_flat -> conv8_2_mbox_loc_flat
I0409 18:58:25.141222 23994 net.cpp:150] Setting up conv8_2_mbox_loc_flat
I0409 18:58:25.141228 23994 net.cpp:157] Top shape: 16 3840 (61440)
I0409 18:58:25.141232 23994 net.cpp:165] Memory required for data: 6602575744
I0409 18:58:25.141237 23994 layer_factory.hpp:77] Creating layer conv8_2_mbox_conf
I0409 18:58:25.141249 23994 net.cpp:100] Creating Layer conv8_2_mbox_conf
I0409 18:58:25.141257 23994 net.cpp:434] conv8_2_mbox_conf <- conv8_2_conv8_2_relu_0_split_2
I0409 18:58:25.141264 23994 net.cpp:408] conv8_2_mbox_conf -> conv8_2_mbox_conf
I0409 18:58:25.144726 23994 net.cpp:150] Setting up conv8_2_mbox_conf
I0409 18:58:25.144742 23994 net.cpp:157] Top shape: 16 40 4 4 (10240)
I0409 18:58:25.144747 23994 net.cpp:165] Memory required for data: 6602616704
I0409 18:58:25.144755 23994 layer_factory.hpp:77] Creating layer conv8_2_mbox_conf_perm
I0409 18:58:25.144765 23994 net.cpp:100] Creating Layer conv8_2_mbox_conf_perm
I0409 18:58:25.144786 23994 net.cpp:434] conv8_2_mbox_conf_perm <- conv8_2_mbox_conf
I0409 18:58:25.144803 23994 net.cpp:408] conv8_2_mbox_conf_perm -> conv8_2_mbox_conf_perm
I0409 18:58:25.144944 23994 net.cpp:150] Setting up conv8_2_mbox_conf_perm
I0409 18:58:25.144955 23994 net.cpp:157] Top shape: 16 4 4 40 (10240)
I0409 18:58:25.144959 23994 net.cpp:165] Memory required for data: 6602657664
I0409 18:58:25.144963 23994 layer_factory.hpp:77] Creating layer conv8_2_mbox_conf_flat
I0409 18:58:25.144970 23994 net.cpp:100] Creating Layer conv8_2_mbox_conf_flat
I0409 18:58:25.144976 23994 net.cpp:434] conv8_2_mbox_conf_flat <- conv8_2_mbox_conf_perm
I0409 18:58:25.144989 23994 net.cpp:408] conv8_2_mbox_conf_flat -> conv8_2_mbox_conf_flat
I0409 18:58:25.145023 23994 net.cpp:150] Setting up conv8_2_mbox_conf_flat
I0409 18:58:25.145036 23994 net.cpp:157] Top shape: 16 640 (10240)
I0409 18:58:25.145040 23994 net.cpp:165] Memory required for data: 6602698624
I0409 18:58:25.145045 23994 layer_factory.hpp:77] Creating layer conv8_2_mbox_priorbox
I0409 18:58:25.145056 23994 net.cpp:100] Creating Layer conv8_2_mbox_priorbox
I0409 18:58:25.145061 23994 net.cpp:434] conv8_2_mbox_priorbox <- conv8_2_conv8_2_relu_0_split_3
I0409 18:58:25.145066 23994 net.cpp:434] conv8_2_mbox_priorbox <- data_data_0_split_5
I0409 18:58:25.145076 23994 net.cpp:408] conv8_2_mbox_priorbox -> conv8_2_mbox_priorbox
I0409 18:58:25.145114 23994 net.cpp:150] Setting up conv8_2_mbox_priorbox
I0409 18:58:25.145124 23994 net.cpp:157] Top shape: 1 2 1280 (2560)
I0409 18:58:25.145128 23994 net.cpp:165] Memory required for data: 6602708864
I0409 18:58:25.145131 23994 layer_factory.hpp:77] Creating layer conv9_2_mbox_loc
I0409 18:58:25.145143 23994 net.cpp:100] Creating Layer conv9_2_mbox_loc
I0409 18:58:25.145150 23994 net.cpp:434] conv9_2_mbox_loc <- conv9_2_conv9_2_relu_0_split_0
I0409 18:58:25.145160 23994 net.cpp:408] conv9_2_mbox_loc -> conv9_2_mbox_loc
I0409 18:58:25.157243 23994 net.cpp:150] Setting up conv9_2_mbox_loc
I0409 18:58:25.157260 23994 net.cpp:157] Top shape: 16 240 2 2 (15360)
I0409 18:58:25.157265 23994 net.cpp:165] Memory required for data: 6602770304
I0409 18:58:25.157274 23994 layer_factory.hpp:77] Creating layer conv9_2_mbox_loc_perm
I0409 18:58:25.157281 23994 net.cpp:100] Creating Layer conv9_2_mbox_loc_perm
I0409 18:58:25.157290 23994 net.cpp:434] conv9_2_mbox_loc_perm <- conv9_2_mbox_loc
I0409 18:58:25.157301 23994 net.cpp:408] conv9_2_mbox_loc_perm -> conv9_2_mbox_loc_perm
I0409 18:58:25.157438 23994 net.cpp:150] Setting up conv9_2_mbox_loc_perm
I0409 18:58:25.157449 23994 net.cpp:157] Top shape: 16 2 2 240 (15360)
I0409 18:58:25.157454 23994 net.cpp:165] Memory required for data: 6602831744
I0409 18:58:25.157457 23994 layer_factory.hpp:77] Creating layer conv9_2_mbox_loc_flat
I0409 18:58:25.157464 23994 net.cpp:100] Creating Layer conv9_2_mbox_loc_flat
I0409 18:58:25.157471 23994 net.cpp:434] conv9_2_mbox_loc_flat <- conv9_2_mbox_loc_perm
I0409 18:58:25.157477 23994 net.cpp:408] conv9_2_mbox_loc_flat -> conv9_2_mbox_loc_flat
I0409 18:58:25.157515 23994 net.cpp:150] Setting up conv9_2_mbox_loc_flat
I0409 18:58:25.157522 23994 net.cpp:157] Top shape: 16 960 (15360)
I0409 18:58:25.157526 23994 net.cpp:165] Memory required for data: 6602893184
I0409 18:58:25.157531 23994 layer_factory.hpp:77] Creating layer conv9_2_mbox_conf
I0409 18:58:25.157543 23994 net.cpp:100] Creating Layer conv9_2_mbox_conf
I0409 18:58:25.157552 23994 net.cpp:434] conv9_2_mbox_conf <- conv9_2_conv9_2_relu_0_split_1
I0409 18:58:25.157560 23994 net.cpp:408] conv9_2_mbox_conf -> conv9_2_mbox_conf
I0409 18:58:25.161036 23994 net.cpp:150] Setting up conv9_2_mbox_conf
I0409 18:58:25.161053 23994 net.cpp:157] Top shape: 16 40 2 2 (2560)
I0409 18:58:25.161058 23994 net.cpp:165] Memory required for data: 6602903424
I0409 18:58:25.161065 23994 layer_factory.hpp:77] Creating layer conv9_2_mbox_conf_perm
I0409 18:58:25.161073 23994 net.cpp:100] Creating Layer conv9_2_mbox_conf_perm
I0409 18:58:25.161078 23994 net.cpp:434] conv9_2_mbox_conf_perm <- conv9_2_mbox_conf
I0409 18:58:25.161088 23994 net.cpp:408] conv9_2_mbox_conf_perm -> conv9_2_mbox_conf_perm
I0409 18:58:25.161247 23994 net.cpp:150] Setting up conv9_2_mbox_conf_perm
I0409 18:58:25.161257 23994 net.cpp:157] Top shape: 16 2 2 40 (2560)
I0409 18:58:25.161262 23994 net.cpp:165] Memory required for data: 6602913664
I0409 18:58:25.161267 23994 layer_factory.hpp:77] Creating layer conv9_2_mbox_conf_flat
I0409 18:58:25.161281 23994 net.cpp:100] Creating Layer conv9_2_mbox_conf_flat
I0409 18:58:25.161286 23994 net.cpp:434] conv9_2_mbox_conf_flat <- conv9_2_mbox_conf_perm
I0409 18:58:25.161293 23994 net.cpp:408] conv9_2_mbox_conf_flat -> conv9_2_mbox_conf_flat
I0409 18:58:25.161329 23994 net.cpp:150] Setting up conv9_2_mbox_conf_flat
I0409 18:58:25.161337 23994 net.cpp:157] Top shape: 16 160 (2560)
I0409 18:58:25.161341 23994 net.cpp:165] Memory required for data: 6602923904
I0409 18:58:25.161345 23994 layer_factory.hpp:77] Creating layer conv9_2_mbox_priorbox
I0409 18:58:25.161357 23994 net.cpp:100] Creating Layer conv9_2_mbox_priorbox
I0409 18:58:25.161363 23994 net.cpp:434] conv9_2_mbox_priorbox <- conv9_2_conv9_2_relu_0_split_2
I0409 18:58:25.161370 23994 net.cpp:434] conv9_2_mbox_priorbox <- data_data_0_split_6
I0409 18:58:25.161378 23994 net.cpp:408] conv9_2_mbox_priorbox -> conv9_2_mbox_priorbox
I0409 18:58:25.161420 23994 net.cpp:150] Setting up conv9_2_mbox_priorbox
I0409 18:58:25.161432 23994 net.cpp:157] Top shape: 1 2 320 (640)
I0409 18:58:25.161435 23994 net.cpp:165] Memory required for data: 6602926464
I0409 18:58:25.161438 23994 layer_factory.hpp:77] Creating layer mbox_loc
I0409 18:58:25.161448 23994 net.cpp:100] Creating Layer mbox_loc
I0409 18:58:25.161454 23994 net.cpp:434] mbox_loc <- conv4_3_norm_mbox_loc_flat
I0409 18:58:25.161460 23994 net.cpp:434] mbox_loc <- fc7_mbox_loc_flat
I0409 18:58:25.161466 23994 net.cpp:434] mbox_loc <- conv6_2_mbox_loc_flat
I0409 18:58:25.161471 23994 net.cpp:434] mbox_loc <- conv7_2_mbox_loc_flat
I0409 18:58:25.161476 23994 net.cpp:434] mbox_loc <- conv8_2_mbox_loc_flat
I0409 18:58:25.161480 23994 net.cpp:434] mbox_loc <- conv9_2_mbox_loc_flat
I0409 18:58:25.161489 23994 net.cpp:408] mbox_loc -> mbox_loc
I0409 18:58:25.161528 23994 net.cpp:150] Setting up mbox_loc
I0409 18:58:25.161537 23994 net.cpp:157] Top shape: 16 739200 (11827200)
I0409 18:58:25.161541 23994 net.cpp:165] Memory required for data: 6650235264
I0409 18:58:25.161545 23994 layer_factory.hpp:77] Creating layer mbox_conf
I0409 18:58:25.161552 23994 net.cpp:100] Creating Layer mbox_conf
I0409 18:58:25.161558 23994 net.cpp:434] mbox_conf <- conv4_3_norm_mbox_conf_flat
I0409 18:58:25.161564 23994 net.cpp:434] mbox_conf <- fc7_mbox_conf_flat
I0409 18:58:25.161569 23994 net.cpp:434] mbox_conf <- conv6_2_mbox_conf_flat
I0409 18:58:25.161574 23994 net.cpp:434] mbox_conf <- conv7_2_mbox_conf_flat
I0409 18:58:25.161578 23994 net.cpp:434] mbox_conf <- conv8_2_mbox_conf_flat
I0409 18:58:25.161583 23994 net.cpp:434] mbox_conf <- conv9_2_mbox_conf_flat
I0409 18:58:25.161590 23994 net.cpp:408] mbox_conf -> mbox_conf
I0409 18:58:25.161623 23994 net.cpp:150] Setting up mbox_conf
I0409 18:58:25.161633 23994 net.cpp:157] Top shape: 16 123200 (1971200)
I0409 18:58:25.161635 23994 net.cpp:165] Memory required for data: 6658120064
I0409 18:58:25.161639 23994 layer_factory.hpp:77] Creating layer mbox_priorbox
I0409 18:58:25.161645 23994 net.cpp:100] Creating Layer mbox_priorbox
I0409 18:58:25.161650 23994 net.cpp:434] mbox_priorbox <- conv4_3_norm_mbox_priorbox
I0409 18:58:25.161659 23994 net.cpp:434] mbox_priorbox <- fc7_mbox_priorbox
I0409 18:58:25.161664 23994 net.cpp:434] mbox_priorbox <- conv6_2_mbox_priorbox
I0409 18:58:25.161669 23994 net.cpp:434] mbox_priorbox <- conv7_2_mbox_priorbox
I0409 18:58:25.161674 23994 net.cpp:434] mbox_priorbox <- conv8_2_mbox_priorbox
I0409 18:58:25.161677 23994 net.cpp:434] mbox_priorbox <- conv9_2_mbox_priorbox
I0409 18:58:25.161684 23994 net.cpp:408] mbox_priorbox -> mbox_priorbox
I0409 18:58:25.161716 23994 net.cpp:150] Setting up mbox_priorbox
I0409 18:58:25.161725 23994 net.cpp:157] Top shape: 1 2 246400 (492800)
I0409 18:58:25.161741 23994 net.cpp:165] Memory required for data: 6660091264
I0409 18:58:25.161746 23994 layer_factory.hpp:77] Creating layer mbox_loss
I0409 18:58:25.161756 23994 net.cpp:100] Creating Layer mbox_loss
I0409 18:58:25.161761 23994 net.cpp:434] mbox_loss <- mbox_loc
I0409 18:58:25.161765 23994 net.cpp:434] mbox_loss <- mbox_conf
I0409 18:58:25.161770 23994 net.cpp:434] mbox_loss <- mbox_priorbox
…
  phase: TEST
}
layer {
  name: "data"
  type: "AnnotatedData"
  top: "data"
  top: "label"
  include {
    phase: TEST
  }
  transform_param {
    mean_value: 104
    mean_value: 117
    mean_value: 123
    force_color: true
    resize_param {
      prob: 1
      resize_mode: WARP
      height: 384
      width: 384
      interp_mode: LINEAR
    }
  }
  data_param {
    source: "./data/text_test_lmdb/"
    batch_size: 1
    backend: LMDB
  }
  annotated_data_param {
    batch_sampler {
    }
    label_map_file: "data/text/labelmap_voc.prototxt"
  }
}
layer {
  name: "conv1_1"
  type: "Convolution"
  bottom: "data"
  top: "conv1_1"
  param {
    lr_mult: 0
    decay_mult: 0
  }
  param {
    lr_mult: 0
    decay_mult: 0
  }
  convolution_param {
    num_output: 64
    pad: 1
    kernel_size: 3
    weight_filler {
      type: "xavier"
    }
    bias_filler {
      type: "constant"
      value: 0
    }
  }
}
layer {
  name: "relu1_1"
  type: "ReLU"
  bottom: "conv1_1"
  top: "conv1_1"
}
layer {
  name: "conv1_2"
  type: "Convolution"
  bottom: "conv1_1"
  top: "conv1_2"
  param {
    lr_mult: 0
    decay_mult: 0
  }
  param {
    lr_mult: 0
    decay_mult: 0
  }
  convolution_param {
    num_output: 64
    pad: 1
    kernel_size: 3
    weight_filler {
      type: "xavier"
    }
    bias_filler {
      type: "constant"
      value: 0
    }
  }
}
layer {
  name: "relu1_2"
  type: "ReLU"
  bottom: "conv1_2"
  top: "conv1_2"
}
layer {
  name: "pool1"
  type: "Pooling"
  bottom: "conv1_2"
  top: "pool1"
  pooling_param {
    pool: MAX
    kernel_size: 2
    stride: 2
  }
}
layer {
  name: "conv2_1"
  type: "Convolution"
  bottom: "pool1"
  top: "conv2_1"
  param {
    lr_mult: 0
    decay_mult: 0
  }
  param {
    lr_mult: 0
    decay_mult: 0
  }
  convolution_param {
    num_output: 128
    pad: 1
    kernel_size: 3
    weight_filler {
      type: "xavier"
    }
    bias_filler {
      type: "constant"
      value: 0
    }
  }
}
layer {
  name: "relu2_1"
  type: "ReLU"
  bottom: "conv2_1"
  top: "conv2_1"
}
layer {
  name: "conv2_2"
  type: "Convolution"
  bottom: "conv2_1"
  top: "conv2_2"
  param {
    lr_mult: 0
    decay_mult: 0
  }
  param {
    lr_mult: 0
    decay_mult: 0
  }
  convolution_param {
    num_output: 128
    pad: 1
    kernel_size: 3
    weight_filler {
      type: "xavier"
    }
    bias_filler {
      type: "constant"
      value: 0
    }
  }
}
layer {
  name: "relu2_2"
  type: "ReLU"
  bottom: "conv2_2"
  top: "conv2_2"
}
layer {
  name: "pool2"
  type: "Pooling"
  bottom: "conv2_2"
  top: "pool2"
  pooling_param {
    pool: MAX
    kernel_size: 2
    stride: 2
  }
}
layer {
  name: "conv3_1"
  type: "Convolution"
  bottom: "pool2"
  top: "conv3_1"
  param {
    lr_mult: 1
    decay_mult: 1
  }
  param {
    lr_mult: 2
    decay_mult: 0
  }
  convolution_param {
    num_output: 256
    pad: 1
    kernel_size: 3
    weight_filler {
      type: "xavier"
    }
    bias_filler {
      type: "constant"
      value: 0
    }
  }
}
layer {
  name: "relu3_1"
  type: "ReLU"
  bottom: "conv3_1"
  top: "conv3_1"
}
layer {
  name: "conv3_2"
  type: "Convolution"
  bottom: "conv3_1"
  top: "conv3_2"
  param {
    lr_mult: 1
    decay_mult: 1
  }
  param {
    lr_mult: 2
    decay_mult: 0
  }
  convolution_param {
    num_output: 256
    pad: 1
    kernel_size: 3
    weight_filler {
      type: "xavier"
    }
    bias_filler {
      type: "constant"
      value: 0
    }
  }
}
layer {
  name: "relu3_2"
  type: "ReLU"
  bottom: "conv3_2"
  top: "conv3_2"
}
layer {
  name: "conv3_3"
  type: "Convolution"
  bottom: "conv3_2"
  top: "conv3_3"
  param {
    lr_mult: 1
    decay_mult: 1
  }
  param {
    lr_mult: 2
    decay_mult: 0
  }
  convolution_param {
    num_output: 256
    pad: 1
    kernel_size: 3
    weight_filler {
      type: "xavier"
    }
    bias_filler {
      type: "constant"
      value: 0
    }
  }
}
layer {
  name: "relu3_3"
  type: "ReLU"
  bottom: "conv3_3"
  top: "conv3_3"
}
layer {
  name: "pool3"
  type: "Pooling"
  bottom: "conv3_3"
  top: "pool3"
  pooling_param {
    pool: MAX
    kernel_size: 2
    stride: 2
  }
}
layer {
  name: "conv4_1"
  type: "Convolution"
  bottom: "pool3"
  top: "conv4_1"
  param {
    lr_mult: 1
    decay_mult: 1
  }
  param {
    lr_mult: 2
    decay_mult: 0
  }
  convolution_param {
    num_output: 512
    pad: 1
    kernel_size: 3
    weight_filler {
      type: "xavier"
    }
    bias_filler {
      type: "constant"
      value: 0
    }
  }
}
layer {
  name: "relu4_1"
  type: "ReLU"
  bottom: "conv4_1"
  top: "conv4_1"
}
layer {
  name: "conv4_2"
  type: "Convolution"
  bottom: "conv4_1"
  top: "conv4_2"
  param {
    lr_mult: 1
    decay_mult: 1
  }
  param {
    lr_mult: 2
    decay_mult: 0
  }
  convolution_param {
    num_output: 512
    pad: 1
    kernel_size: 3
    weight_filler {
      type: "xavier"
    }
    bias_filler {
      type: "constant"
      value: 0
    }
  }
}
layer {
  name: "relu4_2"
  type: "ReLU"
  bottom: "conv4_2"
  top: "conv4_2"
}
layer {
  name: "conv4_3"
  type: "Convolution"
  bottom: "conv4_2"
  top: "conv4_3"
  param {
    lr_mult: 1
    decay_mult: 1
  }
  param {
    lr_mult: 2
    decay_mult: 0
  }
  convolution_param {
    num_output: 512
    pad: 1
    kernel_size: 3
    weight_filler {
      type: "xavier"
    }
    bias_filler {
      type: "constant"
      value: 0
    }
  }
}
layer {
  name: "relu4_3"
  type: "ReLU"
  bottom: "conv4_3"
  top: "conv4_3"
}
layer {
  name: "pool4"
  type: "Pooling"
  bottom: "conv4_3"
  top: "pool4"
  pooling_param {
    pool: MAX
    kernel_size: 2
    stride: 2
  }
}
layer {
  name: "conv5_1"
  type: "Convolution"
  bottom: "pool4"
  top: "conv5_1"
  param {
    lr_mult: 1
    decay_mult: 1
  }
  param {
    lr_mult: 2
    decay_mult: 0
  }
  convolution_param {
    num_output: 512
    pad: 1
    kernel_size: 3
    weight_filler {
      type: "xavier"
    }
    bias_filler {
      type: "constant"
      value: 0
    }
    dilation: 1
  }
}
layer {
  name: "relu5_1"
  type: "ReLU"
  bottom: "conv5_1"
  top: "conv5_1"
}
layer {
  name: "conv5_2"
  type: "Convolution"
  bottom: "conv5_1"
  top: "conv5_2"
  param {
    lr_mult: 1
    decay_mult: 1
  }
  param {
    lr_mult: 2
    decay_mult: 0
  }
  convolution_param {
    num_output: 512
    pad: 1
    kernel_size: 3
    weight_filler {
      type: "xavier"
    }
    bias_filler {
      type: "constant"
      value: 0
    }
    dilation: 1
  }
}
layer {
  name: "relu5_2"
  type: "ReLU"
  bottom: "conv5_2"
  top: "conv5_2"
}
layer {
  name: "conv5_3"
  type: "Convolution"
  bottom: "conv5_2"
  top: "conv5_3"
  param {
    lr_mult: 1
    decay_mult: 1
  }
  param {
    lr_mult: 2
    decay_mult: 0
  }
  convolution_param {
    num_output: 512
    pad: 1
    kernel_size: 3
    weight_filler {
      type: "xavier"
    }
    bias_filler {
      type: "constant"
      value: 0
    }
    dilation: 1
  }
}
layer {
  name: "relu5_3"
  type: "ReLU"
  bottom: "conv5_3"
  top: "conv5_3"
}
layer {
  name: "pool5"
  type: "Pooling"
  bottom: "conv5_3"
  top: "pool5"
  pooling_param {
    pool: MAX
    kernel_size: 3
    stride: 1
    pad: 1
  }
}
layer {
  name: "fc6"
  type: "Convolution"
  bottom: "pool5"
  top: "fc6"
  param {
    lr_mult: 1
    decay_mult: 1
  }
  param {
    lr_mult: 2
    decay_mult: 0
  }
  convolution_param {
    num_output: 1024
    pad: 6
    kernel_size: 3
    weight_filler {
      type: "xavier"
    }
    bias_filler {
      type: "constant"
      value: 0
    }
    dilation: 6
  }
}
layer {
  name: "relu6"
  type: "ReLU"
  bottom: "fc6"
  top: "fc6"
}
layer {
  name: "fc7"
  type: "Convolution"
  bottom: "fc6"
  top: "fc7"
  param {
    lr_mult: 1
    decay_mult: 1
  }
  param {
    lr_mult: 2
    decay_mult: 0
  }
  convolution_param {
    num_output: 1024
    kernel_size: 1
    weight_filler {
      type: "xavier"
    }
    bias_filler {
      type: "constant"
      value: 0
    }
  }
}
layer {
  name: "relu7"
  type: "ReLU"
  bottom: "fc7"
  top: "fc7"
}
layer {
  name: "conv6_1"
  type: "Convolution"
  bottom: "fc7"
  top: "conv6_1"
  param {
    lr_mult: 1
    decay_mult: 1
  }
  param {
    lr_mult: 2
    decay_mult: 0
  }
  convolution_param {
    num_output: 256
    pad: 0
    kernel_size: 1
    stride: 1
    weight_filler {
      type: "xavier"
    }
    bias_filler {
      type: "constant"
      value: 0
    }
  }
}
layer {
  name: "conv6_1_relu"
  type: "ReLU"
  bottom: "conv6_1"
  top: "conv6_1"
}
layer {
  name: "conv6_2"
  type: "Convolution"
  bottom: "conv6_1"
  top: "conv6_2"
  param {
    lr_mult: 1
    decay_mult: 1
  }
  param {
    lr_mult: 2
    decay_mult: 0
  }
  convolution_param {
    num_output: 512
    pad: 1
    kernel_size: 3
    stride: 2
    weight_filler {
      type: "xavier"
    }
    bias_filler {
      type: "constant"
      value: 0
    }
  }
}
layer {
  name: "conv6_2_relu"
  type: "ReLU"
  bottom: "conv6_2"
  top: "conv6_2"
}
layer {
  name: "conv7_1"
  type: "Convolution"
  bottom: "conv6_2"
  top: "conv7_1"
  param {
    lr_mult: 1
    decay_mult: 1
  }
  param {
    lr_mult: 2
    decay_mult: 0
  }
  convolution_param {
    num_output: 128
    pad: 0
    kernel_size: 1
    stride: 1
    weight_filler {
      type: "xavier"
    }
    bias_filler {
      type: "constant"
      value: 0
    }
  }
}
layer {
  name: "conv7_1_relu"
  type: "ReLU"
  bottom: "conv7_1"
  top: "conv7_1"
}
layer {
  name: "conv7_2"
  type: "Convolution"
  bottom: "conv7_1"
  top: "conv7_2"
  param {
    lr_mult: 1
    decay_mult: 1
  }
  param {
    lr_mult: 2
    decay_mult: 0
  }
  convolution_param {
    num_output: 256
    pad: 1
    kernel_size: 3
    stride: 2
    weight_filler {
      type: "xavier"
    }
    bias_filler {
      type: "constant"
      value: 0
    }
  }
}
layer {
  name: "conv7_2_relu"
  type: "ReLU"
  bottom: "conv7_2"
  top: "conv7_2"
}
layer {
  name: "conv8_1"
  type: "Convolution"
  bottom: "conv7_2"
  top: "conv8_1"
  param {
    lr_mult: 1
    decay_mult: 1
  }
  param {
    lr_mult: 2
    decay_mult: 0
  }
  convolution_param {
    num_output: 128
    pad: 0
    kernel_size: 1
    stride: 1
    weight_filler {
      type: "xavier"
    }
    bias_filler {
      type: "constant"
      value: 0
    }
  }
}
layer {
  name: "conv8_1_relu"
  type: "ReLU"
  bottom: "conv8_1"
  top: "conv8_1"
}
layer {
  name: "conv8_2"
  type: "Convolution"
  bottom: "conv8_1"
  top: "conv8_2"
  param {
    lr_mult: 1
    decay_mult: 1
  }
  param {
    lr_mult: 2
    decay_mult: 0
  }
  convolution_param {
    num_output: 256
    pad: 0
    kernel_size: 3
    stride: 1
    weight_filler {
      type: "xavier"
    }
    bias_filler {
      type: "constant"
      value: 0
    }
  }
}
layer {
  name: "conv8_2_relu"
  type: "ReLU"
  bottom: "conv8_2"
  top: "conv8_2"
}
layer {
  name: "conv9_1"
  type: "Convolution"
  bottom: "conv8_2"
  top: "conv9_1"
  param {
    lr_mult: 1
    decay_mult: 1
  }
  param {
    lr_mult: 2
    decay_mult: 0
  }
  convolution_param {
    num_output: 128
    pad: 0
    kernel_size: 1
    stride: 1
    weight_filler {
      type: "xavier"
    }
    bias_filler {
      type: "constant"
      value: 0
    }
  }
}
layer {
  name: "conv9_1_relu"
  type: "ReLU"
  bottom: "conv9_1"
  top: "conv9_1"
}
layer {
  name: "conv9_2"
  type: "Convolution"
  bottom: "conv9_1"
  top: "conv9_2"
  param {
    lr_mult: 1
    decay_mult: 1
  }
  param {
    lr_mult: 2
    decay_mult: 0
  }
  convolution_param {
    num_output: 256
    pad: 0
    kernel_size: 3
    stride: 1
    weight_filler {
      type: "xavier"
    }
    bias_filler {
      type: "constant"
      value: 0
    }
  }
}
layer {
  name: "conv9_2_relu"
  type: "ReLU"
  bottom: "conv9_2"
  top: "conv9_2"
}
layer {
  name: "conv4_3_norm"
  type: "Normalize"
  bottom: "conv4_3"
  top: "conv4_3_norm"
  norm_param {
    across_spatial: false
    scale_filler {
      type: "constant"
      value: 20
    }
    channel_shared: false
  }
}
layer {
  name: "conv4_3_norm_mbox_loc"
  type: "Convolution"
  bottom: "conv4_3_norm"
  top: "conv4_3_norm_mbox_loc"
  param {
    lr_mult: 1
    decay_mult: 1
  }
  param {
    lr_mult: 2
    decay_mult: 0
  }
  convolution_param {
    num_output: 240
    weight_filler {
      type: "xavier"
    }
    bias_filler {
      type: "constant"
      value: 0
    }
    pad_h: 1
    pad_w: 2
    kernel_h: 3
    kernel_w: 5
    stride_h: 1
    stride_w: 1
  }
}
layer {
  name: "conv4_3_norm_mbox_loc_perm"
  type: "Permute"
  bottom: "conv4_3_norm_mbox_loc"
  top: "conv4_3_norm_mbox_loc_perm"
  permute_param {
    order: 0
    order: 2
    order: 3
    order: 1
  }
}
layer {
  name: "conv4_3_norm_mbox_loc_flat"
  type: "Flatten"
  bottom: "conv4_3_norm_mbox_loc_perm"
  top: "conv4_3_norm_mbox_loc_flat"
  flatten_param {
    axis: 1
  }
}
layer {
  name: "conv4_3_norm_mbox_conf"
  type: "Convolution"
  bottom: "conv4_3_norm"
  top: "conv4_3_norm_mbox_conf"
  param {
    lr_mult: 1
    decay_mult: 1
  }
  param {
    lr_mult: 2
    decay_mult: 0
  }
  convolution_param {
    num_output: 40
    weight_filler {
      type: "xavier"
    }
    bias_filler {
      type: "constant"
      value: 0
    }
    pad_h: 1
    pad_w: 2
    kernel_h: 3
    kernel_w: 5
    stride_h: 1
    stride_w: 1
  }
}
layer {
  name: "conv4_3_norm_mbox_conf_perm"
  type: "Permute"
  bottom: "conv4_3_norm_mbox_conf"
  top: "conv4_3_norm_mbox_conf_perm"
  permute_param {
    order: 0
    order: 2
    order: 3
    order: 1
  }
}
layer {
  name: "conv4_3_norm_mbox_conf_flat"
  type: "Flatten"
  bottom: "conv4_3_norm_mbox_conf_perm"
  top: "conv4_3_norm_mbox_conf_flat"
  flatten_param {
    axis: 1
  }
}
layer {
  name: "conv4_3_norm_mbox_priorbox"
  type: "PriorBox"
  bottom: "conv4_3_norm"
  bottom: "data"
  top: "conv4_3_norm_mbox_priorbox"
  prior_box_param {
    min_size: 30
    max_size: 60
    aspect_ratio: 2
    aspect_ratio: 3
    aspect_ratio: 4
    aspect_ratio: 5
    flip: true
    clip: false
    variance: 0.1
    variance: 0.1
    variance: 0.2
    variance: 0.2
    step: 8
    offset: 0.5
    denser_prior_boxes: true
  }
}
layer {
  name: "fc7_mbox_loc"
  type: "Convolution"
  bottom: "fc7"
  top: "fc7_mbox_loc"
  param {
    lr_mult: 1
    decay_mult: 1
  }
  param {
    lr_mult: 2
    decay_mult: 0
  }
  convolution_param {
    num_output: 240
    weight_filler {
      type: "xavier"
    }
    bias_filler {
      type: "constant"
      value: 0
    }
    pad_h: 1
    pad_w: 2
    kernel_h: 3
    kernel_w: 5
    stride_h: 1
    stride_w: 1
  }
}
layer {
  name: "fc7_mbox_loc_perm"
  type: "Permute"
  bottom: "fc7_mbox_loc"
  top: "fc7_mbox_loc_perm"
  permute_param {
    order: 0
    order: 2
    order: 3
    order: 1
  }
}
layer {
  name: "fc7_mbox_loc_flat"
  type: "Flatten"
  bottom: "fc7_mbox_loc_perm"
  top: "fc7_mbox_loc_flat"
  flatten_param {
    axis: 1
  }
}
layer {
  name: "fc7_mbox_conf"
  type: "Convolution"
  bottom: "fc7"
  top: "fc7_mbox_conf"
  param {
    lr_mult: 1
    decay_mult: 1
  }
  param {
    lr_mult: 2
    decay_mult: 0
  }
  convolution_param {
    num_output: 40
    weight_filler {
      type: "xavier"
    }
    bias_filler {
      type: "constant"
      value: 0
    }
    pad_h: 1
    pad_w: 2
    kernel_h: 3
    kernel_w: 5
    stride_h: 1
    stride_w: 1
  }
}
layer {
  name: "fc7_mbox_conf_perm"
  type: "Permute"
  bottom: "fc7_mbox_conf"
  top: "fc7_mbox_conf_perm"
  permute_param {
    order: 0
    order: 2
    order: 3
    order: 1
  }
}
layer {
  name: "fc7_mbox_conf_flat"
  type: "Flatten"
  bottom: "fc7_mbox_conf_perm"
  top: "fc7_mbox_conf_flat"
  flatten_param {
    axis: 1
  }
}
layer {
  name: "fc7_mbox_priorbox"
  type: "PriorBox"
  bottom: "fc7"
  bottom: "data"
  top: "fc7_mbox_priorbox"
  prior_box_param {
    min_size: 30
    max_size: 90
    aspect_ratio: 2
    aspect_ratio: 3
    aspect_ratio: 4
    aspect_ratio: 5
    flip: true
    clip: false
    variance: 0.1
    variance: 0.1
    variance: 0.2
    variance: 0.2
    step: 16
    offset: 0.5
    denser_prior_boxes: true
  }
}
layer {
  name: "conv6_2_mbox_loc"
  type: "Convolution"
  bottom: "conv6_2"
  top: "conv6_2_mbox_loc"
  param {
    lr_mult: 1
    decay_mult: 1
  }
  param {
    lr_mult: 2
    decay_mult: 0
  }
  convolution_param {
    num_output: 240
    weight_filler {
      type: "xavier"
    }
    bias_filler {
      type: "constant"
      value: 0
    }
    pad_h: 1
    pad_w: 2
    kernel_h: 3
    kernel_w: 5
    stride_h: 1
    stride_w: 1
  }
}
layer {
  name: "conv6_2_mbox_loc_perm"
  type: "Permute"
  bottom: "conv6_2_mbox_loc"
  top: "conv6_2_mbox_loc_perm"
  permute_param {
    order: 0
    order: 2
    order: 3
    order: 1
  }
}
layer {
  name: "conv6_2_mbox_loc_flat"
  type: "Flatten"
  bottom: "conv6_2_mbox_loc_perm"
  top: "conv6_2_mbox_loc_flat"
  flatten_param {
    axis: 1
  }
}
layer {
  name: "conv6_2_mbox_conf"
  type: "Convolution"
  bottom: "conv6_2"
  top: "conv6_2_mbox_conf"
  param {
    lr_mult: 1
    decay_mult: 1
  }
  param {
    lr_mult: 2
    decay_mult: 0
  }
  convolution_param {
    num_output: 40
    weight_filler {
      type: "xavier"
    }
    bias_filler {
      type: "constant"
      value: 0
    }
    pad_h: 1
    pad_w: 2
    kernel_h: 3
    kernel_w: 5
    stride_h: 1
    stride_w: 1
  }
}
layer {
  name: "conv6_2_mbox_conf_perm"
  type: "Permute"
  bottom: "conv6_2_mbox_conf"
  top: "conv6_2_mbox_conf_perm"
  permute_param {
    order: 0
    order: 2
    order: 3
    order: 1
  }
}
layer {
  name: "conv6_2_mbox_conf_flat"
  type: "Flatten"
  bottom: "conv6_2_mbox_conf_perm"
  top: "conv6_2_mbox_conf_flat"
  flatten_param {
    axis: 1
  }
}
layer {
  name: "conv6_2_mbox_priorbox"
  type: "PriorBox"
  bottom: "conv6_2"
  bottom: "data"
  top: "conv6_2_mbox_priorbox"
  prior_box_param {
    min_size: 90
    max_size: 150
    aspect_ratio: 2
    aspect_ratio: 3
    aspect_ratio: 4
    aspect_ratio: 5
    flip: true
    clip: false
    variance: 0.1
    variance: 0.1
    variance: 0.2
    variance: 0.2
    step: 32
    offset: 0.5
    denser_prior_boxes: true
  }
}
layer {
  name: "conv7_2_mbox_loc"
  type: "Convolution"
  bottom: "conv7_2"
  top: "conv7_2_mbox_loc"
  param {
    lr_mult: 1
    decay_mult: 1
  }
  param {
    lr_mult: 2
    decay_mult: 0
  }
  convolution_param {
    num_output: 240
    weight_filler {
      type: "xavier"
    }
    bias_filler {
      type: "constant"
      value: 0
    }
    pad_h: 1
    pad_w: 2
    kernel_h: 3
    kernel_w: 5
    stride_h: 1
    stride_w: 1
  }
}
layer {
  name: "conv7_2_mbox_loc_perm"
  type: "Permute"
  bottom: "conv7_2_mbox_loc"
  top: "conv7_2_mbox_loc_perm"
  permute_param {
    order: 0
    order: 2
    order: 3
    order: 1
  }
}
layer {
  name: "conv7_2_mbox_loc_flat"
  type: "Flatten"
  bottom: "conv7_2_mbox_loc_perm"
  top: "conv7_2_mbox_loc_flat"
  flatten_param {
    axis: 1
  }
}
layer {
  name: "conv7_2_mbox_conf"
  type: "Convolution"
  bottom: "conv7_2"
  top: "conv7_2_mbox_conf"
  param {
    lr_mult: 1
    decay_mult: 1
  }
  param {
    lr_mult: 2
    decay_mult: 0
  }
  convolution_param {
    num_output: 40
    weight_filler {
      type: "xavier"
    }
    bias_filler {
      type: "constant"
      value: 0
    }
    pad_h: 1
    pad_w: 2
    kernel_h: 3
    kernel_w: 5
    stride_h: 1
    stride_w: 1
  }
}
layer {
  name: "conv7_2_mbox_conf_perm"
  type: "Permute"
  bottom: "conv7_2_mbox_conf"
  top: "conv7_2_mbox_conf_perm"
  permute_param {
    order: 0
    order: 2
    order: 3
    order: 1
  }
}
layer {
  name: "conv7_2_mbox_conf_flat"
  type: "Flatten"
  bottom: "conv7_2_mbox_conf_perm"
  top: "conv7_2_mbox_conf_flat"
  flatten_param {
    axis: 1
  }
}
layer {
  name: "conv7_2_mbox_priorbox"
  type: "PriorBox"
  bottom: "conv7_2"
  bottom: "data"
  top: "conv7_2_mbox_priorbox"
  prior_box_param {
    min_size: 150
    max_size: 210
    aspect_ratio: 2
    aspect_ratio: 3
    aspect_ratio: 4
    aspect_ratio: 5
    flip: true
    clip: false
    variance: 0.1
    variance: 0.1
    variance: 0.2
    variance: 0.2
    step: 64
    offset: 0.5
    denser_prior_boxes: true
  }
}
layer {
  name: "conv8_2_mbox_loc"
  type: "Convolution"
  bottom: "conv8_2"
  top: "conv8_2_mbox_loc"
  param {
    lr_mult: 1
    decay_mult: 1
  }
  param {
    lr_mult: 2
    decay_mult: 0
  }
  convolution_param {
    num_output: 240
    weight_filler {
      type: "xavier"
    }
    bias_filler {
      type: "constant"
      value: 0
    }
    pad_h: 1
    pad_w: 2
    kernel_h: 3
    kernel_w: 5
    stride_h: 1
    stride_w: 1
  }
}
layer {
  name: "conv8_2_mbox_loc_perm"
  type: "Permute"
  bottom: "conv8_2_mbox_loc"
  top: "conv8_2_mbox_loc_perm"
  permute_param {
    order: 0
    order: 2
    order: 3
    order: 1
  }
}
layer {
  name: "conv8_2_mbox_loc_flat"
  type: "Flatten"
  bottom: "conv8_2_mbox_loc_perm"
  top: "conv8_2_mbox_loc_flat"
  flatten_param {
    axis: 1
  }
}
layer {
  name: "conv8_2_mbox_conf"
  type: "Convolution"
  bottom: "conv8_2"
  top: "conv8_2_mbox_conf"
  param {
    lr_mult: 1
    decay_mult: 1
  }
  param {
    lr_mult: 2
    decay_mult: 0
  }
  convolution_param {
    num_output: 40
    weight_filler {
      type: "xavier"
    }
    bias_filler {
      type: "constant"
      value: 0
    }
    pad_h: 1
    pad_w: 2
    kernel_h: 3
    kernel_w: 5
    stride_h: 1
    stride_w: 1
  }
}
layer {
  name: "conv8_2_mbox_conf_perm"
  type: "Permute"
  bottom: "conv8_2_mbox_conf"
  top: "conv8_2_mbox_conf_perm"
  permute_param {
    order: 0
    order: 2
    order: 3
    order: 1
  }
}
layer {
  name: "conv8_2_mbox_conf_flat"
  type: "Flatten"
  bottom: "conv8_2_mbox_conf_perm"
  top: "conv8_2_mbox_conf_flat"
  flatten_param {
    axis: 1
  }
}
layer {
  name: "conv8_2_mbox_priorbox"
  type: "PriorBox"
  bottom: "conv8_2"
  bottom: "data"
  top: "conv8_2_mbox_priorbox"
  prior_box_param {
    min_size: 210
    max_size: 270
    aspect_ratio: 2
    aspect_ratio: 3
    aspect_ratio: 4
    aspect_ratio: 5
    flip: true
    clip: false
    variance: 0.1
    variance: 0.1
    variance: 0.2
    variance: 0.2
    step: 100
    offset: 0.5
    denser_prior_boxes: true
  }
}
layer {
  name: "conv9_2_mbox_loc"
  type: "Convolution"
  bottom: "conv9_2"
  top: "conv9_2_mbox_loc"
  param {
    lr_mult: 1
    decay_mult: 1
  }
  param {
    lr_mult: 2
    decay_mult: 0
  }
  convolution_param {
    num_output: 240
    weight_filler {
      type: "xavier"
    }
    bias_filler {
      type: "constant"
      value: 0
    }
    pad_h: 1
    pad_w: 2
    kernel_h: 3
    kernel_w: 5
    stride_h: 1
    stride_w: 1
  }
}
layer {
  name: "conv9_2_mbox_loc_perm"
  type: "Permute"
  bottom: "conv9_2_mbox_loc"
  top: "conv9_2_mbox_loc_perm"
  permute_param {
    order: 0
    order: 2
    order: 3
    order: 1
  }
}
layer {
  name: "conv9_2_mbox_loc_flat"
  type: "Flatten"
  bottom: "conv9_2_mbox_loc_perm"
  top: "conv9_2_mbox_loc_flat"
  flatten_param {
    axis: 1
  }
}
layer {
  name: "conv9_2_mbox_conf"
  type: "Convolution"
  bottom: "conv9_2"
  top: "conv9_2_mbox_conf"
  param {
    lr_mult: 1
    decay_mult: 1
  }
  param {
    lr_mult: 2
    decay_mult: 0
  }
  convolution_param {
    num_output: 40
    weight_filler {
      type: "xavier"
    }
    bias_filler {
      type: "constant"
      value: 0
    }
    pad_h: 1
    pad_w: 2
    kernel_h: 3
    kernel_w: 5
    stride_h: 1
    stride_w: 1
  }
}
layer {
  name: "conv9_2_mbox_conf_perm"
  type: "Permute"
  bottom: "conv9_2_mbox_conf"
  top: "conv9_2_mbox_conf_perm"
  permute_param {
    order: 0
    order: 2
    order: 3
    order: 1
  }
}
layer {
  name: "conv9_2_mbox_conf_flat"
  type: "Flatten"
  bottom: "conv9_2_mbox_conf_perm"
  top: "conv9_2_mbox_conf_flat"
  flatten_param {
    axis: 1
  }
}
layer {
  name: "conv9_2_mbox_priorbox"
  type: "PriorBox"
  bottom: "conv9_2"
  bottom: "data"
  top: "conv9_2_mbox_priorbox"
  prior_box_param {
    min_size: 270
    max_size: 330
    aspect_ratio: 2
    aspect_ratio: 3
    aspect_ratio: 4
    aspect_ratio: 5
    flip: true
    clip: false
    variance: 0.1
    variance: 0.1
    variance: 0.2
    variance: 0.2
    step: 300
    offset: 0.5
    denser_prior_boxes: true
  }
}
layer {
  name: "mbox_loc"
  type: "Concat"
  bottom: "conv4_3_norm_mbox_loc_flat"
  bottom: "fc7_mbox_loc_flat"
  bottom: "conv6_2_mbox_loc_flat"
  bottom: "conv7_2_mbox_loc_flat"
  bottom: "conv8_2_mbox_loc_flat"
  bottom: "conv9_2_mbox_loc_flat"
  top: "mbox_loc"
  concat_param {
    axis: 1
  }
}
layer {
  name: "mbox_conf"
  type: "Concat"
  bottom: "conv4_3_norm_mbox_conf_flat"
  bottom: "fc7_mbox_conf_flat"
  bottom: "conv6_2_mbox_conf_flat"
  bottom: "conv7_2_mbox_conf_flat"
  bottom: "conv8_2_mbox_conf_flat"
  bottom: "conv9_2_mbox_conf_flat"
  top: "mbox_conf"
  concat_param {
    axis: 1
  }
}
layer {
  name: "mbox_priorbox"
  type: "Concat"
  bottom: "conv4_3_norm_mbox_priorbox"
  bottom: "fc7_mbox_priorbox"
  bottom: "conv6_2_mbox_priorbox"
  bottom: "conv7_2_mbox_priorbox"
  bottom: "conv8_2_mbox_priorbox"
  bottom: "conv9_2_mbox_priorbox"
  top: "mbox_priorbox"
  concat_param {
    axis: 2
  }
}
layer {
  name: "mbox_conf_reshape"
  type: "Reshape"
  bottom: "mbox_conf"
  top: "mbox_conf_reshape"
  reshape_param {
    shape {
      dim: 0
      dim: -1
      dim: 2
    }
  }
}
layer {
  name: "mbox_conf_softmax"
  type: "Softmax"
  bottom: "mbox_conf_reshape"
  top: "mbox_conf_softmax"
  softmax_param {
    axis: 2
  }
}
layer {
  name: "mbox_conf_flatten"
  type: "Flatten"
  bottom: "mbox_conf_softmax"
  top: "mbox_conf_flatten"
  flatten_param {
    axis: 1
  }
}
layer {
  name: "detection_out"
  type: "DetectionOutput"
  bottom: "mbox_loc"
  bottom: "mbox_conf_flatten"
  bottom: "mbox_priorbox"
  top: "detection_out"
  include {
    phase: TEST
  }
  detection_output_param {
    num_classes: 2
    share_location: true
    background_label_id: 0
    nms_param {
      nms_threshold: 0.45
      top_k: 400
    }
    save_output_param {
      output_directory: "/home/amax/data/text/results/text/text_polygon_precise_fix_order_384x384/Main"
      output_name_prefix: "comp4_det_test_"
      output_format: "VOC"
      label_map_file: "data/text/labelmap_voc.prototxt"
      num_test_image: 500
    }
    code_type: CENTER_SIZE
    keep_top_k: 200
    confidence_threshold: 0.01
    use_polygon: true
  }
}
layer {
  name: "detection_eval"
  type: "DetectionEvaluate"
  bottom: "detection_out"
  bottom: "label"
  top: "detection_eval"
  include {
    phase: TEST
  }
  detection_evaluate_param {
    num_classes: 2
    background_label_id: 0
    overlap_threshold: 0.5
    evaluate_difficult_gt: false
    use_polygon: true
  }
}
I0409 18:58:25.167104 23994 layer_factory.hpp:77] Creating layer data
I0409 18:58:25.167186 23994 net.cpp:100] Creating Layer data
I0409 18:58:25.167198 23994 net.cpp:408] data -> data
I0409 18:58:25.167212 23994 net.cpp:408] data -> label
I0409 18:58:25.168506 24026 db_lmdb.cpp:35] Opened lmdb ./data/text_test_lmdb/
I0409 18:58:25.175956 23994 annotated_data_layer.cpp:62] output data size: 1,3,384,384
I0409 18:58:25.180452 23994 net.cpp:150] Setting up data
I0409 18:58:25.180471 23994 net.cpp:157] Top shape: 1 3 384 384 (442368)
I0409 18:58:25.180479 23994 net.cpp:157] Top shape: 1 1 49 16 (784)
I0409 18:58:25.180482 23994 net.cpp:165] Memory required for data: 1772608
I0409 18:58:25.180487 23994 layer_factory.hpp:77] Creating layer data_data_0_split
I0409 18:58:25.180496 23994 net.cpp:100] Creating Layer data_data_0_split
I0409 18:58:25.180501 23994 net.cpp:434] data_data_0_split <- data
I0409 18:58:25.180508 23994 net.cpp:408] data_data_0_split -> data_data_0_split_0
I0409 18:58:25.180518 23994 net.cpp:408] data_data_0_split -> data_data_0_split_1
I0409 18:58:25.180526 23994 net.cpp:408] data_data_0_split -> data_data_0_split_2
I0409 18:58:25.180533 23994 net.cpp:408] data_data_0_split -> data_data_0_split_3
I0409 18:58:25.180539 23994 net.cpp:408] data_data_0_split -> data_data_0_split_4
I0409 18:58:25.180546 23994 net.cpp:408] data_data_0_split -> data_data_0_split_5
I0409 18:58:25.180552 23994 net.cpp:408] data_data_0_split -> data_data_0_split_6
I0409 18:58:25.180743 23994 net.cpp:150] Setting up data_data_0_split
I0409 18:58:25.180757 23994 net.cpp:157] Top shape: 1 3 384 384 (442368)
I0409 18:58:25.180761 23994 net.cpp:157] Top shape: 1 3 384 384 (442368)
I0409 18:58:25.180766 23994 net.cpp:157] Top shape: 1 3 384 384 (442368)
I0409 18:58:25.180771 23994 net.cpp:157] Top shape: 1 3 384 384 (442368)
I0409 18:58:25.180775 23994 net.cpp:157] Top shape: 1 3 384 384 (442368)
I0409 18:58:25.180779 23994 net.cpp:157] Top shape: 1 3 384 384 (442368)
I0409 18:58:25.180784 23994 net.cpp:157] Top shape: 1 3 384 384 (442368)
I0409 18:58:25.180788 23994 net.cpp:165] Memory required for data: 14158912
I0409 18:58:25.180791 23994 layer_factory.hpp:77] Creating layer conv1_1
I0409 18:58:25.180802 23994 net.cpp:100] Creating Layer conv1_1
I0409 18:58:25.180807 23994 net.cpp:434] conv1_1 <- data_data_0_split_0
I0409 18:58:25.180814 23994 net.cpp:408] conv1_1 -> conv1_1
I0409 18:58:25.183362 23994 net.cpp:150] Setting up conv1_1
I0409 18:58:25.183380 23994 net.cpp:157] Top shape: 1 64 384 384 (9437184)
I0409 18:58:25.183385 23994 net.cpp:165] Memory required for data: 51907648
I0409 18:58:25.183398 23994 layer_factory.hpp:77] Creating layer relu1_1
I0409 18:58:25.183405 23994 net.cpp:100] Creating Layer relu1_1
I0409 18:58:25.183410 23994 net.cpp:434] relu1_1 <- conv1_1
I0409 18:58:25.183415 23994 net.cpp:395] relu1_1 -> conv1_1 (in-place)
I0409 18:58:25.183823 23994 net.cpp:150] Setting up relu1_1
I0409 18:58:25.183840 23994 net.cpp:157] Top shape: 1 64 384 384 (9437184)
I0409 18:58:25.183845 23994 net.cpp:165] Memory required for data: 89656384
I0409 18:58:25.183848 23994 layer_factory.hpp:77] Creating layer conv1_2
I0409 18:58:25.183859 23994 net.cpp:100] Creating Layer conv1_2
I0409 18:58:25.183864 23994 net.cpp:434] conv1_2 <- conv1_1
I0409 18:58:25.183872 23994 net.cpp:408] conv1_2 -> conv1_2
I0409 18:58:25.187013 23994 net.cpp:150] Setting up conv1_2
I0409 18:58:25.187032 23994 net.cpp:157] Top shape: 1 64 384 384 (9437184)
I0409 18:58:25.187037 23994 net.cpp:165] Memory required for data: 127405120
I0409 18:58:25.187048 23994 layer_factory.hpp:77] Creating layer relu1_2
I0409 18:58:25.187055 23994 net.cpp:100] Creating Layer relu1_2
I0409 18:58:25.187075 23994 net.cpp:434] relu1_2 <- conv1_2
I0409 18:58:25.187083 23994 net.cpp:395] relu1_2 -> conv1_2 (in-place)
I0409 18:58:25.187304 23994 net.cpp:150] Setting up relu1_2
I0409 18:58:25.187317 23994 net.cpp:157] Top shape: 1 64 384 384 (9437184)
I0409 18:58:25.187321 23994 net.cpp:165] Memory required for data: 165153856
I0409 18:58:25.187325 23994 layer_factory.hpp:77] Creating layer pool1
I0409 18:58:25.187333 23994 net.cpp:100] Creating Layer pool1
I0409 18:58:25.187337 23994 net.cpp:434] pool1 <- conv1_2
I0409 18:58:25.187345 23994 net.cpp:408] pool1 -> pool1
I0409 18:58:25.187405 23994 net.cpp:150] Setting up pool1
I0409 18:58:25.187424 23994 net.cpp:157] Top shape: 1 64 192 192 (2359296)
I0409 18:58:25.187428 23994 net.cpp:165] Memory required for data: 174591040
I0409 18:58:25.187431 23994 layer_factory.hpp:77] Creating layer conv2_1
I0409 18:58:25.187441 23994 net.cpp:100] Creating Layer conv2_1
I0409 18:58:25.187445 23994 net.cpp:434] conv2_1 <- pool1
I0409 18:58:25.187453 23994 net.cpp:408] conv2_1 -> conv2_1
I0409 18:58:25.189739 23994 net.cpp:150] Setting up conv2_1
I0409 18:58:25.189756 23994 net.cpp:157] Top shape: 1 128 192 192 (4718592)
I0409 18:58:25.189761 23994 net.cpp:165] Memory required for data: 193465408
I0409 18:58:25.189772 23994 layer_factory.hpp:77] Creating layer relu2_1
I0409 18:58:25.189781 23994 net.cpp:100] Creating Layer relu2_1
I0409 18:58:25.189786 23994 net.cpp:434] relu2_1 <- conv2_1
I0409 18:58:25.189792 23994 net.cpp:395] relu2_1 -> conv2_1 (in-place)
I0409 18:58:25.190007 23994 net.cpp:150] Setting up relu2_1
I0409 18:58:25.190021 23994 net.cpp:157] Top shape: 1 128 192 192 (4718592)
I0409 18:58:25.190026 23994 net.cpp:165] Memory required for data: 212339776
I0409 18:58:25.190029 23994 layer_factory.hpp:77] Creating layer conv2_2
I0409 18:58:25.190039 23994 net.cpp:100] Creating Layer conv2_2
I0409 18:58:25.190043 23994 net.cpp:434] conv2_2 <- conv2_1
I0409 18:58:25.190050 23994 net.cpp:408] conv2_2 -> conv2_2
I0409 18:58:25.193663 23994 net.cpp:150] Setting up conv2_2
I0409 18:58:25.193681 23994 net.cpp:157] Top shape: 1 128 192 192 (4718592)
I0409 18:58:25.193686 23994 net.cpp:165] Memory required for data: 231214144
I0409 18:58:25.193694 23994 layer_factory.hpp:77] Creating layer relu2_2
I0409 18:58:25.193702 23994 net.cpp:100] Creating Layer relu2_2
I0409 18:58:25.193706 23994 net.cpp:434] relu2_2 <- conv2_2
I0409 18:58:25.193713 23994 net.cpp:395] relu2_2 -> conv2_2 (in-place)
I0409 18:58:25.194330 23994 net.cpp:150] Setting up relu2_2
I0409 18:58:25.194346 23994 net.cpp:157] Top shape: 1 128 192 192 (4718592)
I0409 18:58:25.194351 23994 net.cpp:165] Memory required for data: 250088512
I0409 18:58:25.194355 23994 layer_factory.hpp:77] Creating layer pool2
I0409 18:58:25.194362 23994 net.cpp:100] Creating Layer pool2
I0409 18:58:25.194366 23994 net.cpp:434] pool2 <- conv2_2
I0409 18:58:25.194373 23994 net.cpp:408] pool2 -> pool2
I0409 18:58:25.194437 23994 net.cpp:150] Setting up pool2
I0409 18:58:25.194461 23994 net.cpp:157] Top shape: 1 128 96 96 (1179648)
I0409 18:58:25.194465 23994 net.cpp:165] Memory required for data: 254807104
I0409 18:58:25.194468 23994 layer_factory.hpp:77] Creating layer conv3_1
I0409 18:58:25.194478 23994 net.cpp:100] Creating Layer conv3_1
I0409 18:58:25.194483 23994 net.cpp:434] conv3_1 <- pool2
I0409 18:58:25.194490 23994 net.cpp:408] conv3_1 -> conv3_1
I0409 18:58:25.200249 23994 net.cpp:150] Setting up conv3_1
I0409 18:58:25.200273 23994 net.cpp:157] Top shape: 1 256 96 96 (2359296)
I0409 18:58:25.200278 23994 net.cpp:165] Memory required for data: 264244288
I0409 18:58:25.200290 23994 layer_factory.hpp:77] Creating layer relu3_1
I0409 18:58:25.200299 23994 net.cpp:100] Creating Layer relu3_1
I0409 18:58:25.200304 23994 net.cpp:434] relu3_1 <- conv3_1
I0409 18:58:25.200310 23994 net.cpp:395] relu3_1 -> conv3_1 (in-place)
I0409 18:58:25.200520 23994 net.cpp:150] Setting up relu3_1
I0409 18:58:25.200532 23994 net.cpp:157] Top shape: 1 256 96 96 (2359296)
I0409 18:58:25.200537 23994 net.cpp:165] Memory required for data: 273681472
I0409 18:58:25.200554 23994 layer_factory.hpp:77] Creating layer conv3_2
I0409 18:58:25.200567 23994 net.cpp:100] Creating Layer conv3_2
I0409 18:58:25.200572 23994 net.cpp:434] conv3_2 <- conv3_1
I0409 18:58:25.200579 23994 net.cpp:408] conv3_2 -> conv3_2
I0409 18:58:25.208906 23994 net.cpp:150] Setting up conv3_2
I0409 18:58:25.208927 23994 net.cpp:157] Top shape: 1 256 96 96 (2359296)
I0409 18:58:25.208932 23994 net.cpp:165] Memory required for data: 283118656
I0409 18:58:25.208940 23994 layer_factory.hpp:77] Creating layer relu3_2
I0409 18:58:25.208947 23994 net.cpp:100] Creating Layer relu3_2
I0409 18:58:25.208952 23994 net.cpp:434] relu3_2 <- conv3_2
I0409 18:58:25.208959 23994 net.cpp:395] relu3_2 -> conv3_2 (in-place)
I0409 18:58:25.209179 23994 net.cpp:150] Setting up relu3_2
I0409 18:58:25.209193 23994 net.cpp:157] Top shape: 1 256 96 96 (2359296)
I0409 18:58:25.209198 23994 net.cpp:165] Memory required for data: 292555840
I0409 18:58:25.209203 23994 layer_factory.hpp:77] Creating layer conv3_3
I0409 18:58:25.209216 23994 net.cpp:100] Creating Layer conv3_3
I0409 18:58:25.209221 23994 net.cpp:434] conv3_3 <- conv3_2
I0409 18:58:25.209230 23994 net.cpp:408] conv3_3 -> conv3_3
I0409 18:58:25.217573 23994 net.cpp:150] Setting up conv3_3
I0409 18:58:25.217592 23994 net.cpp:157] Top shape: 1 256 96 96 (2359296)
I0409 18:58:25.217597 23994 net.cpp:165] Memory required for data: 301993024
I0409 18:58:25.217603 23994 layer_factory.hpp:77] Creating layer relu3_3
I0409 18:58:25.217610 23994 net.cpp:100] Creating Layer relu3_3
I0409 18:58:25.217617 23994 net.cpp:434] relu3_3 <- conv3_3
I0409 18:58:25.217624 23994 net.cpp:395] relu3_3 -> conv3_3 (in-place)
I0409 18:58:25.218053 23994 net.cpp:150] Setting up relu3_3
I0409 18:58:25.218070 23994 net.cpp:157] Top shape: 1 256 96 96 (2359296)
I0409 18:58:25.218075 23994 net.cpp:165] Memory required for data: 311430208
I0409 18:58:25.218080 23994 layer_factory.hpp:77] Creating layer pool3
I0409 18:58:25.218086 23994 net.cpp:100] Creating Layer pool3
I0409 18:58:25.218091 23994 net.cpp:434] pool3 <- conv3_3
I0409 18:58:25.218099 23994 net.cpp:408] pool3 -> pool3
I0409 18:58:25.218168 23994 net.cpp:150] Setting up pool3
I0409 18:58:25.218178 23994 net.cpp:157] Top shape: 1 256 48 48 (589824)
I0409 18:58:25.218181 23994 net.cpp:165] Memory required for data: 313789504
I0409 18:58:25.218184 23994 layer_factory.hpp:77] Creating layer conv4_1
I0409 18:58:25.218202 23994 net.cpp:100] Creating Layer conv4_1
I0409 18:58:25.218207 23994 net.cpp:434] conv4_1 <- pool3
I0409 18:58:25.218214 23994 net.cpp:408] conv4_1 -> conv4_1
I0409 18:58:25.233225 23994 net.cpp:150] Setting up conv4_1
I0409 18:58:25.233245 23994 net.cpp:157] Top shape: 1 512 48 48 (1179648)
I0409 18:58:25.233250 23994 net.cpp:165] Memory required for data: 318508096
I0409 18:58:25.233258 23994 layer_factory.hpp:77] Creating layer relu4_1
I0409 18:58:25.233268 23994 net.cpp:100] Creating Layer relu4_1
I0409 18:58:25.233273 23994 net.cpp:434] relu4_1 <- conv4_1
I0409 18:58:25.233280 23994 net.cpp:395] relu4_1 -> conv4_1 (in-place)
I0409 18:58:25.233510 23994 net.cpp:150] Setting up relu4_1
I0409 18:58:25.233525 23994 net.cpp:157] Top shape: 1 512 48 48 (1179648)
I0409 18:58:25.233530 23994 net.cpp:165] Memory required for data: 323226688
I0409 18:58:25.233534 23994 layer_factory.hpp:77] Creating layer conv4_2
I0409 18:58:25.233546 23994 net.cpp:100] Creating Layer conv4_2
I0409 18:58:25.233551 23994 net.cpp:434] conv4_2 <- conv4_1
I0409 18:58:25.233562 23994 net.cpp:408] conv4_2 -> conv4_2
I0409 18:58:25.262178 23994 net.cpp:150] Setting up conv4_2
I0409 18:58:25.262207 23994 net.cpp:157] Top shape: 1 512 48 48 (1179648)
I0409 18:58:25.262212 23994 net.cpp:165] Memory required for data: 327945280
I0409 18:58:25.262228 23994 layer_factory.hpp:77] Creating layer relu4_2
I0409 18:58:25.262236 23994 net.cpp:100] Creating Layer relu4_2
I0409 18:58:25.262243 23994 net.cpp:434] relu4_2 <- conv4_2
I0409 18:58:25.262250 23994 net.cpp:395] relu4_2 -> conv4_2 (in-place)
I0409 18:58:25.262480 23994 net.cpp:150] Setting up relu4_2
I0409 18:58:25.262511 23994 net.cpp:157] Top shape: 1 512 48 48 (1179648)
I0409 18:58:25.262516 23994 net.cpp:165] Memory required for data: 332663872
I0409 18:58:25.262521 23994 layer_factory.hpp:77] Creating layer conv4_3
I0409 18:58:25.262534 23994 net.cpp:100] Creating Layer conv4_3
I0409 18:58:25.262538 23994 net.cpp:434] conv4_3 <- conv4_2
I0409 18:58:25.262547 23994 net.cpp:408] conv4_3 -> conv4_3
I0409 18:58:25.291178 23994 net.cpp:150] Setting up conv4_3
I0409 18:58:25.291208 23994 net.cpp:157] Top shape: 1 512 48 48 (1179648)
I0409 18:58:25.291213 23994 net.cpp:165] Memory required for data: 337382464
I0409 18:58:25.291223 23994 layer_factory.hpp:77] Creating layer relu4_3
I0409 18:58:25.291232 23994 net.cpp:100] Creating Layer relu4_3
I0409 18:58:25.291239 23994 net.cpp:434] relu4_3 <- conv4_3
I0409 18:58:25.291245 23994 net.cpp:395] relu4_3 -> conv4_3 (in-place)
I0409 18:58:25.291676 23994 net.cpp:150] Setting up relu4_3
I0409 18:58:25.291692 23994 net.cpp:157] Top shape: 1 512 48 48 (1179648)
I0409 18:58:25.291697 23994 net.cpp:165] Memory required for data: 342101056
I0409 18:58:25.291702 23994 layer_factory.hpp:77] Creating layer conv4_3_relu4_3_0_split
I0409 18:58:25.291708 23994 net.cpp:100] Creating Layer conv4_3_relu4_3_0_split
I0409 18:58:25.291712 23994 net.cpp:434] conv4_3_relu4_3_0_split <- conv4_3
I0409 18:58:25.291721 23994 net.cpp:408] conv4_3_relu4_3_0_split -> conv4_3_relu4_3_0_split_0
I0409 18:58:25.291730 23994 net.cpp:408] conv4_3_relu4_3_0_split -> conv4_3_relu4_3_0_split_1
I0409 18:58:25.291797 23994 net.cpp:150] Setting up conv4_3_relu4_3_0_split
I0409 18:58:25.291808 23994 net.cpp:157] Top shape: 1 512 48 48 (1179648)
I0409 18:58:25.291813 23994 net.cpp:157] Top shape: 1 512 48 48 (1179648)
I0409 18:58:25.291817 23994 net.cpp:165] Memory required for data: 351538240
I0409 18:58:25.291822 23994 layer_factory.hpp:77] Creating layer pool4
I0409 18:58:25.291829 23994 net.cpp:100] Creating Layer pool4
I0409 18:58:25.291833 23994 net.cpp:434] pool4 <- conv4_3_relu4_3_0_split_0
I0409 18:58:25.291841 23994 net.cpp:408] pool4 -> pool4
I0409 18:58:25.291901 23994 net.cpp:150] Setting up pool4
I0409 18:58:25.291910 23994 net.cpp:157] Top shape: 1 512 24 24 (294912)
I0409 18:58:25.291914 23994 net.cpp:165] Memory required for data: 352717888
I0409 18:58:25.291918 23994 layer_factory.hpp:77] Creating layer conv5_1
I0409 18:58:25.291930 23994 net.cpp:100] Creating Layer conv5_1
I0409 18:58:25.291937 23994 net.cpp:434] conv5_1 <- pool4
I0409 18:58:25.291945 23994 net.cpp:408] conv5_1 -> conv5_1
I0409 18:58:25.320825 23994 net.cpp:150] Setting up conv5_1
I0409 18:58:25.320853 23994 net.cpp:157] Top shape: 1 512 24 24 (294912)
I0409 18:58:25.320858 23994 net.cpp:165] Memory required for data: 353897536
I0409 18:58:25.320868 23994 layer_factory.hpp:77] Creating layer relu5_1
I0409 18:58:25.320880 23994 net.cpp:100] Creating Layer relu5_1
I0409 18:58:25.320888 23994 net.cpp:434] relu5_1 <- conv5_1
I0409 18:58:25.320895 23994 net.cpp:395] relu5_1 -> conv5_1 (in-place)
I0409 18:58:25.321146 23994 net.cpp:150] Setting up relu5_1
I0409 18:58:25.321159 23994 net.cpp:157] Top shape: 1 512 24 24 (294912)
I0409 18:58:25.321163 23994 net.cpp:165] Memory required for data: 355077184
I0409 18:58:25.321168 23994 layer_factory.hpp:77] Creating layer conv5_2
I0409 18:58:25.321183 23994 net.cpp:100] Creating Layer conv5_2
I0409 18:58:25.321188 23994 net.cpp:434] conv5_2 <- conv5_1
I0409 18:58:25.321200 23994 net.cpp:408] conv5_2 -> conv5_2
I0409 18:58:25.346741 23994 net.cpp:150] Setting up conv5_2
I0409 18:58:25.346771 23994 net.cpp:157] Top shape: 1 512 24 24 (294912)
I0409 18:58:25.346776 23994 net.cpp:165] Memory required for data: 356256832
I0409 18:58:25.346784 23994 layer_factory.hpp:77] Creating layer relu5_2
I0409 18:58:25.346796 23994 net.cpp:100] Creating Layer relu5_2
I0409 18:58:25.346801 23994 net.cpp:434] relu5_2 <- conv5_2
I0409 18:58:25.346810 23994 net.cpp:395] relu5_2 -> conv5_2 (in-place)
I0409 18:58:25.347023 23994 net.cpp:150] Setting up relu5_2
I0409 18:58:25.347034 23994 net.cpp:157] Top shape: 1 512 24 24 (294912)
I0409 18:58:25.347054 23994 net.cpp:165] Memory required for data: 357436480
I0409 18:58:25.347059 23994 layer_factory.hpp:77] Creating layer conv5_3
I0409 18:58:25.347074 23994 net.cpp:100] Creating Layer conv5_3
I0409 18:58:25.347077 23994 net.cpp:434] conv5_3 <- conv5_2
I0409 18:58:25.347084 23994 net.cpp:408] conv5_3 -> conv5_3
I0409 18:58:25.372380 23994 net.cpp:150] Setting up conv5_3
I0409 18:58:25.372406 23994 net.cpp:157] Top shape: 1 512 24 24 (294912)
I0409 18:58:25.372411 23994 net.cpp:165] Memory required for data: 358616128
I0409 18:58:25.372418 23994 layer_factory.hpp:77] Creating layer relu5_3
I0409 18:58:25.372433 23994 net.cpp:100] Creating Layer relu5_3
I0409 18:58:25.372437 23994 net.cpp:434] relu5_3 <- conv5_3
I0409 18:58:25.372447 23994 net.cpp:395] relu5_3 -> conv5_3 (in-place)
I0409 18:58:25.372838 23994 net.cpp:150] Setting up relu5_3
I0409 18:58:25.372853 23994 net.cpp:157] Top shape: 1 512 24 24 (294912)
I0409 18:58:25.372855 23994 net.cpp:165] Memory required for data: 359795776
I0409 18:58:25.372859 23994 layer_factory.hpp:77] Creating layer pool5
I0409 18:58:25.372869 23994 net.cpp:100] Creating Layer pool5
I0409 18:58:25.372874 23994 net.cpp:434] pool5 <- conv5_3
I0409 18:58:25.372879 23994 net.cpp:408] pool5 -> pool5
I0409 18:58:25.372944 23994 net.cpp:150] Setting up pool5
I0409 18:58:25.372953 23994 net.cpp:157] Top shape: 1 512 24 24 (294912)
I0409 18:58:25.372956 23994 net.cpp:165] Memory required for data: 360975424
I0409 18:58:25.372961 23994 layer_factory.hpp:77] Creating layer fc6
I0409 18:58:25.372972 23994 net.cpp:100] Creating Layer fc6
I0409 18:58:25.372975 23994 net.cpp:434] fc6 <- pool5
I0409 18:58:25.372983 23994 net.cpp:408] fc6 -> fc6
I0409 18:58:25.420295 23994 net.cpp:150] Setting up fc6
I0409 18:58:25.420334 23994 net.cpp:157] Top shape: 1 1024 24 24 (589824)
I0409 18:58:25.420338 23994 net.cpp:165] Memory required for data: 363334720
I0409 18:58:25.420347 23994 layer_factory.hpp:77] Creating layer relu6
I0409 18:58:25.420357 23994 net.cpp:100] Creating Layer relu6
I0409 18:58:25.420372 23994 net.cpp:434] relu6 <- fc6
I0409 18:58:25.420382 23994 net.cpp:395] relu6 -> fc6 (in-place)
I0409 18:58:25.420655 23994 net.cpp:150] Setting up relu6
I0409 18:58:25.420667 23994 net.cpp:157] Top shape: 1 1024 24 24 (589824)
I0409 18:58:25.420671 23994 net.cpp:165] Memory required for data: 365694016
I0409 18:58:25.420675 23994 layer_factory.hpp:77] Creating layer fc7
I0409 18:58:25.420687 23994 net.cpp:100] Creating Layer fc7
I0409 18:58:25.420691 23994 net.cpp:434] fc7 <- fc6
I0409 18:58:25.420699 23994 net.cpp:408] fc7 -> fc7
I0409 18:58:25.432206 23994 net.cpp:150] Setting up fc7
I0409 18:58:25.432222 23994 net.cpp:157] Top shape: 1 1024 24 24 (589824)
I0409 18:58:25.432238 23994 net.cpp:165] Memory required for data: 368053312
I0409 18:58:25.432245 23994 layer_factory.hpp:77] Creating layer relu7
I0409 18:58:25.432255 23994 net.cpp:100] Creating Layer relu7
I0409 18:58:25.432260 23994 net.cpp:434] relu7 <- fc7
I0409 18:58:25.432267 23994 net.cpp:395] relu7 -> fc7 (in-place)
I0409 18:58:25.432695 23994 net.cpp:150] Setting up relu7
I0409 18:58:25.432720 23994 net.cpp:157] Top shape: 1 1024 24 24 (589824)
I0409 18:58:25.432724 23994 net.cpp:165] Memory required for data: 370412608
I0409 18:58:25.432729 23994 layer_factory.hpp:77] Creating layer fc7_relu7_0_split
I0409 18:58:25.432735 23994 net.cpp:100] Creating Layer fc7_relu7_0_split
I0409 18:58:25.432739 23994 net.cpp:434] fc7_relu7_0_split <- fc7
I0409 18:58:25.432747 23994 net.cpp:408] fc7_relu7_0_split -> fc7_relu7_0_split_0
I0409 18:58:25.432755 23994 net.cpp:408] fc7_relu7_0_split -> fc7_relu7_0_split_1
I0409 18:58:25.432767 23994 net.cpp:408] fc7_relu7_0_split -> fc7_relu7_0_split_2
I0409 18:58:25.432775 23994 net.cpp:408] fc7_relu7_0_split -> fc7_relu7_0_split_3
I0409 18:58:25.432873 23994 net.cpp:150] Setting up fc7_relu7_0_split
I0409 18:58:25.432883 23994 net.cpp:157] Top shape: 1 1024 24 24 (589824)
I0409 18:58:25.432888 23994 net.cpp:157] Top shape: 1 1024 24 24 (589824)
I0409 18:58:25.432891 23994 net.cpp:157] Top shape: 1 1024 24 24 (589824)
I0409 18:58:25.432919 23994 net.cpp:157] Top shape: 1 1024 24 24 (589824)
I0409 18:58:25.432921 23994 net.cpp:165] Memory required for data: 379849792
I0409 18:58:25.432925 23994 layer_factory.hpp:77] Creating layer conv6_1
I0409 18:58:25.432937 23994 net.cpp:100] Creating Layer conv6_1
I0409 18:58:25.432941 23994 net.cpp:434] conv6_1 <- fc7_relu7_0_split_0
I0409 18:58:25.432950 23994 net.cpp:408] conv6_1 -> conv6_1
I0409 18:58:25.436908 23994 net.cpp:150] Setting up conv6_1
I0409 18:58:25.436935 23994 net.cpp:157] Top shape: 1 256 24 24 (147456)
I0409 18:58:25.436940 23994 net.cpp:165] Memory required for data: 380439616
I0409 18:58:25.436946 23994 layer_factory.hpp:77] Creating layer conv6_1_relu
I0409 18:58:25.436954 23994 net.cpp:100] Creating Layer conv6_1_relu
I0409 18:58:25.436957 23994 net.cpp:434] conv6_1_relu <- conv6_1
I0409 18:58:25.436964 23994 net.cpp:395] conv6_1_relu -> conv6_1 (in-place)
I0409 18:58:25.437358 23994 net.cpp:150] Setting up conv6_1_relu
I0409 18:58:25.437383 23994 net.cpp:157] Top shape: 1 256 24 24 (147456)
I0409 18:58:25.437387 23994 net.cpp:165] Memory required for data: 381029440
I0409 18:58:25.437391 23994 layer_factory.hpp:77] Creating layer conv6_2
I0409 18:58:25.437403 23994 net.cpp:100] Creating Layer conv6_2
I0409 18:58:25.437408 23994 net.cpp:434] conv6_2 <- conv6_1
I0409 18:58:25.437415 23994 net.cpp:408] conv6_2 -> conv6_2
I0409 18:58:25.450547 23994 net.cpp:150] Setting up conv6_2
I0409 18:58:25.450574 23994 net.cpp:157] Top shape: 1 512 12 12 (73728)
I0409 18:58:25.450578 23994 net.cpp:165] Memory required for data: 381324352
I0409 18:58:25.450598 23994 layer_factory.hpp:77] Creating layer conv6_2_relu
I0409 18:58:25.450608 23994 net.cpp:100] Creating Layer conv6_2_relu
I0409 18:58:25.450611 23994 net.cpp:434] conv6_2_relu <- conv6_2
I0409 18:58:25.450618 23994 net.cpp:395] conv6_2_relu -> conv6_2 (in-place)
I0409 18:58:25.450850 23994 net.cpp:150] Setting up conv6_2_relu
I0409 18:58:25.450865 23994 net.cpp:157] Top shape: 1 512 12 12 (73728)
I0409 18:58:25.450875 23994 net.cpp:165] Memory required for data: 381619264
I0409 18:58:25.450878 23994 layer_factory.hpp:77] Creating layer conv6_2_conv6_2_relu_0_split
I0409 18:58:25.450884 23994 net.cpp:100] Creating Layer conv6_2_conv6_2_relu_0_split
I0409 18:58:25.450888 23994 net.cpp:434] conv6_2_conv6_2_relu_0_split <- conv6_2
I0409 18:58:25.450894 23994 net.cpp:408] conv6_2_conv6_2_relu_0_split -> conv6_2_conv6_2_relu_0_split_0
I0409 18:58:25.450901 23994 net.cpp:408] conv6_2_conv6_2_relu_0_split -> conv6_2_conv6_2_relu_0_split_1
I0409 18:58:25.450911 23994 net.cpp:408] conv6_2_conv6_2_relu_0_split -> conv6_2_conv6_2_relu_0_split_2
I0409 18:58:25.450920 23994 net.cpp:408] conv6_2_conv6_2_relu_0_split -> conv6_2_conv6_2_relu_0_split_3
I0409 18:58:25.451021 23994 net.cpp:150] Setting up conv6_2_conv6_2_relu_0_split
I0409 18:58:25.451030 23994 net.cpp:157] Top shape: 1 512 12 12 (73728)
I0409 18:58:25.451035 23994 net.cpp:157] Top shape: 1 512 12 12 (73728)
I0409 18:58:25.451040 23994 net.cpp:157] Top shape: 1 512 12 12 (73728)
I0409 18:58:25.451043 23994 net.cpp:157] Top shape: 1 512 12 12 (73728)
I0409 18:58:25.451046 23994 net.cpp:165] Memory required for data: 382798912
I0409 18:58:25.451050 23994 layer_factory.hpp:77] Creating layer conv7_1
I0409 18:58:25.451061 23994 net.cpp:100] Creating Layer conv7_1
I0409 18:58:25.451071 23994 net.cpp:434] conv7_1 <- conv6_2_conv6_2_relu_0_split_0
I0409 18:58:25.451077 23994 net.cpp:408] conv7_1 -> conv7_1
I0409 18:58:25.452991 23994 net.cpp:150] Setting up conv7_1
I0409 18:58:25.453019 23994 net.cpp:157] Top shape: 1 128 12 12 (18432)
I0409 18:58:25.453023 23994 net.cpp:165] Memory required for data: 382872640
I0409 18:58:25.453030 23994 layer_factory.hpp:77] Creating layer conv7_1_relu
I0409 18:58:25.453037 23994 net.cpp:100] Creating Layer conv7_1_relu
I0409 18:58:25.453042 23994 net.cpp:434] conv7_1_relu <- conv7_1
I0409 18:58:25.453048 23994 net.cpp:395] conv7_1_relu -> conv7_1 (in-place)
I0409 18:58:25.453446 23994 net.cpp:150] Setting up conv7_1_relu
I0409 18:58:25.453482 23994 net.cpp:157] Top shape: 1 128 12 12 (18432)
I0409 18:58:25.453487 23994 net.cpp:165] Memory required for data: 382946368
I0409 18:58:25.453491 23994 layer_factory.hpp:77] Creating layer conv7_2
I0409 18:58:25.453502 23994 net.cpp:100] Creating Layer conv7_2
I0409 18:58:25.453507 23994 net.cpp:434] conv7_2 <- conv7_1
I0409 18:58:25.453517 23994 net.cpp:408] conv7_2 -> conv7_2
I0409 18:58:25.457939 23994 net.cpp:150] Setting up conv7_2
I0409 18:58:25.457967 23994 net.cpp:157] Top shape: 1 256 6 6 (9216)
I0409 18:58:25.457970 23994 net.cpp:165] Memory required for data: 382983232
I0409 18:58:25.457978 23994 layer_factory.hpp:77] Creating layer conv7_2_relu
I0409 18:58:25.457983 23994 net.cpp:100] Creating Layer conv7_2_relu
I0409 18:58:25.457988 23994 net.cpp:434] conv7_2_relu <- conv7_2
I0409 18:58:25.457993 23994 net.cpp:395] conv7_2_relu -> conv7_2 (in-place)
I0409 18:58:25.458384 23994 net.cpp:150] Setting up conv7_2_relu
I0409 18:58:25.458398 23994 net.cpp:157] Top shape: 1 256 6 6 (9216)
I0409 18:58:25.458401 23994 net.cpp:165] Memory required for data: 383020096
I0409 18:58:25.458405 23994 layer_factory.hpp:77] Creating layer conv7_2_conv7_2_relu_0_split
I0409 18:58:25.458413 23994 net.cpp:100] Creating Layer conv7_2_conv7_2_relu_0_split
I0409 18:58:25.458417 23994 net.cpp:434] conv7_2_conv7_2_relu_0_split <- conv7_2
I0409 18:58:25.458425 23994 net.cpp:408] conv7_2_conv7_2_relu_0_split -> conv7_2_conv7_2_relu_0_split_0
I0409 18:58:25.458432 23994 net.cpp:408] conv7_2_conv7_2_relu_0_split -> conv7_2_conv7_2_relu_0_split_1
I0409 18:58:25.458438 23994 net.cpp:408] conv7_2_conv7_2_relu_0_split -> conv7_2_conv7_2_relu_0_split_2
I0409 18:58:25.458444 23994 net.cpp:408] conv7_2_conv7_2_relu_0_split -> conv7_2_conv7_2_relu_0_split_3
I0409 18:58:25.458545 23994 net.cpp:150] Setting up conv7_2_conv7_2_relu_0_split
I0409 18:58:25.458554 23994 net.cpp:157] Top shape: 1 256 6 6 (9216)
I0409 18:58:25.458560 23994 net.cpp:157] Top shape: 1 256 6 6 (9216)
I0409 18:58:25.458564 23994 net.cpp:157] Top shape: 1 256 6 6 (9216)
I0409 18:58:25.458569 23994 net.cpp:157] Top shape: 1 256 6 6 (9216)
I0409 18:58:25.458570 23994 net.cpp:165] Memory required for data: 383167552
I0409 18:58:25.458575 23994 layer_factory.hpp:77] Creating layer conv8_1
I0409 18:58:25.458585 23994 net.cpp:100] Creating Layer conv8_1
I0409 18:58:25.458588 23994 net.cpp:434] conv8_1 <- conv7_2_conv7_2_relu_0_split_0
I0409 18:58:25.458595 23994 net.cpp:408] conv8_1 -> conv8_1
I0409 18:58:25.460140 23994 net.cpp:150] Setting up conv8_1
I0409 18:58:25.460155 23994 net.cpp:157] Top shape: 1 128 6 6 (4608)
I0409 18:58:25.460170 23994 net.cpp:165] Memory required for data: 383185984
I0409 18:58:25.460176 23994 layer_factory.hpp:77] Creating layer conv8_1_relu
I0409 18:58:25.460184 23994 net.cpp:100] Creating Layer conv8_1_relu
I0409 18:58:25.460188 23994 net.cpp:434] conv8_1_relu <- conv8_1
I0409 18:58:25.460194 23994 net.cpp:395] conv8_1_relu -> conv8_1 (in-place)
I0409 18:58:25.460389 23994 net.cpp:150] Setting up conv8_1_relu
I0409 18:58:25.460402 23994 net.cpp:157] Top shape: 1 128 6 6 (4608)
I0409 18:58:25.460404 23994 net.cpp:165] Memory required for data: 383204416
I0409 18:58:25.460408 23994 layer_factory.hpp:77] Creating layer conv8_2
I0409 18:58:25.460420 23994 net.cpp:100] Creating Layer conv8_2
I0409 18:58:25.460428 23994 net.cpp:434] conv8_2 <- conv8_1
I0409 18:58:25.460435 23994 net.cpp:408] conv8_2 -> conv8_2
I0409 18:58:25.464658 23994 net.cpp:150] Setting up conv8_2
I0409 18:58:25.464684 23994 net.cpp:157] Top shape: 1 256 4 4 (4096)
I0409 18:58:25.464687 23994 net.cpp:165] Memory required for data: 383220800
I0409 18:58:25.464694 23994 layer_factory.hpp:77] Creating layer conv8_2_relu
I0409 18:58:25.464700 23994 net.cpp:100] Creating Layer conv8_2_relu
I0409 18:58:25.464704 23994 net.cpp:434] conv8_2_relu <- conv8_2
I0409 18:58:25.464711 23994 net.cpp:395] conv8_2_relu -> conv8_2 (in-place)
I0409 18:58:25.465098 23994 net.cpp:150] Setting up conv8_2_relu
I0409 18:58:25.465111 23994 net.cpp:157] Top shape: 1 256 4 4 (4096)
I0409 18:58:25.465137 23994 net.cpp:165] Memory required for data: 383237184
I0409 18:58:25.465142 23994 layer_factory.hpp:77] Creating layer conv8_2_conv8_2_relu_0_split
I0409 18:58:25.465148 23994 net.cpp:100] Creating Layer conv8_2_conv8_2_relu_0_split
I0409 18:58:25.465152 23994 net.cpp:434] conv8_2_conv8_2_relu_0_split <- conv8_2
I0409 18:58:25.465159 23994 net.cpp:408] conv8_2_conv8_2_relu_0_split -> conv8_2_conv8_2_relu_0_split_0
I0409 18:58:25.465167 23994 net.cpp:408] conv8_2_conv8_2_relu_0_split -> conv8_2_conv8_2_relu_0_split_1
I0409 18:58:25.465173 23994 net.cpp:408] conv8_2_conv8_2_relu_0_split -> conv8_2_conv8_2_relu_0_split_2
I0409 18:58:25.465178 23994 net.cpp:408] conv8_2_conv8_2_relu_0_split -> conv8_2_conv8_2_relu_0_split_3
I0409 18:58:25.465273 23994 net.cpp:150] Setting up conv8_2_conv8_2_relu_0_split
I0409 18:58:25.465286 23994 net.cpp:157] Top shape: 1 256 4 4 (4096)
I0409 18:58:25.465291 23994 net.cpp:157] Top shape: 1 256 4 4 (4096)
I0409 18:58:25.465293 23994 net.cpp:157] Top shape: 1 256 4 4 (4096)
I0409 18:58:25.465297 23994 net.cpp:157] Top shape: 1 256 4 4 (4096)
I0409 18:58:25.465301 23994 net.cpp:165] Memory required for data: 383302720
I0409 18:58:25.465303 23994 layer_factory.hpp:77] Creating layer conv9_1
I0409 18:58:25.465314 23994 net.cpp:100] Creating Layer conv9_1
I0409 18:58:25.465318 23994 net.cpp:434] conv9_1 <- conv8_2_conv8_2_relu_0_split_0
I0409 18:58:25.465327 23994 net.cpp:408] conv9_1 -> conv9_1
I0409 18:58:25.466733 23994 net.cpp:150] Setting up conv9_1
I0409 18:58:25.466760 23994 net.cpp:157] Top shape: 1 128 4 4 (2048)
I0409 18:58:25.466764 23994 net.cpp:165] Memory required for data: 383310912
I0409 18:58:25.466770 23994 layer_factory.hpp:77] Creating layer conv9_1_relu
I0409 18:58:25.466778 23994 net.cpp:100] Creating Layer conv9_1_relu
I0409 18:58:25.466781 23994 net.cpp:434] conv9_1_relu <- conv9_1
I0409 18:58:25.466786 23994 net.cpp:395] conv9_1_relu -> conv9_1 (in-place)
I0409 18:58:25.467169 23994 net.cpp:150] Setting up conv9_1_relu
I0409 18:58:25.467192 23994 net.cpp:157] Top shape: 1 128 4 4 (2048)
I0409 18:58:25.467196 23994 net.cpp:165] Memory required for data: 383319104
I0409 18:58:25.467200 23994 layer_factory.hpp:77] Creating layer conv9_2
I0409 18:58:25.467212 23994 net.cpp:100] Creating Layer conv9_2
I0409 18:58:25.467216 23994 net.cpp:434] conv9_2 <- conv9_1
I0409 18:58:25.467223 23994 net.cpp:408] conv9_2 -> conv9_2
I0409 18:58:25.471469 23994 net.cpp:150] Setting up conv9_2
I0409 18:58:25.471483 23994 net.cpp:157] Top shape: 1 256 2 2 (1024)
I0409 18:58:25.471499 23994 net.cpp:165] Memory required for data: 383323200
I0409 18:58:25.471505 23994 layer_factory.hpp:77] Creating layer conv9_2_relu
I0409 18:58:25.471511 23994 net.cpp:100] Creating Layer conv9_2_relu
I0409 18:58:25.471516 23994 net.cpp:434] conv9_2_relu <- conv9_2
I0409 18:58:25.471524 23994 net.cpp:395] conv9_2_relu -> conv9_2 (in-place)
I0409 18:58:25.471715 23994 net.cpp:150] Setting up conv9_2_relu
I0409 18:58:25.471727 23994 net.cpp:157] Top shape: 1 256 2 2 (1024)
I0409 18:58:25.471730 23994 net.cpp:165] Memory required for data: 383327296
I0409 18:58:25.471735 23994 layer_factory.hpp:77] Creating layer conv9_2_conv9_2_relu_0_split
I0409 18:58:25.471741 23994 net.cpp:100] Creating Layer conv9_2_conv9_2_relu_0_split
I0409 18:58:25.471745 23994 net.cpp:434] conv9_2_conv9_2_relu_0_split <- conv9_2
I0409 18:58:25.471750 23994 net.cpp:408] conv9_2_conv9_2_relu_0_split -> conv9_2_conv9_2_relu_0_split_0
I0409 18:58:25.471757 23994 net.cpp:408] conv9_2_conv9_2_relu_0_split -> conv9_2_conv9_2_relu_0_split_1
I0409 18:58:25.471765 23994 net.cpp:408] conv9_2_conv9_2_relu_0_split -> conv9_2_conv9_2_relu_0_split_2
I0409 18:58:25.471840 23994 net.cpp:150] Setting up conv9_2_conv9_2_relu_0_split
I0409 18:58:25.471848 23994 net.cpp:157] Top shape: 1 256 2 2 (1024)
I0409 18:58:25.471853 23994 net.cpp:157] Top shape: 1 256 2 2 (1024)
I0409 18:58:25.471856 23994 net.cpp:157] Top shape: 1 256 2 2 (1024)
I0409 18:58:25.471859 23994 net.cpp:165] Memory required for data: 383339584
I0409 18:58:25.471863 23994 layer_factory.hpp:77] Creating layer conv4_3_norm
I0409 18:58:25.471881 23994 net.cpp:100] Creating Layer conv4_3_norm
I0409 18:58:25.471886 23994 net.cpp:434] conv4_3_norm <- conv4_3_relu4_3_0_split_1
I0409 18:58:25.471892 23994 net.cpp:408] conv4_3_norm -> conv4_3_norm
I0409 18:58:25.472111 23994 net.cpp:150] Setting up conv4_3_norm
I0409 18:58:25.472121 23994 net.cpp:157] Top shape: 1 512 48 48 (1179648)
I0409 18:58:25.472126 23994 net.cpp:165] Memory required for data: 388058176
I0409 18:58:25.472131 23994 layer_factory.hpp:77] Creating layer conv4_3_norm_conv4_3_norm_0_split
I0409 18:58:25.472136 23994 net.cpp:100] Creating Layer conv4_3_norm_conv4_3_norm_0_split
I0409 18:58:25.472139 23994 net.cpp:434] conv4_3_norm_conv4_3_norm_0_split <- conv4_3_norm
I0409 18:58:25.472146 23994 net.cpp:408] conv4_3_norm_conv4_3_norm_0_split -> conv4_3_norm_conv4_3_norm_0_split_0
I0409 18:58:25.472153 23994 net.cpp:408] conv4_3_norm_conv4_3_norm_0_split -> conv4_3_norm_conv4_3_norm_0_split_1
I0409 18:58:25.472158 23994 net.cpp:408] conv4_3_norm_conv4_3_norm_0_split -> conv4_3_norm_conv4_3_norm_0_split_2
I0409 18:58:25.472223 23994 net.cpp:150] Setting up conv4_3_norm_conv4_3_norm_0_split
I0409 18:58:25.472232 23994 net.cpp:157] Top shape: 1 512 48 48 (1179648)
I0409 18:58:25.472236 23994 net.cpp:157] Top shape: 1 512 48 48 (1179648)
I0409 18:58:25.472239 23994 net.cpp:157] Top shape: 1 512 48 48 (1179648)
I0409 18:58:25.472242 23994 net.cpp:165] Memory required for data: 402213952
I0409 18:58:25.472246 23994 layer_factory.hpp:77] Creating layer conv4_3_norm_mbox_loc
I0409 18:58:25.472255 23994 net.cpp:100] Creating Layer conv4_3_norm_mbox_loc
I0409 18:58:25.472259 23994 net.cpp:434] conv4_3_norm_mbox_loc <- conv4_3_norm_conv4_3_norm_0_split_0
I0409 18:58:25.472265 23994 net.cpp:408] conv4_3_norm_mbox_loc -> conv4_3_norm_mbox_loc
I0409 18:58:25.491631 23994 net.cpp:150] Setting up conv4_3_norm_mbox_loc
I0409 18:58:25.491658 23994 net.cpp:157] Top shape: 1 240 48 48 (552960)
I0409 18:58:25.491662 23994 net.cpp:165] Memory required for data: 404425792
I0409 18:58:25.491669 23994 layer_factory.hpp:77] Creating layer conv4_3_norm_mbox_loc_perm
I0409 18:58:25.491680 23994 net.cpp:100] Creating Layer conv4_3_norm_mbox_loc_perm
I0409 18:58:25.491685 23994 net.cpp:434] conv4_3_norm_mbox_loc_perm <- conv4_3_norm_mbox_loc
I0409 18:58:25.491693 23994 net.cpp:408] conv4_3_norm_mbox_loc_perm -> conv4_3_norm_mbox_loc_perm
I0409 18:58:25.491850 23994 net.cpp:150] Setting up conv4_3_norm_mbox_loc_perm
I0409 18:58:25.491861 23994 net.cpp:157] Top shape: 1 48 48 240 (552960)
I0409 18:58:25.491865 23994 net.cpp:165] Memory required for data: 406637632
I0409 18:58:25.491869 23994 layer_factory.hpp:77] Creating layer conv4_3_norm_mbox_loc_flat
I0409 18:58:25.491875 23994 net.cpp:100] Creating Layer conv4_3_norm_mbox_loc_flat
I0409 18:58:25.491879 23994 net.cpp:434] conv4_3_norm_mbox_loc_flat <- conv4_3_norm_mbox_loc_perm
I0409 18:58:25.491885 23994 net.cpp:408] conv4_3_norm_mbox_loc_flat -> conv4_3_norm_mbox_loc_flat
I0409 18:58:25.491932 23994 net.cpp:150] Setting up conv4_3_norm_mbox_loc_flat
I0409 18:58:25.491942 23994 net.cpp:157] Top shape: 1 552960 (552960)
I0409 18:58:25.491945 23994 net.cpp:165] Memory required for data: 408849472
I0409 18:58:25.491950 23994 layer_factory.hpp:77] Creating layer conv4_3_norm_mbox_conf
I0409 18:58:25.491968 23994 net.cpp:100] Creating Layer conv4_3_norm_mbox_conf
I0409 18:58:25.491974 23994 net.cpp:434] conv4_3_norm_mbox_conf <- conv4_3_norm_conv4_3_norm_0_split_1
I0409 18:58:25.491981 23994 net.cpp:408] conv4_3_norm_mbox_conf -> conv4_3_norm_mbox_conf
I0409 18:58:25.496599 23994 net.cpp:150] Setting up conv4_3_norm_mbox_conf
I0409 18:58:25.496626 23994 net.cpp:157] Top shape: 1 40 48 48 (92160)
I0409 18:58:25.496630 23994 net.cpp:165] Memory required for data: 409218112
I0409 18:58:25.496637 23994 layer_factory.hpp:77] Creating layer conv4_3_norm_mbox_conf_perm
I0409 18:58:25.496646 23994 net.cpp:100] Creating Layer conv4_3_norm_mbox_conf_perm
I0409 18:58:25.496651 23994 net.cpp:434] conv4_3_norm_mbox_conf_perm <- conv4_3_norm_mbox_conf
I0409 18:58:25.496668 23994 net.cpp:408] conv4_3_norm_mbox_conf_perm -> conv4_3_norm_mbox_conf_perm
I0409 18:58:25.496824 23994 net.cpp:150] Setting up conv4_3_norm_mbox_conf_perm
I0409 18:58:25.496834 23994 net.cpp:157] Top shape: 1 48 48 40 (92160)
I0409 18:58:25.496836 23994 net.cpp:165] Memory required for data: 409586752
I0409 18:58:25.496840 23994 layer_factory.hpp:77] Creating layer conv4_3_norm_mbox_conf_flat
I0409 18:58:25.496845 23994 net.cpp:100] Creating Layer conv4_3_norm_mbox_conf_flat
I0409 18:58:25.496850 23994 net.cpp:434] conv4_3_norm_mbox_conf_flat <- conv4_3_norm_mbox_conf_perm
I0409 18:58:25.496855 23994 net.cpp:408] conv4_3_norm_mbox_conf_flat -> conv4_3_norm_mbox_conf_flat
I0409 18:58:25.496891 23994 net.cpp:150] Setting up conv4_3_norm_mbox_conf_flat
I0409 18:58:25.496907 23994 net.cpp:157] Top shape: 1 92160 (92160)
I0409 18:58:25.496911 23994 net.cpp:165] Memory required for data: 409955392
I0409 18:58:25.496913 23994 layer_factory.hpp:77] Creating layer conv4_3_norm_mbox_priorbox
I0409 18:58:25.496922 23994 net.cpp:100] Creating Layer conv4_3_norm_mbox_priorbox
I0409 18:58:25.496927 23994 net.cpp:434] conv4_3_norm_mbox_priorbox <- conv4_3_norm_conv4_3_norm_0_split_2
I0409 18:58:25.496932 23994 net.cpp:434] conv4_3_norm_mbox_priorbox <- data_data_0_split_1
I0409 18:58:25.496937 23994 net.cpp:408] conv4_3_norm_mbox_priorbox -> conv4_3_norm_mbox_priorbox
I0409 18:58:25.496976 23994 net.cpp:150] Setting up conv4_3_norm_mbox_priorbox
I0409 18:58:25.496985 23994 net.cpp:157] Top shape: 1 2 184320 (368640)
I0409 18:58:25.496989 23994 net.cpp:165] Memory required for data: 411429952
I0409 18:58:25.496992 23994 layer_factory.hpp:77] Creating layer fc7_mbox_loc
I0409 18:58:25.497001 23994 net.cpp:100] Creating Layer fc7_mbox_loc
I0409 18:58:25.497005 23994 net.cpp:434] fc7_mbox_loc <- fc7_relu7_0_split_1
I0409 18:58:25.497014 23994 net.cpp:408] fc7_mbox_loc -> fc7_mbox_loc
I0409 18:58:25.535320 23994 net.cpp:150] Setting up fc7_mbox_loc
I0409 18:58:25.535349 23994 net.cpp:157] Top shape: 1 240 24 24 (138240)
I0409 18:58:25.535353 23994 net.cpp:165] Memory required for data: 411982912
I0409 18:58:25.535362 23994 layer_factory.hpp:77] Creating layer fc7_mbox_loc_perm
I0409 18:58:25.535373 23994 net.cpp:100] Creating Layer fc7_mbox_loc_perm
I0409 18:58:25.535379 23994 net.cpp:434] fc7_mbox_loc_perm <- fc7_mbox_loc
I0409 18:58:25.535389 23994 net.cpp:408] fc7_mbox_loc_perm -> fc7_mbox_loc_perm
I0409 18:58:25.535573 23994 net.cpp:150] Setting up fc7_mbox_loc_perm
I0409 18:58:25.535581 23994 net.cpp:157] Top shape: 1 24 24 240 (138240)
I0409 18:58:25.535585 23994 net.cpp:165] Memory required for data: 412535872
I0409 18:58:25.535589 23994 layer_factory.hpp:77] Creating layer fc7_mbox_loc_flat
I0409 18:58:25.535596 23994 net.cpp:100] Creating Layer fc7_mbox_loc_flat
I0409 18:58:25.535601 23994 net.cpp:434] fc7_mbox_loc_flat <- fc7_mbox_loc_perm
I0409 18:58:25.535606 23994 net.cpp:408] fc7_mbox_loc_flat -> fc7_mbox_loc_flat
I0409 18:58:25.535643 23994 net.cpp:150] Setting up fc7_mbox_loc_flat
I0409 18:58:25.535656 23994 net.cpp:157] Top shape: 1 138240 (138240)
I0409 18:58:25.535660 23994 net.cpp:165] Memory required for data: 413088832
I0409 18:58:25.535662 23994 layer_factory.hpp:77] Creating layer fc7_mbox_conf
I0409 18:58:25.535673 23994 net.cpp:100] Creating Layer fc7_mbox_conf
I0409 18:58:25.535678 23994 net.cpp:434] fc7_mbox_conf <- fc7_relu7_0_split_2
I0409 18:58:25.535687 23994 net.cpp:408] fc7_mbox_conf -> fc7_mbox_conf
I0409 18:58:25.543011 23994 net.cpp:150] Setting up fc7_mbox_conf
I0409 18:58:25.543038 23994 net.cpp:157] Top shape: 1 40 24 24 (23040)
I0409 18:58:25.543042 23994 net.cpp:165] Memory required for data: 413180992
I0409 18:58:25.543048 23994 layer_factory.hpp:77] Creating layer fc7_mbox_conf_perm
I0409 18:58:25.543057 23994 net.cpp:100] Creating Layer fc7_mbox_conf_perm
I0409 18:58:25.543073 23994 net.cpp:434] fc7_mbox_conf_perm <- fc7_mbox_conf
I0409 18:58:25.543082 23994 net.cpp:408] fc7_mbox_conf_perm -> fc7_mbox_conf_perm
I0409 18:58:25.543232 23994 net.cpp:150] Setting up fc7_mbox_conf_perm
I0409 18:58:25.543256 23994 net.cpp:157] Top shape: 1 24 24 40 (23040)
I0409 18:58:25.543260 23994 net.cpp:165] Memory required for data: 413273152
I0409 18:58:25.543263 23994 layer_factory.hpp:77] Creating layer fc7_mbox_conf_flat
I0409 18:58:25.543270 23994 net.cpp:100] Creating Layer fc7_mbox_conf_flat
I0409 18:58:25.543275 23994 net.cpp:434] fc7_mbox_conf_flat <- fc7_mbox_conf_perm
I0409 18:58:25.543280 23994 net.cpp:408] fc7_mbox_conf_flat -> fc7_mbox_conf_flat
I0409 18:58:25.543318 23994 net.cpp:150] Setting up fc7_mbox_conf_flat
I0409 18:58:25.543330 23994 net.cpp:157] Top shape: 1 23040 (23040)
I0409 18:58:25.543334 23994 net.cpp:165] Memory required for data: 413365312
I0409 18:58:25.543337 23994 layer_factory.hpp:77] Creating layer fc7_mbox_priorbox
I0409 18:58:25.543349 23994 net.cpp:100] Creating Layer fc7_mbox_priorbox
I0409 18:58:25.543352 23994 net.cpp:434] fc7_mbox_priorbox <- fc7_relu7_0_split_3
I0409 18:58:25.543357 23994 net.cpp:434] fc7_mbox_priorbox <- data_data_0_split_2
I0409 18:58:25.543364 23994 net.cpp:408] fc7_mbox_priorbox -> fc7_mbox_priorbox
I0409 18:58:25.543403 23994 net.cpp:150] Setting up fc7_mbox_priorbox
I0409 18:58:25.543409 23994 net.cpp:157] Top shape: 1 2 46080 (92160)
I0409 18:58:25.543413 23994 net.cpp:165] Memory required for data: 413733952
I0409 18:58:25.543416 23994 layer_factory.hpp:77] Creating layer conv6_2_mbox_loc
I0409 18:58:25.543426 23994 net.cpp:100] Creating Layer conv6_2_mbox_loc
I0409 18:58:25.543431 23994 net.cpp:434] conv6_2_mbox_loc <- conv6_2_conv6_2_relu_0_split_1
I0409 18:58:25.543438 23994 net.cpp:408] conv6_2_mbox_loc -> conv6_2_mbox_loc
I0409 18:58:25.563046 23994 net.cpp:150] Setting up conv6_2_mbox_loc
I0409 18:58:25.563074 23994 net.cpp:157] Top shape: 1 240 12 12 (34560)
I0409 18:58:25.563078 23994 net.cpp:165] Memory required for data: 413872192
I0409 18:58:25.563086 23994 layer_factory.hpp:77] Creating layer conv6_2_mbox_loc_perm
I0409 18:58:25.563097 23994 net.cpp:100] Creating Layer conv6_2_mbox_loc_perm
I0409 18:58:25.563102 23994 net.cpp:434] conv6_2_mbox_loc_perm <- conv6_2_mbox_loc
I0409 18:58:25.563109 23994 net.cpp:408] conv6_2_mbox_loc_perm -> conv6_2_mbox_loc_perm
I0409 18:58:25.563284 23994 net.cpp:150] Setting up conv6_2_mbox_loc_perm
I0409 18:58:25.563294 23994 net.cpp:157] Top shape: 1 12 12 240 (34560)
I0409 18:58:25.563298 23994 net.cpp:165] Memory required for data: 414010432
I0409 18:58:25.563302 23994 layer_factory.hpp:77] Creating layer conv6_2_mbox_loc_flat
I0409 18:58:25.563307 23994 net.cpp:100] Creating Layer conv6_2_mbox_loc_flat
I0409 18:58:25.563311 23994 net.cpp:434] conv6_2_mbox_loc_flat <- conv6_2_mbox_loc_perm
I0409 18:58:25.563318 23994 net.cpp:408] conv6_2_mbox_loc_flat -> conv6_2_mbox_loc_flat
I0409 18:58:25.563357 23994 net.cpp:150] Setting up conv6_2_mbox_loc_flat
I0409 18:58:25.563372 23994 net.cpp:157] Top shape: 1 34560 (34560)
I0409 18:58:25.563375 23994 net.cpp:165] Memory required for data: 414148672
I0409 18:58:25.563380 23994 layer_factory.hpp:77] Creating layer conv6_2_mbox_conf
I0409 18:58:25.563391 23994 net.cpp:100] Creating Layer conv6_2_mbox_conf
I0409 18:58:25.563396 23994 net.cpp:434] conv6_2_mbox_conf <- conv6_2_conv6_2_relu_0_split_2
I0409 18:58:25.563402 23994 net.cpp:408] conv6_2_mbox_conf -> conv6_2_mbox_conf
I0409 18:58:25.567853 23994 net.cpp:150] Setting up conv6_2_mbox_conf
I0409 18:58:25.567880 23994 net.cpp:157] Top shape: 1 40 12 12 (5760)
I0409 18:58:25.567884 23994 net.cpp:165] Memory required for data: 414171712
I0409 18:58:25.567891 23994 layer_factory.hpp:77] Creating layer conv6_2_mbox_conf_perm
I0409 18:58:25.567898 23994 net.cpp:100] Creating Layer conv6_2_mbox_conf_perm
I0409 18:58:25.567903 23994 net.cpp:434] conv6_2_mbox_conf_perm <- conv6_2_mbox_conf
I0409 18:58:25.567909 23994 net.cpp:408] conv6_2_mbox_conf_perm -> conv6_2_mbox_conf_perm
I0409 18:58:25.568091 23994 net.cpp:150] Setting up conv6_2_mbox_conf_perm
I0409 18:58:25.568102 23994 net.cpp:157] Top shape: 1 12 12 40 (5760)
I0409 18:58:25.568106 23994 net.cpp:165] Memory required for data: 414194752
I0409 18:58:25.568125 23994 layer_factory.hpp:77] Creating layer conv6_2_mbox_conf_flat
I0409 18:58:25.568132 23994 net.cpp:100] Creating Layer conv6_2_mbox_conf_flat
I0409 18:58:25.568137 23994 net.cpp:434] conv6_2_mbox_conf_flat <- conv6_2_mbox_conf_perm
I0409 18:58:25.568143 23994 net.cpp:408] conv6_2_mbox_conf_flat -> conv6_2_mbox_conf_flat
I0409 18:58:25.568183 23994 net.cpp:150] Setting up conv6_2_mbox_conf_flat
I0409 18:58:25.568193 23994 net.cpp:157] Top shape: 1 5760 (5760)
I0409 18:58:25.568197 23994 net.cpp:165] Memory required for data: 414217792
I0409 18:58:25.568200 23994 layer_factory.hpp:77] Creating layer conv6_2_mbox_priorbox
I0409 18:58:25.568207 23994 net.cpp:100] Creating Layer conv6_2_mbox_priorbox
I0409 18:58:25.568212 23994 net.cpp:434] conv6_2_mbox_priorbox <- conv6_2_conv6_2_relu_0_split_3
I0409 18:58:25.568220 23994 net.cpp:434] conv6_2_mbox_priorbox <- data_data_0_split_3
I0409 18:58:25.568226 23994 net.cpp:408] conv6_2_mbox_priorbox -> conv6_2_mbox_priorbox
I0409 18:58:25.568279 23994 net.cpp:150] Setting up conv6_2_mbox_priorbox
I0409 18:58:25.568289 23994 net.cpp:157] Top shape: 1 2 11520 (23040)
I0409 18:58:25.568291 23994 net.cpp:165] Memory required for data: 414309952
I0409 18:58:25.568295 23994 layer_factory.hpp:77] Creating layer conv7_2_mbox_loc
I0409 18:58:25.568305 23994 net.cpp:100] Creating Layer conv7_2_mbox_loc
I0409 18:58:25.568310 23994 net.cpp:434] conv7_2_mbox_loc <- conv7_2_conv7_2_relu_0_split_1
I0409 18:58:25.568315 23994 net.cpp:408] conv7_2_mbox_loc -> conv7_2_mbox_loc
I0409 18:58:25.578582 23994 net.cpp:150] Setting up conv7_2_mbox_loc
I0409 18:58:25.578609 23994 net.cpp:157] Top shape: 1 240 6 6 (8640)
I0409 18:58:25.578613 23994 net.cpp:165] Memory required for data: 414344512
I0409 18:58:25.578620 23994 layer_factory.hpp:77] Creating layer conv7_2_mbox_loc_perm
I0409 18:58:25.578629 23994 net.cpp:100] Creating Layer conv7_2_mbox_loc_perm
I0409 18:58:25.578634 23994 net.cpp:434] conv7_2_mbox_loc_perm <- conv7_2_mbox_loc
I0409 18:58:25.578640 23994 net.cpp:408] conv7_2_mbox_loc_perm -> conv7_2_mbox_loc_perm
I0409 18:58:25.578800 23994 net.cpp:150] Setting up conv7_2_mbox_loc_perm
I0409 18:58:25.578810 23994 net.cpp:157] Top shape: 1 6 6 240 (8640)
I0409 18:58:25.578814 23994 net.cpp:165] Memory required for data: 414379072
I0409 18:58:25.578817 23994 layer_factory.hpp:77] Creating layer conv7_2_mbox_loc_flat
I0409 18:58:25.578822 23994 net.cpp:100] Creating Layer conv7_2_mbox_loc_flat
I0409 18:58:25.578826 23994 net.cpp:434] conv7_2_mbox_loc_flat <- conv7_2_mbox_loc_perm
I0409 18:58:25.578845 23994 net.cpp:408] conv7_2_mbox_loc_flat -> conv7_2_mbox_loc_flat
I0409 18:58:25.578883 23994 net.cpp:150] Setting up conv7_2_mbox_loc_flat
I0409 18:58:25.578892 23994 net.cpp:157] Top shape: 1 8640 (8640)
I0409 18:58:25.578896 23994 net.cpp:165] Memory required for data: 414413632
I0409 18:58:25.578899 23994 layer_factory.hpp:77] Creating layer conv7_2_mbox_conf
I0409 18:58:25.578917 23994 net.cpp:100] Creating Layer conv7_2_mbox_conf
I0409 18:58:25.578920 23994 net.cpp:434] conv7_2_mbox_conf <- conv7_2_conv7_2_relu_0_split_2
I0409 18:58:25.578928 23994 net.cpp:408] conv7_2_mbox_conf -> conv7_2_mbox_conf
I0409 18:58:25.582177 23994 net.cpp:150] Setting up conv7_2_mbox_conf
I0409 18:58:25.582211 23994 net.cpp:157] Top shape: 1 40 6 6 (1440)
I0409 18:58:25.582216 23994 net.cpp:165] Memory required for data: 414419392
I0409 18:58:25.582223 23994 layer_factory.hpp:77] Creating layer conv7_2_mbox_conf_perm
I0409 18:58:25.582231 23994 net.cpp:100] Creating Layer conv7_2_mbox_conf_perm
I0409 18:58:25.582235 23994 net.cpp:434] conv7_2_mbox_conf_perm <- conv7_2_mbox_conf
I0409 18:58:25.582243 23994 net.cpp:408] conv7_2_mbox_conf_perm -> conv7_2_mbox_conf_perm
I0409 18:58:25.582410 23994 net.cpp:150] Setting up conv7_2_mbox_conf_perm
I0409 18:58:25.582420 23994 net.cpp:157] Top shape: 1 6 6 40 (1440)
I0409 18:58:25.582424 23994 net.cpp:165] Memory required for data: 414425152
I0409 18:58:25.582428 23994 layer_factory.hpp:77] Creating layer conv7_2_mbox_conf_flat
I0409 18:58:25.582448 23994 net.cpp:100] Creating Layer conv7_2_mbox_conf_flat
I0409 18:58:25.582453 23994 net.cpp:434] conv7_2_mbox_conf_flat <- conv7_2_mbox_conf_perm
I0409 18:58:25.582460 23994 net.cpp:408] conv7_2_mbox_conf_flat -> conv7_2_mbox_conf_flat
I0409 18:58:25.582499 23994 net.cpp:150] Setting up conv7_2_mbox_conf_flat
I0409 18:58:25.582509 23994 net.cpp:157] Top shape: 1 1440 (1440)
I0409 18:58:25.582511 23994 net.cpp:165] Memory required for data: 414430912
I0409 18:58:25.582515 23994 layer_factory.hpp:77] Creating layer conv7_2_mbox_priorbox
I0409 18:58:25.582523 23994 net.cpp:100] Creating Layer conv7_2_mbox_priorbox
I0409 18:58:25.582528 23994 net.cpp:434] conv7_2_mbox_priorbox <- conv7_2_conv7_2_relu_0_split_3
I0409 18:58:25.582533 23994 net.cpp:434] conv7_2_mbox_priorbox <- data_data_0_split_4
I0409 18:58:25.582540 23994 net.cpp:408] conv7_2_mbox_priorbox -> conv7_2_mbox_priorbox
I0409 18:58:25.582581 23994 net.cpp:150] Setting up conv7_2_mbox_priorbox
I0409 18:58:25.582589 23994 net.cpp:157] Top shape: 1 2 2880 (5760)
I0409 18:58:25.582592 23994 net.cpp:165] Memory required for data: 414453952
I0409 18:58:25.582595 23994 layer_factory.hpp:77] Creating layer conv8_2_mbox_loc
I0409 18:58:25.582607 23994 net.cpp:100] Creating Layer conv8_2_mbox_loc
I0409 18:58:25.582612 23994 net.cpp:434] conv8_2_mbox_loc <- conv8_2_conv8_2_relu_0_split_1
I0409 18:58:25.582618 23994 net.cpp:408] conv8_2_mbox_loc -> conv8_2_mbox_loc
I0409 18:58:25.592995 23994 net.cpp:150] Setting up conv8_2_mbox_loc
I0409 18:58:25.593021 23994 net.cpp:157] Top shape: 1 240 4 4 (3840)
I0409 18:58:25.593025 23994 net.cpp:165] Memory required for data: 414469312
I0409 18:58:25.593046 23994 layer_factory.hpp:77] Creating layer conv8_2_mbox_loc_perm
I0409 18:58:25.593055 23994 net.cpp:100] Creating Layer conv8_2_mbox_loc_perm
I0409 18:58:25.593058 23994 net.cpp:434] conv8_2_mbox_loc_perm <- conv8_2_mbox_loc
I0409 18:58:25.593077 23994 net.cpp:408] conv8_2_mbox_loc_perm -> conv8_2_mbox_loc_perm
I0409 18:58:25.593238 23994 net.cpp:150] Setting up conv8_2_mbox_loc_perm
I0409 18:58:25.593248 23994 net.cpp:157] Top shape: 1 4 4 240 (3840)
I0409 18:58:25.593251 23994 net.cpp:165] Memory required for data: 414484672
I0409 18:58:25.593255 23994 layer_factory.hpp:77] Creating layer conv8_2_mbox_loc_flat
I0409 18:58:25.593262 23994 net.cpp:100] Creating Layer conv8_2_mbox_loc_flat
I0409 18:58:25.593266 23994 net.cpp:434] conv8_2_mbox_loc_flat <- conv8_2_mbox_loc_perm
I0409 18:58:25.593273 23994 net.cpp:408] conv8_2_mbox_loc_flat -> conv8_2_mbox_loc_flat
I0409 18:58:25.593309 23994 net.cpp:150] Setting up conv8_2_mbox_loc_flat
I0409 18:58:25.593318 23994 net.cpp:157] Top shape: 1 3840 (3840)
I0409 18:58:25.593322 23994 net.cpp:165] Memory required for data: 414500032
I0409 18:58:25.593325 23994 layer_factory.hpp:77] Creating layer conv8_2_mbox_conf
I0409 18:58:25.593335 23994 net.cpp:100] Creating Layer conv8_2_mbox_conf
I0409 18:58:25.593341 23994 net.cpp:434] conv8_2_mbox_conf <- conv8_2_conv8_2_relu_0_split_2
I0409 18:58:25.593348 23994 net.cpp:408] conv8_2_mbox_conf -> conv8_2_mbox_conf
I0409 18:58:25.596321 23994 net.cpp:150] Setting up conv8_2_mbox_conf
I0409 18:58:25.596348 23994 net.cpp:157] Top shape: 1 40 4 4 (640)
I0409 18:58:25.596351 23994 net.cpp:165] Memory required for data: 414502592
I0409 18:58:25.596357 23994 layer_factory.hpp:77] Creating layer conv8_2_mbox_conf_perm
I0409 18:58:25.596364 23994 net.cpp:100] Creating Layer conv8_2_mbox_conf_perm
I0409 18:58:25.596369 23994 net.cpp:434] conv8_2_mbox_conf_perm <- conv8_2_mbox_conf
I0409 18:58:25.596376 23994 net.cpp:408] conv8_2_mbox_conf_perm -> conv8_2_mbox_conf_perm
I0409 18:58:25.596531 23994 net.cpp:150] Setting up conv8_2_mbox_conf_perm
I0409 18:58:25.596540 23994 net.cpp:157] Top shape: 1 4 4 40 (640)
I0409 18:58:25.596544 23994 net.cpp:165] Memory required for data: 414505152
I0409 18:58:25.596547 23994 layer_factory.hpp:77] Creating layer conv8_2_mbox_conf_flat
I0409 18:58:25.596554 23994 net.cpp:100] Creating Layer conv8_2_mbox_conf_flat
I0409 18:58:25.596559 23994 net.cpp:434] conv8_2_mbox_conf_flat <- conv8_2_mbox_conf_perm
I0409 18:58:25.596576 23994 net.cpp:408] conv8_2_mbox_conf_flat -> conv8_2_mbox_conf_flat
I0409 18:58:25.596614 23994 net.cpp:150] Setting up conv8_2_mbox_conf_flat
I0409 18:58:25.596626 23994 net.cpp:157] Top shape: 1 640 (640)
I0409 18:58:25.596628 23994 net.cpp:165] Memory required for data: 414507712
I0409 18:58:25.596632 23994 layer_factory.hpp:77] Creating layer conv8_2_mbox_priorbox
I0409 18:58:25.596639 23994 net.cpp:100] Creating Layer conv8_2_mbox_priorbox
I0409 18:58:25.596644 23994 net.cpp:434] conv8_2_mbox_priorbox <- conv8_2_conv8_2_relu_0_split_3
I0409 18:58:25.596648 23994 net.cpp:434] conv8_2_mbox_priorbox <- data_data_0_split_5
I0409 18:58:25.596654 23994 net.cpp:408] conv8_2_mbox_priorbox -> conv8_2_mbox_priorbox
I0409 18:58:25.596693 23994 net.cpp:150] Setting up conv8_2_mbox_priorbox
I0409 18:58:25.596701 23994 net.cpp:157] Top shape: 1 2 1280 (2560)
I0409 18:58:25.596704 23994 net.cpp:165] Memory required for data: 414517952
I0409 18:58:25.596709 23994 layer_factory.hpp:77] Creating layer conv9_2_mbox_loc
I0409 18:58:25.596717 23994 net.cpp:100] Creating Layer conv9_2_mbox_loc
I0409 18:58:25.596722 23994 net.cpp:434] conv9_2_mbox_loc <- conv9_2_conv9_2_relu_0_split_0
I0409 18:58:25.596729 23994 net.cpp:408] conv9_2_mbox_loc -> conv9_2_mbox_loc
I0409 18:58:25.606883 23994 net.cpp:150] Setting up conv9_2_mbox_loc
I0409 18:58:25.606909 23994 net.cpp:157] Top shape: 1 240 2 2 (960)
I0409 18:58:25.606912 23994 net.cpp:165] Memory required for data: 414521792
I0409 18:58:25.606919 23994 layer_factory.hpp:77] Creating layer conv9_2_mbox_loc_perm
I0409 18:58:25.606925 23994 net.cpp:100] Creating Layer conv9_2_mbox_loc_perm
I0409 18:58:25.606930 23994 net.cpp:434] conv9_2_mbox_loc_perm <- conv9_2_mbox_loc
I0409 18:58:25.606938 23994 net.cpp:408] conv9_2_mbox_loc_perm -> conv9_2_mbox_loc_perm
I0409 18:58:25.607094 23994 net.cpp:150] Setting up conv9_2_mbox_loc_perm
I0409 18:58:25.607102 23994 net.cpp:157] Top shape: 1 2 2 240 (960)
I0409 18:58:25.607106 23994 net.cpp:165] Memory required for data: 414525632
I0409 18:58:25.607110 23994 layer_factory.hpp:77] Creating layer conv9_2_mbox_loc_flat
I0409 18:58:25.607116 23994 net.cpp:100] Creating Layer conv9_2_mbox_loc_flat
I0409 18:58:25.607120 23994 net.cpp:434] conv9_2_mbox_loc_flat <- conv9_2_mbox_loc_perm
I0409 18:58:25.607128 23994 net.cpp:408] conv9_2_mbox_loc_flat -> conv9_2_mbox_loc_flat
I0409 18:58:25.607163 23994 net.cpp:150] Setting up conv9_2_mbox_loc_flat
I0409 18:58:25.607172 23994 net.cpp:157] Top shape: 1 960 (960)
I0409 18:58:25.607174 23994 net.cpp:165] Memory required for data: 414529472
I0409 18:58:25.607177 23994 layer_factory.hpp:77] Creating layer conv9_2_mbox_conf
I0409 18:58:25.607187 23994 net.cpp:100] Creating Layer conv9_2_mbox_conf
I0409 18:58:25.607192 23994 net.cpp:434] conv9_2_mbox_conf <- conv9_2_conv9_2_relu_0_split_1
I0409 18:58:25.607200 23994 net.cpp:408] conv9_2_mbox_conf -> conv9_2_mbox_conf
I0409 18:58:25.610419 23994 net.cpp:150] Setting up conv9_2_mbox_conf
I0409 18:58:25.610435 23994 net.cpp:157] Top shape: 1 40 2 2 (160)
I0409 18:58:25.610438 23994 net.cpp:165] Memory required for data: 414530112
I0409 18:58:25.610445 23994 layer_factory.hpp:77] Creating layer conv9_2_mbox_conf_perm
I0409 18:58:25.610455 23994 net.cpp:100] Creating Layer conv9_2_mbox_conf_perm
I0409 18:58:25.610460 23994 net.cpp:434] conv9_2_mbox_conf_perm <- conv9_2_mbox_conf
I0409 18:58:25.610467 23994 net.cpp:408] conv9_2_mbox_conf_perm -> conv9_2_mbox_conf_perm
I0409 18:58:25.610641 23994 net.cpp:150] Setting up conv9_2_mbox_conf_perm
I0409 18:58:25.610649 23994 net.cpp:157] Top shape: 1 2 2 40 (160)
I0409 18:58:25.610656 23994 net.cpp:165] Memory required for data: 414530752
I0409 18:58:25.610658 23994 layer_factory.hpp:77] Creating layer conv9_2_mbox_conf_flat
I0409 18:58:25.610664 23994 net.cpp:100] Creating Layer conv9_2_mbox_conf_flat
I0409 18:58:25.610668 23994 net.cpp:434] conv9_2_mbox_conf_flat <- conv9_2_mbox_conf_perm
I0409 18:58:25.610673 23994 net.cpp:408] conv9_2_mbox_conf_flat -> conv9_2_mbox_conf_flat
I0409 18:58:25.610725 23994 net.cpp:150] Setting up conv9_2_mbox_conf_flat
I0409 18:58:25.610735 23994 net.cpp:157] Top shape: 1 160 (160)
I0409 18:58:25.610738 23994 net.cpp:165] Memory required for data: 414531392
I0409 18:58:25.610741 23994 layer_factory.hpp:77] Creating layer conv9_2_mbox_priorbox
I0409 18:58:25.610749 23994 net.cpp:100] Creating Layer conv9_2_mbox_priorbox
I0409 18:58:25.610754 23994 net.cpp:434] conv9_2_mbox_priorbox <- conv9_2_conv9_2_relu_0_split_2
I0409 18:58:25.610759 23994 net.cpp:434] conv9_2_mbox_priorbox <- data_data_0_split_6
I0409 18:58:25.610764 23994 net.cpp:408] conv9_2_mbox_priorbox -> conv9_2_mbox_priorbox
I0409 18:58:25.610805 23994 net.cpp:150] Setting up conv9_2_mbox_priorbox
I0409 18:58:25.610815 23994 net.cpp:157] Top shape: 1 2 320 (640)
I0409 18:58:25.610817 23994 net.cpp:165] Memory required for data: 414533952
I0409 18:58:25.610821 23994 layer_factory.hpp:77] Creating layer mbox_loc
I0409 18:58:25.610827 23994 net.cpp:100] Creating Layer mbox_loc
I0409 18:58:25.610836 23994 net.cpp:434] mbox_loc <- conv4_3_norm_mbox_loc_flat
I0409 18:58:25.610841 23994 net.cpp:434] mbox_loc <- fc7_mbox_loc_flat
I0409 18:58:25.610846 23994 net.cpp:434] mbox_loc <- conv6_2_mbox_loc_flat
I0409 18:58:25.610852 23994 net.cpp:434] mbox_loc <- conv7_2_mbox_loc_flat
I0409 18:58:25.610855 23994 net.cpp:434] mbox_loc <- conv8_2_mbox_loc_flat
I0409 18:58:25.610859 23994 net.cpp:434] mbox_loc <- conv9_2_mbox_loc_flat
I0409 18:58:25.610864 23994 net.cpp:408] mbox_loc -> mbox_loc
I0409 18:58:25.610903 23994 net.cpp:150] Setting up mbox_loc
I0409 18:58:25.610913 23994 net.cpp:157] Top shape: 1 739200 (739200)
I0409 18:58:25.610916 23994 net.cpp:165] Memory required for data: 417490752
I0409 18:58:25.610919 23994 layer_factory.hpp:77] Creating layer mbox_conf
I0409 18:58:25.610927 23994 net.cpp:100] Creating Layer mbox_conf
I0409 18:58:25.610932 23994 net.cpp:434] mbox_conf <- conv4_3_norm_mbox_conf_flat
I0409 18:58:25.610937 23994 net.cpp:434] mbox_conf <- fc7_mbox_conf_flat
I0409 18:58:25.610941 23994 net.cpp:434] mbox_conf <- conv6_2_mbox_conf_flat
I0409 18:58:25.610945 23994 net.cpp:434] mbox_conf <- conv7_2_mbox_conf_flat
I0409 18:58:25.610949 23994 net.cpp:434] mbox_conf <- conv8_2_mbox_conf_flat
I0409 18:58:25.610965 23994 net.cpp:434] mbox_conf <- conv9_2_mbox_conf_flat
I0409 18:58:25.610970 23994 net.cpp:408] mbox_conf -> mbox_conf
I0409 18:58:25.611007 23994 net.cpp:150] Setting up mbox_conf
I0409 18:58:25.611016 23994 net.cpp:157] Top shape: 1 123200 (123200)
I0409 18:58:25.611019 23994 net.cpp:165] Memory required for data: 417983552
I0409 18:58:25.611022 23994 layer_factory.hpp:77] Creating layer mbox_priorbox
I0409 18:58:25.611030 23994 net.cpp:100] Creating Layer mbox_priorbox
I0409 18:58:25.611034 23994 net.cpp:434] mbox_priorbox <- conv4_3_norm_mbox_priorbox
I0409 18:58:25.611039 23994 net.cpp:434] mbox_priorbox <- fc7_mbox_priorbox
I0409 18:58:25.611043 23994 net.cpp:434] mbox_priorbox <- conv6_2_mbox_priorbox
I0409 18:58:25.611047 23994 net.cpp:434] mbox_priorbox <- conv7_2_mbox_priorbox
I0409 18:58:25.611052 23994 net.cpp:434] mbox_priorbox <- conv8_2_mbox_priorbox
I0409 18:58:25.611055 23994 net.cpp:434] mbox_priorbox <- conv9_2_mbox_priorbox
I0409 18:58:25.611060 23994 net.cpp:408] mbox_priorbox -> mbox_priorbox
I0409 18:58:25.611096 23994 net.cpp:150] Setting up mbox_priorbox
I0409 18:58:25.611104 23994 net.cpp:157] Top shape: 1 2 246400 (492800)
I0409 18:58:25.611106 23994 net.cpp:165] Memory required for data: 419954752
I0409 18:58:25.611109 23994 layer_factory.hpp:77] Creating layer mbox_conf_reshape
I0409 18:58:25.611124 23994 net.cpp:100] Creating Layer mbox_conf_reshape
I0409 18:58:25.611129 23994 net.cpp:434] mbox_conf_reshape <- mbox_conf
I0409 18:58:25.611135 23994 net.cpp:408] mbox_conf_reshape -> mbox_conf_reshape
I0409 18:58:25.611184 23994 net.cpp:150] Setting up mbox_conf_reshape
I0409 18:58:25.611193 23994 net.cpp:157] Top shape: 1 61600 2 (123200)
I0409 18:58:25.611197 23994 net.cpp:165] Memory required for data: 420447552
I0409 18:58:25.611201 23994 layer_factory.hpp:77] Creating layer mbox_conf_softmax
I0409 18:58:25.611215 23994 net.cpp:100] Creating Layer mbox_conf_softmax
I0409 18:58:25.611220 23994 net.cpp:434] mbox_conf_softmax <- mbox_conf_reshape
I0409 18:58:25.611227 23994 net.cpp:408] mbox_conf_softmax -> mbox_conf_softmax
I0409 18:58:25.611546 23994 net.cpp:150] Setting up mbox_conf_softmax
I0409 18:58:25.611572 23994 net.cpp:157] Top shape: 1 61600 2 (123200)
I0409 18:58:25.611575 23994 net.cpp:165] Memory required for data: 420940352
I0409 18:58:25.611579 23994 layer_factory.hpp:77] Creating layer mbox_conf_flatten
I0409 18:58:25.611585 23994 net.cpp:100] Creating Layer mbox_conf_flatten
I0409 18:58:25.611589 23994 net.cpp:434] mbox_conf_flatten <- mbox_conf_softmax
I0409 18:58:25.611594 23994 net.cpp:408] mbox_conf_flatten -> mbox_conf_flatten
I0409 18:58:25.611635 23994 net.cpp:150] Setting up mbox_conf_flatten
I0409 18:58:25.611642 23994 net.cpp:157] Top shape: 1 123200 (123200)
I0409 18:58:25.611645 23994 net.cpp:165] Memory required for data: 421433152
I0409 18:58:25.611649 23994 layer_factory.hpp:77] Creating layer detection_out
I0409 18:58:25.611661 23994 net.cpp:100] Creating Layer detection_out
I0409 18:58:25.611665 23994 net.cpp:434] detection_out <- mbox_loc
I0409 18:58:25.611670 23994 net.cpp:434] detection_out <- mbox_conf_flatten
I0409 18:58:25.611675 23994 net.cpp:434] detection_out <- mbox_priorbox
I0409 18:58:25.611681 23994 net.cpp:408] detection_out -> detection_out
I0409 18:58:25.612182 23994 net.cpp:150] Setting up detection_out
I0409 18:58:25.612207 23994 net.cpp:157] Top shape: 1 1 1 15 (15)
I0409 18:58:25.612211 23994 net.cpp:165] Memory required for data: 421433212
I0409 18:58:25.612215 23994 layer_factory.hpp:77] Creating layer detection_eval
I0409 18:58:25.612222 23994 net.cpp:100] Creating Layer detection_eval
I0409 18:58:25.612227 23994 net.cpp:434] detection_eval <- detection_out
I0409 18:58:25.612232 23994 net.cpp:434] detection_eval <- label
I0409 18:58:25.612238 23994 net.cpp:408] detection_eval -> detection_eval
I0409 18:58:25.612306 23994 net.cpp:150] Setting up detection_eval
I0409 18:58:25.612316 23994 net.cpp:157] Top shape: 1 1 2 5 (10)
I0409 18:58:25.612319 23994 net.cpp:165] Memory required for data: 421433252
I0409 18:58:25.612323 23994 net.cpp:228] detection_eval does not need backward computation.
I0409 18:58:25.612327 23994 net.cpp:228] detection_out does not need backward computation.
I0409 18:58:25.612331 23994 net.cpp:228] mbox_conf_flatten does not need backward computation.
I0409 18:58:25.612334 23994 net.cpp:228] mbox_conf_softmax does not need backward computation.
…
