…
      sampler {
        min_scale: 0.3
        max_scale: 1
        min_aspect_ratio: 0.5
        max_aspect_ratio: 2
      }
      sample_constraint {
        min_object_coverage: 0.9
      }
      max_sample: 1
      max_trials: 50
    }
    batch_sampler {
      sampler {
        min_scale: 0.3
        max_scale: 1
        min_aspect_ratio: 0.5
        max_aspect_ratio: 2
      }
      sample_constraint {
        max_jaccard_overlap: 1
      }
      max_sample: 1
      max_trials: 50
    }
    label_map_file: "data/text/labelmap_voc.prototxt"
  }
}
layer {
  name: "conv1_1"
  type: "Convolution"
  bottom: "data"
  top: "conv1_1"
  param {
    lr_mult: 0
    decay_mult: 0
  }
  param {
    lr_mult: 0
    decay_mult: 0
  }
  convolution_param {
    num_output: 64
    pad: 1
    kernel_size: 3
    weight_filler {
      type: "xavier"
    }
    bias_filler {
      type: "constant"
      value: 0
    }
  }
}
layer {
  name: "relu1_1"
  type: "ReLU"
  bottom: "conv1_1"
  top: "conv1_1"
}
layer {
  name: "conv1_2"
  type: "Convolution"
  bottom: "conv1_1"
  top: "conv1_2"
  param {
    lr_mult: 0
    decay_mult: 0
  }
  param {
    lr_mult: 0
    decay_mult: 0
  }
  convolution_param {
    num_output: 64
    pad: 1
    kernel_size: 3
    weight_filler {
      type: "xavier"
    }
    bias_filler {
      type: "constant"
      value: 0
    }
  }
}
layer {
  name: "relu1_2"
  type: "ReLU"
  bottom: "conv1_2"
  top: "conv1_2"
}
layer {
  name: "pool1"
  type: "Pooling"
  bottom: "conv1_2"
  top: "pool1"
  pooling_param {
    pool: MAX
    kernel_size: 2
    stride: 2
  }
}
layer {
  name: "conv2_1"
  type: "Convolution"
  bottom: "pool1"
  top: "conv2_1"
  param {
    lr_mult: 0
    decay_mult: 0
  }
  param {
    lr_mult: 0
    decay_mult: 0
  }
  convolution_param {
    num_output: 128
    pad: 1
    kernel_size: 3
    weight_filler {
      type: "xavier"
    }
    bias_filler {
      type: "constant"
      value: 0
    }
  }
}
layer {
  name: "relu2_1"
  type: "ReLU"
  bottom: "conv2_1"
  top: "conv2_1"
}
layer {
  name: "conv2_2"
  type: "Convolution"
  bottom: "conv2_1"
  top: "conv2_2"
  param {
    lr_mult: 0
    decay_mult: 0
  }
  param {
    lr_mult: 0
    decay_mult: 0
  }
  convolution_param {
    num_output: 128
    pad: 1
    kernel_size: 3
    weight_filler {
      type: "xavier"
    }
    bias_filler {
      type: "constant"
      value: 0
    }
  }
}
layer {
  name: "relu2_2"
  type: "ReLU"
  bottom: "conv2_2"
  top: "conv2_2"
}
layer {
  name: "pool2"
  type: "Pooling"
  bottom: "conv2_2"
  top: "pool2"
  pooling_param {
    pool: MAX
    kernel_size: 2
    stride: 2
  }
}
layer {
  name: "conv3_1"
  type: "Convolution"
  bottom: "pool2"
  top: "conv3_1"
  param {
    lr_mult: 1
    decay_mult: 1
  }
  param {
    lr_mult: 2
    decay_mult: 0
  }
  convolution_param {
    num_output: 256
    pad: 1
    kernel_size: 3
    weight_filler {
      type: "xavier"
    }
    bias_filler {
      type: "constant"
      value: 0
    }
  }
}
layer {
  name: "relu3_1"
  type: "ReLU"
  bottom: "conv3_1"
  top: "conv3_1"
}
layer {
  name: "conv3_2"
  type: "Convolution"
  bottom: "conv3_1"
  top: "conv3_2"
  param {
    lr_mult: 1
    decay_mult: 1
  }
  param {
    lr_mult: 2
    decay_mult: 0
  }
  convolution_param {
    num_output: 256
    pad: 1
    kernel_size: 3
    weight_filler {
      type: "xavier"
    }
    bias_filler {
      type: "constant"
      value: 0
    }
  }
}
layer {
  name: "relu3_2"
  type: "ReLU"
  bottom: "conv3_2"
  top: "conv3_2"
}
layer {
  name: "conv3_3"
  type: "Convolution"
  bottom: "conv3_2"
  top: "conv3_3"
  param {
    lr_mult: 1
    decay_mult: 1
  }
  param {
    lr_mult: 2
    decay_mult: 0
  }
  convolution_param {
    num_output: 256
    pad: 1
    kernel_size: 3
    weight_filler {
      type: "xavier"
    }
    bias_filler {
      type: "constant"
      value: 0
    }
  }
}
layer {
  name: "relu3_3"
  type: "ReLU"
  bottom: "conv3_3"
  top: "conv3_3"
}
layer {
  name: "pool3"
  type: "Pooling"
  bottom: "conv3_3"
  top: "pool3"
  pooling_param {
    pool: MAX
    kernel_size: 2
    stride: 2
  }
}
layer {
  name: "conv4_1"
  type: "Convolution"
  bottom: "pool3"
  top: "conv4_1"
  param {
    lr_mult: 1
    decay_mult: 1
  }
  param {
    lr_mult: 2
    decay_mult: 0
  }
  convolution_param {
    num_output: 512
    pad: 1
    kernel_size: 3
    weight_filler {
      type: "xavier"
    }
    bias_filler {
      type: "constant"
      value: 0
    }
  }
}
layer {
  name: "relu4_1"
  type: "ReLU"
  bottom: "conv4_1"
  top: "conv4_1"
}
layer {
  name: "conv4_2"
  type: "Convolution"
  bottom: "conv4_1"
  top: "conv4_2"
  param {
    lr_mult: 1
    decay_mult: 1
  }
  param {
    lr_mult: 2
    decay_mult: 0
  }
  convolution_param {
    num_output: 512
    pad: 1
    kernel_size: 3
    weight_filler {
      type: "xavier"
    }
    bias_filler {
      type: "constant"
      value: 0
    }
  }
}
layer {
  name: "relu4_2"
  type: "ReLU"
  bottom: "conv4_2"
  top: "conv4_2"
}
layer {
  name: "conv4_3"
  type: "Convolution"
  bottom: "conv4_2"
  top: "conv4_3"
  param {
    lr_mult: 1
    decay_mult: 1
  }
  param {
    lr_mult: 2
    decay_mult: 0
  }
  convolution_param {
    num_output: 512
    pad: 1
    kernel_size: 3
    weight_filler {
      type: "xavier"
    }
    bias_filler {
      type: "constant"
      value: 0
    }
  }
}
layer {
  name: "relu4_3"
  type: "ReLU"
  bottom: "conv4_3"
  top: "conv4_3"
}
layer {
  name: "pool4"
  type: "Pooling"
  bottom: "conv4_3"
  top: "pool4"
  pooling_param {
    pool: MAX
    kernel_size: 2
    stride: 2
  }
}
layer {
  name: "conv5_1"
  type: "Convolution"
  bottom: "pool4"
  top: "conv5_1"
  param {
    lr_mult: 1
    decay_mult: 1
  }
  param {
    lr_mult: 2
    decay_mult: 0
  }
  convolution_param {
    num_output: 512
    pad: 1
    kernel_size: 3
    weight_filler {
      type: "xavier"
    }
    bias_filler {
      type: "constant"
      value: 0
    }
    dilation: 1
  }
}
layer {
  name: "relu5_1"
  type: "ReLU"
  bottom: "conv5_1"
  top: "conv5_1"
}
layer {
  name: "conv5_2"
  type: "Convolution"
  bottom: "conv5_1"
  top: "conv5_2"
  param {
    lr_mult: 1
    decay_mult: 1
  }
  param {
    lr_mult: 2
    decay_mult: 0
  }
  convolution_param {
    num_output: 512
    pad: 1
    kernel_size: 3
    weight_filler {
      type: "xavier"
    }
    bias_filler {
      type: "constant"
      value: 0
    }
    dilation: 1
  }
}
layer {
  name: "relu5_2"
  type: "ReLU"
  bottom: "conv5_2"
  top: "conv5_2"
}
layer {
  name: "conv5_3"
  type: "Convolution"
  bottom: "conv5_2"
  top: "conv5_3"
  param {
    lr_mult: 1
    decay_mult: 1
  }
  param {
    lr_mult: 2
    decay_mult: 0
  }
  convolution_param {
    num_output: 512
    pad: 1
    kernel_size: 3
    weight_filler {
      type: "xavier"
    }
    bias_filler {
      type: "constant"
      value: 0
    }
    dilation: 1
  }
}
layer {
  name: "relu5_3"
  type: "ReLU"
  bottom: "conv5_3"
  top: "conv5_3"
}
layer {
  name: "pool5"
  type: "Pooling"
  bottom: "conv5_3"
  top: "pool5"
  pooling_param {
    pool: MAX
    kernel_size: 3
    stride: 1
    pad: 1
  }
}
layer {
  name: "fc6"
  type: "Convolution"
  bottom: "pool5"
  top: "fc6"
  param {
    lr_mult: 1
    decay_mult: 1
  }
  param {
    lr_mult: 2
    decay_mult: 0
  }
  convolution_param {
    num_output: 1024
    pad: 6
    kernel_size: 3
    weight_filler {
      type: "xavier"
    }
    bias_filler {
      type: "constant"
      value: 0
    }
    dilation: 6
  }
}
layer {
  name: "relu6"
  type: "ReLU"
  bottom: "fc6"
  top: "fc6"
}
layer {
  name: "fc7"
  type: "Convolution"
  bottom: "fc6"
  top: "fc7"
  param {
    lr_mult: 1
    decay_mult: 1
  }
  param {
    lr_mult: 2
    decay_mult: 0
  }
  convolution_param {
    num_output: 1024
    kernel_size: 1
    weight_filler {
      type: "xavier"
    }
    bias_filler {
      type: "constant"
      value: 0
    }
  }
}
layer {
  name: "relu7"
  type: "ReLU"
  bottom: "fc7"
  top: "fc7"
}
layer {
  name: "conv6_1"
  type: "Convolution"
  bottom: "fc7"
  top: "conv6_1"
  param {
    lr_mult: 1
    decay_mult: 1
  }
  param {
    lr_mult: 2
    decay_mult: 0
  }
  convolution_param {
    num_output: 256
    pad: 0
    kernel_size: 1
    stride: 1
    weight_filler {
      type: "xavier"
    }
    bias_filler {
      type: "constant"
      value: 0
    }
  }
}
layer {
  name: "conv6_1_relu"
  type: "ReLU"
  bottom: "conv6_1"
  top: "conv6_1"
}
layer {
  name: "conv6_2"
  type: "Convolution"
  bottom: "conv6_1"
  top: "conv6_2"
  param {
    lr_mult: 1
    decay_mult: 1
  }
  param {
    lr_mult: 2
    decay_mult: 0
  }
  convolution_param {
    num_output: 512
    pad: 1
    kernel_size: 3
    stride: 2
    weight_filler {
      type: "xavier"
    }
    bias_filler {
      type: "constant"
      value: 0
    }
  }
}
layer {
  name: "conv6_2_relu"
  type: "ReLU"
  bottom: "conv6_2"
  top: "conv6_2"
}
layer {
  name: "conv7_1"
  type: "Convolution"
  bottom: "conv6_2"
  top: "conv7_1"
  param {
    lr_mult: 1
    decay_mult: 1
  }
  param {
    lr_mult: 2
    decay_mult: 0
  }
  convolution_param {
    num_output: 128
    pad: 0
    kernel_size: 1
    stride: 1
    weight_filler {
      type: "xavier"
    }
    bias_filler {
      type: "constant"
      value: 0
    }
  }
}
layer {
  name: "conv7_1_relu"
  type: "ReLU"
  bottom: "conv7_1"
  top: "conv7_1"
}
layer {
  name: "conv7_2"
  type: "Convolution"
  bottom: "conv7_1"
  top: "conv7_2"
  param {
    lr_mult: 1
    decay_mult: 1
  }
  param {
    lr_mult: 2
    decay_mult: 0
  }
  convolution_param {
    num_output: 256
    pad: 1
    kernel_size: 3
    stride: 2
    weight_filler {
      type: "xavier"
    }
    bias_filler {
      type: "constant"
      value: 0
    }
  }
}
layer {
  name: "conv7_2_relu"
  type: "ReLU"
  bottom: "conv7_2"
  top: "conv7_2"
}
layer {
  name: "conv8_1"
  type: "Convolution"
  bottom: "conv7_2"
  top: "conv8_1"
  param {
    lr_mult: 1
    decay_mult: 1
  }
  param {
    lr_mult: 2
    decay_mult: 0
  }
  convolution_param {
    num_output: 128
    pad: 0
    kernel_size: 1
    stride: 1
    weight_filler {
      type: "xavier"
    }
    bias_filler {
      type: "constant"
      value: 0
    }
  }
}
layer {
  name: "conv8_1_relu"
  type: "ReLU"
  bottom: "conv8_1"
  top: "conv8_1"
}
layer {
  name: "conv8_2"
  type: "Convolution"
  bottom: "conv8_1"
  top: "conv8_2"
  param {
    lr_mult: 1
    decay_mult: 1
  }
  param {
    lr_mult: 2
    decay_mult: 0
  }
  convolution_param {
    num_output: 256
    pad: 0
    kernel_size: 3
    stride: 1
    weight_filler {
      type: "xavier"
    }
    bias_filler {
      type: "constant"
      value: 0
    }
  }
}
layer {
  name: "conv8_2_relu"
  type: "ReLU"
  bottom: "conv8_2"
  top: "conv8_2"
}
layer {
  name: "conv9_1"
  type: "Convolution"
  bottom: "conv8_2"
  top: "conv9_1"
  param {
    lr_mult: 1
    decay_mult: 1
  }
  param {
    lr_mult: 2
    decay_mult: 0
  }
  convolution_param {
    num_output: 128
    pad: 0
    kernel_size: 1
    stride: 1
    weight_filler {
      type: "xavier"
    }
    bias_filler {
      type: "constant"
      value: 0
    }
  }
}
layer {
  name: "conv9_1_relu"
  type: "ReLU"
  bottom: "conv9_1"
  top: "conv9_1"
}
layer {
  name: "conv9_2"
  type: "Convolution"
  bottom: "conv9_1"
  top: "conv9_2"
  param {
    lr_mult: 1
    decay_mult: 1
  }
  param {
    lr_mult: 2
    decay_mult: 0
  }
  convolution_param {
    num_output: 256
    pad: 0
    kernel_size: 3
    stride: 1
    weight_filler {
      type: "xavier"
    }
    bias_filler {
      type: "constant"
      value: 0
    }
  }
}
layer {
  name: "conv9_2_relu"
  type: "ReLU"
  bottom: "conv9_2"
  top: "conv9_2"
}
layer {
  name: "conv4_3_norm"
  type: "Normalize"
  bottom: "conv4_3"
  top: "conv4_3_norm"
  norm_param {
    across_spatial: false
    scale_filler {
      type: "constant"
      value: 20
    }
    channel_shared: false
  }
}
layer {
  name: "conv4_3_norm_mbox_loc"
  type: "Convolution"
  bottom: "conv4_3_norm"
  top: "conv4_3_norm_mbox_loc"
  param {
    lr_mult: 1
    decay_mult: 1
  }
  param {
    lr_mult: 2
    decay_mult: 0
  }
  convolution_param {
    num_output: 240
    weight_filler {
      type: "xavier"
    }
    bias_filler {
      type: "constant"
      value: 0
    }
    pad_h: 1
    pad_w: 2
    kernel_h: 3
    kernel_w: 5
    stride_h: 1
    stride_w: 1
  }
}
layer {
  name: "conv4_3_norm_mbox_loc_perm"
  type: "Permute"
  bottom: "conv4_3_norm_mbox_loc"
  top: "conv4_3_norm_mbox_loc_perm"
  permute_param {
    order: 0
    order: 2
    order: 3
    order: 1
  }
}
layer {
  name: "conv4_3_norm_mbox_loc_flat"
  type: "Flatten"
  bottom: "conv4_3_norm_mbox_loc_perm"
  top: "conv4_3_norm_mbox_loc_flat"
  flatten_param {
    axis: 1
  }
}
layer {
  name: "conv4_3_norm_mbox_conf"
  type: "Convolution"
  bottom: "conv4_3_norm"
  top: "conv4_3_norm_mbox_conf"
  param {
    lr_mult: 1
    decay_mult: 1
  }
  param {
    lr_mult: 2
    decay_mult: 0
  }
  convolution_param {
    num_output: 40
    weight_filler {
      type: "xavier"
    }
    bias_filler {
      type: "constant"
      value: 0
    }
    pad_h: 1
    pad_w: 2
    kernel_h: 3
    kernel_w: 5
    stride_h: 1
    stride_w: 1
  }
}
layer {
  name: "conv4_3_norm_mbox_conf_perm"
  type: "Permute"
  bottom: "conv4_3_norm_mbox_conf"
  top: "conv4_3_norm_mbox_conf_perm"
  permute_param {
    order: 0
    order: 2
    order: 3
    order: 1
  }
}
layer {
  name: "conv4_3_norm_mbox_conf_flat"
  type: "Flatten"
  bottom: "conv4_3_norm_mbox_conf_perm"
  top: "conv4_3_norm_mbox_conf_flat"
  flatten_param {
    axis: 1
  }
}
layer {
  name: "conv4_3_norm_mbox_priorbox"
  type: "PriorBox"
  bottom: "conv4_3_norm"
  bottom: "data"
  top: "conv4_3_norm_mbox_priorbox"
  prior_box_param {
    min_size: 30
    max_size: 60
    aspect_ratio: 2
    aspect_ratio: 3
    aspect_ratio: 4
    aspect_ratio: 5
    flip: true
    clip: false
    variance: 0.1
    variance: 0.1
    variance: 0.2
    variance: 0.2
    step: 8
    offset: 0.5
    denser_prior_boxes: true
  }
}
layer {
  name: "fc7_mbox_loc"
  type: "Convolution"
  bottom: "fc7"
  top: "fc7_mbox_loc"
  param {
    lr_mult: 1
    decay_mult: 1
  }
  param {
    lr_mult: 2
    decay_mult: 0
  }
  convolution_param {
    num_output: 240
    weight_filler {
      type: "xavier"
    }
    bias_filler {
      type: "constant"
      value: 0
    }
    pad_h: 1
    pad_w: 2
    kernel_h: 3
    kernel_w: 5
    stride_h: 1
    stride_w: 1
  }
}
layer {
  name: "fc7_mbox_loc_perm"
  type: "Permute"
  bottom: "fc7_mbox_loc"
  top: "fc7_mbox_loc_perm"
  permute_param {
    order: 0
    order: 2
    order: 3
    order: 1
  }
}
layer {
  name: "fc7_mbox_loc_flat"
  type: "Flatten"
  bottom: "fc7_mbox_loc_perm"
  top: "fc7_mbox_loc_flat"
  flatten_param {
    axis: 1
  }
}
layer {
  name: "fc7_mbox_conf"
  type: "Convolution"
  bottom: "fc7"
  top: "fc7_mbox_conf"
  param {
    lr_mult: 1
    decay_mult: 1
  }
  param {
    lr_mult: 2
    decay_mult: 0
  }
  convolution_param {
    num_output: 40
    weight_filler {
      type: "xavier"
    }
    bias_filler {
      type: "constant"
      value: 0
    }
    pad_h: 1
    pad_w: 2
    kernel_h: 3
    kernel_w: 5
    stride_h: 1
    stride_w: 1
  }
}
layer {
  name: "fc7_mbox_conf_perm"
  type: "Permute"
  bottom: "fc7_mbox_conf"
  top: "fc7_mbox_conf_perm"
  permute_param {
    order: 0
    order: 2
    order: 3
    order: 1
  }
}
layer {
  name: "fc7_mbox_conf_flat"
  type: "Flatten"
  bottom: "fc7_mbox_conf_perm"
  top: "fc7_mbox_conf_flat"
  flatten_param {
    axis: 1
  }
}
layer {
  name: "fc7_mbox_priorbox"
  type: "PriorBox"
  bottom: "fc7"
  bottom: "data"
  top: "fc7_mbox_priorbox"
  prior_box_param {
    min_size: 30
    max_size: 90
    aspect_ratio: 2
    aspect_ratio: 3
    aspect_ratio: 4
    aspect_ratio: 5
    flip: true
    clip: false
    variance: 0.1
    variance: 0.1
    variance: 0.2
    variance: 0.2
    step: 16
    offset: 0.5
    denser_prior_boxes: true
  }
}
layer {
  name: "conv6_2_mbox_loc"
  type: "Convolution"
  bottom: "conv6_2"
  top: "conv6_2_mbox_loc"
  param {
    lr_mult: 1
    decay_mult: 1
  }
  param {
    lr_mult: 2
    decay_mult: 0
  }
  convolution_param {
    num_output: 240
    weight_filler {
      type: "xavier"
    }
    bias_filler {
      type: "constant"
      value: 0
    }
    pad_h: 1
    pad_w: 2
    kernel_h: 3
    kernel_w: 5
    stride_h: 1
    stride_w: 1
  }
}
layer {
  name: "conv6_2_mbox_loc_perm"
  type: "Permute"
  bottom: "conv6_2_mbox_loc"
  top: "conv6_2_mbox_loc_perm"
  permute_param {
    order: 0
    order: 2
    order: 3
    order: 1
  }
}
layer {
  name: "conv6_2_mbox_loc_flat"
  type: "Flatten"
  bottom: "conv6_2_mbox_loc_perm"
  top: "conv6_2_mbox_loc_flat"
  flatten_param {
    axis: 1
  }
}
layer {
  name: "conv6_2_mbox_conf"
  type: "Convolution"
  bottom: "conv6_2"
  top: "conv6_2_mbox_conf"
  param {
    lr_mult: 1
    decay_mult: 1
  }
  param {
    lr_mult: 2
    decay_mult: 0
  }
  convolution_param {
    num_output: 40
    weight_filler {
      type: "xavier"
    }
    bias_filler {
      type: "constant"
      value: 0
    }
    pad_h: 1
    pad_w: 2
    kernel_h: 3
    kernel_w: 5
    stride_h: 1
    stride_w: 1
  }
}
layer {
  name: "conv6_2_mbox_conf_perm"
  type: "Permute"
  bottom: "conv6_2_mbox_conf"
  top: "conv6_2_mbox_conf_perm"
  permute_param {
    order: 0
    order: 2
    order: 3
    order: 1
  }
}
layer {
  name: "conv6_2_mbox_conf_flat"
  type: "Flatten"
  bottom: "conv6_2_mbox_conf_perm"
  top: "conv6_2_mbox_conf_flat"
  flatten_param {
    axis: 1
  }
}
layer {
  name: "conv6_2_mbox_priorbox"
  type: "PriorBox"
  bottom: "conv6_2"
  bottom: "data"
  top: "conv6_2_mbox_priorbox"
  prior_box_param {
    min_size: 90
    max_size: 150
    aspect_ratio: 2
    aspect_ratio: 3
    aspect_ratio: 4
    aspect_ratio: 5
    flip: true
    clip: false
    variance: 0.1
    variance: 0.1
    variance: 0.2
    variance: 0.2
    step: 32
    offset: 0.5
    denser_prior_boxes: true
  }
}
layer {
  name: "conv7_2_mbox_loc"
  type: "Convolution"
  bottom: "conv7_2"
  top: "conv7_2_mbox_loc"
  param {
    lr_mult: 1
    decay_mult: 1
  }
  param {
    lr_mult: 2
    decay_mult: 0
  }
  convolution_param {
    num_output: 240
    weight_filler {
      type: "xavier"
    }
    bias_filler {
      type: "constant"
      value: 0
    }
    pad_h: 1
    pad_w: 2
    kernel_h: 3
    kernel_w: 5
    stride_h: 1
    stride_w: 1
  }
}
layer {
  name: "conv7_2_mbox_loc_perm"
  type: "Permute"
  bottom: "conv7_2_mbox_loc"
  top: "conv7_2_mbox_loc_perm"
  permute_param {
    order: 0
    order: 2
    order: 3
    order: 1
  }
}
layer {
  name: "conv7_2_mbox_loc_flat"
  type: "Flatten"
  bottom: "conv7_2_mbox_loc_perm"
  top: "conv7_2_mbox_loc_flat"
  flatten_param {
    axis: 1
  }
}
layer {
  name: "conv7_2_mbox_conf"
  type: "Convolution"
  bottom: "conv7_2"
  top: "conv7_2_mbox_conf"
  param {
    lr_mult: 1
    decay_mult: 1
  }
  param {
    lr_mult: 2
    decay_mult: 0
  }
  convolution_param {
    num_output: 40
    weight_filler {
      type: "xavier"
    }
    bias_filler {
      type: "constant"
      value: 0
    }
    pad_h: 1
    pad_w: 2
    kernel_h: 3
    kernel_w: 5
    stride_h: 1
    stride_w: 1
  }
}
layer {
  name: "conv7_2_mbox_conf_perm"
  type: "Permute"
  bottom: "conv7_2_mbox_conf"
  top: "conv7_2_mbox_conf_perm"
  permute_param {
    order: 0
    order: 2
    order: 3
    order: 1
  }
}
layer {
  name: "conv7_2_mbox_conf_flat"
  type: "Flatten"
  bottom: "conv7_2_mbox_conf_perm"
  top: "conv7_2_mbox_conf_flat"
  flatten_param {
    axis: 1
  }
}
layer {
  name: "conv7_2_mbox_priorbox"
  type: "PriorBox"
  bottom: "conv7_2"
  bottom: "data"
  top: "conv7_2_mbox_priorbox"
  prior_box_param {
    min_size: 150
    max_size: 210
    aspect_ratio: 2
    aspect_ratio: 3
    aspect_ratio: 4
    aspect_ratio: 5
    flip: true
    clip: false
    variance: 0.1
    variance: 0.1
    variance: 0.2
    variance: 0.2
    step: 64
    offset: 0.5
    denser_prior_boxes: true
  }
}
layer {
  name: "conv8_2_mbox_loc"
  type: "Convolution"
  bottom: "conv8_2"
  top: "conv8_2_mbox_loc"
  param {
    lr_mult: 1
    decay_mult: 1
  }
  param {
    lr_mult: 2
    decay_mult: 0
  }
  convolution_param {
    num_output: 240
    weight_filler {
      type: "xavier"
    }
    bias_filler {
      type: "constant"
      value: 0
    }
    pad_h: 1
    pad_w: 2
    kernel_h: 3
    kernel_w: 5
    stride_h: 1
    stride_w: 1
  }
}
layer {
  name: "conv8_2_mbox_loc_perm"
  type: "Permute"
  bottom: "conv8_2_mbox_loc"
  top: "conv8_2_mbox_loc_perm"
  permute_param {
    order: 0
    order: 2
    order: 3
    order: 1
  }
}
layer {
  name: "conv8_2_mbox_loc_flat"
  type: "Flatten"
  bottom: "conv8_2_mbox_loc_perm"
  top: "conv8_2_mbox_loc_flat"
  flatten_param {
    axis: 1
  }
}
layer {
  name: "conv8_2_mbox_conf"
  type: "Convolution"
  bottom: "conv8_2"
  top: "conv8_2_mbox_conf"
  param {
    lr_mult: 1
    decay_mult: 1
  }
  param {
    lr_mult: 2
    decay_mult: 0
  }
  convolution_param {
    num_output: 40
    weight_filler {
      type: "xavier"
    }
    bias_filler {
      type: "constant"
      value: 0
    }
    pad_h: 1
    pad_w: 2
    kernel_h: 3
    kernel_w: 5
    stride_h: 1
    stride_w: 1
  }
}
layer {
  name: "conv8_2_mbox_conf_perm"
  type: "Permute"
  bottom: "conv8_2_mbox_conf"
  top: "conv8_2_mbox_conf_perm"
  permute_param {
    order: 0
    order: 2
    order: 3
    order: 1
  }
}
layer {
  name: "conv8_2_mbox_conf_flat"
  type: "Flatten"
  bottom: "conv8_2_mbox_conf_perm"
  top: "conv8_2_mbox_conf_flat"
  flatten_param {
    axis: 1
  }
}
layer {
  name: "conv8_2_mbox_priorbox"
  type: "PriorBox"
  bottom: "conv8_2"
  bottom: "data"
  top: "conv8_2_mbox_priorbox"
  prior_box_param {
    min_size: 210
    max_size: 270
    aspect_ratio: 2
    aspect_ratio: 3
    aspect_ratio: 4
    aspect_ratio: 5
    flip: true
    clip: false
    variance: 0.1
    variance: 0.1
    variance: 0.2
    variance: 0.2
    step: 100
    offset: 0.5
    denser_prior_boxes: true
  }
}
layer {
  name: "conv9_2_mbox_loc"
  type: "Convolution"
  bottom: "conv9_2"
  top: "conv9_2_mbox_loc"
  param {
    lr_mult: 1
    decay_mult: 1
  }
  param {
    lr_mult: 2
    decay_mult: 0
  }
  convolution_param {
    num_output: 240
    weight_filler {
      type: "xavier"
    }
    bias_filler {
      type: "constant"
      value: 0
    }
    pad_h: 1
    pad_w: 2
    kernel_h: 3
    kernel_w: 5
    stride_h: 1
    stride_w: 1
  }
}
layer {
  name: "conv9_2_mbox_loc_perm"
  type: "Permute"
  bottom: "conv9_2_mbox_loc"
  top: "conv9_2_mbox_loc_perm"
  permute_param {
    order: 0
    order: 2
    order: 3
    order: 1
  }
}
layer {
  name: "conv9_2_mbox_loc_flat"
  type: "Flatten"
  bottom: "conv9_2_mbox_loc_perm"
  top: "conv9_2_mbox_loc_flat"
  flatten_param {
    axis: 1
  }
}
layer {
  name: "conv9_2_mbox_conf"
  type: "Convolution"
  bottom: "conv9_2"
  top: "conv9_2_mbox_conf"
  param {
    lr_mult: 1
    decay_mult: 1
  }
  param {
    lr_mult: 2
    decay_mult: 0
  }
  convolution_param {
    num_output: 40
    weight_filler {
      type: "xavier"
    }
    bias_filler {
      type: "constant"
      value: 0
    }
    pad_h: 1
    pad_w: 2
    kernel_h: 3
    kernel_w: 5
    stride_h: 1
    stride_w: 1
  }
}
layer {
  name: "conv9_2_mbox_conf_perm"
  type: "Permute"
  bottom: "conv9_2_mbox_conf"
  top: "conv9_2_mbox_conf_perm"
  permute_param {
    order: 0
    order: 2
    order: 3
    order: 1
  }
}
layer {
  name: "conv9_2_mbox_conf_flat"
  type: "Flatten"
  bottom: "conv9_2_mbox_conf_perm"
  top: "conv9_2_mbox_conf_flat"
  flatten_param {
    axis: 1
  }
}
layer {
  name: "conv9_2_mbox_priorbox"
  type: "PriorBox"
  bottom: "conv9_2"
  bottom: "data"
  top: "conv9_2_mbox_priorbox"
  prior_box_param {
    min_size: 270
    max_size: 330
    aspect_ratio: 2
    aspect_ratio: 3
    aspect_ratio: 4
    aspect_ratio: 5
    flip: true
    clip: false
    variance: 0.1
    variance: 0.1
    variance: 0.2
    variance: 0.2
    step: 300
    offset: 0.5
    denser_prior_boxes: true
  }
}
layer {
  name: "mbox_loc"
  type: "Concat"
  bottom: "conv4_3_norm_mbox_loc_flat"
  bottom: "fc7_mbox_loc_flat"
  bottom: "conv6_2_mbox_loc_flat"
  bottom: "conv7_2_mbox_loc_flat"
  bottom: "conv8_2_mbox_loc_flat"
  bottom: "conv9_2_mbox_loc_flat"
  top: "mbox_loc"
  concat_param {
    axis: 1
  }
}
layer {
  name: "mbox_conf"
  type: "Concat"
  bottom: "conv4_3_norm_mbox_conf_flat"
  bottom: "fc7_mbox_conf_flat"
  bottom: "conv6_2_mbox_conf_flat"
  bottom: "conv7_2_mbox_conf_flat"
  bottom: "conv8_2_mbox_conf_flat"
  bottom: "conv9_2_mbox_conf_flat"
  top: "mbox_conf"
  concat_param {
    axis: 1
  }
}
layer {
  name: "mbox_priorbox"
  type: "Concat"
  bottom: "conv4_3_norm_mbox_priorbox"
  bottom: "fc7_mbox_priorbox"
  bottom: "conv6_2_mbox_priorbox"
  bottom: "conv7_2_mbox_priorbox"
  bottom: "conv8_2_mbox_priorbox"
  bottom: "conv9_2_mbox_priorbox"
  top: "mbox_priorbox"
  concat_param {
    axis: 2
  }
}
layer {
  name: "mbox_loss"
  type: "MultiBoxLoss"
  bottom: "mbox_loc"
  bottom: "mbox_conf"
  bottom: "mbox_priorbox"
  bottom: "label"
  top: "mbox_loss"
  include {
    phase: TRAIN
  }
  propagate_down: true
  propagate_down: true
  propagate_down: false
  propagate_down: false
  loss_param {
    normalization: VALID
  }
  multibox_loss_param {
    loc_loss_type: SMOOTH_L1
    conf_loss_type: SOFTMAX
    loc_weight: 0.2
    num_classes: 2
    share_location: true
    match_type: PER_PREDICTION
    overlap_threshold: 0.5
    use_prior_for_matching: true
    background_label_id: 0
    use_difficult_gt: false
    neg_pos_ratio: 3
    neg_overlap: 0.5
    code_type: CENTER_SIZE
    ignore_cross_boundary_bbox: false
    mining_type: MAX_NEGATIVE
    use_polygon: true
  }
}
I0411 21:11:07.394682 21842 layer_factory.hpp:77] Creating layer data
I0411 21:11:07.395584 21842 net.cpp:100] Creating Layer data
I0411 21:11:07.395609 21842 net.cpp:408] data -> data
I0411 21:11:07.395671 21842 net.cpp:408] data -> label
I0411 21:11:07.396826 21847 db_lmdb.cpp:35] Opened lmdb ./data/train_lmdb/
I0411 21:11:07.424605 21842 annotated_data_layer.cpp:62] output data size: 16,3,384,384
I0411 21:11:07.478770 21842 net.cpp:150] Setting up data
I0411 21:11:07.478818 21842 net.cpp:157] Top shape: 16 3 384 384 (7077888)
I0411 21:11:07.478826 21842 net.cpp:157] Top shape: 1 1 22 16 (352)
I0411 21:11:07.478832 21842 net.cpp:165] Memory required for data: 28312960
I0411 21:11:07.478842 21842 layer_factory.hpp:77] Creating layer data_data_0_split
I0411 21:11:07.478866 21842 net.cpp:100] Creating Layer data_data_0_split
I0411 21:11:07.478874 21842 net.cpp:434] data_data_0_split <- data
I0411 21:11:07.478891 21842 net.cpp:408] data_data_0_split -> data_data_0_split_0
I0411 21:11:07.478910 21842 net.cpp:408] data_data_0_split -> data_data_0_split_1
I0411 21:11:07.478919 21842 net.cpp:408] data_data_0_split -> data_data_0_split_2
I0411 21:11:07.478929 21842 net.cpp:408] data_data_0_split -> data_data_0_split_3
I0411 21:11:07.478935 21842 net.cpp:408] data_data_0_split -> data_data_0_split_4
I0411 21:11:07.478942 21842 net.cpp:408] data_data_0_split -> data_data_0_split_5
I0411 21:11:07.478952 21842 net.cpp:408] data_data_0_split -> data_data_0_split_6
I0411 21:11:07.479058 21842 net.cpp:150] Setting up data_data_0_split
I0411 21:11:07.479068 21842 net.cpp:157] Top shape: 16 3 384 384 (7077888)
I0411 21:11:07.479075 21842 net.cpp:157] Top shape: 16 3 384 384 (7077888)
I0411 21:11:07.479080 21842 net.cpp:157] Top shape: 16 3 384 384 (7077888)
I0411 21:11:07.479086 21842 net.cpp:157] Top shape: 16 3 384 384 (7077888)
I0411 21:11:07.479090 21842 net.cpp:157] Top shape: 16 3 384 384 (7077888)
I0411 21:11:07.479096 21842 net.cpp:157] Top shape: 16 3 384 384 (7077888)
I0411 21:11:07.479101 21842 net.cpp:157] Top shape: 16 3 384 384 (7077888)
I0411 21:11:07.479106 21842 net.cpp:165] Memory required for data: 226493824
I0411 21:11:07.479110 21842 layer_factory.hpp:77] Creating layer conv1_1
I0411 21:11:07.479132 21842 net.cpp:100] Creating Layer conv1_1
I0411 21:11:07.479138 21842 net.cpp:434] conv1_1 <- data_data_0_split_0
I0411 21:11:07.479148 21842 net.cpp:408] conv1_1 -> conv1_1
I0411 21:11:07.845203 21842 net.cpp:150] Setting up conv1_1
I0411 21:11:07.845247 21842 net.cpp:157] Top shape: 16 64 384 384 (150994944)
I0411 21:11:07.845254 21842 net.cpp:165] Memory required for data: 830473600
I0411 21:11:07.845286 21842 layer_factory.hpp:77] Creating layer relu1_1
I0411 21:11:07.845338 21842 net.cpp:100] Creating Layer relu1_1
I0411 21:11:07.845367 21842 net.cpp:434] relu1_1 <- conv1_1
I0411 21:11:07.845397 21842 net.cpp:395] relu1_1 -> conv1_1 (in-place)
I0411 21:11:07.845861 21842 net.cpp:150] Setting up relu1_1
I0411 21:11:07.845880 21842 net.cpp:157] Top shape: 16 64 384 384 (150994944)
I0411 21:11:07.845909 21842 net.cpp:165] Memory required for data: 1434453376
I0411 21:11:07.845932 21842 layer_factory.hpp:77] Creating layer conv1_2
I0411 21:11:07.845970 21842 net.cpp:100] Creating Layer conv1_2
I0411 21:11:07.845993 21842 net.cpp:434] conv1_2 <- conv1_1
I0411 21:11:07.846019 21842 net.cpp:408] conv1_2 -> conv1_2
I0411 21:11:07.849479 21842 net.cpp:150] Setting up conv1_2
I0411 21:11:07.849530 21842 net.cpp:157] Top shape: 16 64 384 384 (150994944)
I0411 21:11:07.849571 21842 net.cpp:165] Memory required for data: 2038433152
I0411 21:11:07.849637 21842 layer_factory.hpp:77] Creating layer relu1_2
I0411 21:11:07.849648 21842 net.cpp:100] Creating Layer relu1_2
I0411 21:11:07.849653 21842 net.cpp:434] relu1_2 <- conv1_2
I0411 21:11:07.849661 21842 net.cpp:395] relu1_2 -> conv1_2 (in-place)
I0411 21:11:07.849889 21842 net.cpp:150] Setting up relu1_2
I0411 21:11:07.849930 21842 net.cpp:157] Top shape: 16 64 384 384 (150994944)
I0411 21:11:07.849952 21842 net.cpp:165] Memory required for data: 2642412928
I0411 21:11:07.849973 21842 layer_factory.hpp:77] Creating layer pool1
I0411 21:11:07.850001 21842 net.cpp:100] Creating Layer pool1
I0411 21:11:07.850023 21842 net.cpp:434] pool1 <- conv1_2
I0411 21:11:07.850046 21842 net.cpp:408] pool1 -> pool1
I0411 21:11:07.850137 21842 net.cpp:150] Setting up pool1
I0411 21:11:07.850169 21842 net.cpp:157] Top shape: 16 64 192 192 (37748736)
I0411 21:11:07.850190 21842 net.cpp:165] Memory required for data: 2793407872
I0411 21:11:07.850224 21842 layer_factory.hpp:77] Creating layer conv2_1
I0411 21:11:07.850255 21842 net.cpp:100] Creating Layer conv2_1
I0411 21:11:07.850277 21842 net.cpp:434] conv2_1 <- pool1
I0411 21:11:07.850303 21842 net.cpp:408] conv2_1 -> conv2_1
I0411 21:11:07.852600 21842 net.cpp:150] Setting up conv2_1
I0411 21:11:07.852643 21842 net.cpp:157] Top shape: 16 128 192 192 (75497472)
I0411 21:11:07.852666 21842 net.cpp:165] Memory required for data: 3095397760
I0411 21:11:07.852696 21842 layer_factory.hpp:77] Creating layer relu2_1
I0411 21:11:07.852725 21842 net.cpp:100] Creating Layer relu2_1
I0411 21:11:07.852746 21842 net.cpp:434] relu2_1 <- conv2_1
I0411 21:11:07.852771 21842 net.cpp:395] relu2_1 -> conv2_1 (in-place)
I0411 21:11:07.853020 21842 net.cpp:150] Setting up relu2_1
I0411 21:11:07.853056 21842 net.cpp:157] Top shape: 16 128 192 192 (75497472)
I0411 21:11:07.853080 21842 net.cpp:165] Memory required for data: 3397387648
I0411 21:11:07.853099 21842 layer_factory.hpp:77] Creating layer conv2_2
I0411 21:11:07.853132 21842 net.cpp:100] Creating Layer conv2_2
I0411 21:11:07.853154 21842 net.cpp:434] conv2_2 <- conv2_1
I0411 21:11:07.853179 21842 net.cpp:408] conv2_2 -> conv2_2
I0411 21:11:07.857036 21842 net.cpp:150] Setting up conv2_2
I0411 21:11:07.857079 21842 net.cpp:157] Top shape: 16 128 192 192 (75497472)
I0411 21:11:07.857089 21842 net.cpp:165] Memory required for data: 3699377536
I0411 21:11:07.857102 21842 layer_factory.hpp:77] Creating layer relu2_2
I0411 21:11:07.857129 21842 net.cpp:100] Creating Layer relu2_2
I0411 21:11:07.857151 21842 net.cpp:434] relu2_2 <- conv2_2
I0411 21:11:07.857177 21842 net.cpp:395] relu2_2 -> conv2_2 (in-place)
I0411 21:11:07.857632 21842 net.cpp:150] Setting up relu2_2
I0411 21:11:07.857669 21842 net.cpp:157] Top shape: 16 128 192 192 (75497472)
I0411 21:11:07.857691 21842 net.cpp:165] Memory required for data: 4001367424
I0411 21:11:07.857699 21842 layer_factory.hpp:77] Creating layer pool2
I0411 21:11:07.857709 21842 net.cpp:100] Creating Layer pool2
I0411 21:11:07.857714 21842 net.cpp:434] pool2 <- conv2_2
I0411 21:11:07.857722 21842 net.cpp:408] pool2 -> pool2
I0411 21:11:07.857784 21842 net.cpp:150] Setting up pool2
I0411 21:11:07.857815 21842 net.cpp:157] Top shape: 16 128 96 96 (18874368)
I0411 21:11:07.857834 21842 net.cpp:165] Memory required for data: 4076864896
I0411 21:11:07.857854 21842 layer_factory.hpp:77] Creating layer conv3_1
I0411 21:11:07.857883 21842 net.cpp:100] Creating Layer conv3_1
I0411 21:11:07.857903 21842 net.cpp:434] conv3_1 <- pool2
I0411 21:11:07.857923 21842 net.cpp:408] conv3_1 -> conv3_1
I0411 21:11:07.864114 21842 net.cpp:150] Setting up conv3_1
I0411 21:11:07.864166 21842 net.cpp:157] Top shape: 16 256 96 96 (37748736)
I0411 21:11:07.864200 21842 net.cpp:165] Memory required for data: 4227859840
I0411 21:11:07.864231 21842 layer_factory.hpp:77] Creating layer relu3_1
I0411 21:11:07.864261 21842 net.cpp:100] Creating Layer relu3_1
I0411 21:11:07.864284 21842 net.cpp:434] relu3_1 <- conv3_1
I0411 21:11:07.864295 21842 net.cpp:395] relu3_1 -> conv3_1 (in-place)
I0411 21:11:07.864560 21842 net.cpp:150] Setting up relu3_1
I0411 21:11:07.864598 21842 net.cpp:157] Top shape: 16 256 96 96 (37748736)
I0411 21:11:07.864624 21842 net.cpp:165] Memory required for data: 4378854784
I0411 21:11:07.864645 21842 layer_factory.hpp:77] Creating layer conv3_2
I0411 21:11:07.864673 21842 net.cpp:100] Creating Layer conv3_2
I0411 21:11:07.864697 21842 net.cpp:434] conv3_2 <- conv3_1
I0411 21:11:07.864723 21842 net.cpp:408] conv3_2 -> conv3_2
I0411 21:11:07.873330 21842 net.cpp:150] Setting up conv3_2
I0411 21:11:07.873351 21842 net.cpp:157] Top shape: 16 256 96 96 (37748736)
I0411 21:11:07.873358 21842 net.cpp:165] Memory required for data: 4529849728
I0411 21:11:07.873365 21842 layer_factory.hpp:77] Creating layer relu3_2
I0411 21:11:07.873374 21842 net.cpp:100] Creating Layer relu3_2
I0411 21:11:07.873379 21842 net.cpp:434] relu3_2 <- conv3_2
I0411 21:11:07.873390 21842 net.cpp:395] relu3_2 -> conv3_2 (in-place)
I0411 21:11:07.873646 21842 net.cpp:150] Setting up relu3_2
I0411 21:11:07.873680 21842 net.cpp:157] Top shape: 16 256 96 96 (37748736)
I0411 21:11:07.873702 21842 net.cpp:165] Memory required for data: 4680844672
I0411 21:11:07.873723 21842 layer_factory.hpp:77] Creating layer conv3_3
I0411 21:11:07.873756 21842 net.cpp:100] Creating Layer conv3_3
I0411 21:11:07.873778 21842 net.cpp:434] conv3_3 <- conv3_2
I0411 21:11:07.873805 21842 net.cpp:408] conv3_3 -> conv3_3
I0411 21:11:07.882369 21842 net.cpp:150] Setting up conv3_3
I0411 21:11:07.882426 21842 net.cpp:157] Top shape: 16 256 96 96 (37748736)
I0411 21:11:07.882433 21842 net.cpp:165] Memory required for data: 4831839616
I0411 21:11:07.882441 21842 layer_factory.hpp:77] Creating layer relu3_3
I0411 21:11:07.882452 21842 net.cpp:100] Creating Layer relu3_3
I0411 21:11:07.882457 21842 net.cpp:434] relu3_3 <- conv3_3
I0411 21:11:07.882469 21842 net.cpp:395] relu3_3 -> conv3_3 (in-place)
I0411 21:11:07.882932 21842 net.cpp:150] Setting up relu3_3
I0411 21:11:07.882973 21842 net.cpp:157] Top shape: 16 256 96 96 (37748736)
I0411 21:11:07.882995 21842 net.cpp:165] Memory required for data: 4982834560
I0411 21:11:07.883015 21842 layer_factory.hpp:77] Creating layer pool3
I0411 21:11:07.883039 21842 net.cpp:100] Creating Layer pool3
I0411 21:11:07.883064 21842 net.cpp:434] pool3 <- conv3_3
I0411 21:11:07.883087 21842 net.cpp:408] pool3 -> pool3
I0411 21:11:07.883150 21842 net.cpp:150] Setting up pool3
I0411 21:11:07.883183 21842 net.cpp:157] Top shape: 16 256 48 48 (9437184)
I0411 21:11:07.883204 21842 net.cpp:165] Memory required for data: 5020583296
I0411 21:11:07.883224 21842 layer_factory.hpp:77] Creating layer conv4_1
I0411 21:11:07.883255 21842 net.cpp:100] Creating Layer conv4_1
I0411 21:11:07.883282 21842 net.cpp:434] conv4_1 <- pool3
I0411 21:11:07.883294 21842 net.cpp:408] conv4_1 -> conv4_1
I0411 21:11:07.898809 21842 net.cpp:150] Setting up conv4_1
I0411 21:11:07.898826 21842 net.cpp:157] Top shape: 16 512 48 48 (18874368)
I0411 21:11:07.898831 21842 net.cpp:165] Memory required for data: 5096080768
I0411 21:11:07.898841 21842 layer_factory.hpp:77] Creating layer relu4_1
I0411 21:11:07.898854 21842 net.cpp:100] Creating Layer relu4_1
I0411 21:11:07.898861 21842 net.cpp:434] relu4_1 <- conv4_1
I0411 21:11:07.898874 21842 net.cpp:395] relu4_1 -> conv4_1 (in-place)
I0411 21:11:07.899124 21842 net.cpp:150] Setting up relu4_1
I0411 21:11:07.899165 21842 net.cpp:157] Top shape: 16 512 48 48 (18874368)
I0411 21:11:07.899194 21842 net.cpp:165] Memory required for data: 5171578240
I0411 21:11:07.899214 21842 layer_factory.hpp:77] Creating layer conv4_2
I0411 21:11:07.899242 21842 net.cpp:100] Creating Layer conv4_2
I0411 21:11:07.899250 21842 net.cpp:434] conv4_2 <- conv4_1
I0411 21:11:07.899258 21842 net.cpp:408] conv4_2 -> conv4_2
I0411 21:11:07.928308 21842 net.cpp:150] Setting up conv4_2
I0411 21:11:07.928371 21842 net.cpp:157] Top shape: 16 512 48 48 (18874368)
I0411 21:11:07.928395 21842 net.cpp:165] Memory required for data: 5247075712
I0411 21:11:07.928416 21842 layer_factory.hpp:77] Creating layer relu4_2
I0411 21:11:07.928449 21842 net.cpp:100] Creating Layer relu4_2
I0411 21:11:07.928458 21842 net.cpp:434] relu4_2 <- conv4_2
I0411 21:11:07.928488 21842 net.cpp:395] relu4_2 -> conv4_2 (in-place)
I0411 21:11:07.928747 21842 net.cpp:150] Setting up relu4_2
I0411 21:11:07.928783 21842 net.cpp:157] Top shape: 16 512 48 48 (18874368)
I0411 21:11:07.928809 21842 net.cpp:165] Memory required for data: 5322573184
I0411 21:11:07.928817 21842 layer_factory.hpp:77] Creating layer conv4_3
I0411 21:11:07.928829 21842 net.cpp:100] Creating Layer conv4_3
I0411 21:11:07.928836 21842 net.cpp:434] conv4_3 <- conv4_2
I0411 21:11:07.928845 21842 net.cpp:408] conv4_3 -> conv4_3
I0411 21:11:07.972934 21842 net.cpp:150] Setting up conv4_3
I0411 21:11:07.973023 21842 net.cpp:157] Top shape: 16 512 48 48 (18874368)
I0411 21:11:07.973033 21842 net.cpp:165] Memory required for data: 5398070656
I0411 21:11:07.973059 21842 layer_factory.hpp:77] Creating layer relu4_3
I0411 21:11:07.973137 21842 net.cpp:100] Creating Layer relu4_3
I0411 21:11:07.973162 21842 net.cpp:434] relu4_3 <- conv4_3
I0411 21:11:07.973191 21842 net.cpp:395] relu4_3 -> conv4_3 (in-place)
I0411 21:11:07.973837 21842 net.cpp:150] Setting up relu4_3
I0411 21:11:07.973865 21842 net.cpp:157] Top shape: 16 512 48 48 (18874368)
I0411 21:11:07.973872 21842 net.cpp:165] Memory required for data: 5473568128
I0411 21:11:07.973879 21842 layer_factory.hpp:77] Creating layer conv4_3_relu4_3_0_split
I0411 21:11:07.973906 21842 net.cpp:100] Creating Layer conv4_3_relu4_3_0_split
I0411 21:11:07.973918 21842 net.cpp:434] conv4_3_relu4_3_0_split <- conv4_3
I0411 21:11:07.973933 21842 net.cpp:408] conv4_3_relu4_3_0_split -> conv4_3_relu4_3_0_split_0
I0411 21:11:07.973950 21842 net.cpp:408] conv4_3_relu4_3_0_split -> conv4_3_relu4_3_0_split_1
I0411 21:11:07.974045 21842 net.cpp:150] Setting up conv4_3_relu4_3_0_split
I0411 21:11:07.974059 21842 net.cpp:157] Top shape: 16 512 48 48 (18874368)
I0411 21:11:07.974071 21842 net.cpp:157] Top shape: 16 512 48 48 (18874368)
I0411 21:11:07.974078 21842 net.cpp:165] Memory required for data: 5624563072
I0411 21:11:07.974089 21842 layer_factory.hpp:77] Creating layer pool4
I0411 21:11:07.974102 21842 net.cpp:100] Creating Layer pool4
I0411 21:11:07.974112 21842 net.cpp:434] pool4 <- conv4_3_relu4_3_0_split_0
I0411 21:11:07.974135 21842 net.cpp:408] pool4 -> pool4
I0411 21:11:07.974231 21842 net.cpp:150] Setting up pool4
I0411 21:11:07.974246 21842 net.cpp:157] Top shape: 16 512 24 24 (4718592)
I0411 21:11:07.974253 21842 net.cpp:165] Memory required for data: 5643437440
I0411 21:11:07.974259 21842 layer_factory.hpp:77] Creating layer conv5_1
I0411 21:11:07.974287 21842 net.cpp:100] Creating Layer conv5_1
I0411 21:11:07.974295 21842 net.cpp:434] conv5_1 <- pool4
I0411 21:11:07.974308 21842 net.cpp:408] conv5_1 -> conv5_1
I0411 21:11:08.019033 21842 net.cpp:150] Setting up conv5_1
I0411 21:11:08.019078 21842 net.cpp:157] Top shape: 16 512 24 24 (4718592)
I0411 21:11:08.019085 21842 net.cpp:165] Memory required for data: 5662311808
I0411 21:11:08.019099 21842 layer_factory.hpp:77] Creating layer relu5_1
I0411 21:11:08.019119 21842 net.cpp:100] Creating Layer relu5_1
I0411 21:11:08.019127 21842 net.cpp:434] relu5_1 <- conv5_1
I0411 21:11:08.019143 21842 net.cpp:395] relu5_1 -> conv5_1 (in-place)
I0411 21:11:08.019428 21842 net.cpp:150] Setting up relu5_1
I0411 21:11:08.019443 21842 net.cpp:157] Top shape: 16 512 24 24 (4718592)
I0411 21:11:08.019450 21842 net.cpp:165] Memory required for data: 5681186176
I0411 21:11:08.019457 21842 layer_factory.hpp:77] Creating layer conv5_2
I0411 21:11:08.019479 21842 net.cpp:100] Creating Layer conv5_2
I0411 21:11:08.019485 21842 net.cpp:434] conv5_2 <- conv5_1
I0411 21:11:08.019497 21842 net.cpp:408] conv5_2 -> conv5_2
I0411 21:11:08.034024 21848 blocking_queue.cpp:50] Waiting for data
I0411 21:11:08.055959 21842 net.cpp:150] Setting up conv5_2
I0411 21:11:08.055986 21842 net.cpp:157] Top shape: 16 512 24 24 (4718592)
I0411 21:11:08.055992 21842 net.cpp:165] Memory required for data: 5700060544
I0411 21:11:08.056004 21842 layer_factory.hpp:77] Creating layer relu5_2
I0411 21:11:08.056046 21842 net.cpp:100] Creating Layer relu5_2
I0411 21:11:08.056054 21842 net.cpp:434] relu5_2 <- conv5_2
I0411 21:11:08.056064 21842 net.cpp:395] relu5_2 -> conv5_2 (in-place)
I0411 21:11:08.056306 21842 net.cpp:150] Setting up relu5_2
I0411 21:11:08.056320 21842 net.cpp:157] Top shape: 16 512 24 24 (4718592)
I0411 21:11:08.056324 21842 net.cpp:165] Memory required for data: 5718934912
I0411 21:11:08.056329 21842 layer_factory.hpp:77] Creating layer conv5_3
I0411 21:11:08.056346 21842 net.cpp:100] Creating Layer conv5_3
I0411 21:11:08.056354 21842 net.cpp:434] conv5_3 <- conv5_2
I0411 21:11:08.056365 21842 net.cpp:408] conv5_3 -> conv5_3
I0411 21:11:08.088261 21842 net.cpp:150] Setting up conv5_3
I0411 21:11:08.088291 21842 net.cpp:157] Top shape: 16 512 24 24 (4718592)
I0411 21:11:08.088297 21842 net.cpp:165] Memory required for data: 5737809280
I0411 21:11:08.088307 21842 layer_factory.hpp:77] Creating layer relu5_3
I0411 21:11:08.088346 21842 net.cpp:100] Creating Layer relu5_3
I0411 21:11:08.088354 21842 net.cpp:434] relu5_3 <- conv5_3
I0411 21:11:08.088363 21842 net.cpp:395] relu5_3 -> conv5_3 (in-place)
I0411 21:11:08.088793 21842 net.cpp:150] Setting up relu5_3
I0411 21:11:08.088809 21842 net.cpp:157] Top shape: 16 512 24 24 (4718592)
I0411 21:11:08.088815 21842 net.cpp:165] Memory required for data: 5756683648
I0411 21:11:08.088819 21842 layer_factory.hpp:77] Creating layer pool5
I0411 21:11:08.088837 21842 net.cpp:100] Creating Layer pool5
I0411 21:11:08.088842 21842 net.cpp:434] pool5 <- conv5_3
I0411 21:11:08.088851 21842 net.cpp:408] pool5 -> pool5
I0411 21:11:08.088913 21842 net.cpp:150] Setting up pool5
I0411 21:11:08.088922 21842 net.cpp:157] Top shape: 16 512 24 24 (4718592)
I0411 21:11:08.088927 21842 net.cpp:165] Memory required for data: 5775558016
I0411 21:11:08.088933 21842 layer_factory.hpp:77] Creating layer fc6
I0411 21:11:08.088949 21842 net.cpp:100] Creating Layer fc6
I0411 21:11:08.088955 21842 net.cpp:434] fc6 <- pool5
I0411 21:11:08.088968 21842 net.cpp:408] fc6 -> fc6
I0411 21:11:08.144711 21842 net.cpp:150] Setting up fc6
I0411 21:11:08.144744 21842 net.cpp:157] Top shape: 16 1024 24 24 (9437184)
I0411 21:11:08.144749 21842 net.cpp:165] Memory required for data: 5813306752
I0411 21:11:08.144759 21842 layer_factory.hpp:77] Creating layer relu6
I0411 21:11:08.144773 21842 net.cpp:100] Creating Layer relu6
I0411 21:11:08.144781 21842 net.cpp:434] relu6 <- fc6
I0411 21:11:08.144790 21842 net.cpp:395] relu6 -> fc6 (in-place)
I0411 21:11:08.145071 21842 net.cpp:150] Setting up relu6
I0411 21:11:08.145084 21842 net.cpp:157] Top shape: 16 1024 24 24 (9437184)
I0411 21:11:08.145089 21842 net.cpp:165] Memory required for data: 5851055488
I0411 21:11:08.145094 21842 layer_factory.hpp:77] Creating layer fc7
I0411 21:11:08.145112 21842 net.cpp:100] Creating Layer fc7
I0411 21:11:08.145119 21842 net.cpp:434] fc7 <- fc6
I0411 21:11:08.145128 21842 net.cpp:408] fc7 -> fc7
I0411 21:11:08.159003 21842 net.cpp:150] Setting up fc7
I0411 21:11:08.159021 21842 net.cpp:157] Top shape: 16 1024 24 24 (9437184)
I0411 21:11:08.159025 21842 net.cpp:165] Memory required for data: 5888804224
I0411 21:11:08.159034 21842 layer_factory.hpp:77] Creating layer relu7
I0411 21:11:08.159044 21842 net.cpp:100] Creating Layer relu7
I0411 21:11:08.159052 21842 net.cpp:434] relu7 <- fc7
I0411 21:11:08.159059 21842 net.cpp:395] relu7 -> fc7 (in-place)
I0411 21:11:08.159466 21842 net.cpp:150] Setting up relu7
I0411 21:11:08.159482 21842 net.cpp:157] Top shape: 16 1024 24 24 (9437184)
I0411 21:11:08.159487 21842 net.cpp:165] Memory required for data: 5926552960
I0411 21:11:08.159490 21842 layer_factory.hpp:77] Creating layer fc7_relu7_0_split
I0411 21:11:08.159498 21842 net.cpp:100] Creating Layer fc7_relu7_0_split
I0411 21:11:08.159502 21842 net.cpp:434] fc7_relu7_0_split <- fc7
I0411 21:11:08.159510 21842 net.cpp:408] fc7_relu7_0_split -> fc7_relu7_0_split_0
I0411 21:11:08.159521 21842 net.cpp:408] fc7_relu7_0_split -> fc7_relu7_0_split_1
I0411 21:11:08.159548 21842 net.cpp:408] fc7_relu7_0_split -> fc7_relu7_0_split_2
I0411 21:11:08.159575 21842 net.cpp:408] fc7_relu7_0_split -> fc7_relu7_0_split_3
I0411 21:11:08.159662 21842 net.cpp:150] Setting up fc7_relu7_0_split
I0411 21:11:08.159672 21842 net.cpp:157] Top shape: 16 1024 24 24 (9437184)
I0411 21:11:08.159682 21842 net.cpp:157] Top shape: 16 1024 24 24 (9437184)
I0411 21:11:08.159687 21842 net.cpp:157] Top shape: 16 1024 24 24 (9437184)
I0411 21:11:08.159693 21842 net.cpp:157] Top shape: 16 1024 24 24 (9437184)
I0411 21:11:08.159695 21842 net.cpp:165] Memory required for data: 6077547904
I0411 21:11:08.159700 21842 layer_factory.hpp:77] Creating layer conv6_1
I0411 21:11:08.159716 21842 net.cpp:100] Creating Layer conv6_1
I0411 21:11:08.159723 21842 net.cpp:434] conv6_1 <- fc7_relu7_0_split_0
I0411 21:11:08.159731 21842 net.cpp:408] conv6_1 -> conv6_1
I0411 21:11:08.164033 21842 net.cpp:150] Setting up conv6_1
I0411 21:11:08.164052 21842 net.cpp:157] Top shape: 16 256 24 24 (2359296)
I0411 21:11:08.164055 21842 net.cpp:165] Memory required for data: 6086985088
I0411 21:11:08.164062 21842 layer_factory.hpp:77] Creating layer conv6_1_relu
I0411 21:11:08.164073 21842 net.cpp:100] Creating Layer conv6_1_relu
I0411 21:11:08.164078 21842 net.cpp:434] conv6_1_relu <- conv6_1
I0411 21:11:08.164085 21842 net.cpp:395] conv6_1_relu -> conv6_1 (in-place)
I0411 21:11:08.164481 21842 net.cpp:150] Setting up conv6_1_relu
I0411 21:11:08.164496 21842 net.cpp:157] Top shape: 16 256 24 24 (2359296)
I0411 21:11:08.164500 21842 net.cpp:165] Memory required for data: 6096422272
I0411 21:11:08.164505 21842 layer_factory.hpp:77] Creating layer conv6_2
I0411 21:11:08.164517 21842 net.cpp:100] Creating Layer conv6_2
I0411 21:11:08.164523 21842 net.cpp:434] conv6_2 <- conv6_1
I0411 21:11:08.164531 21842 net.cpp:408] conv6_2 -> conv6_2
I0411 21:11:08.179507 21842 net.cpp:150] Setting up conv6_2
I0411 21:11:08.179527 21842 net.cpp:157] Top shape: 16 512 12 12 (1179648)
I0411 21:11:08.179531 21842 net.cpp:165] Memory required for data: 6101140864
I0411 21:11:08.179558 21842 layer_factory.hpp:77] Creating layer conv6_2_relu
I0411 21:11:08.179569 21842 net.cpp:100] Creating Layer conv6_2_relu
I0411 21:11:08.179574 21842 net.cpp:434] conv6_2_relu <- conv6_2
I0411 21:11:08.179579 21842 net.cpp:395] conv6_2_relu -> conv6_2 (in-place)
I0411 21:11:08.179791 21842 net.cpp:150] Setting up conv6_2_relu
I0411 21:11:08.179806 21842 net.cpp:157] Top shape: 16 512 12 12 (1179648)
I0411 21:11:08.179811 21842 net.cpp:165] Memory required for data: 6105859456
I0411 21:11:08.179814 21842 layer_factory.hpp:77] Creating layer conv6_2_conv6_2_relu_0_split
I0411 21:11:08.179821 21842 net.cpp:100] Creating Layer conv6_2_conv6_2_relu_0_split
I0411 21:11:08.179826 21842 net.cpp:434] conv6_2_conv6_2_relu_0_split <- conv6_2
I0411 21:11:08.179832 21842 net.cpp:408] conv6_2_conv6_2_relu_0_split -> conv6_2_conv6_2_relu_0_split_0
I0411 21:11:08.179844 21842 net.cpp:408] conv6_2_conv6_2_relu_0_split -> conv6_2_conv6_2_relu_0_split_1
I0411 21:11:08.179852 21842 net.cpp:408] conv6_2_conv6_2_relu_0_split -> conv6_2_conv6_2_relu_0_split_2
I0411 21:11:08.179860 21842 net.cpp:408] conv6_2_conv6_2_relu_0_split -> conv6_2_conv6_2_relu_0_split_3
I0411 21:11:08.179944 21842 net.cpp:150] Setting up conv6_2_conv6_2_relu_0_split
I0411 21:11:08.179952 21842 net.cpp:157] Top shape: 16 512 12 12 (1179648)
I0411 21:11:08.179957 21842 net.cpp:157] Top shape: 16 512 12 12 (1179648)
I0411 21:11:08.179961 21842 net.cpp:157] Top shape: 16 512 12 12 (1179648)
I0411 21:11:08.179966 21842 net.cpp:157] Top shape: 16 512 12 12 (1179648)
I0411 21:11:08.179970 21842 net.cpp:165] Memory required for data: 6124733824
I0411 21:11:08.179973 21842 layer_factory.hpp:77] Creating layer conv7_1
I0411 21:11:08.179987 21842 net.cpp:100] Creating Layer conv7_1
I0411 21:11:08.179994 21842 net.cpp:434] conv7_1 <- conv6_2_conv6_2_relu_0_split_0
I0411 21:11:08.180002 21842 net.cpp:408] conv7_1 -> conv7_1
I0411 21:11:08.182173 21842 net.cpp:150] Setting up conv7_1
I0411 21:11:08.182190 21842 net.cpp:157] Top shape: 16 128 12 12 (294912)
I0411 21:11:08.182215 21842 net.cpp:165] Memory required for data: 6125913472
I0411 21:11:08.182226 21842 layer_factory.hpp:77] Creating layer conv7_1_relu
I0411 21:11:08.182234 21842 net.cpp:100] Creating Layer conv7_1_relu
I0411 21:11:08.182238 21842 net.cpp:434] conv7_1_relu <- conv7_1
I0411 21:11:08.182245 21842 net.cpp:395] conv7_1_relu -> conv7_1 (in-place)
I0411 21:11:08.182693 21842 net.cpp:150] Setting up conv7_1_relu
I0411 21:11:08.182710 21842 net.cpp:157] Top shape: 16 128 12 12 (294912)
I0411 21:11:08.182714 21842 net.cpp:165] Memory required for data: 6127093120
I0411 21:11:08.182718 21842 layer_factory.hpp:77] Creating layer conv7_2
I0411 21:11:08.182734 21842 net.cpp:100] Creating Layer conv7_2
I0411 21:11:08.182739 21842 net.cpp:434] conv7_2 <- conv7_1
I0411 21:11:08.182749 21842 net.cpp:408] conv7_2 -> conv7_2
I0411 21:11:08.187480 21842 net.cpp:150] Setting up conv7_2
I0411 21:11:08.187500 21842 net.cpp:157] Top shape: 16 256 6 6 (147456)
I0411 21:11:08.187505 21842 net.cpp:165] Memory required for data: 6127682944
I0411 21:11:08.187512 21842 layer_factory.hpp:77] Creating layer conv7_2_relu
I0411 21:11:08.187520 21842 net.cpp:100] Creating Layer conv7_2_relu
I0411 21:11:08.187525 21842 net.cpp:434] conv7_2_relu <- conv7_2
I0411 21:11:08.187530 21842 net.cpp:395] conv7_2_relu -> conv7_2 (in-place)
I0411 21:11:08.187927 21842 net.cpp:150] Setting up conv7_2_relu
I0411 21:11:08.187942 21842 net.cpp:157] Top shape: 16 256 6 6 (147456)
I0411 21:11:08.187947 21842 net.cpp:165] Memory required for data: 6128272768
I0411 21:11:08.187950 21842 layer_factory.hpp:77] Creating layer conv7_2_conv7_2_relu_0_split
I0411 21:11:08.187958 21842 net.cpp:100] Creating Layer conv7_2_conv7_2_relu_0_split
I0411 21:11:08.187963 21842 net.cpp:434] conv7_2_conv7_2_relu_0_split <- conv7_2
I0411 21:11:08.187971 21842 net.cpp:408] conv7_2_conv7_2_relu_0_split -> conv7_2_conv7_2_relu_0_split_0
I0411 21:11:08.187980 21842 net.cpp:408] conv7_2_conv7_2_relu_0_split -> conv7_2_conv7_2_relu_0_split_1
I0411 21:11:08.187988 21842 net.cpp:408] conv7_2_conv7_2_relu_0_split -> conv7_2_conv7_2_relu_0_split_2
I0411 21:11:08.187994 21842 net.cpp:408] conv7_2_conv7_2_relu_0_split -> conv7_2_conv7_2_relu_0_split_3
I0411 21:11:08.188077 21842 net.cpp:150] Setting up conv7_2_conv7_2_relu_0_split
I0411 21:11:08.188086 21842 net.cpp:157] Top shape: 16 256 6 6 (147456)
I0411 21:11:08.188091 21842 net.cpp:157] Top shape: 16 256 6 6 (147456)
I0411 21:11:08.188096 21842 net.cpp:157] Top shape: 16 256 6 6 (147456)
I0411 21:11:08.188099 21842 net.cpp:157] Top shape: 16 256 6 6 (147456)
I0411 21:11:08.188103 21842 net.cpp:165] Memory required for data: 6130632064
I0411 21:11:08.188108 21842 layer_factory.hpp:77] Creating layer conv8_1
I0411 21:11:08.188119 21842 net.cpp:100] Creating Layer conv8_1
I0411 21:11:08.188127 21842 net.cpp:434] conv8_1 <- conv7_2_conv7_2_relu_0_split_0
I0411 21:11:08.188136 21842 net.cpp:408] conv8_1 -> conv8_1
I0411 21:11:08.189756 21842 net.cpp:150] Setting up conv8_1
I0411 21:11:08.189772 21842 net.cpp:157] Top shape: 16 128 6 6 (73728)
I0411 21:11:08.189777 21842 net.cpp:165] Memory required for data: 6130926976
I0411 21:11:08.189785 21842 layer_factory.hpp:77] Creating layer conv8_1_relu
I0411 21:11:08.189795 21842 net.cpp:100] Creating Layer conv8_1_relu
I0411 21:11:08.189800 21842 net.cpp:434] conv8_1_relu <- conv8_1
I0411 21:11:08.189806 21842 net.cpp:395] conv8_1_relu -> conv8_1 (in-place)
I0411 21:11:08.190011 21842 net.cpp:150] Setting up conv8_1_relu
I0411 21:11:08.190023 21842 net.cpp:157] Top shape: 16 128 6 6 (73728)
I0411 21:11:08.190032 21842 net.cpp:165] Memory required for data: 6131221888
I0411 21:11:08.190035 21842 layer_factory.hpp:77] Creating layer conv8_2
I0411 21:11:08.190052 21842 net.cpp:100] Creating Layer conv8_2
I0411 21:11:08.190057 21842 net.cpp:434] conv8_2 <- conv8_1
I0411 21:11:08.190065 21842 net.cpp:408] conv8_2 -> conv8_2
I0411 21:11:08.194983 21842 net.cpp:150] Setting up conv8_2
I0411 21:11:08.195000 21842 net.cpp:157] Top shape: 16 256 4 4 (65536)
I0411 21:11:08.195004 21842 net.cpp:165] Memory required for data: 6131484032
I0411 21:11:08.195025 21842 layer_factory.hpp:77] Creating layer conv8_2_relu
I0411 21:11:08.195034 21842 net.cpp:100] Creating Layer conv8_2_relu
I0411 21:11:08.195039 21842 net.cpp:434] conv8_2_relu <- conv8_2
I0411 21:11:08.195045 21842 net.cpp:395] conv8_2_relu -> conv8_2 (in-place)
I0411 21:11:08.195444 21842 net.cpp:150] Setting up conv8_2_relu
I0411 21:11:08.195461 21842 net.cpp:157] Top shape: 16 256 4 4 (65536)
I0411 21:11:08.195464 21842 net.cpp:165] Memory required for data: 6131746176
I0411 21:11:08.195468 21842 layer_factory.hpp:77] Creating layer conv8_2_conv8_2_relu_0_split
I0411 21:11:08.195479 21842 net.cpp:100] Creating Layer conv8_2_conv8_2_relu_0_split
I0411 21:11:08.195484 21842 net.cpp:434] conv8_2_conv8_2_relu_0_split <- conv8_2
I0411 21:11:08.195492 21842 net.cpp:408] conv8_2_conv8_2_relu_0_split -> conv8_2_conv8_2_relu_0_split_0
I0411 21:11:08.195502 21842 net.cpp:408] conv8_2_conv8_2_relu_0_split -> conv8_2_conv8_2_relu_0_split_1
I0411 21:11:08.195508 21842 net.cpp:408] conv8_2_conv8_2_relu_0_split -> conv8_2_conv8_2_relu_0_split_2
I0411 21:11:08.195516 21842 net.cpp:408] conv8_2_conv8_2_relu_0_split -> conv8_2_conv8_2_relu_0_split_3
I0411 21:11:08.195600 21842 net.cpp:150] Setting up conv8_2_conv8_2_relu_0_split
I0411 21:11:08.195611 21842 net.cpp:157] Top shape: 16 256 4 4 (65536)
I0411 21:11:08.195616 21842 net.cpp:157] Top shape: 16 256 4 4 (65536)
I0411 21:11:08.195619 21842 net.cpp:157] Top shape: 16 256 4 4 (65536)
I0411 21:11:08.195623 21842 net.cpp:157] Top shape: 16 256 4 4 (65536)
I0411 21:11:08.195627 21842 net.cpp:165] Memory required for data: 6132794752
I0411 21:11:08.195631 21842 layer_factory.hpp:77] Creating layer conv9_1
I0411 21:11:08.195643 21842 net.cpp:100] Creating Layer conv9_1
I0411 21:11:08.195652 21842 net.cpp:434] conv9_1 <- conv8_2_conv8_2_relu_0_split_0
I0411 21:11:08.195658 21842 net.cpp:408] conv9_1 -> conv9_1
I0411 21:11:08.197101 21842 net.cpp:150] Setting up conv9_1
I0411 21:11:08.197118 21842 net.cpp:157] Top shape: 16 128 4 4 (32768)
I0411 21:11:08.197121 21842 net.cpp:165] Memory required for data: 6132925824
I0411 21:11:08.197130 21842 layer_factory.hpp:77] Creating layer conv9_1_relu
I0411 21:11:08.197139 21842 net.cpp:100] Creating Layer conv9_1_relu
I0411 21:11:08.197145 21842 net.cpp:434] conv9_1_relu <- conv9_1
I0411 21:11:08.197151 21842 net.cpp:395] conv9_1_relu -> conv9_1 (in-place)
I0411 21:11:08.197541 21842 net.cpp:150] Setting up conv9_1_relu
I0411 21:11:08.197556 21842 net.cpp:157] Top shape: 16 128 4 4 (32768)
I0411 21:11:08.197561 21842 net.cpp:165] Memory required for data: 6133056896
I0411 21:11:08.197564 21842 layer_factory.hpp:77] Creating layer conv9_2
I0411 21:11:08.197579 21842 net.cpp:100] Creating Layer conv9_2
I0411 21:11:08.197584 21842 net.cpp:434] conv9_2 <- conv9_1
I0411 21:11:08.197592 21842 net.cpp:408] conv9_2 -> conv9_2
I0411 21:11:08.202719 21842 net.cpp:150] Setting up conv9_2
I0411 21:11:08.202736 21842 net.cpp:157] Top shape: 16 256 2 2 (16384)
I0411 21:11:08.202741 21842 net.cpp:165] Memory required for data: 6133122432
I0411 21:11:08.202749 21842 layer_factory.hpp:77] Creating layer conv9_2_relu
I0411 21:11:08.202757 21842 net.cpp:100] Creating Layer conv9_2_relu
I0411 21:11:08.202762 21842 net.cpp:434] conv9_2_relu <- conv9_2
I0411 21:11:08.202771 21842 net.cpp:395] conv9_2_relu -> conv9_2 (in-place)
I0411 21:11:08.202972 21842 net.cpp:150] Setting up conv9_2_relu
I0411 21:11:08.202985 21842 net.cpp:157] Top shape: 16 256 2 2 (16384)
I0411 21:11:08.202988 21842 net.cpp:165] Memory required for data: 6133187968
I0411 21:11:08.202991 21842 layer_factory.hpp:77] Creating layer conv9_2_conv9_2_relu_0_split
I0411 21:11:08.202998 21842 net.cpp:100] Creating Layer conv9_2_conv9_2_relu_0_split
I0411 21:11:08.203002 21842 net.cpp:434] conv9_2_conv9_2_relu_0_split <- conv9_2
I0411 21:11:08.203011 21842 net.cpp:408] conv9_2_conv9_2_relu_0_split -> conv9_2_conv9_2_relu_0_split_0
I0411 21:11:08.203019 21842 net.cpp:408] conv9_2_conv9_2_relu_0_split -> conv9_2_conv9_2_relu_0_split_1
I0411 21:11:08.203030 21842 net.cpp:408] conv9_2_conv9_2_relu_0_split -> conv9_2_conv9_2_relu_0_split_2
I0411 21:11:08.203114 21842 net.cpp:150] Setting up conv9_2_conv9_2_relu_0_split
I0411 21:11:08.203122 21842 net.cpp:157] Top shape: 16 256 2 2 (16384)
I0411 21:11:08.203127 21842 net.cpp:157] Top shape: 16 256 2 2 (16384)
I0411 21:11:08.203131 21842 net.cpp:157] Top shape: 16 256 2 2 (16384)
I0411 21:11:08.203137 21842 net.cpp:165] Memory required for data: 6133384576
I0411 21:11:08.203142 21842 layer_factory.hpp:77] Creating layer conv4_3_norm
I0411 21:11:08.203155 21842 net.cpp:100] Creating Layer conv4_3_norm
I0411 21:11:08.203160 21842 net.cpp:434] conv4_3_norm <- conv4_3_relu4_3_0_split_1
I0411 21:11:08.203168 21842 net.cpp:408] conv4_3_norm -> conv4_3_norm
I0411 21:11:08.203361 21842 net.cpp:150] Setting up conv4_3_norm
I0411 21:11:08.203371 21842 net.cpp:157] Top shape: 16 512 48 48 (18874368)
I0411 21:11:08.203375 21842 net.cpp:165] Memory required for data: 6208882048
I0411 21:11:08.203382 21842 layer_factory.hpp:77] Creating layer conv4_3_norm_conv4_3_norm_0_split
I0411 21:11:08.203389 21842 net.cpp:100] Creating Layer conv4_3_norm_conv4_3_norm_0_split
I0411 21:11:08.203394 21842 net.cpp:434] conv4_3_norm_conv4_3_norm_0_split <- conv4_3_norm
I0411 21:11:08.203400 21842 net.cpp:408] conv4_3_norm_conv4_3_norm_0_split -> conv4_3_norm_conv4_3_norm_0_split_0
I0411 21:11:08.203409 21842 net.cpp:408] conv4_3_norm_conv4_3_norm_0_split -> conv4_3_norm_conv4_3_norm_0_split_1
I0411 21:11:08.203415 21842 net.cpp:408] conv4_3_norm_conv4_3_norm_0_split -> conv4_3_norm_conv4_3_norm_0_split_2
I0411 21:11:08.203476 21842 net.cpp:150] Setting up conv4_3_norm_conv4_3_norm_0_split
I0411 21:11:08.203485 21842 net.cpp:157] Top shape: 16 512 48 48 (18874368)
I0411 21:11:08.203490 21842 net.cpp:157] Top shape: 16 512 48 48 (18874368)
I0411 21:11:08.203495 21842 net.cpp:157] Top shape: 16 512 48 48 (18874368)
I0411 21:11:08.203497 21842 net.cpp:165] Memory required for data: 6435374464
I0411 21:11:08.203501 21842 layer_factory.hpp:77] Creating layer conv4_3_norm_mbox_loc
I0411 21:11:08.203519 21842 net.cpp:100] Creating Layer conv4_3_norm_mbox_loc
I0411 21:11:08.203526 21842 net.cpp:434] conv4_3_norm_mbox_loc <- conv4_3_norm_conv4_3_norm_0_split_0
I0411 21:11:08.203532 21842 net.cpp:408] conv4_3_norm_mbox_loc -> conv4_3_norm_mbox_loc
I0411 21:11:08.226183 21842 net.cpp:150] Setting up conv4_3_norm_mbox_loc
I0411 21:11:08.226214 21842 net.cpp:157] Top shape: 16 240 48 48 (8847360)
I0411 21:11:08.226219 21842 net.cpp:165] Memory required for data: 6470763904
I0411 21:11:08.226229 21842 layer_factory.hpp:77] Creating layer conv4_3_norm_mbox_loc_perm
I0411 21:11:08.226241 21842 net.cpp:100] Creating Layer conv4_3_norm_mbox_loc_perm
I0411 21:11:08.226246 21842 net.cpp:434] conv4_3_norm_mbox_loc_perm <- conv4_3_norm_mbox_loc
I0411 21:11:08.226254 21842 net.cpp:408] conv4_3_norm_mbox_loc_perm -> conv4_3_norm_mbox_loc_perm
I0411 21:11:08.226397 21842 net.cpp:150] Setting up conv4_3_norm_mbox_loc_perm
I0411 21:11:08.226408 21842 net.cpp:157] Top shape: 16 48 48 240 (8847360)
I0411 21:11:08.226411 21842 net.cpp:165] Memory required for data: 6506153344
I0411 21:11:08.226415 21842 layer_factory.hpp:77] Creating layer conv4_3_norm_mbox_loc_flat
I0411 21:11:08.226438 21842 net.cpp:100] Creating Layer conv4_3_norm_mbox_loc_flat
I0411 21:11:08.226444 21842 net.cpp:434] conv4_3_norm_mbox_loc_flat <- conv4_3_norm_mbox_loc_perm
I0411 21:11:08.226451 21842 net.cpp:408] conv4_3_norm_mbox_loc_flat -> conv4_3_norm_mbox_loc_flat
I0411 21:11:08.226495 21842 net.cpp:150] Setting up conv4_3_norm_mbox_loc_flat
I0411 21:11:08.226506 21842 net.cpp:157] Top shape: 16 552960 (8847360)
I0411 21:11:08.226511 21842 net.cpp:165] Memory required for data: 6541542784
I0411 21:11:08.226514 21842 layer_factory.hpp:77] Creating layer conv4_3_norm_mbox_conf
I0411 21:11:08.226536 21842 net.cpp:100] Creating Layer conv4_3_norm_mbox_conf
I0411 21:11:08.226541 21842 net.cpp:434] conv4_3_norm_mbox_conf <- conv4_3_norm_conv4_3_norm_0_split_1
I0411 21:11:08.226548 21842 net.cpp:408] conv4_3_norm_mbox_conf -> conv4_3_norm_mbox_conf
I0411 21:11:08.231678 21842 net.cpp:150] Setting up conv4_3_norm_mbox_conf
I0411 21:11:08.231696 21842 net.cpp:157] Top shape: 16 40 48 48 (1474560)
I0411 21:11:08.231701 21842 net.cpp:165] Memory required for data: 6547441024
I0411 21:11:08.231709 21842 layer_factory.hpp:77] Creating layer conv4_3_norm_mbox_conf_perm
I0411 21:11:08.231717 21842 net.cpp:100] Creating Layer conv4_3_norm_mbox_conf_perm
I0411 21:11:08.231722 21842 net.cpp:434] conv4_3_norm_mbox_conf_perm <- conv4_3_norm_mbox_conf
I0411 21:11:08.231729 21842 net.cpp:408] conv4_3_norm_mbox_conf_perm -> conv4_3_norm_mbox_conf_perm
I0411 21:11:08.231863 21842 net.cpp:150] Setting up conv4_3_norm_mbox_conf_perm
I0411 21:11:08.231871 21842 net.cpp:157] Top shape: 16 48 48 40 (1474560)
I0411 21:11:08.231875 21842 net.cpp:165] Memory required for data: 6553339264
I0411 21:11:08.231880 21842 layer_factory.hpp:77] Creating layer conv4_3_norm_mbox_conf_flat
I0411 21:11:08.231889 21842 net.cpp:100] Creating Layer conv4_3_norm_mbox_conf_flat
I0411 21:11:08.231894 21842 net.cpp:434] conv4_3_norm_mbox_conf_flat <- conv4_3_norm_mbox_conf_perm
I0411 21:11:08.231901 21842 net.cpp:408] conv4_3_norm_mbox_conf_flat -> conv4_3_norm_mbox_conf_flat
I0411 21:11:08.231932 21842 net.cpp:150] Setting up conv4_3_norm_mbox_conf_flat
I0411 21:11:08.231940 21842 net.cpp:157] Top shape: 16 92160 (1474560)
I0411 21:11:08.231945 21842 net.cpp:165] Memory required for data: 6559237504
I0411 21:11:08.231947 21842 layer_factory.hpp:77] Creating layer conv4_3_norm_mbox_priorbox
I0411 21:11:08.231958 21842 net.cpp:100] Creating Layer conv4_3_norm_mbox_priorbox
I0411 21:11:08.231963 21842 net.cpp:434] conv4_3_norm_mbox_priorbox <- conv4_3_norm_conv4_3_norm_0_split_2
I0411 21:11:08.231971 21842 net.cpp:434] conv4_3_norm_mbox_priorbox <- data_data_0_split_1
I0411 21:11:08.231979 21842 net.cpp:408] conv4_3_norm_mbox_priorbox -> conv4_3_norm_mbox_priorbox
I0411 21:11:08.232017 21842 net.cpp:150] Setting up conv4_3_norm_mbox_priorbox
I0411 21:11:08.232025 21842 net.cpp:157] Top shape: 1 2 184320 (368640)
I0411 21:11:08.232029 21842 net.cpp:165] Memory required for data: 6560712064
I0411 21:11:08.232033 21842 layer_factory.hpp:77] Creating layer fc7_mbox_loc
I0411 21:11:08.232045 21842 net.cpp:100] Creating Layer fc7_mbox_loc
I0411 21:11:08.232053 21842 net.cpp:434] fc7_mbox_loc <- fc7_relu7_0_split_1
I0411 21:11:08.232062 21842 net.cpp:408] fc7_mbox_loc -> fc7_mbox_loc
I0411 21:11:08.276274 21842 net.cpp:150] Setting up fc7_mbox_loc
I0411 21:11:08.276312 21842 net.cpp:157] Top shape: 16 240 24 24 (2211840)
I0411 21:11:08.276319 21842 net.cpp:165] Memory required for data: 6569559424
I0411 21:11:08.276330 21842 layer_factory.hpp:77] Creating layer fc7_mbox_loc_perm
I0411 21:11:08.276343 21842 net.cpp:100] Creating Layer fc7_mbox_loc_perm
I0411 21:11:08.276355 21842 net.cpp:434] fc7_mbox_loc_perm <- fc7_mbox_loc
I0411 21:11:08.276370 21842 net.cpp:408] fc7_mbox_loc_perm -> fc7_mbox_loc_perm
I0411 21:11:08.276507 21842 net.cpp:150] Setting up fc7_mbox_loc_perm
I0411 21:11:08.276517 21842 net.cpp:157] Top shape: 16 24 24 240 (2211840)
I0411 21:11:08.276521 21842 net.cpp:165] Memory required for data: 6578406784
I0411 21:11:08.276525 21842 layer_factory.hpp:77] Creating layer fc7_mbox_loc_flat
I0411 21:11:08.276535 21842 net.cpp:100] Creating Layer fc7_mbox_loc_flat
I0411 21:11:08.276542 21842 net.cpp:434] fc7_mbox_loc_flat <- fc7_mbox_loc_perm
I0411 21:11:08.276548 21842 net.cpp:408] fc7_mbox_loc_flat -> fc7_mbox_loc_flat
I0411 21:11:08.276581 21842 net.cpp:150] Setting up fc7_mbox_loc_flat
I0411 21:11:08.276587 21842 net.cpp:157] Top shape: 16 138240 (2211840)
I0411 21:11:08.276592 21842 net.cpp:165] Memory required for data: 6587254144
I0411 21:11:08.276595 21842 layer_factory.hpp:77] Creating layer fc7_mbox_conf
I0411 21:11:08.276608 21842 net.cpp:100] Creating Layer fc7_mbox_conf
I0411 21:11:08.276617 21842 net.cpp:434] fc7_mbox_conf <- fc7_relu7_0_split_2
I0411 21:11:08.276625 21842 net.cpp:408] fc7_mbox_conf -> fc7_mbox_conf
I0411 21:11:08.285048 21842 net.cpp:150] Setting up fc7_mbox_conf
I0411 21:11:08.285085 21842 net.cpp:157] Top shape: 16 40 24 24 (368640)
I0411 21:11:08.285091 21842 net.cpp:165] Memory required for data: 6588728704
I0411 21:11:08.285099 21842 layer_factory.hpp:77] Creating layer fc7_mbox_conf_perm
I0411 21:11:08.285107 21842 net.cpp:100] Creating Layer fc7_mbox_conf_perm
I0411 21:11:08.285112 21842 net.cpp:434] fc7_mbox_conf_perm <- fc7_mbox_conf
I0411 21:11:08.285120 21842 net.cpp:408] fc7_mbox_conf_perm -> fc7_mbox_conf_perm
I0411 21:11:08.285256 21842 net.cpp:150] Setting up fc7_mbox_conf_perm
I0411 21:11:08.285266 21842 net.cpp:157] Top shape: 16 24 24 40 (368640)
I0411 21:11:08.285270 21842 net.cpp:165] Memory required for data: 6590203264
I0411 21:11:08.285275 21842 layer_factory.hpp:77] Creating layer fc7_mbox_conf_flat
I0411 21:11:08.285284 21842 net.cpp:100] Creating Layer fc7_mbox_conf_flat
I0411 21:11:08.285290 21842 net.cpp:434] fc7_mbox_conf_flat <- fc7_mbox_conf_perm
I0411 21:11:08.285295 21842 net.cpp:408] fc7_mbox_conf_flat -> fc7_mbox_conf_flat
I0411 21:11:08.285327 21842 net.cpp:150] Setting up fc7_mbox_conf_flat
I0411 21:11:08.285336 21842 net.cpp:157] Top shape: 16 23040 (368640)
I0411 21:11:08.285339 21842 net.cpp:165] Memory required for data: 6591677824
I0411 21:11:08.285343 21842 layer_factory.hpp:77] Creating layer fc7_mbox_priorbox
I0411 21:11:08.285351 21842 net.cpp:100] Creating Layer fc7_mbox_priorbox
I0411 21:11:08.285356 21842 net.cpp:434] fc7_mbox_priorbox <- fc7_relu7_0_split_3
I0411 21:11:08.285362 21842 net.cpp:434] fc7_mbox_priorbox <- data_data_0_split_2
I0411 21:11:08.285369 21842 net.cpp:408] fc7_mbox_priorbox -> fc7_mbox_priorbox
I0411 21:11:08.285405 21842 net.cpp:150] Setting up fc7_mbox_priorbox
I0411 21:11:08.285413 21842 net.cpp:157] Top shape: 1 2 46080 (92160)
I0411 21:11:08.285418 21842 net.cpp:165] Memory required for data: 6592046464
I0411 21:11:08.285420 21842 layer_factory.hpp:77] Creating layer conv6_2_mbox_loc
I0411 21:11:08.285435 21842 net.cpp:100] Creating Layer conv6_2_mbox_loc
I0411 21:11:08.285440 21842 net.cpp:434] conv6_2_mbox_loc <- conv6_2_conv6_2_relu_0_split_1
I0411 21:11:08.285449 21842 net.cpp:408] conv6_2_mbox_loc -> conv6_2_mbox_loc
I0411 21:11:08.308815 21842 net.cpp:150] Setting up conv6_2_mbox_loc
I0411 21:11:08.308851 21842 net.cpp:157] Top shape: 16 240 12 12 (552960)
I0411 21:11:08.308856 21842 net.cpp:165] Memory required for data: 6594258304
I0411 21:11:08.308871 21842 layer_factory.hpp:77] Creating layer conv6_2_mbox_loc_perm
I0411 21:11:08.308881 21842 net.cpp:100] Creating Layer conv6_2_mbox_loc_perm
I0411 21:11:08.308887 21842 net.cpp:434] conv6_2_mbox_loc_perm <- conv6_2_mbox_loc
I0411 21:11:08.308894 21842 net.cpp:408] conv6_2_mbox_loc_perm -> conv6_2_mbox_loc_perm
I0411 21:11:08.309038 21842 net.cpp:150] Setting up conv6_2_mbox_loc_perm
I0411 21:11:08.309049 21842 net.cpp:157] Top shape: 16 12 12 240 (552960)
I0411 21:11:08.309053 21842 net.cpp:165] Memory required for data: 6596470144
I0411 21:11:08.309056 21842 layer_factory.hpp:77] Creating layer conv6_2_mbox_loc_flat
I0411 21:11:08.309064 21842 net.cpp:100] Creating Layer conv6_2_mbox_loc_flat
I0411 21:11:08.309069 21842 net.cpp:434] conv6_2_mbox_loc_flat <- conv6_2_mbox_loc_perm
I0411 21:11:08.309075 21842 net.cpp:408] conv6_2_mbox_loc_flat -> conv6_2_mbox_loc_flat
I0411 21:11:08.309106 21842 net.cpp:150] Setting up conv6_2_mbox_loc_flat
I0411 21:11:08.309115 21842 net.cpp:157] Top shape: 16 34560 (552960)
I0411 21:11:08.309119 21842 net.cpp:165] Memory required for data: 6598681984
I0411 21:11:08.309123 21842 layer_factory.hpp:77] Creating layer conv6_2_mbox_conf
I0411 21:11:08.309134 21842 net.cpp:100] Creating Layer conv6_2_mbox_conf
I0411 21:11:08.309139 21842 net.cpp:434] conv6_2_mbox_conf <- conv6_2_conv6_2_relu_0_split_2
I0411 21:11:08.309147 21842 net.cpp:408] conv6_2_mbox_conf -> conv6_2_mbox_conf
I0411 21:11:08.314214 21842 net.cpp:150] Setting up conv6_2_mbox_conf
I0411 21:11:08.314231 21842 net.cpp:157] Top shape: 16 40 12 12 (92160)
I0411 21:11:08.314236 21842 net.cpp:165] Memory required for data: 6599050624
I0411 21:11:08.314257 21842 layer_factory.hpp:77] Creating layer conv6_2_mbox_conf_perm
I0411 21:11:08.314267 21842 net.cpp:100] Creating Layer conv6_2_mbox_conf_perm
I0411 21:11:08.314272 21842 net.cpp:434] conv6_2_mbox_conf_perm <- conv6_2_mbox_conf
I0411 21:11:08.314281 21842 net.cpp:408] conv6_2_mbox_conf_perm -> conv6_2_mbox_conf_perm
I0411 21:11:08.314416 21842 net.cpp:150] Setting up conv6_2_mbox_conf_perm
I0411 21:11:08.314429 21842 net.cpp:157] Top shape: 16 12 12 40 (92160)
I0411 21:11:08.314432 21842 net.cpp:165] Memory required for data: 6599419264
I0411 21:11:08.314437 21842 layer_factory.hpp:77] Creating layer conv6_2_mbox_conf_flat
I0411 21:11:08.314443 21842 net.cpp:100] Creating Layer conv6_2_mbox_conf_flat
I0411 21:11:08.314448 21842 net.cpp:434] conv6_2_mbox_conf_flat <- conv6_2_mbox_conf_perm
I0411 21:11:08.314455 21842 net.cpp:408] conv6_2_mbox_conf_flat -> conv6_2_mbox_conf_flat
I0411 21:11:08.314486 21842 net.cpp:150] Setting up conv6_2_mbox_conf_flat
I0411 21:11:08.314494 21842 net.cpp:157] Top shape: 16 5760 (92160)
I0411 21:11:08.314498 21842 net.cpp:165] Memory required for data: 6599787904
I0411 21:11:08.314502 21842 layer_factory.hpp:77] Creating layer conv6_2_mbox_priorbox
I0411 21:11:08.314512 21842 net.cpp:100] Creating Layer conv6_2_mbox_priorbox
I0411 21:11:08.314517 21842 net.cpp:434] conv6_2_mbox_priorbox <- conv6_2_conv6_2_relu_0_split_3
I0411 21:11:08.314522 21842 net.cpp:434] conv6_2_mbox_priorbox <- data_data_0_split_3
I0411 21:11:08.314528 21842 net.cpp:408] conv6_2_mbox_priorbox -> conv6_2_mbox_priorbox
I0411 21:11:08.314563 21842 net.cpp:150] Setting up conv6_2_mbox_priorbox
I0411 21:11:08.314571 21842 net.cpp:157] Top shape: 1 2 11520 (23040)
I0411 21:11:08.314575 21842 net.cpp:165] Memory required for data: 6599880064
I0411 21:11:08.314579 21842 layer_factory.hpp:77] Creating layer conv7_2_mbox_loc
I0411 21:11:08.314589 21842 net.cpp:100] Creating Layer conv7_2_mbox_loc
I0411 21:11:08.314594 21842 net.cpp:434] conv7_2_mbox_loc <- conv7_2_conv7_2_relu_0_split_1
I0411 21:11:08.314602 21842 net.cpp:408] conv7_2_mbox_loc -> conv7_2_mbox_loc
I0411 21:11:08.326689 21842 net.cpp:150] Setting up conv7_2_mbox_loc
I0411 21:11:08.326709 21842 net.cpp:157] Top shape: 16 240 6 6 (138240)
I0411 21:11:08.326712 21842 net.cpp:165] Memory required for data: 6600433024
I0411 21:11:08.326721 21842 layer_factory.hpp:77] Creating layer conv7_2_mbox_loc_perm
I0411 21:11:08.326730 21842 net.cpp:100] Creating Layer conv7_2_mbox_loc_perm
I0411 21:11:08.326735 21842 net.cpp:434] conv7_2_mbox_loc_perm <- conv7_2_mbox_loc
I0411 21:11:08.326742 21842 net.cpp:408] conv7_2_mbox_loc_perm -> conv7_2_mbox_loc_perm
I0411 21:11:08.326879 21842 net.cpp:150] Setting up conv7_2_mbox_loc_perm
I0411 21:11:08.326889 21842 net.cpp:157] Top shape: 16 6 6 240 (138240)
I0411 21:11:08.326894 21842 net.cpp:165] Memory required for data: 6600985984
I0411 21:11:08.326897 21842 layer_factory.hpp:77] Creating layer conv7_2_mbox_loc_flat
I0411 21:11:08.326905 21842 net.cpp:100] Creating Layer conv7_2_mbox_loc_flat
I0411 21:11:08.326910 21842 net.cpp:434] conv7_2_mbox_loc_flat <- conv7_2_mbox_loc_perm
I0411 21:11:08.326915 21842 net.cpp:408] conv7_2_mbox_loc_flat -> conv7_2_mbox_loc_flat
I0411 21:11:08.326947 21842 net.cpp:150] Setting up conv7_2_mbox_loc_flat
I0411 21:11:08.326956 21842 net.cpp:157] Top shape: 16 8640 (138240)
I0411 21:11:08.326959 21842 net.cpp:165] Memory required for data: 6601538944
I0411 21:11:08.326962 21842 layer_factory.hpp:77] Creating layer conv7_2_mbox_conf
I0411 21:11:08.326977 21842 net.cpp:100] Creating Layer conv7_2_mbox_conf
I0411 21:11:08.326982 21842 net.cpp:434] conv7_2_mbox_conf <- conv7_2_conv7_2_relu_0_split_2
I0411 21:11:08.326990 21842 net.cpp:408] conv7_2_mbox_conf -> conv7_2_mbox_conf
I0411 21:11:08.330687 21842 net.cpp:150] Setting up conv7_2_mbox_conf
I0411 21:11:08.330703 21842 net.cpp:157] Top shape: 16 40 6 6 (23040)
I0411 21:11:08.330708 21842 net.cpp:165] Memory required for data: 6601631104
I0411 21:11:08.330715 21842 layer_factory.hpp:77] Creating layer conv7_2_mbox_conf_perm
I0411 21:11:08.330739 21842 net.cpp:100] Creating Layer conv7_2_mbox_conf_perm
I0411 21:11:08.330744 21842 net.cpp:434] conv7_2_mbox_conf_perm <- conv7_2_mbox_conf
I0411 21:11:08.330751 21842 net.cpp:408] conv7_2_mbox_conf_perm -> conv7_2_mbox_conf_perm
I0411 21:11:08.330891 21842 net.cpp:150] Setting up conv7_2_mbox_conf_perm
I0411 21:11:08.330901 21842 net.cpp:157] Top shape: 16 6 6 40 (23040)
I0411 21:11:08.330905 21842 net.cpp:165] Memory required for data: 6601723264
I0411 21:11:08.330909 21842 layer_factory.hpp:77] Creating layer conv7_2_mbox_conf_flat
I0411 21:11:08.330915 21842 net.cpp:100] Creating Layer conv7_2_mbox_conf_flat
I0411 21:11:08.330919 21842 net.cpp:434] conv7_2_mbox_conf_flat <- conv7_2_mbox_conf_perm
I0411 21:11:08.330927 21842 net.cpp:408] conv7_2_mbox_conf_flat -> conv7_2_mbox_conf_flat
I0411 21:11:08.330958 21842 net.cpp:150] Setting up conv7_2_mbox_conf_flat
I0411 21:11:08.330968 21842 net.cpp:157] Top shape: 16 1440 (23040)
I0411 21:11:08.330972 21842 net.cpp:165] Memory required for data: 6601815424
I0411 21:11:08.330976 21842 layer_factory.hpp:77] Creating layer conv7_2_mbox_priorbox
I0411 21:11:08.330983 21842 net.cpp:100] Creating Layer conv7_2_mbox_priorbox
I0411 21:11:08.330987 21842 net.cpp:434] conv7_2_mbox_priorbox <- conv7_2_conv7_2_relu_0_split_3
I0411 21:11:08.330992 21842 net.cpp:434] conv7_2_mbox_priorbox <- data_data_0_split_4
I0411 21:11:08.331001 21842 net.cpp:408] conv7_2_mbox_priorbox -> conv7_2_mbox_priorbox
I0411 21:11:08.331033 21842 net.cpp:150] Setting up conv7_2_mbox_priorbox
I0411 21:11:08.331041 21842 net.cpp:157] Top shape: 1 2 2880 (5760)
I0411 21:11:08.331045 21842 net.cpp:165] Memory required for data: 6601838464
I0411 21:11:08.331048 21842 layer_factory.hpp:77] Creating layer conv8_2_mbox_loc
I0411 21:11:08.331060 21842 net.cpp:100] Creating Layer conv8_2_mbox_loc
I0411 21:11:08.331064 21842 net.cpp:434] conv8_2_mbox_loc <- conv8_2_conv8_2_relu_0_split_1
I0411 21:11:08.331074 21842 net.cpp:408] conv8_2_mbox_loc -> conv8_2_mbox_loc
I0411 21:11:08.343025 21842 net.cpp:150] Setting up conv8_2_mbox_loc
I0411 21:11:08.343044 21842 net.cpp:157] Top shape: 16 240 4 4 (61440)
I0411 21:11:08.343049 21842 net.cpp:165] Memory required for data: 6602084224
I0411 21:11:08.343077 21842 layer_factory.hpp:77] Creating layer conv8_2_mbox_loc_perm
I0411 21:11:08.343087 21842 net.cpp:100] Creating Layer conv8_2_mbox_loc_perm
I0411 21:11:08.343092 21842 net.cpp:434] conv8_2_mbox_loc_perm <- conv8_2_mbox_loc
I0411 21:11:08.343101 21842 net.cpp:408] conv8_2_mbox_loc_perm -> conv8_2_mbox_loc_perm
I0411 21:11:08.343240 21842 net.cpp:150] Setting up conv8_2_mbox_loc_perm
I0411 21:11:08.343250 21842 net.cpp:157] Top shape: 16 4 4 240 (61440)
I0411 21:11:08.343253 21842 net.cpp:165] Memory required for data: 6602329984
I0411 21:11:08.343257 21842 layer_factory.hpp:77] Creating layer conv8_2_mbox_loc_flat
I0411 21:11:08.343264 21842 net.cpp:100] Creating Layer conv8_2_mbox_loc_flat
I0411 21:11:08.343269 21842 net.cpp:434] conv8_2_mbox_loc_flat <- conv8_2_mbox_loc_perm
I0411 21:11:08.343276 21842 net.cpp:408] conv8_2_mbox_loc_flat -> conv8_2_mbox_loc_flat
I0411 21:11:08.343307 21842 net.cpp:150] Setting up conv8_2_mbox_loc_flat
I0411 21:11:08.343317 21842 net.cpp:157] Top shape: 16 3840 (61440)
I0411 21:11:08.343320 21842 net.cpp:165] Memory required for data: 6602575744
I0411 21:11:08.343323 21842 layer_factory.hpp:77] Creating layer conv8_2_mbox_conf
I0411 21:11:08.343335 21842 net.cpp:100] Creating Layer conv8_2_mbox_conf
I0411 21:11:08.343339 21842 net.cpp:434] conv8_2_mbox_conf <- conv8_2_conv8_2_relu_0_split_2
I0411 21:11:08.343348 21842 net.cpp:408] conv8_2_mbox_conf -> conv8_2_mbox_conf
I0411 21:11:08.346818 21842 net.cpp:150] Setting up conv8_2_mbox_conf
I0411 21:11:08.346837 21842 net.cpp:157] Top shape: 16 40 4 4 (10240)
I0411 21:11:08.346840 21842 net.cpp:165] Memory required for data: 6602616704
I0411 21:11:08.346848 21842 layer_factory.hpp:77] Creating layer conv8_2_mbox_conf_perm
I0411 21:11:08.346858 21842 net.cpp:100] Creating Layer conv8_2_mbox_conf_perm
I0411 21:11:08.346864 21842 net.cpp:434] conv8_2_mbox_conf_perm <- conv8_2_mbox_conf
I0411 21:11:08.346884 21842 net.cpp:408] conv8_2_mbox_conf_perm -> conv8_2_mbox_conf_perm
I0411 21:11:08.347025 21842 net.cpp:150] Setting up conv8_2_mbox_conf_perm
I0411 21:11:08.347036 21842 net.cpp:157] Top shape: 16 4 4 40 (10240)
I0411 21:11:08.347039 21842 net.cpp:165] Memory required for data: 6602657664
I0411 21:11:08.347044 21842 layer_factory.hpp:77] Creating layer conv8_2_mbox_conf_flat
I0411 21:11:08.347050 21842 net.cpp:100] Creating Layer conv8_2_mbox_conf_flat
I0411 21:11:08.347055 21842 net.cpp:434] conv8_2_mbox_conf_flat <- conv8_2_mbox_conf_perm
I0411 21:11:08.347064 21842 net.cpp:408] conv8_2_mbox_conf_flat -> conv8_2_mbox_conf_flat
I0411 21:11:08.347097 21842 net.cpp:150] Setting up conv8_2_mbox_conf_flat
I0411 21:11:08.347105 21842 net.cpp:157] Top shape: 16 640 (10240)
I0411 21:11:08.347110 21842 net.cpp:165] Memory required for data: 6602698624
I0411 21:11:08.347113 21842 layer_factory.hpp:77] Creating layer conv8_2_mbox_priorbox
I0411 21:11:08.347121 21842 net.cpp:100] Creating Layer conv8_2_mbox_priorbox
I0411 21:11:08.347126 21842 net.cpp:434] conv8_2_mbox_priorbox <- conv8_2_conv8_2_relu_0_split_3
I0411 21:11:08.347131 21842 net.cpp:434] conv8_2_mbox_priorbox <- data_data_0_split_5
I0411 21:11:08.347138 21842 net.cpp:408] conv8_2_mbox_priorbox -> conv8_2_mbox_priorbox
I0411 21:11:08.347178 21842 net.cpp:150] Setting up conv8_2_mbox_priorbox
I0411 21:11:08.347187 21842 net.cpp:157] Top shape: 1 2 1280 (2560)
I0411 21:11:08.347192 21842 net.cpp:165] Memory required for data: 6602708864
I0411 21:11:08.347194 21842 layer_factory.hpp:77] Creating layer conv9_2_mbox_loc
I0411 21:11:08.347205 21842 net.cpp:100] Creating Layer conv9_2_mbox_loc
I0411 21:11:08.347210 21842 net.cpp:434] conv9_2_mbox_loc <- conv9_2_conv9_2_relu_0_split_0
I0411 21:11:08.347218 21842 net.cpp:408] conv9_2_mbox_loc -> conv9_2_mbox_loc
I0411 21:11:08.359311 21842 net.cpp:150] Setting up conv9_2_mbox_loc
I0411 21:11:08.359329 21842 net.cpp:157] Top shape: 16 240 2 2 (15360)
I0411 21:11:08.359334 21842 net.cpp:165] Memory required for data: 6602770304
I0411 21:11:08.359341 21842 layer_factory.hpp:77] Creating layer conv9_2_mbox_loc_perm
I0411 21:11:08.359352 21842 net.cpp:100] Creating Layer conv9_2_mbox_loc_perm
I0411 21:11:08.359357 21842 net.cpp:434] conv9_2_mbox_loc_perm <- conv9_2_mbox_loc
I0411 21:11:08.359364 21842 net.cpp:408] conv9_2_mbox_loc_perm -> conv9_2_mbox_loc_perm
I0411 21:11:08.359503 21842 net.cpp:150] Setting up conv9_2_mbox_loc_perm
I0411 21:11:08.359513 21842 net.cpp:157] Top shape: 16 2 2 240 (15360)
I0411 21:11:08.359515 21842 net.cpp:165] Memory required for data: 6602831744
I0411 21:11:08.359519 21842 layer_factory.hpp:77] Creating layer conv9_2_mbox_loc_flat
I0411 21:11:08.359525 21842 net.cpp:100] Creating Layer conv9_2_mbox_loc_flat
I0411 21:11:08.359529 21842 net.cpp:434] conv9_2_mbox_loc_flat <- conv9_2_mbox_loc_perm
I0411 21:11:08.359540 21842 net.cpp:408] conv9_2_mbox_loc_flat -> conv9_2_mbox_loc_flat
I0411 21:11:08.359575 21842 net.cpp:150] Setting up conv9_2_mbox_loc_flat
I0411 21:11:08.359582 21842 net.cpp:157] Top shape: 16 960 (15360)
I0411 21:11:08.359586 21842 net.cpp:165] Memory required for data: 6602893184
I0411 21:11:08.359591 21842 layer_factory.hpp:77] Creating layer conv9_2_mbox_conf
I0411 21:11:08.359601 21842 net.cpp:100] Creating Layer conv9_2_mbox_conf
I0411 21:11:08.359606 21842 net.cpp:434] conv9_2_mbox_conf <- conv9_2_conv9_2_relu_0_split_1
I0411 21:11:08.359614 21842 net.cpp:408] conv9_2_mbox_conf -> conv9_2_mbox_conf
I0411 21:11:08.363088 21842 net.cpp:150] Setting up conv9_2_mbox_conf
I0411 21:11:08.363106 21842 net.cpp:157] Top shape: 16 40 2 2 (2560)
I0411 21:11:08.363111 21842 net.cpp:165] Memory required for data: 6602903424
I0411 21:11:08.363117 21842 layer_factory.hpp:77] Creating layer conv9_2_mbox_conf_perm
I0411 21:11:08.363126 21842 net.cpp:100] Creating Layer conv9_2_mbox_conf_perm
I0411 21:11:08.363131 21842 net.cpp:434] conv9_2_mbox_conf_perm <- conv9_2_mbox_conf
I0411 21:11:08.363140 21842 net.cpp:408] conv9_2_mbox_conf_perm -> conv9_2_mbox_conf_perm
I0411 21:11:08.363297 21842 net.cpp:150] Setting up conv9_2_mbox_conf_perm
I0411 21:11:08.363308 21842 net.cpp:157] Top shape: 16 2 2 40 (2560)
I0411 21:11:08.363312 21842 net.cpp:165] Memory required for data: 6602913664
I0411 21:11:08.363317 21842 layer_factory.hpp:77] Creating layer conv9_2_mbox_conf_flat
I0411 21:11:08.363322 21842 net.cpp:100] Creating Layer conv9_2_mbox_conf_flat
I0411 21:11:08.363327 21842 net.cpp:434] conv9_2_mbox_conf_flat <- conv9_2_mbox_conf_perm
I0411 21:11:08.363335 21842 net.cpp:408] conv9_2_mbox_conf_flat -> conv9_2_mbox_conf_flat
I0411 21:11:08.363366 21842 net.cpp:150] Setting up conv9_2_mbox_conf_flat
I0411 21:11:08.363374 21842 net.cpp:157] Top shape: 16 160 (2560)
I0411 21:11:08.363379 21842 net.cpp:165] Memory required for data: 6602923904
I0411 21:11:08.363382 21842 layer_factory.hpp:77] Creating layer conv9_2_mbox_priorbox
I0411 21:11:08.363390 21842 net.cpp:100] Creating Layer conv9_2_mbox_priorbox
I0411 21:11:08.363394 21842 net.cpp:434] conv9_2_mbox_priorbox <- conv9_2_conv9_2_relu_0_split_2
I0411 21:11:08.363400 21842 net.cpp:434] conv9_2_mbox_priorbox <- data_data_0_split_6
I0411 21:11:08.363407 21842 net.cpp:408] conv9_2_mbox_priorbox -> conv9_2_mbox_priorbox
I0411 21:11:08.363441 21842 net.cpp:150] Setting up conv9_2_mbox_priorbox
I0411 21:11:08.363449 21842 net.cpp:157] Top shape: 1 2 320 (640)
I0411 21:11:08.363453 21842 net.cpp:165] Memory required for data: 6602926464
I0411 21:11:08.363457 21842 layer_factory.hpp:77] Creating layer mbox_loc
I0411 21:11:08.363481 21842 net.cpp:100] Creating Layer mbox_loc
I0411 21:11:08.363487 21842 net.cpp:434] mbox_loc <- conv4_3_norm_mbox_loc_flat
I0411 21:11:08.363494 21842 net.cpp:434] mbox_loc <- fc7_mbox_loc_flat
I0411 21:11:08.363500 21842 net.cpp:434] mbox_loc <- conv6_2_mbox_loc_flat
I0411 21:11:08.363505 21842 net.cpp:434] mbox_loc <- conv7_2_mbox_loc_flat
I0411 21:11:08.363509 21842 net.cpp:434] mbox_loc <- conv8_2_mbox_loc_flat
I0411 21:11:08.363514 21842 net.cpp:434] mbox_loc <- conv9_2_mbox_loc_flat
I0411 21:11:08.363519 21842 net.cpp:408] mbox_loc -> mbox_loc
I0411 21:11:08.363584 21842 net.cpp:150] Setting up mbox_loc
I0411 21:11:08.363592 21842 net.cpp:157] Top shape: 16 739200 (11827200)
I0411 21:11:08.363596 21842 net.cpp:165] Memory required for data: 6650235264
I0411 21:11:08.363600 21842 layer_factory.hpp:77] Creating layer mbox_conf
I0411 21:11:08.363606 21842 net.cpp:100] Creating Layer mbox_conf
I0411 21:11:08.363610 21842 net.cpp:434] mbox_conf <- conv4_3_norm_mbox_conf_flat
I0411 21:11:08.363616 21842 net.cpp:434] mbox_conf <- fc7_mbox_conf_flat
I0411 21:11:08.363621 21842 net.cpp:434] mbox_conf <- conv6_2_mbox_conf_flat
I0411 21:11:08.363626 21842 net.cpp:434] mbox_conf <- conv7_2_mbox_conf_flat
I0411 21:11:08.363631 21842 net.cpp:434] mbox_conf <- conv8_2_mbox_conf_flat
I0411 21:11:08.363636 21842 net.cpp:434] mbox_conf <- conv9_2_mbox_conf_flat
I0411 21:11:08.363642 21842 net.cpp:408] mbox_conf -> mbox_conf
I0411 21:11:08.363674 21842 net.cpp:150] Setting up mbox_conf
I0411 21:11:08.363682 21842 net.cpp:157] Top shape: 16 123200 (1971200)
I0411 21:11:08.363687 21842 net.cpp:165] Memory required for data: 6658120064
I0411 21:11:08.363689 21842 layer_factory.hpp:77] Creating layer mbox_priorbox
I0411 21:11:08.363696 21842 net.cpp:100] Creating Layer mbox_priorbox
I0411 21:11:08.363701 21842 net.cpp:434] mbox_priorbox <- conv4_3_norm_mbox_priorbox
I0411 21:11:08.363706 21842 net.cpp:434] mbox_priorbox <- fc7_mbox_priorbox
I0411 21:11:08.363711 21842 net.cpp:434] mbox_priorbox <- conv6_2_mbox_priorbox
I0411 21:11:08.363715 21842 net.cpp:434] mbox_priorbox <- conv7_2_mbox_priorbox
I0411 21:11:08.363719 21842 net.cpp:434] mbox_priorbox <- conv8_2_mbox_priorbox
I0411 21:11:08.363723 21842 net.cpp:434] mbox_priorbox <- conv9_2_mbox_priorbox
I0411 21:11:08.363730 21842 net.cpp:408] mbox_priorbox -> mbox_priorbox
I0411 21:11:08.363762 21842 net.cpp:150] Setting up mbox_priorbox
I0411 21:11:08.363770 21842 net.cpp:157] Top shape: 1 2 246400 (492800)
I0411 21:11:08.363773 21842 net.cpp:165] Memory required for data: 6660091264
I0411 21:11:08.363786 21842 layer_factory.hpp:77] Creating layer mbox_loss
I0411 21:11:08.363798 21842 net.cpp:100] Creating Layer mbox_loss
I0411 21:11:08.363802 21842 net.cpp:434] mbox_loss <- mbox_loc
I0411 21:11:08.363808 21842 net.cpp:434] mbox_loss <- mbox_conf
I0411 21:11:08.363812 21842 net.cpp:434] mbox_loss <- mbox_priorbox
…
state {
  phase: TEST
}
layer {
  name: "data"
  type: "AnnotatedData"
  top: "data"
  top: "label"
  include {
    phase: TEST
  }
  transform_param {
    mean_value: 104
    mean_value: 117
    mean_value: 123
    force_color: true
    resize_param {
      prob: 1
      resize_mode: WARP
      height: 384
      width: 384
      interp_mode: LINEAR
    }
  }
  data_param {
    source: "./data/test_lmdb/"
    batch_size: 1
    backend: LMDB
  }
  annotated_data_param {
    batch_sampler {
    }
    label_map_file: "data/text/labelmap_voc.prototxt"
  }
}
layer {
  name: "conv1_1"
  type: "Convolution"
  bottom: "data"
  top: "conv1_1"
  param {
    lr_mult: 0
    decay_mult: 0
  }
  param {
    lr_mult: 0
    decay_mult: 0
  }
  convolution_param {
    num_output: 64
    pad: 1
    kernel_size: 3
    weight_filler {
      type: "xavier"
    }
    bias_filler {
      type: "constant"
      value: 0
    }
  }
}
layer {
  name: "relu1_1"
  type: "ReLU"
  bottom: "conv1_1"
  top: "conv1_1"
}
layer {
  name: "conv1_2"
  type: "Convolution"
  bottom: "conv1_1"
  top: "conv1_2"
  param {
    lr_mult: 0
    decay_mult: 0
  }
  param {
    lr_mult: 0
    decay_mult: 0
  }
  convolution_param {
    num_output: 64
    pad: 1
    kernel_size: 3
    weight_filler {
      type: "xavier"
    }
    bias_filler {
      type: "constant"
      value: 0
    }
  }
}
layer {
  name: "relu1_2"
  type: "ReLU"
  bottom: "conv1_2"
  top: "conv1_2"
}
layer {
  name: "pool1"
  type: "Pooling"
  bottom: "conv1_2"
  top: "pool1"
  pooling_param {
    pool: MAX
    kernel_size: 2
    stride: 2
  }
}
layer {
  name: "conv2_1"
  type: "Convolution"
  bottom: "pool1"
  top: "conv2_1"
  param {
    lr_mult: 0
    decay_mult: 0
  }
  param {
    lr_mult: 0
    decay_mult: 0
  }
  convolution_param {
    num_output: 128
    pad: 1
    kernel_size: 3
    weight_filler {
      type: "xavier"
    }
    bias_filler {
      type: "constant"
      value: 0
    }
  }
}
layer {
  name: "relu2_1"
  type: "ReLU"
  bottom: "conv2_1"
  top: "conv2_1"
}
layer {
  name: "conv2_2"
  type: "Convolution"
  bottom: "conv2_1"
  top: "conv2_2"
  param {
    lr_mult: 0
    decay_mult: 0
  }
  param {
    lr_mult: 0
    decay_mult: 0
  }
  convolution_param {
    num_output: 128
    pad: 1
    kernel_size: 3
    weight_filler {
      type: "xavier"
    }
    bias_filler {
      type: "constant"
      value: 0
    }
  }
}
layer {
  name: "relu2_2"
  type: "ReLU"
  bottom: "conv2_2"
  top: "conv2_2"
}
layer {
  name: "pool2"
  type: "Pooling"
  bottom: "conv2_2"
  top: "pool2"
  pooling_param {
    pool: MAX
    kernel_size: 2
    stride: 2
  }
}
layer {
  name: "conv3_1"
  type: "Convolution"
  bottom: "pool2"
  top: "conv3_1"
  param {
    lr_mult: 1
    decay_mult: 1
  }
  param {
    lr_mult: 2
    decay_mult: 0
  }
  convolution_param {
    num_output: 256
    pad: 1
    kernel_size: 3
    weight_filler {
      type: "xavier"
    }
    bias_filler {
      type: "constant"
      value: 0
    }
  }
}
layer {
  name: "relu3_1"
  type: "ReLU"
  bottom: "conv3_1"
  top: "conv3_1"
}
layer {
  name: "conv3_2"
  type: "Convolution"
  bottom: "conv3_1"
  top: "conv3_2"
  param {
    lr_mult: 1
    decay_mult: 1
  }
  param {
    lr_mult: 2
    decay_mult: 0
  }
  convolution_param {
    num_output: 256
    pad: 1
    kernel_size: 3
    weight_filler {
      type: "xavier"
    }
    bias_filler {
      type: "constant"
      value: 0
    }
  }
}
layer {
  name: "relu3_2"
  type: "ReLU"
  bottom: "conv3_2"
  top: "conv3_2"
}
layer {
  name: "conv3_3"
  type: "Convolution"
  bottom: "conv3_2"
  top: "conv3_3"
  param {
    lr_mult: 1
    decay_mult: 1
  }
  param {
    lr_mult: 2
    decay_mult: 0
  }
  convolution_param {
    num_output: 256
    pad: 1
    kernel_size: 3
    weight_filler {
      type: "xavier"
    }
    bias_filler {
      type: "constant"
      value: 0
    }
  }
}
layer {
  name: "relu3_3"
  type: "ReLU"
  bottom: "conv3_3"
  top: "conv3_3"
}
layer {
  name: "pool3"
  type: "Pooling"
  bottom: "conv3_3"
  top: "pool3"
  pooling_param {
    pool: MAX
    kernel_size: 2
    stride: 2
  }
}
layer {
  name: "conv4_1"
  type: "Convolution"
  bottom: "pool3"
  top: "conv4_1"
  param {
    lr_mult: 1
    decay_mult: 1
  }
  param {
    lr_mult: 2
    decay_mult: 0
  }
  convolution_param {
    num_output: 512
    pad: 1
    kernel_size: 3
    weight_filler {
      type: "xavier"
    }
    bias_filler {
      type: "constant"
      value: 0
    }
  }
}
layer {
  name: "relu4_1"
  type: "ReLU"
  bottom: "conv4_1"
  top: "conv4_1"
}
layer {
  name: "conv4_2"
  type: "Convolution"
  bottom: "conv4_1"
  top: "conv4_2"
  param {
    lr_mult: 1
    decay_mult: 1
  }
  param {
    lr_mult: 2
    decay_mult: 0
  }
  convolution_param {
    num_output: 512
    pad: 1
    kernel_size: 3
    weight_filler {
      type: "xavier"
    }
    bias_filler {
      type: "constant"
      value: 0
    }
  }
}
layer {
  name: "relu4_2"
  type: "ReLU"
  bottom: "conv4_2"
  top: "conv4_2"
}
layer {
  name: "conv4_3"
  type: "Convolution"
  bottom: "conv4_2"
  top: "conv4_3"
  param {
    lr_mult: 1
    decay_mult: 1
  }
  param {
    lr_mult: 2
    decay_mult: 0
  }
  convolution_param {
    num_output: 512
    pad: 1
    kernel_size: 3
    weight_filler {
      type: "xavier"
    }
    bias_filler {
      type: "constant"
      value: 0
    }
  }
}
layer {
  name: "relu4_3"
  type: "ReLU"
  bottom: "conv4_3"
  top: "conv4_3"
}
layer {
  name: "pool4"
  type: "Pooling"
  bottom: "conv4_3"
  top: "pool4"
  pooling_param {
    pool: MAX
    kernel_size: 2
    stride: 2
  }
}
layer {
  name: "conv5_1"
  type: "Convolution"
  bottom: "pool4"
  top: "conv5_1"
  param {
    lr_mult: 1
    decay_mult: 1
  }
  param {
    lr_mult: 2
    decay_mult: 0
  }
  convolution_param {
    num_output: 512
    pad: 1
    kernel_size: 3
    weight_filler {
      type: "xavier"
    }
    bias_filler {
      type: "constant"
      value: 0
    }
    dilation: 1
  }
}
layer {
  name: "relu5_1"
  type: "ReLU"
  bottom: "conv5_1"
  top: "conv5_1"
}
layer {
  name: "conv5_2"
  type: "Convolution"
  bottom: "conv5_1"
  top: "conv5_2"
  param {
    lr_mult: 1
    decay_mult: 1
  }
  param {
    lr_mult: 2
    decay_mult: 0
  }
  convolution_param {
    num_output: 512
    pad: 1
    kernel_size: 3
    weight_filler {
      type: "xavier"
    }
    bias_filler {
      type: "constant"
      value: 0
    }
    dilation: 1
  }
}
layer {
  name: "relu5_2"
  type: "ReLU"
  bottom: "conv5_2"
  top: "conv5_2"
}
layer {
  name: "conv5_3"
  type: "Convolution"
  bottom: "conv5_2"
  top: "conv5_3"
  param {
    lr_mult: 1
    decay_mult: 1
  }
  param {
    lr_mult: 2
    decay_mult: 0
  }
  convolution_param {
    num_output: 512
    pad: 1
    kernel_size: 3
    weight_filler {
      type: "xavier"
    }
    bias_filler {
      type: "constant"
      value: 0
    }
    dilation: 1
  }
}
layer {
  name: "relu5_3"
  type: "ReLU"
  bottom: "conv5_3"
  top: "conv5_3"
}
layer {
  name: "pool5"
  type: "Pooling"
  bottom: "conv5_3"
  top: "pool5"
  pooling_param {
    pool: MAX
    kernel_size: 3
    stride: 1
    pad: 1
  }
}
layer {
  name: "fc6"
  type: "Convolution"
  bottom: "pool5"
  top: "fc6"
  param {
    lr_mult: 1
    decay_mult: 1
  }
  param {
    lr_mult: 2
    decay_mult: 0
  }
  convolution_param {
    num_output: 1024
    pad: 6
    kernel_size: 3
    weight_filler {
      type: "xavier"
    }
    bias_filler {
      type: "constant"
      value: 0
    }
    dilation: 6
  }
}
layer {
  name: "relu6"
  type: "ReLU"
  bottom: "fc6"
  top: "fc6"
}
layer {
  name: "fc7"
  type: "Convolution"
  bottom: "fc6"
  top: "fc7"
  param {
    lr_mult: 1
    decay_mult: 1
  }
  param {
    lr_mult: 2
    decay_mult: 0
  }
  convolution_param {
    num_output: 1024
    kernel_size: 1
    weight_filler {
      type: "xavier"
    }
    bias_filler {
      type: "constant"
      value: 0
    }
  }
}
layer {
  name: "relu7"
  type: "ReLU"
  bottom: "fc7"
  top: "fc7"
}
layer {
  name: "conv6_1"
  type: "Convolution"
  bottom: "fc7"
  top: "conv6_1"
  param {
    lr_mult: 1
    decay_mult: 1
  }
  param {
    lr_mult: 2
    decay_mult: 0
  }
  convolution_param {
    num_output: 256
    pad: 0
    kernel_size: 1
    stride: 1
    weight_filler {
      type: "xavier"
    }
    bias_filler {
      type: "constant"
      value: 0
    }
  }
}
layer {
  name: "conv6_1_relu"
  type: "ReLU"
  bottom: "conv6_1"
  top: "conv6_1"
}
layer {
  name: "conv6_2"
  type: "Convolution"
  bottom: "conv6_1"
  top: "conv6_2"
  param {
    lr_mult: 1
    decay_mult: 1
  }
  param {
    lr_mult: 2
    decay_mult: 0
  }
  convolution_param {
    num_output: 512
    pad: 1
    kernel_size: 3
    stride: 2
    weight_filler {
      type: "xavier"
    }
    bias_filler {
      type: "constant"
      value: 0
    }
  }
}
layer {
  name: "conv6_2_relu"
  type: "ReLU"
  bottom: "conv6_2"
  top: "conv6_2"
}
layer {
  name: "conv7_1"
  type: "Convolution"
  bottom: "conv6_2"
  top: "conv7_1"
  param {
    lr_mult: 1
    decay_mult: 1
  }
  param {
    lr_mult: 2
    decay_mult: 0
  }
  convolution_param {
    num_output: 128
    pad: 0
    kernel_size: 1
    stride: 1
    weight_filler {
      type: "xavier"
    }
    bias_filler {
      type: "constant"
      value: 0
    }
  }
}
layer {
  name: "conv7_1_relu"
  type: "ReLU"
  bottom: "conv7_1"
  top: "conv7_1"
}
layer {
  name: "conv7_2"
  type: "Convolution"
  bottom: "conv7_1"
  top: "conv7_2"
  param {
    lr_mult: 1
    decay_mult: 1
  }
  param {
    lr_mult: 2
    decay_mult: 0
  }
  convolution_param {
    num_output: 256
    pad: 1
    kernel_size: 3
    stride: 2
    weight_filler {
      type: "xavier"
    }
    bias_filler {
      type: "constant"
      value: 0
    }
  }
}
layer {
  name: "conv7_2_relu"
  type: "ReLU"
  bottom: "conv7_2"
  top: "conv7_2"
}
layer {
  name: "conv8_1"
  type: "Convolution"
  bottom: "conv7_2"
  top: "conv8_1"
  param {
    lr_mult: 1
    decay_mult: 1
  }
  param {
    lr_mult: 2
    decay_mult: 0
  }
  convolution_param {
    num_output: 128
    pad: 0
    kernel_size: 1
    stride: 1
    weight_filler {
      type: "xavier"
    }
    bias_filler {
      type: "constant"
      value: 0
    }
  }
}
layer {
  name: "conv8_1_relu"
  type: "ReLU"
  bottom: "conv8_1"
  top: "conv8_1"
}
layer {
  name: "conv8_2"
  type: "Convolution"
  bottom: "conv8_1"
  top: "conv8_2"
  param {
    lr_mult: 1
    decay_mult: 1
  }
  param {
    lr_mult: 2
    decay_mult: 0
  }
  convolution_param {
    num_output: 256
    pad: 0
    kernel_size: 3
    stride: 1
    weight_filler {
      type: "xavier"
    }
    bias_filler {
      type: "constant"
      value: 0
    }
  }
}
layer {
  name: "conv8_2_relu"
  type: "ReLU"
  bottom: "conv8_2"
  top: "conv8_2"
}
layer {
  name: "conv9_1"
  type: "Convolution"
  bottom: "conv8_2"
  top: "conv9_1"
  param {
    lr_mult: 1
    decay_mult: 1
  }
  param {
    lr_mult: 2
    decay_mult: 0
  }
  convolution_param {
    num_output: 128
    pad: 0
    kernel_size: 1
    stride: 1
    weight_filler {
      type: "xavier"
    }
    bias_filler {
      type: "constant"
      value: 0
    }
  }
}
layer {
  name: "conv9_1_relu"
  type: "ReLU"
  bottom: "conv9_1"
  top: "conv9_1"
}
layer {
  name: "conv9_2"
  type: "Convolution"
  bottom: "conv9_1"
  top: "conv9_2"
  param {
    lr_mult: 1
    decay_mult: 1
  }
  param {
    lr_mult: 2
    decay_mult: 0
  }
  convolution_param {
    num_output: 256
    pad: 0
    kernel_size: 3
    stride: 1
    weight_filler {
      type: "xavier"
    }
    bias_filler {
      type: "constant"
      value: 0
    }
  }
}
layer {
  name: "conv9_2_relu"
  type: "ReLU"
  bottom: "conv9_2"
  top: "conv9_2"
}
layer {
  name: "conv4_3_norm"
  type: "Normalize"
  bottom: "conv4_3"
  top: "conv4_3_norm"
  norm_param {
    across_spatial: false
    scale_filler {
      type: "constant"
      value: 20
    }
    channel_shared: false
  }
}
layer {
  name: "conv4_3_norm_mbox_loc"
  type: "Convolution"
  bottom: "conv4_3_norm"
  top: "conv4_3_norm_mbox_loc"
  param {
    lr_mult: 1
    decay_mult: 1
  }
  param {
    lr_mult: 2
    decay_mult: 0
  }
  convolution_param {
    num_output: 240
    weight_filler {
      type: "xavier"
    }
    bias_filler {
      type: "constant"
      value: 0
    }
    pad_h: 1
    pad_w: 2
    kernel_h: 3
    kernel_w: 5
    stride_h: 1
    stride_w: 1
  }
}
layer {
  name: "conv4_3_norm_mbox_loc_perm"
  type: "Permute"
  bottom: "conv4_3_norm_mbox_loc"
  top: "conv4_3_norm_mbox_loc_perm"
  permute_param {
    order: 0
    order: 2
    order: 3
    order: 1
  }
}
layer {
  name: "conv4_3_norm_mbox_loc_flat"
  type: "Flatten"
  bottom: "conv4_3_norm_mbox_loc_perm"
  top: "conv4_3_norm_mbox_loc_flat"
  flatten_param {
    axis: 1
  }
}
layer {
  name: "conv4_3_norm_mbox_conf"
  type: "Convolution"
  bottom: "conv4_3_norm"
  top: "conv4_3_norm_mbox_conf"
  param {
    lr_mult: 1
    decay_mult: 1
  }
  param {
    lr_mult: 2
    decay_mult: 0
  }
  convolution_param {
    num_output: 40
    weight_filler {
      type: "xavier"
    }
    bias_filler {
      type: "constant"
      value: 0
    }
    pad_h: 1
    pad_w: 2
    kernel_h: 3
    kernel_w: 5
    stride_h: 1
    stride_w: 1
  }
}
layer {
  name: "conv4_3_norm_mbox_conf_perm"
  type: "Permute"
  bottom: "conv4_3_norm_mbox_conf"
  top: "conv4_3_norm_mbox_conf_perm"
  permute_param {
    order: 0
    order: 2
    order: 3
    order: 1
  }
}
layer {
  name: "conv4_3_norm_mbox_conf_flat"
  type: "Flatten"
  bottom: "conv4_3_norm_mbox_conf_perm"
  top: "conv4_3_norm_mbox_conf_flat"
  flatten_param {
    axis: 1
  }
}
layer {
  name: "conv4_3_norm_mbox_priorbox"
  type: "PriorBox"
  bottom: "conv4_3_norm"
  bottom: "data"
  top: "conv4_3_norm_mbox_priorbox"
  prior_box_param {
    min_size: 30
    max_size: 60
    aspect_ratio: 2
    aspect_ratio: 3
    aspect_ratio: 4
    aspect_ratio: 5
    flip: true
    clip: false
    variance: 0.1
    variance: 0.1
    variance: 0.2
    variance: 0.2
    step: 8
    offset: 0.5
    denser_prior_boxes: true
  }
}
layer {
  name: "fc7_mbox_loc"
  type: "Convolution"
  bottom: "fc7"
  top: "fc7_mbox_loc"
  param {
    lr_mult: 1
    decay_mult: 1
  }
  param {
    lr_mult: 2
    decay_mult: 0
  }
  convolution_param {
    num_output: 240
    weight_filler {
      type: "xavier"
    }
    bias_filler {
      type: "constant"
      value: 0
    }
    pad_h: 1
    pad_w: 2
    kernel_h: 3
    kernel_w: 5
    stride_h: 1
    stride_w: 1
  }
}
layer {
  name: "fc7_mbox_loc_perm"
  type: "Permute"
  bottom: "fc7_mbox_loc"
  top: "fc7_mbox_loc_perm"
  permute_param {
    order: 0
    order: 2
    order: 3
    order: 1
  }
}
layer {
  name: "fc7_mbox_loc_flat"
  type: "Flatten"
  bottom: "fc7_mbox_loc_perm"
  top: "fc7_mbox_loc_flat"
  flatten_param {
    axis: 1
  }
}
layer {
  name: "fc7_mbox_conf"
  type: "Convolution"
  bottom: "fc7"
  top: "fc7_mbox_conf"
  param {
    lr_mult: 1
    decay_mult: 1
  }
  param {
    lr_mult: 2
    decay_mult: 0
  }
  convolution_param {
    num_output: 40
    weight_filler {
      type: "xavier"
    }
    bias_filler {
      type: "constant"
      value: 0
    }
    pad_h: 1
    pad_w: 2
    kernel_h: 3
    kernel_w: 5
    stride_h: 1
    stride_w: 1
  }
}
layer {
  name: "fc7_mbox_conf_perm"
  type: "Permute"
  bottom: "fc7_mbox_conf"
  top: "fc7_mbox_conf_perm"
  permute_param {
    order: 0
    order: 2
    order: 3
    order: 1
  }
}
layer {
  name: "fc7_mbox_conf_flat"
  type: "Flatten"
  bottom: "fc7_mbox_conf_perm"
  top: "fc7_mbox_conf_flat"
  flatten_param {
    axis: 1
  }
}
layer {
  name: "fc7_mbox_priorbox"
  type: "PriorBox"
  bottom: "fc7"
  bottom: "data"
  top: "fc7_mbox_priorbox"
  prior_box_param {
    min_size: 30
    max_size: 90
    aspect_ratio: 2
    aspect_ratio: 3
    aspect_ratio: 4
    aspect_ratio: 5
    flip: true
    clip: false
    variance: 0.1
    variance: 0.1
    variance: 0.2
    variance: 0.2
    step: 16
    offset: 0.5
    denser_prior_boxes: true
  }
}
layer {
  name: "conv6_2_mbox_loc"
  type: "Convolution"
  bottom: "conv6_2"
  top: "conv6_2_mbox_loc"
  param {
    lr_mult: 1
    decay_mult: 1
  }
  param {
    lr_mult: 2
    decay_mult: 0
  }
  convolution_param {
    num_output: 240
    weight_filler {
      type: "xavier"
    }
    bias_filler {
      type: "constant"
      value: 0
    }
    pad_h: 1
    pad_w: 2
    kernel_h: 3
    kernel_w: 5
    stride_h: 1
    stride_w: 1
  }
}
layer {
  name: "conv6_2_mbox_loc_perm"
  type: "Permute"
  bottom: "conv6_2_mbox_loc"
  top: "conv6_2_mbox_loc_perm"
  permute_param {
    order: 0
    order: 2
    order: 3
    order: 1
  }
}
layer {
  name: "conv6_2_mbox_loc_flat"
  type: "Flatten"
  bottom: "conv6_2_mbox_loc_perm"
  top: "conv6_2_mbox_loc_flat"
  flatten_param {
    axis: 1
  }
}
layer {
  name: "conv6_2_mbox_conf"
  type: "Convolution"
  bottom: "conv6_2"
  top: "conv6_2_mbox_conf"
  param {
    lr_mult: 1
    decay_mult: 1
  }
  param {
    lr_mult: 2
    decay_mult: 0
  }
  convolution_param {
    num_output: 40
    weight_filler {
      type: "xavier"
    }
    bias_filler {
      type: "constant"
      value: 0
    }
    pad_h: 1
    pad_w: 2
    kernel_h: 3
    kernel_w: 5
    stride_h: 1
    stride_w: 1
  }
}
layer {
  name: "conv6_2_mbox_conf_perm"
  type: "Permute"
  bottom: "conv6_2_mbox_conf"
  top: "conv6_2_mbox_conf_perm"
  permute_param {
    order: 0
    order: 2
    order: 3
    order: 1
  }
}
layer {
  name: "conv6_2_mbox_conf_flat"
  type: "Flatten"
  bottom: "conv6_2_mbox_conf_perm"
  top: "conv6_2_mbox_conf_flat"
  flatten_param {
    axis: 1
  }
}
layer {
  name: "conv6_2_mbox_priorbox"
  type: "PriorBox"
  bottom: "conv6_2"
  bottom: "data"
  top: "conv6_2_mbox_priorbox"
  prior_box_param {
    min_size: 90
    max_size: 150
    aspect_ratio: 2
    aspect_ratio: 3
    aspect_ratio: 4
    aspect_ratio: 5
    flip: true
    clip: false
    variance: 0.1
    variance: 0.1
    variance: 0.2
    variance: 0.2
    step: 32
    offset: 0.5
    denser_prior_boxes: true
  }
}
layer {
  name: "conv7_2_mbox_loc"
  type: "Convolution"
  bottom: "conv7_2"
  top: "conv7_2_mbox_loc"
  param {
    lr_mult: 1
    decay_mult: 1
  }
  param {
    lr_mult: 2
    decay_mult: 0
  }
  convolution_param {
    num_output: 240
    weight_filler {
      type: "xavier"
    }
    bias_filler {
      type: "constant"
      value: 0
    }
    pad_h: 1
    pad_w: 2
    kernel_h: 3
    kernel_w: 5
    stride_h: 1
    stride_w: 1
  }
}
layer {
  name: "conv7_2_mbox_loc_perm"
  type: "Permute"
  bottom: "conv7_2_mbox_loc"
  top: "conv7_2_mbox_loc_perm"
  permute_param {
    order: 0
    order: 2
    order: 3
    order: 1
  }
}
layer {
  name: "conv7_2_mbox_loc_flat"
  type: "Flatten"
  bottom: "conv7_2_mbox_loc_perm"
  top: "conv7_2_mbox_loc_flat"
  flatten_param {
    axis: 1
  }
}
layer {
  name: "conv7_2_mbox_conf"
  type: "Convolution"
  bottom: "conv7_2"
  top: "conv7_2_mbox_conf"
  param {
    lr_mult: 1
    decay_mult: 1
  }
  param {
    lr_mult: 2
    decay_mult: 0
  }
  convolution_param {
    num_output: 40
    weight_filler {
      type: "xavier"
    }
    bias_filler {
      type: "constant"
      value: 0
    }
    pad_h: 1
    pad_w: 2
    kernel_h: 3
    kernel_w: 5
    stride_h: 1
    stride_w: 1
  }
}
layer {
  name: "conv7_2_mbox_conf_perm"
  type: "Permute"
  bottom: "conv7_2_mbox_conf"
  top: "conv7_2_mbox_conf_perm"
  permute_param {
    order: 0
    order: 2
    order: 3
    order: 1
  }
}
layer {
  name: "conv7_2_mbox_conf_flat"
  type: "Flatten"
  bottom: "conv7_2_mbox_conf_perm"
  top: "conv7_2_mbox_conf_flat"
  flatten_param {
    axis: 1
  }
}
layer {
  name: "conv7_2_mbox_priorbox"
  type: "PriorBox"
  bottom: "conv7_2"
  bottom: "data"
  top: "conv7_2_mbox_priorbox"
  prior_box_param {
    min_size: 150
    max_size: 210
    aspect_ratio: 2
    aspect_ratio: 3
    aspect_ratio: 4
    aspect_ratio: 5
    flip: true
    clip: false
    variance: 0.1
    variance: 0.1
    variance: 0.2
    variance: 0.2
    step: 64
    offset: 0.5
    denser_prior_boxes: true
  }
}
layer {
  name: "conv8_2_mbox_loc"
  type: "Convolution"
  bottom: "conv8_2"
  top: "conv8_2_mbox_loc"
  param {
    lr_mult: 1
    decay_mult: 1
  }
  param {
    lr_mult: 2
    decay_mult: 0
  }
  convolution_param {
    num_output: 240
    weight_filler {
      type: "xavier"
    }
    bias_filler {
      type: "constant"
      value: 0
    }
    pad_h: 1
    pad_w: 2
    kernel_h: 3
    kernel_w: 5
    stride_h: 1
    stride_w: 1
  }
}
layer {
  name: "conv8_2_mbox_loc_perm"
  type: "Permute"
  bottom: "conv8_2_mbox_loc"
  top: "conv8_2_mbox_loc_perm"
  permute_param {
    order: 0
    order: 2
    order: 3
    order: 1
  }
}
layer {
  name: "conv8_2_mbox_loc_flat"
  type: "Flatten"
  bottom: "conv8_2_mbox_loc_perm"
  top: "conv8_2_mbox_loc_flat"
  flatten_param {
    axis: 1
  }
}
layer {
  name: "conv8_2_mbox_conf"
  type: "Convolution"
  bottom: "conv8_2"
  top: "conv8_2_mbox_conf"
  param {
    lr_mult: 1
    decay_mult: 1
  }
  param {
    lr_mult: 2
    decay_mult: 0
  }
  convolution_param {
    num_output: 40
    weight_filler {
      type: "xavier"
    }
    bias_filler {
      type: "constant"
      value: 0
    }
    pad_h: 1
    pad_w: 2
    kernel_h: 3
    kernel_w: 5
    stride_h: 1
    stride_w: 1
  }
}
layer {
  name: "conv8_2_mbox_conf_perm"
  type: "Permute"
  bottom: "conv8_2_mbox_conf"
  top: "conv8_2_mbox_conf_perm"
  permute_param {
    order: 0
    order: 2
    order: 3
    order: 1
  }
}
layer {
  name: "conv8_2_mbox_conf_flat"
  type: "Flatten"
  bottom: "conv8_2_mbox_conf_perm"
  top: "conv8_2_mbox_conf_flat"
  flatten_param {
    axis: 1
  }
}
layer {
  name: "conv8_2_mbox_priorbox"
  type: "PriorBox"
  bottom: "conv8_2"
  bottom: "data"
  top: "conv8_2_mbox_priorbox"
  prior_box_param {
    min_size: 210
    max_size: 270
    aspect_ratio: 2
    aspect_ratio: 3
    aspect_ratio: 4
    aspect_ratio: 5
    flip: true
    clip: false
    variance: 0.1
    variance: 0.1
    variance: 0.2
    variance: 0.2
    step: 100
    offset: 0.5
    denser_prior_boxes: true
  }
}
layer {
  name: "conv9_2_mbox_loc"
  type: "Convolution"
  bottom: "conv9_2"
  top: "conv9_2_mbox_loc"
  param {
    lr_mult: 1
    decay_mult: 1
  }
  param {
    lr_mult: 2
    decay_mult: 0
  }
  convolution_param {
    num_output: 240
    weight_filler {
      type: "xavier"
    }
    bias_filler {
      type: "constant"
      value: 0
    }
    pad_h: 1
    pad_w: 2
    kernel_h: 3
    kernel_w: 5
    stride_h: 1
    stride_w: 1
  }
}
layer {
  name: "conv9_2_mbox_loc_perm"
  type: "Permute"
  bottom: "conv9_2_mbox_loc"
  top: "conv9_2_mbox_loc_perm"
  permute_param {
    order: 0
    order: 2
    order: 3
    order: 1
  }
}
layer {
  name: "conv9_2_mbox_loc_flat"
  type: "Flatten"
  bottom: "conv9_2_mbox_loc_perm"
  top: "conv9_2_mbox_loc_flat"
  flatten_param {
    axis: 1
  }
}
layer {
  name: "conv9_2_mbox_conf"
  type: "Convolution"
  bottom: "conv9_2"
  top: "conv9_2_mbox_conf"
  param {
    lr_mult: 1
    decay_mult: 1
  }
  param {
    lr_mult: 2
    decay_mult: 0
  }
  convolution_param {
    num_output: 40
    weight_filler {
      type: "xavier"
    }
    bias_filler {
      type: "constant"
      value: 0
    }
    pad_h: 1
    pad_w: 2
    kernel_h: 3
    kernel_w: 5
    stride_h: 1
    stride_w: 1
  }
}
layer {
  name: "conv9_2_mbox_conf_perm"
  type: "Permute"
  bottom: "conv9_2_mbox_conf"
  top: "conv9_2_mbox_conf_perm"
  permute_param {
    order: 0
    order: 2
    order: 3
    order: 1
  }
}
layer {
  name: "conv9_2_mbox_conf_flat"
  type: "Flatten"
  bottom: "conv9_2_mbox_conf_perm"
  top: "conv9_2_mbox_conf_flat"
  flatten_param {
    axis: 1
  }
}
layer {
  name: "conv9_2_mbox_priorbox"
  type: "PriorBox"
  bottom: "conv9_2"
  bottom: "data"
  top: "conv9_2_mbox_priorbox"
  prior_box_param {
    min_size: 270
    max_size: 330
    aspect_ratio: 2
    aspect_ratio: 3
    aspect_ratio: 4
    aspect_ratio: 5
    flip: true
    clip: false
    variance: 0.1
    variance: 0.1
    variance: 0.2
    variance: 0.2
    step: 300
    offset: 0.5
    denser_prior_boxes: true
  }
}
layer {
  name: "mbox_loc"
  type: "Concat"
  bottom: "conv4_3_norm_mbox_loc_flat"
  bottom: "fc7_mbox_loc_flat"
  bottom: "conv6_2_mbox_loc_flat"
  bottom: "conv7_2_mbox_loc_flat"
  bottom: "conv8_2_mbox_loc_flat"
  bottom: "conv9_2_mbox_loc_flat"
  top: "mbox_loc"
  concat_param {
    axis: 1
  }
}
layer {
  name: "mbox_conf"
  type: "Concat"
  bottom: "conv4_3_norm_mbox_conf_flat"
  bottom: "fc7_mbox_conf_flat"
  bottom: "conv6_2_mbox_conf_flat"
  bottom: "conv7_2_mbox_conf_flat"
  bottom: "conv8_2_mbox_conf_flat"
  bottom: "conv9_2_mbox_conf_flat"
  top: "mbox_conf"
  concat_param {
    axis: 1
  }
}
layer {
  name: "mbox_priorbox"
  type: "Concat"
  bottom: "conv4_3_norm_mbox_priorbox"
  bottom: "fc7_mbox_priorbox"
  bottom: "conv6_2_mbox_priorbox"
  bottom: "conv7_2_mbox_priorbox"
  bottom: "conv8_2_mbox_priorbox"
  bottom: "conv9_2_mbox_priorbox"
  top: "mbox_priorbox"
  concat_param {
    axis: 2
  }
}
layer {
  name: "mbox_conf_reshape"
  type: "Reshape"
  bottom: "mbox_conf"
  top: "mbox_conf_reshape"
  reshape_param {
    shape {
      dim: 0
      dim: -1
      dim: 2
    }
  }
}
layer {
  name: "mbox_conf_softmax"
  type: "Softmax"
  bottom: "mbox_conf_reshape"
  top: "mbox_conf_softmax"
  softmax_param {
    axis: 2
  }
}
layer {
  name: "mbox_conf_flatten"
  type: "Flatten"
  bottom: "mbox_conf_softmax"
  top: "mbox_conf_flatten"
  flatten_param {
    axis: 1
  }
}
layer {
  name: "detection_out"
  type: "DetectionOutput"
  bottom: "mbox_loc"
  bottom: "mbox_conf_flatten"
  bottom: "mbox_priorbox"
  top: "detection_out"
  include {
    phase: TEST
  }
  detection_output_param {
    num_classes: 2
    share_location: true
    background_label_id: 0
    nms_param {
      nms_threshold: 0.45
      top_k: 400
    }
    save_output_param {
      output_directory: "/home/amax/data/text/results/text/text_polygon_precise_fix_order_384x384/Main"
      output_name_prefix: "comp4_det_test_"
      output_format: "VOC"
      label_map_file: "data/text/labelmap_voc.prototxt"
      num_test_image: 500
    }
    code_type: CENTER_SIZE
    keep_top_k: 200
    confidence_threshold: 0.01
    use_polygon: true
  }
}
layer {
  name: "detection_eval"
  type: "DetectionEvaluate"
  bottom: "detection_out"
  bottom: "label"
  top: "detection_eval"
  include {
    phase: TEST
  }
  detection_evaluate_param {
    num_classes: 2
    background_label_id: 0
    overlap_threshold: 0.5
    evaluate_difficult_gt: false
    use_polygon: true
  }
}
I0411 21:11:08.369410 21842 layer_factory.hpp:77] Creating layer data
I0411 21:11:08.369508 21842 net.cpp:100] Creating Layer data
I0411 21:11:08.369520 21842 net.cpp:408] data -> data
I0411 21:11:08.369537 21842 net.cpp:408] data -> label
I0411 21:11:08.370893 21873 db_lmdb.cpp:35] Opened lmdb ./data/test_lmdb/
I0411 21:11:08.378347 21842 annotated_data_layer.cpp:62] output data size: 1,3,384,384
I0411 21:11:08.383021 21842 net.cpp:150] Setting up data
I0411 21:11:08.383040 21842 net.cpp:157] Top shape: 1 3 384 384 (442368)
I0411 21:11:08.383047 21842 net.cpp:157] Top shape: 1 1 49 16 (784)
I0411 21:11:08.383051 21842 net.cpp:165] Memory required for data: 1772608
I0411 21:11:08.383056 21842 layer_factory.hpp:77] Creating layer data_data_0_split
I0411 21:11:08.383066 21842 net.cpp:100] Creating Layer data_data_0_split
I0411 21:11:08.383070 21842 net.cpp:434] data_data_0_split <- data
I0411 21:11:08.383078 21842 net.cpp:408] data_data_0_split -> data_data_0_split_0
I0411 21:11:08.383088 21842 net.cpp:408] data_data_0_split -> data_data_0_split_1
I0411 21:11:08.383098 21842 net.cpp:408] data_data_0_split -> data_data_0_split_2
I0411 21:11:08.383106 21842 net.cpp:408] data_data_0_split -> data_data_0_split_3
I0411 21:11:08.383112 21842 net.cpp:408] data_data_0_split -> data_data_0_split_4
I0411 21:11:08.383118 21842 net.cpp:408] data_data_0_split -> data_data_0_split_5
I0411 21:11:08.383124 21842 net.cpp:408] data_data_0_split -> data_data_0_split_6
I0411 21:11:08.383280 21842 net.cpp:150] Setting up data_data_0_split
I0411 21:11:08.383289 21842 net.cpp:157] Top shape: 1 3 384 384 (442368)
I0411 21:11:08.383294 21842 net.cpp:157] Top shape: 1 3 384 384 (442368)
I0411 21:11:08.383299 21842 net.cpp:157] Top shape: 1 3 384 384 (442368)
I0411 21:11:08.383304 21842 net.cpp:157] Top shape: 1 3 384 384 (442368)
I0411 21:11:08.383308 21842 net.cpp:157] Top shape: 1 3 384 384 (442368)
I0411 21:11:08.383313 21842 net.cpp:157] Top shape: 1 3 384 384 (442368)
I0411 21:11:08.383317 21842 net.cpp:157] Top shape: 1 3 384 384 (442368)
I0411 21:11:08.383322 21842 net.cpp:165] Memory required for data: 14158912
I0411 21:11:08.383325 21842 layer_factory.hpp:77] Creating layer conv1_1
I0411 21:11:08.383337 21842 net.cpp:100] Creating Layer conv1_1
I0411 21:11:08.383342 21842 net.cpp:434] conv1_1 <- data_data_0_split_0
I0411 21:11:08.383349 21842 net.cpp:408] conv1_1 -> conv1_1
I0411 21:11:08.385818 21842 net.cpp:150] Setting up conv1_1
I0411 21:11:08.385836 21842 net.cpp:157] Top shape: 1 64 384 384 (9437184)
I0411 21:11:08.385841 21842 net.cpp:165] Memory required for data: 51907648
I0411 21:11:08.385854 21842 layer_factory.hpp:77] Creating layer relu1_1
I0411 21:11:08.385862 21842 net.cpp:100] Creating Layer relu1_1
I0411 21:11:08.385867 21842 net.cpp:434] relu1_1 <- conv1_1
I0411 21:11:08.385872 21842 net.cpp:395] relu1_1 -> conv1_1 (in-place)
I0411 21:11:08.386288 21842 net.cpp:150] Setting up relu1_1
I0411 21:11:08.386306 21842 net.cpp:157] Top shape: 1 64 384 384 (9437184)
I0411 21:11:08.386309 21842 net.cpp:165] Memory required for data: 89656384
I0411 21:11:08.386313 21842 layer_factory.hpp:77] Creating layer conv1_2
I0411 21:11:08.386325 21842 net.cpp:100] Creating Layer conv1_2
I0411 21:11:08.386329 21842 net.cpp:434] conv1_2 <- conv1_1
I0411 21:11:08.386337 21842 net.cpp:408] conv1_2 -> conv1_2
I0411 21:11:08.389523 21842 net.cpp:150] Setting up conv1_2
I0411 21:11:08.389539 21842 net.cpp:157] Top shape: 1 64 384 384 (9437184)
I0411 21:11:08.389544 21842 net.cpp:165] Memory required for data: 127405120
I0411 21:11:08.389555 21842 layer_factory.hpp:77] Creating layer relu1_2
I0411 21:11:08.389564 21842 net.cpp:100] Creating Layer relu1_2
I0411 21:11:08.389567 21842 net.cpp:434] relu1_2 <- conv1_2
I0411 21:11:08.389590 21842 net.cpp:395] relu1_2 -> conv1_2 (in-place)
I0411 21:11:08.389816 21842 net.cpp:150] Setting up relu1_2
I0411 21:11:08.389828 21842 net.cpp:157] Top shape: 1 64 384 384 (9437184)
I0411 21:11:08.389833 21842 net.cpp:165] Memory required for data: 165153856
I0411 21:11:08.389838 21842 layer_factory.hpp:77] Creating layer pool1
I0411 21:11:08.389845 21842 net.cpp:100] Creating Layer pool1
I0411 21:11:08.389849 21842 net.cpp:434] pool1 <- conv1_2
I0411 21:11:08.389855 21842 net.cpp:408] pool1 -> pool1
I0411 21:11:08.389921 21842 net.cpp:150] Setting up pool1
I0411 21:11:08.389930 21842 net.cpp:157] Top shape: 1 64 192 192 (2359296)
I0411 21:11:08.389935 21842 net.cpp:165] Memory required for data: 174591040
I0411 21:11:08.389937 21842 layer_factory.hpp:77] Creating layer conv2_1
I0411 21:11:08.389948 21842 net.cpp:100] Creating Layer conv2_1
I0411 21:11:08.389955 21842 net.cpp:434] conv2_1 <- pool1
I0411 21:11:08.389961 21842 net.cpp:408] conv2_1 -> conv2_1
I0411 21:11:08.392249 21842 net.cpp:150] Setting up conv2_1
I0411 21:11:08.392267 21842 net.cpp:157] Top shape: 1 128 192 192 (4718592)
I0411 21:11:08.392271 21842 net.cpp:165] Memory required for data: 193465408
I0411 21:11:08.392283 21842 layer_factory.hpp:77] Creating layer relu2_1
I0411 21:11:08.392292 21842 net.cpp:100] Creating Layer relu2_1
I0411 21:11:08.392297 21842 net.cpp:434] relu2_1 <- conv2_1
I0411 21:11:08.392303 21842 net.cpp:395] relu2_1 -> conv2_1 (in-place)
I0411 21:11:08.392514 21842 net.cpp:150] Setting up relu2_1
I0411 21:11:08.392526 21842 net.cpp:157] Top shape: 1 128 192 192 (4718592)
I0411 21:11:08.392530 21842 net.cpp:165] Memory required for data: 212339776
I0411 21:11:08.392534 21842 layer_factory.hpp:77] Creating layer conv2_2
I0411 21:11:08.392545 21842 net.cpp:100] Creating Layer conv2_2
I0411 21:11:08.392550 21842 net.cpp:434] conv2_2 <- conv2_1
I0411 21:11:08.392558 21842 net.cpp:408] conv2_2 -> conv2_2
I0411 21:11:08.396186 21842 net.cpp:150] Setting up conv2_2
I0411 21:11:08.396203 21842 net.cpp:157] Top shape: 1 128 192 192 (4718592)
I0411 21:11:08.396209 21842 net.cpp:165] Memory required for data: 231214144
I0411 21:11:08.396216 21842 layer_factory.hpp:77] Creating layer relu2_2
I0411 21:11:08.396224 21842 net.cpp:100] Creating Layer relu2_2
I0411 21:11:08.396229 21842 net.cpp:434] relu2_2 <- conv2_2
I0411 21:11:08.396235 21842 net.cpp:395] relu2_2 -> conv2_2 (in-place)
I0411 21:11:08.396842 21842 net.cpp:150] Setting up relu2_2
I0411 21:11:08.396858 21842 net.cpp:157] Top shape: 1 128 192 192 (4718592)
I0411 21:11:08.396862 21842 net.cpp:165] Memory required for data: 250088512
I0411 21:11:08.396867 21842 layer_factory.hpp:77] Creating layer pool2
I0411 21:11:08.396874 21842 net.cpp:100] Creating Layer pool2
I0411 21:11:08.396878 21842 net.cpp:434] pool2 <- conv2_2
I0411 21:11:08.396886 21842 net.cpp:408] pool2 -> pool2
I0411 21:11:08.396951 21842 net.cpp:150] Setting up pool2
I0411 21:11:08.396961 21842 net.cpp:157] Top shape: 1 128 96 96 (1179648)
I0411 21:11:08.396965 21842 net.cpp:165] Memory required for data: 254807104
I0411 21:11:08.396970 21842 layer_factory.hpp:77] Creating layer conv3_1
I0411 21:11:08.396980 21842 net.cpp:100] Creating Layer conv3_1
I0411 21:11:08.396983 21842 net.cpp:434] conv3_1 <- pool2
I0411 21:11:08.396991 21842 net.cpp:408] conv3_1 -> conv3_1
I0411 21:11:08.402017 21842 net.cpp:150] Setting up conv3_1
I0411 21:11:08.402035 21842 net.cpp:157] Top shape: 1 256 96 96 (2359296)
I0411 21:11:08.402040 21842 net.cpp:165] Memory required for data: 264244288
I0411 21:11:08.402051 21842 layer_factory.hpp:77] Creating layer relu3_1
I0411 21:11:08.402060 21842 net.cpp:100] Creating Layer relu3_1
I0411 21:11:08.402063 21842 net.cpp:434] relu3_1 <- conv3_1
I0411 21:11:08.402070 21842 net.cpp:395] relu3_1 -> conv3_1 (in-place)
I0411 21:11:08.402287 21842 net.cpp:150] Setting up relu3_1
I0411 21:11:08.402299 21842 net.cpp:157] Top shape: 1 256 96 96 (2359296)
I0411 21:11:08.402303 21842 net.cpp:165] Memory required for data: 273681472
I0411 21:11:08.402307 21842 layer_factory.hpp:77] Creating layer conv3_2
I0411 21:11:08.402331 21842 net.cpp:100] Creating Layer conv3_2
I0411 21:11:08.402338 21842 net.cpp:434] conv3_2 <- conv3_1
I0411 21:11:08.402345 21842 net.cpp:408] conv3_2 -> conv3_2
I0411 21:11:08.410749 21842 net.cpp:150] Setting up conv3_2
I0411 21:11:08.410768 21842 net.cpp:157] Top shape: 1 256 96 96 (2359296)
I0411 21:11:08.410773 21842 net.cpp:165] Memory required for data: 283118656
I0411 21:11:08.410780 21842 layer_factory.hpp:77] Creating layer relu3_2
I0411 21:11:08.410787 21842 net.cpp:100] Creating Layer relu3_2
I0411 21:11:08.410792 21842 net.cpp:434] relu3_2 <- conv3_2
I0411 21:11:08.410799 21842 net.cpp:395] relu3_2 -> conv3_2 (in-place)
I0411 21:11:08.411011 21842 net.cpp:150] Setting up relu3_2
I0411 21:11:08.411025 21842 net.cpp:157] Top shape: 1 256 96 96 (2359296)
I0411 21:11:08.411028 21842 net.cpp:165] Memory required for data: 292555840
I0411 21:11:08.411032 21842 layer_factory.hpp:77] Creating layer conv3_3
I0411 21:11:08.411046 21842 net.cpp:100] Creating Layer conv3_3
I0411 21:11:08.411051 21842 net.cpp:434] conv3_3 <- conv3_2
I0411 21:11:08.411061 21842 net.cpp:408] conv3_3 -> conv3_3
I0411 21:11:08.419574 21842 net.cpp:150] Setting up conv3_3
I0411 21:11:08.419592 21842 net.cpp:157] Top shape: 1 256 96 96 (2359296)
I0411 21:11:08.419596 21842 net.cpp:165] Memory required for data: 301993024
I0411 21:11:08.419605 21842 layer_factory.hpp:77] Creating layer relu3_3
I0411 21:11:08.419611 21842 net.cpp:100] Creating Layer relu3_3
I0411 21:11:08.419616 21842 net.cpp:434] relu3_3 <- conv3_3
I0411 21:11:08.419625 21842 net.cpp:395] relu3_3 -> conv3_3 (in-place)
I0411 21:11:08.420032 21842 net.cpp:150] Setting up relu3_3
I0411 21:11:08.420047 21842 net.cpp:157] Top shape: 1 256 96 96 (2359296)
I0411 21:11:08.420051 21842 net.cpp:165] Memory required for data: 311430208
I0411 21:11:08.420055 21842 layer_factory.hpp:77] Creating layer pool3
I0411 21:11:08.420063 21842 net.cpp:100] Creating Layer pool3
I0411 21:11:08.420074 21842 net.cpp:434] pool3 <- conv3_3
I0411 21:11:08.420083 21842 net.cpp:408] pool3 -> pool3
I0411 21:11:08.420148 21842 net.cpp:150] Setting up pool3
I0411 21:11:08.420158 21842 net.cpp:157] Top shape: 1 256 48 48 (589824)
I0411 21:11:08.420162 21842 net.cpp:165] Memory required for data: 313789504
I0411 21:11:08.420166 21842 layer_factory.hpp:77] Creating layer conv4_1
I0411 21:11:08.420178 21842 net.cpp:100] Creating Layer conv4_1
I0411 21:11:08.420183 21842 net.cpp:434] conv4_1 <- pool3
I0411 21:11:08.420191 21842 net.cpp:408] conv4_1 -> conv4_1
I0411 21:11:08.435324 21842 net.cpp:150] Setting up conv4_1
I0411 21:11:08.435344 21842 net.cpp:157] Top shape: 1 512 48 48 (1179648)
I0411 21:11:08.435348 21842 net.cpp:165] Memory required for data: 318508096
I0411 21:11:08.435356 21842 layer_factory.hpp:77] Creating layer relu4_1
I0411 21:11:08.435364 21842 net.cpp:100] Creating Layer relu4_1
I0411 21:11:08.435370 21842 net.cpp:434] relu4_1 <- conv4_1
I0411 21:11:08.435376 21842 net.cpp:395] relu4_1 -> conv4_1 (in-place)
I0411 21:11:08.435603 21842 net.cpp:150] Setting up relu4_1
I0411 21:11:08.435616 21842 net.cpp:157] Top shape: 1 512 48 48 (1179648)
I0411 21:11:08.435619 21842 net.cpp:165] Memory required for data: 323226688
I0411 21:11:08.435623 21842 layer_factory.hpp:77] Creating layer conv4_2
I0411 21:11:08.435636 21842 net.cpp:100] Creating Layer conv4_2
I0411 21:11:08.435640 21842 net.cpp:434] conv4_2 <- conv4_1
I0411 21:11:08.435649 21842 net.cpp:408] conv4_2 -> conv4_2
I0411 21:11:08.464438 21842 net.cpp:150] Setting up conv4_2
I0411 21:11:08.464470 21842 net.cpp:157] Top shape: 1 512 48 48 (1179648)
I0411 21:11:08.464474 21842 net.cpp:165] Memory required for data: 327945280
I0411 21:11:08.464491 21842 layer_factory.hpp:77] Creating layer relu4_2
I0411 21:11:08.464503 21842 net.cpp:100] Creating Layer relu4_2
I0411 21:11:08.464509 21842 net.cpp:434] relu4_2 <- conv4_2
I0411 21:11:08.464517 21842 net.cpp:395] relu4_2 -> conv4_2 (in-place)
I0411 21:11:08.464741 21842 net.cpp:150] Setting up relu4_2
I0411 21:11:08.464754 21842 net.cpp:157] Top shape: 1 512 48 48 (1179648)
I0411 21:11:08.464773 21842 net.cpp:165] Memory required for data: 332663872
I0411 21:11:08.464778 21842 layer_factory.hpp:77] Creating layer conv4_3
I0411 21:11:08.464792 21842 net.cpp:100] Creating Layer conv4_3
I0411 21:11:08.464797 21842 net.cpp:434] conv4_3 <- conv4_2
I0411 21:11:08.464804 21842 net.cpp:408] conv4_3 -> conv4_3
I0411 21:11:08.493813 21842 net.cpp:150] Setting up conv4_3
I0411 21:11:08.493844 21842 net.cpp:157] Top shape: 1 512 48 48 (1179648)
I0411 21:11:08.493849 21842 net.cpp:165] Memory required for data: 337382464
I0411 21:11:08.493860 21842 layer_factory.hpp:77] Creating layer relu4_3
I0411 21:11:08.493876 21842 net.cpp:100] Creating Layer relu4_3
I0411 21:11:08.493882 21842 net.cpp:434] relu4_3 <- conv4_3
I0411 21:11:08.493891 21842 net.cpp:395] relu4_3 -> conv4_3 (in-place)
I0411 21:11:08.494325 21842 net.cpp:150] Setting up relu4_3
I0411 21:11:08.494344 21842 net.cpp:157] Top shape: 1 512 48 48 (1179648)
I0411 21:11:08.494349 21842 net.cpp:165] Memory required for data: 342101056
I0411 21:11:08.494354 21842 layer_factory.hpp:77] Creating layer conv4_3_relu4_3_0_split
I0411 21:11:08.494360 21842 net.cpp:100] Creating Layer conv4_3_relu4_3_0_split
I0411 21:11:08.494366 21842 net.cpp:434] conv4_3_relu4_3_0_split <- conv4_3
I0411 21:11:08.494375 21842 net.cpp:408] conv4_3_relu4_3_0_split -> conv4_3_relu4_3_0_split_0
I0411 21:11:08.494385 21842 net.cpp:408] conv4_3_relu4_3_0_split -> conv4_3_relu4_3_0_split_1
I0411 21:11:08.494451 21842 net.cpp:150] Setting up conv4_3_relu4_3_0_split
I0411 21:11:08.494462 21842 net.cpp:157] Top shape: 1 512 48 48 (1179648)
I0411 21:11:08.494467 21842 net.cpp:157] Top shape: 1 512 48 48 (1179648)
I0411 21:11:08.494470 21842 net.cpp:165] Memory required for data: 351538240
I0411 21:11:08.494474 21842 layer_factory.hpp:77] Creating layer pool4
I0411 21:11:08.494482 21842 net.cpp:100] Creating Layer pool4
I0411 21:11:08.494487 21842 net.cpp:434] pool4 <- conv4_3_relu4_3_0_split_0
I0411 21:11:08.494493 21842 net.cpp:408] pool4 -> pool4
I0411 21:11:08.494556 21842 net.cpp:150] Setting up pool4
I0411 21:11:08.494565 21842 net.cpp:157] Top shape: 1 512 24 24 (294912)
I0411 21:11:08.494570 21842 net.cpp:165] Memory required for data: 352717888
I0411 21:11:08.494573 21842 layer_factory.hpp:77] Creating layer conv5_1
I0411 21:11:08.494586 21842 net.cpp:100] Creating Layer conv5_1
I0411 21:11:08.494592 21842 net.cpp:434] conv5_1 <- pool4
I0411 21:11:08.494602 21842 net.cpp:408] conv5_1 -> conv5_1
I0411 21:11:08.523550 21842 net.cpp:150] Setting up conv5_1
I0411 21:11:08.523587 21842 net.cpp:157] Top shape: 1 512 24 24 (294912)
I0411 21:11:08.523592 21842 net.cpp:165] Memory required for data: 353897536
I0411 21:11:08.523602 21842 layer_factory.hpp:77] Creating layer relu5_1
I0411 21:11:08.523619 21842 net.cpp:100] Creating Layer relu5_1
I0411 21:11:08.523625 21842 net.cpp:434] relu5_1 <- conv5_1
I0411 21:11:08.523634 21842 net.cpp:395] relu5_1 -> conv5_1 (in-place)
I0411 21:11:08.523880 21842 net.cpp:150] Setting up relu5_1
I0411 21:11:08.523892 21842 net.cpp:157] Top shape: 1 512 24 24 (294912)
I0411 21:11:08.523896 21842 net.cpp:165] Memory required for data: 355077184
I0411 21:11:08.523900 21842 layer_factory.hpp:77] Creating layer conv5_2
I0411 21:11:08.523918 21842 net.cpp:100] Creating Layer conv5_2
I0411 21:11:08.523926 21842 net.cpp:434] conv5_2 <- conv5_1
I0411 21:11:08.523934 21842 net.cpp:408] conv5_2 -> conv5_2
I0411 21:11:08.552845 21842 net.cpp:150] Setting up conv5_2
I0411 21:11:08.552877 21842 net.cpp:157] Top shape: 1 512 24 24 (294912)
I0411 21:11:08.552882 21842 net.cpp:165] Memory required for data: 356256832
I0411 21:11:08.552891 21842 layer_factory.hpp:77] Creating layer relu5_2
I0411 21:11:08.552901 21842 net.cpp:100] Creating Layer relu5_2
I0411 21:11:08.552907 21842 net.cpp:434] relu5_2 <- conv5_2
I0411 21:11:08.552917 21842 net.cpp:395] relu5_2 -> conv5_2 (in-place)
I0411 21:11:08.553153 21842 net.cpp:150] Setting up relu5_2
I0411 21:11:08.553167 21842 net.cpp:157] Top shape: 1 512 24 24 (294912)
I0411 21:11:08.553192 21842 net.cpp:165] Memory required for data: 357436480
I0411 21:11:08.553197 21842 layer_factory.hpp:77] Creating layer conv5_3
I0411 21:11:08.553216 21842 net.cpp:100] Creating Layer conv5_3
I0411 21:11:08.553223 21842 net.cpp:434] conv5_3 <- conv5_2
I0411 21:11:08.553231 21842 net.cpp:408] conv5_3 -> conv5_3
I0411 21:11:08.582348 21842 net.cpp:150] Setting up conv5_3
I0411 21:11:08.582382 21842 net.cpp:157] Top shape: 1 512 24 24 (294912)
I0411 21:11:08.582387 21842 net.cpp:165] Memory required for data: 358616128
I0411 21:11:08.582397 21842 layer_factory.hpp:77] Creating layer relu5_3
I0411 21:11:08.582413 21842 net.cpp:100] Creating Layer relu5_3
I0411 21:11:08.582420 21842 net.cpp:434] relu5_3 <- conv5_3
I0411 21:11:08.582430 21842 net.cpp:395] relu5_3 -> conv5_3 (in-place)
I0411 21:11:08.582890 21842 net.cpp:150] Setting up relu5_3
I0411 21:11:08.582906 21842 net.cpp:157] Top shape: 1 512 24 24 (294912)
I0411 21:11:08.582911 21842 net.cpp:165] Memory required for data: 359795776
I0411 21:11:08.582914 21842 layer_factory.hpp:77] Creating layer pool5
I0411 21:11:08.582926 21842 net.cpp:100] Creating Layer pool5
I0411 21:11:08.582931 21842 net.cpp:434] pool5 <- conv5_3
I0411 21:11:08.582938 21842 net.cpp:408] pool5 -> pool5
I0411 21:11:08.583015 21842 net.cpp:150] Setting up pool5
I0411 21:11:08.583025 21842 net.cpp:157] Top shape: 1 512 24 24 (294912)
I0411 21:11:08.583029 21842 net.cpp:165] Memory required for data: 360975424
I0411 21:11:08.583034 21842 layer_factory.hpp:77] Creating layer fc6
I0411 21:11:08.583048 21842 net.cpp:100] Creating Layer fc6
I0411 21:11:08.583055 21842 net.cpp:434] fc6 <- pool5
I0411 21:11:08.583063 21842 net.cpp:408] fc6 -> fc6
I0411 21:11:08.637949 21842 net.cpp:150] Setting up fc6
I0411 21:11:08.637987 21842 net.cpp:157] Top shape: 1 1024 24 24 (589824)
I0411 21:11:08.637992 21842 net.cpp:165] Memory required for data: 363334720
I0411 21:11:08.638002 21842 layer_factory.hpp:77] Creating layer relu6
I0411 21:11:08.638015 21842 net.cpp:100] Creating Layer relu6
I0411 21:11:08.638021 21842 net.cpp:434] relu6 <- fc6
I0411 21:11:08.638036 21842 net.cpp:395] relu6 -> fc6 (in-place)
I0411 21:11:08.638336 21842 net.cpp:150] Setting up relu6
I0411 21:11:08.638350 21842 net.cpp:157] Top shape: 1 1024 24 24 (589824)
I0411 21:11:08.638353 21842 net.cpp:165] Memory required for data: 365694016
I0411 21:11:08.638357 21842 layer_factory.hpp:77] Creating layer fc7
I0411 21:11:08.638371 21842 net.cpp:100] Creating Layer fc7
I0411 21:11:08.638376 21842 net.cpp:434] fc7 <- fc6
I0411 21:11:08.638386 21842 net.cpp:408] fc7 -> fc7
I0411 21:11:08.652243 21842 net.cpp:150] Setting up fc7
I0411 21:11:08.652262 21842 net.cpp:157] Top shape: 1 1024 24 24 (589824)
I0411 21:11:08.652266 21842 net.cpp:165] Memory required for data: 368053312
I0411 21:11:08.652274 21842 layer_factory.hpp:77] Creating layer relu7
I0411 21:11:08.652283 21842 net.cpp:100] Creating Layer relu7
I0411 21:11:08.652288 21842 net.cpp:434] relu7 <- fc7
I0411 21:11:08.652295 21842 net.cpp:395] relu7 -> fc7 (in-place)
I0411 21:11:08.652750 21842 net.cpp:150] Setting up relu7
I0411 21:11:08.652766 21842 net.cpp:157] Top shape: 1 1024 24 24 (589824)
I0411 21:11:08.652770 21842 net.cpp:165] Memory required for data: 370412608
I0411 21:11:08.652775 21842 layer_factory.hpp:77] Creating layer fc7_relu7_0_split
I0411 21:11:08.652782 21842 net.cpp:100] Creating Layer fc7_relu7_0_split
I0411 21:11:08.652786 21842 net.cpp:434] fc7_relu7_0_split <- fc7
I0411 21:11:08.652796 21842 net.cpp:408] fc7_relu7_0_split -> fc7_relu7_0_split_0
I0411 21:11:08.652803 21842 net.cpp:408] fc7_relu7_0_split -> fc7_relu7_0_split_1
I0411 21:11:08.652817 21842 net.cpp:408] fc7_relu7_0_split -> fc7_relu7_0_split_2
I0411 21:11:08.652825 21842 net.cpp:408] fc7_relu7_0_split -> fc7_relu7_0_split_3
I0411 21:11:08.652935 21842 net.cpp:150] Setting up fc7_relu7_0_split
I0411 21:11:08.652945 21842 net.cpp:157] Top shape: 1 1024 24 24 (589824)
I0411 21:11:08.652951 21842 net.cpp:157] Top shape: 1 1024 24 24 (589824)
I0411 21:11:08.652956 21842 net.cpp:157] Top shape: 1 1024 24 24 (589824)
I0411 21:11:08.652976 21842 net.cpp:157] Top shape: 1 1024 24 24 (589824)
I0411 21:11:08.652981 21842 net.cpp:165] Memory required for data: 379849792
I0411 21:11:08.652984 21842 layer_factory.hpp:77] Creating layer conv6_1
I0411 21:11:08.652997 21842 net.cpp:100] Creating Layer conv6_1
I0411 21:11:08.653002 21842 net.cpp:434] conv6_1 <- fc7_relu7_0_split_0
I0411 21:11:08.653010 21842 net.cpp:408] conv6_1 -> conv6_1
I0411 21:11:08.657507 21842 net.cpp:150] Setting up conv6_1
I0411 21:11:08.657526 21842 net.cpp:157] Top shape: 1 256 24 24 (147456)
I0411 21:11:08.657531 21842 net.cpp:165] Memory required for data: 380439616
I0411 21:11:08.657539 21842 layer_factory.hpp:77] Creating layer conv6_1_relu
I0411 21:11:08.657546 21842 net.cpp:100] Creating Layer conv6_1_relu
I0411 21:11:08.657552 21842 net.cpp:434] conv6_1_relu <- conv6_1
I0411 21:11:08.657557 21842 net.cpp:395] conv6_1_relu -> conv6_1 (in-place)
I0411 21:11:08.657982 21842 net.cpp:150] Setting up conv6_1_relu
I0411 21:11:08.657999 21842 net.cpp:157] Top shape: 1 256 24 24 (147456)
I0411 21:11:08.658002 21842 net.cpp:165] Memory required for data: 381029440
I0411 21:11:08.658006 21842 layer_factory.hpp:77] Creating layer conv6_2
I0411 21:11:08.658020 21842 net.cpp:100] Creating Layer conv6_2
I0411 21:11:08.658025 21842 net.cpp:434] conv6_2 <- conv6_1
I0411 21:11:08.658032 21842 net.cpp:408] conv6_2 -> conv6_2
I0411 21:11:08.673262 21842 net.cpp:150] Setting up conv6_2
I0411 21:11:08.673281 21842 net.cpp:157] Top shape: 1 512 12 12 (73728)
I0411 21:11:08.673287 21842 net.cpp:165] Memory required for data: 381324352
I0411 21:11:08.673305 21842 layer_factory.hpp:77] Creating layer conv6_2_relu
I0411 21:11:08.673313 21842 net.cpp:100] Creating Layer conv6_2_relu
I0411 21:11:08.673318 21842 net.cpp:434] conv6_2_relu <- conv6_2
I0411 21:11:08.673324 21842 net.cpp:395] conv6_2_relu -> conv6_2 (in-place)
I0411 21:11:08.673609 21842 net.cpp:150] Setting up conv6_2_relu
I0411 21:11:08.673624 21842 net.cpp:157] Top shape: 1 512 12 12 (73728)
I0411 21:11:08.673629 21842 net.cpp:165] Memory required for data: 381619264
I0411 21:11:08.673632 21842 layer_factory.hpp:77] Creating layer conv6_2_conv6_2_relu_0_split
I0411 21:11:08.673640 21842 net.cpp:100] Creating Layer conv6_2_conv6_2_relu_0_split
I0411 21:11:08.673643 21842 net.cpp:434] conv6_2_conv6_2_relu_0_split <- conv6_2
I0411 21:11:08.673650 21842 net.cpp:408] conv6_2_conv6_2_relu_0_split -> conv6_2_conv6_2_relu_0_split_0
I0411 21:11:08.673658 21842 net.cpp:408] conv6_2_conv6_2_relu_0_split -> conv6_2_conv6_2_relu_0_split_1
I0411 21:11:08.673669 21842 net.cpp:408] conv6_2_conv6_2_relu_0_split -> conv6_2_conv6_2_relu_0_split_2
I0411 21:11:08.673676 21842 net.cpp:408] conv6_2_conv6_2_relu_0_split -> conv6_2_conv6_2_relu_0_split_3
I0411 21:11:08.673785 21842 net.cpp:150] Setting up conv6_2_conv6_2_relu_0_split
I0411 21:11:08.673794 21842 net.cpp:157] Top shape: 1 512 12 12 (73728)
I0411 21:11:08.673799 21842 net.cpp:157] Top shape: 1 512 12 12 (73728)
I0411 21:11:08.673804 21842 net.cpp:157] Top shape: 1 512 12 12 (73728)
I0411 21:11:08.673807 21842 net.cpp:157] Top shape: 1 512 12 12 (73728)
I0411 21:11:08.673811 21842 net.cpp:165] Memory required for data: 382798912
I0411 21:11:08.673815 21842 layer_factory.hpp:77] Creating layer conv7_1
I0411 21:11:08.673830 21842 net.cpp:100] Creating Layer conv7_1
I0411 21:11:08.673835 21842 net.cpp:434] conv7_1 <- conv6_2_conv6_2_relu_0_split_0
I0411 21:11:08.673842 21842 net.cpp:408] conv7_1 -> conv7_1
I0411 21:11:08.675976 21842 net.cpp:150] Setting up conv7_1
I0411 21:11:08.675992 21842 net.cpp:157] Top shape: 1 128 12 12 (18432)
I0411 21:11:08.675997 21842 net.cpp:165] Memory required for data: 382872640
I0411 21:11:08.676004 21842 layer_factory.hpp:77] Creating layer conv7_1_relu
I0411 21:11:08.676012 21842 net.cpp:100] Creating Layer conv7_1_relu
I0411 21:11:08.676017 21842 net.cpp:434] conv7_1_relu <- conv7_1
I0411 21:11:08.676025 21842 net.cpp:395] conv7_1_relu -> conv7_1 (in-place)
I0411 21:11:08.676440 21842 net.cpp:150] Setting up conv7_1_relu
I0411 21:11:08.676470 21842 net.cpp:157] Top shape: 1 128 12 12 (18432)
I0411 21:11:08.676475 21842 net.cpp:165] Memory required for data: 382946368
I0411 21:11:08.676478 21842 layer_factory.hpp:77] Creating layer conv7_2
I0411 21:11:08.676491 21842 net.cpp:100] Creating Layer conv7_2
I0411 21:11:08.676496 21842 net.cpp:434] conv7_2 <- conv7_1
I0411 21:11:08.676506 21842 net.cpp:408] conv7_2 -> conv7_2
I0411 21:11:08.681596 21842 net.cpp:150] Setting up conv7_2
I0411 21:11:08.681618 21842 net.cpp:157] Top shape: 1 256 6 6 (9216)
I0411 21:11:08.681623 21842 net.cpp:165] Memory required for data: 382983232
I0411 21:11:08.681630 21842 layer_factory.hpp:77] Creating layer conv7_2_relu
I0411 21:11:08.681638 21842 net.cpp:100] Creating Layer conv7_2_relu
I0411 21:11:08.681643 21842 net.cpp:434] conv7_2_relu <- conv7_2
I0411 21:11:08.681649 21842 net.cpp:395] conv7_2_relu -> conv7_2 (in-place)
I0411 21:11:08.682061 21842 net.cpp:150] Setting up conv7_2_relu
I0411 21:11:08.682078 21842 net.cpp:157] Top shape: 1 256 6 6 (9216)
I0411 21:11:08.682082 21842 net.cpp:165] Memory required for data: 383020096
I0411 21:11:08.682086 21842 layer_factory.hpp:77] Creating layer conv7_2_conv7_2_relu_0_split
I0411 21:11:08.682094 21842 net.cpp:100] Creating Layer conv7_2_conv7_2_relu_0_split
I0411 21:11:08.682099 21842 net.cpp:434] conv7_2_conv7_2_relu_0_split <- conv7_2
I0411 21:11:08.682107 21842 net.cpp:408] conv7_2_conv7_2_relu_0_split -> conv7_2_conv7_2_relu_0_split_0
I0411 21:11:08.682116 21842 net.cpp:408] conv7_2_conv7_2_relu_0_split -> conv7_2_conv7_2_relu_0_split_1
I0411 21:11:08.682123 21842 net.cpp:408] conv7_2_conv7_2_relu_0_split -> conv7_2_conv7_2_relu_0_split_2
I0411 21:11:08.682130 21842 net.cpp:408] conv7_2_conv7_2_relu_0_split -> conv7_2_conv7_2_relu_0_split_3
I0411 21:11:08.682246 21842 net.cpp:150] Setting up conv7_2_conv7_2_relu_0_split
I0411 21:11:08.682256 21842 net.cpp:157] Top shape: 1 256 6 6 (9216)
I0411 21:11:08.682261 21842 net.cpp:157] Top shape: 1 256 6 6 (9216)
I0411 21:11:08.682265 21842 net.cpp:157] Top shape: 1 256 6 6 (9216)
I0411 21:11:08.682270 21842 net.cpp:157] Top shape: 1 256 6 6 (9216)
I0411 21:11:08.682273 21842 net.cpp:165] Memory required for data: 383167552
I0411 21:11:08.682276 21842 layer_factory.hpp:77] Creating layer conv8_1
I0411 21:11:08.682289 21842 net.cpp:100] Creating Layer conv8_1
I0411 21:11:08.682294 21842 net.cpp:434] conv8_1 <- conv7_2_conv7_2_relu_0_split_0
I0411 21:11:08.682301 21842 net.cpp:408] conv8_1 -> conv8_1
I0411 21:11:08.684095 21842 net.cpp:150] Setting up conv8_1
I0411 21:11:08.684113 21842 net.cpp:157] Top shape: 1 128 6 6 (4608)
I0411 21:11:08.684118 21842 net.cpp:165] Memory required for data: 383185984
I0411 21:11:08.684125 21842 layer_factory.hpp:77] Creating layer conv8_1_relu
I0411 21:11:08.684134 21842 net.cpp:100] Creating Layer conv8_1_relu
I0411 21:11:08.684139 21842 net.cpp:434] conv8_1_relu <- conv8_1
I0411 21:11:08.684145 21842 net.cpp:395] conv8_1_relu -> conv8_1 (in-place)
I0411 21:11:08.684363 21842 net.cpp:150] Setting up conv8_1_relu
I0411 21:11:08.684376 21842 net.cpp:157] Top shape: 1 128 6 6 (4608)
I0411 21:11:08.684381 21842 net.cpp:165] Memory required for data: 383204416
I0411 21:11:08.684384 21842 layer_factory.hpp:77] Creating layer conv8_2
I0411 21:11:08.684397 21842 net.cpp:100] Creating Layer conv8_2
I0411 21:11:08.684402 21842 net.cpp:434] conv8_2 <- conv8_1
I0411 21:11:08.684409 21842 net.cpp:408] conv8_2 -> conv8_2
I0411 21:11:08.689476 21842 net.cpp:150] Setting up conv8_2
I0411 21:11:08.689493 21842 net.cpp:157] Top shape: 1 256 4 4 (4096)
I0411 21:11:08.689498 21842 net.cpp:165] Memory required for data: 383220800
I0411 21:11:08.689505 21842 layer_factory.hpp:77] Creating layer conv8_2_relu
I0411 21:11:08.689513 21842 net.cpp:100] Creating Layer conv8_2_relu
I0411 21:11:08.689517 21842 net.cpp:434] conv8_2_relu <- conv8_2
I0411 21:11:08.689527 21842 net.cpp:395] conv8_2_relu -> conv8_2 (in-place)
I0411 21:11:08.689949 21842 net.cpp:150] Setting up conv8_2_relu
I0411 21:11:08.689965 21842 net.cpp:157] Top shape: 1 256 4 4 (4096)
I0411 21:11:08.689980 21842 net.cpp:165] Memory required for data: 383237184
I0411 21:11:08.689985 21842 layer_factory.hpp:77] Creating layer conv8_2_conv8_2_relu_0_split
I0411 21:11:08.689993 21842 net.cpp:100] Creating Layer conv8_2_conv8_2_relu_0_split
I0411 21:11:08.689997 21842 net.cpp:434] conv8_2_conv8_2_relu_0_split <- conv8_2
I0411 21:11:08.690006 21842 net.cpp:408] conv8_2_conv8_2_relu_0_split -> conv8_2_conv8_2_relu_0_split_0
I0411 21:11:08.690014 21842 net.cpp:408] conv8_2_conv8_2_relu_0_split -> conv8_2_conv8_2_relu_0_split_1
I0411 21:11:08.690021 21842 net.cpp:408] conv8_2_conv8_2_relu_0_split -> conv8_2_conv8_2_relu_0_split_2
I0411 21:11:08.690028 21842 net.cpp:408] conv8_2_conv8_2_relu_0_split -> conv8_2_conv8_2_relu_0_split_3
I0411 21:11:08.690137 21842 net.cpp:150] Setting up conv8_2_conv8_2_relu_0_split
I0411 21:11:08.690150 21842 net.cpp:157] Top shape: 1 256 4 4 (4096)
I0411 21:11:08.690155 21842 net.cpp:157] Top shape: 1 256 4 4 (4096)
I0411 21:11:08.690158 21842 net.cpp:157] Top shape: 1 256 4 4 (4096)
I0411 21:11:08.690162 21842 net.cpp:157] Top shape: 1 256 4 4 (4096)
I0411 21:11:08.690165 21842 net.cpp:165] Memory required for data: 383302720
I0411 21:11:08.690170 21842 layer_factory.hpp:77] Creating layer conv9_1
I0411 21:11:08.690181 21842 net.cpp:100] Creating Layer conv9_1
I0411 21:11:08.690186 21842 net.cpp:434] conv9_1 <- conv8_2_conv8_2_relu_0_split_0
I0411 21:11:08.690196 21842 net.cpp:408] conv9_1 -> conv9_1
I0411 21:11:08.691805 21842 net.cpp:150] Setting up conv9_1
I0411 21:11:08.691823 21842 net.cpp:157] Top shape: 1 128 4 4 (2048)
I0411 21:11:08.691828 21842 net.cpp:165] Memory required for data: 383310912
I0411 21:11:08.691835 21842 layer_factory.hpp:77] Creating layer conv9_1_relu
I0411 21:11:08.691843 21842 net.cpp:100] Creating Layer conv9_1_relu
I0411 21:11:08.691846 21842 net.cpp:434] conv9_1_relu <- conv9_1
I0411 21:11:08.691854 21842 net.cpp:395] conv9_1_relu -> conv9_1 (in-place)
I0411 21:11:08.692275 21842 net.cpp:150] Setting up conv9_1_relu
I0411 21:11:08.692291 21842 net.cpp:157] Top shape: 1 128 4 4 (2048)
I0411 21:11:08.692293 21842 net.cpp:165] Memory required for data: 383319104
I0411 21:11:08.692297 21842 layer_factory.hpp:77] Creating layer conv9_2
I0411 21:11:08.692312 21842 net.cpp:100] Creating Layer conv9_2
I0411 21:11:08.692317 21842 net.cpp:434] conv9_2 <- conv9_1
I0411 21:11:08.692325 21842 net.cpp:408] conv9_2 -> conv9_2
I0411 21:11:08.697374 21842 net.cpp:150] Setting up conv9_2
I0411 21:11:08.697392 21842 net.cpp:157] Top shape: 1 256 2 2 (1024)
I0411 21:11:08.697396 21842 net.cpp:165] Memory required for data: 383323200
I0411 21:11:08.697403 21842 layer_factory.hpp:77] Creating layer conv9_2_relu
I0411 21:11:08.697410 21842 net.cpp:100] Creating Layer conv9_2_relu
I0411 21:11:08.697415 21842 net.cpp:434] conv9_2_relu <- conv9_2
I0411 21:11:08.697424 21842 net.cpp:395] conv9_2_relu -> conv9_2 (in-place)
I0411 21:11:08.697644 21842 net.cpp:150] Setting up conv9_2_relu
I0411 21:11:08.697656 21842 net.cpp:157] Top shape: 1 256 2 2 (1024)
I0411 21:11:08.697660 21842 net.cpp:165] Memory required for data: 383327296
I0411 21:11:08.697664 21842 layer_factory.hpp:77] Creating layer conv9_2_conv9_2_relu_0_split
I0411 21:11:08.697672 21842 net.cpp:100] Creating Layer conv9_2_conv9_2_relu_0_split
I0411 21:11:08.697677 21842 net.cpp:434] conv9_2_conv9_2_relu_0_split <- conv9_2
I0411 21:11:08.697684 21842 net.cpp:408] conv9_2_conv9_2_relu_0_split -> conv9_2_conv9_2_relu_0_split_0
I0411 21:11:08.697691 21842 net.cpp:408] conv9_2_conv9_2_relu_0_split -> conv9_2_conv9_2_relu_0_split_1
I0411 21:11:08.697700 21842 net.cpp:408] conv9_2_conv9_2_relu_0_split -> conv9_2_conv9_2_relu_0_split_2
I0411 21:11:08.697787 21842 net.cpp:150] Setting up conv9_2_conv9_2_relu_0_split
I0411 21:11:08.697795 21842 net.cpp:157] Top shape: 1 256 2 2 (1024)
I0411 21:11:08.697800 21842 net.cpp:157] Top shape: 1 256 2 2 (1024)
I0411 21:11:08.697804 21842 net.cpp:157] Top shape: 1 256 2 2 (1024)
I0411 21:11:08.697808 21842 net.cpp:165] Memory required for data: 383339584
I0411 21:11:08.697811 21842 layer_factory.hpp:77] Creating layer conv4_3_norm
I0411 21:11:08.697832 21842 net.cpp:100] Creating Layer conv4_3_norm
I0411 21:11:08.697837 21842 net.cpp:434] conv4_3_norm <- conv4_3_relu4_3_0_split_1
I0411 21:11:08.697844 21842 net.cpp:408] conv4_3_norm -> conv4_3_norm
I0411 21:11:08.698096 21842 net.cpp:150] Setting up conv4_3_norm
I0411 21:11:08.698107 21842 net.cpp:157] Top shape: 1 512 48 48 (1179648)
I0411 21:11:08.698109 21842 net.cpp:165] Memory required for data: 388058176
I0411 21:11:08.698115 21842 layer_factory.hpp:77] Creating layer conv4_3_norm_conv4_3_norm_0_split
I0411 21:11:08.698122 21842 net.cpp:100] Creating Layer conv4_3_norm_conv4_3_norm_0_split
I0411 21:11:08.698127 21842 net.cpp:434] conv4_3_norm_conv4_3_norm_0_split <- conv4_3_norm
I0411 21:11:08.698133 21842 net.cpp:408] conv4_3_norm_conv4_3_norm_0_split -> conv4_3_norm_conv4_3_norm_0_split_0
I0411 21:11:08.698141 21842 net.cpp:408] conv4_3_norm_conv4_3_norm_0_split -> conv4_3_norm_conv4_3_norm_0_split_1
I0411 21:11:08.698148 21842 net.cpp:408] conv4_3_norm_conv4_3_norm_0_split -> conv4_3_norm_conv4_3_norm_0_split_2
I0411 21:11:08.698231 21842 net.cpp:150] Setting up conv4_3_norm_conv4_3_norm_0_split
I0411 21:11:08.698240 21842 net.cpp:157] Top shape: 1 512 48 48 (1179648)
I0411 21:11:08.698246 21842 net.cpp:157] Top shape: 1 512 48 48 (1179648)
I0411 21:11:08.698249 21842 net.cpp:157] Top shape: 1 512 48 48 (1179648)
I0411 21:11:08.698253 21842 net.cpp:165] Memory required for data: 402213952
I0411 21:11:08.698258 21842 layer_factory.hpp:77] Creating layer conv4_3_norm_mbox_loc
I0411 21:11:08.698268 21842 net.cpp:100] Creating Layer conv4_3_norm_mbox_loc
I0411 21:11:08.698273 21842 net.cpp:434] conv4_3_norm_mbox_loc <- conv4_3_norm_conv4_3_norm_0_split_0
I0411 21:11:08.698281 21842 net.cpp:408] conv4_3_norm_mbox_loc -> conv4_3_norm_mbox_loc
I0411 21:11:08.721114 21842 net.cpp:150] Setting up conv4_3_norm_mbox_loc
I0411 21:11:08.721137 21842 net.cpp:157] Top shape: 1 240 48 48 (552960)
I0411 21:11:08.721140 21842 net.cpp:165] Memory required for data: 404425792
I0411 21:11:08.721148 21842 layer_factory.hpp:77] Creating layer conv4_3_norm_mbox_loc_perm
I0411 21:11:08.721160 21842 net.cpp:100] Creating Layer conv4_3_norm_mbox_loc_perm
I0411 21:11:08.721166 21842 net.cpp:434] conv4_3_norm_mbox_loc_perm <- conv4_3_norm_mbox_loc
I0411 21:11:08.721175 21842 net.cpp:408] conv4_3_norm_mbox_loc_perm -> conv4_3_norm_mbox_loc_perm
I0411 21:11:08.721345 21842 net.cpp:150] Setting up conv4_3_norm_mbox_loc_perm
I0411 21:11:08.721355 21842 net.cpp:157] Top shape: 1 48 48 240 (552960)
I0411 21:11:08.721364 21842 net.cpp:165] Memory required for data: 406637632
I0411 21:11:08.721369 21842 layer_factory.hpp:77] Creating layer conv4_3_norm_mbox_loc_flat
I0411 21:11:08.721376 21842 net.cpp:100] Creating Layer conv4_3_norm_mbox_loc_flat
I0411 21:11:08.721380 21842 net.cpp:434] conv4_3_norm_mbox_loc_flat <- conv4_3_norm_mbox_loc_perm
I0411 21:11:08.721386 21842 net.cpp:408] conv4_3_norm_mbox_loc_flat -> conv4_3_norm_mbox_loc_flat
I0411 21:11:08.721437 21842 net.cpp:150] Setting up conv4_3_norm_mbox_loc_flat
I0411 21:11:08.721447 21842 net.cpp:157] Top shape: 1 552960 (552960)
I0411 21:11:08.721451 21842 net.cpp:165] Memory required for data: 408849472
I0411 21:11:08.721455 21842 layer_factory.hpp:77] Creating layer conv4_3_norm_mbox_conf
I0411 21:11:08.721475 21842 net.cpp:100] Creating Layer conv4_3_norm_mbox_conf
I0411 21:11:08.721480 21842 net.cpp:434] conv4_3_norm_mbox_conf <- conv4_3_norm_conv4_3_norm_0_split_1
I0411 21:11:08.721487 21842 net.cpp:408] conv4_3_norm_mbox_conf -> conv4_3_norm_mbox_conf
I0411 21:11:08.726732 21842 net.cpp:150] Setting up conv4_3_norm_mbox_conf
I0411 21:11:08.726748 21842 net.cpp:157] Top shape: 1 40 48 48 (92160)
I0411 21:11:08.726753 21842 net.cpp:165] Memory required for data: 409218112
I0411 21:11:08.726761 21842 layer_factory.hpp:77] Creating layer conv4_3_norm_mbox_conf_perm
I0411 21:11:08.726769 21842 net.cpp:100] Creating Layer conv4_3_norm_mbox_conf_perm
I0411 21:11:08.726776 21842 net.cpp:434] conv4_3_norm_mbox_conf_perm <- conv4_3_norm_mbox_conf
I0411 21:11:08.726799 21842 net.cpp:408] conv4_3_norm_mbox_conf_perm -> conv4_3_norm_mbox_conf_perm
I0411 21:11:08.726974 21842 net.cpp:150] Setting up conv4_3_norm_mbox_conf_perm
I0411 21:11:08.726984 21842 net.cpp:157] Top shape: 1 48 48 40 (92160)
I0411 21:11:08.726987 21842 net.cpp:165] Memory required for data: 409586752
I0411 21:11:08.726991 21842 layer_factory.hpp:77] Creating layer conv4_3_norm_mbox_conf_flat
I0411 21:11:08.726997 21842 net.cpp:100] Creating Layer conv4_3_norm_mbox_conf_flat
I0411 21:11:08.727002 21842 net.cpp:434] conv4_3_norm_mbox_conf_flat <- conv4_3_norm_mbox_conf_perm
I0411 21:11:08.727008 21842 net.cpp:408] conv4_3_norm_mbox_conf_flat -> conv4_3_norm_mbox_conf_flat
I0411 21:11:08.727048 21842 net.cpp:150] Setting up conv4_3_norm_mbox_conf_flat
I0411 21:11:08.727057 21842 net.cpp:157] Top shape: 1 92160 (92160)
I0411 21:11:08.727061 21842 net.cpp:165] Memory required for data: 409955392
I0411 21:11:08.727064 21842 layer_factory.hpp:77] Creating layer conv4_3_norm_mbox_priorbox
I0411 21:11:08.727074 21842 net.cpp:100] Creating Layer conv4_3_norm_mbox_priorbox
I0411 21:11:08.727078 21842 net.cpp:434] conv4_3_norm_mbox_priorbox <- conv4_3_norm_conv4_3_norm_0_split_2
I0411 21:11:08.727084 21842 net.cpp:434] conv4_3_norm_mbox_priorbox <- data_data_0_split_1
I0411 21:11:08.727090 21842 net.cpp:408] conv4_3_norm_mbox_priorbox -> conv4_3_norm_mbox_priorbox
I0411 21:11:08.727134 21842 net.cpp:150] Setting up conv4_3_norm_mbox_priorbox
I0411 21:11:08.727144 21842 net.cpp:157] Top shape: 1 2 184320 (368640)
I0411 21:11:08.727147 21842 net.cpp:165] Memory required for data: 411429952
I0411 21:11:08.727151 21842 layer_factory.hpp:77] Creating layer fc7_mbox_loc
I0411 21:11:08.727161 21842 net.cpp:100] Creating Layer fc7_mbox_loc
I0411 21:11:08.727166 21842 net.cpp:434] fc7_mbox_loc <- fc7_relu7_0_split_1
I0411 21:11:08.727174 21842 net.cpp:408] fc7_mbox_loc -> fc7_mbox_loc
I0411 21:11:08.771806 21842 net.cpp:150] Setting up fc7_mbox_loc
I0411 21:11:08.771839 21842 net.cpp:157] Top shape: 1 240 24 24 (138240)
I0411 21:11:08.771844 21842 net.cpp:165] Memory required for data: 411982912
I0411 21:11:08.771854 21842 layer_factory.hpp:77] Creating layer fc7_mbox_loc_perm
I0411 21:11:08.771865 21842 net.cpp:100] Creating Layer fc7_mbox_loc_perm
I0411 21:11:08.771872 21842 net.cpp:434] fc7_mbox_loc_perm <- fc7_mbox_loc
I0411 21:11:08.771883 21842 net.cpp:408] fc7_mbox_loc_perm -> fc7_mbox_loc_perm
I0411 21:11:08.772059 21842 net.cpp:150] Setting up fc7_mbox_loc_perm
I0411 21:11:08.772069 21842 net.cpp:157] Top shape: 1 24 24 240 (138240)
I0411 21:11:08.772073 21842 net.cpp:165] Memory required for data: 412535872
I0411 21:11:08.772078 21842 layer_factory.hpp:77] Creating layer fc7_mbox_loc_flat
I0411 21:11:08.772086 21842 net.cpp:100] Creating Layer fc7_mbox_loc_flat
I0411 21:11:08.772091 21842 net.cpp:434] fc7_mbox_loc_flat <- fc7_mbox_loc_perm
I0411 21:11:08.772097 21842 net.cpp:408] fc7_mbox_loc_flat -> fc7_mbox_loc_flat
I0411 21:11:08.772137 21842 net.cpp:150] Setting up fc7_mbox_loc_flat
I0411 21:11:08.772147 21842 net.cpp:157] Top shape: 1 138240 (138240)
I0411 21:11:08.772151 21842 net.cpp:165] Memory required for data: 413088832
I0411 21:11:08.772156 21842 layer_factory.hpp:77] Creating layer fc7_mbox_conf
I0411 21:11:08.772167 21842 net.cpp:100] Creating Layer fc7_mbox_conf
I0411 21:11:08.772172 21842 net.cpp:434] fc7_mbox_conf <- fc7_relu7_0_split_2
I0411 21:11:08.772181 21842 net.cpp:408] fc7_mbox_conf -> fc7_mbox_conf
I0411 21:11:08.780978 21842 net.cpp:150] Setting up fc7_mbox_conf
I0411 21:11:08.780997 21842 net.cpp:157] Top shape: 1 40 24 24 (23040)
I0411 21:11:08.781000 21842 net.cpp:165] Memory required for data: 413180992
I0411 21:11:08.781008 21842 layer_factory.hpp:77] Creating layer fc7_mbox_conf_perm
I0411 21:11:08.781018 21842 net.cpp:100] Creating Layer fc7_mbox_conf_perm
I0411 21:11:08.781023 21842 net.cpp:434] fc7_mbox_conf_perm <- fc7_mbox_conf
I0411 21:11:08.781033 21842 net.cpp:408] fc7_mbox_conf_perm -> fc7_mbox_conf_perm
I0411 21:11:08.781199 21842 net.cpp:150] Setting up fc7_mbox_conf_perm
I0411 21:11:08.781226 21842 net.cpp:157] Top shape: 1 24 24 40 (23040)
I0411 21:11:08.781230 21842 net.cpp:165] Memory required for data: 413273152
I0411 21:11:08.781234 21842 layer_factory.hpp:77] Creating layer fc7_mbox_conf_flat
I0411 21:11:08.781242 21842 net.cpp:100] Creating Layer fc7_mbox_conf_flat
I0411 21:11:08.781247 21842 net.cpp:434] fc7_mbox_conf_flat <- fc7_mbox_conf_perm
I0411 21:11:08.781253 21842 net.cpp:408] fc7_mbox_conf_flat -> fc7_mbox_conf_flat
I0411 21:11:08.781296 21842 net.cpp:150] Setting up fc7_mbox_conf_flat
I0411 21:11:08.781306 21842 net.cpp:157] Top shape: 1 23040 (23040)
I0411 21:11:08.781309 21842 net.cpp:165] Memory required for data: 413365312
I0411 21:11:08.781312 21842 layer_factory.hpp:77] Creating layer fc7_mbox_priorbox
I0411 21:11:08.781322 21842 net.cpp:100] Creating Layer fc7_mbox_priorbox
I0411 21:11:08.781327 21842 net.cpp:434] fc7_mbox_priorbox <- fc7_relu7_0_split_3
I0411 21:11:08.781333 21842 net.cpp:434] fc7_mbox_priorbox <- data_data_0_split_2
I0411 21:11:08.781339 21842 net.cpp:408] fc7_mbox_priorbox -> fc7_mbox_priorbox
I0411 21:11:08.781383 21842 net.cpp:150] Setting up fc7_mbox_priorbox
I0411 21:11:08.781391 21842 net.cpp:157] Top shape: 1 2 46080 (92160)
I0411 21:11:08.781395 21842 net.cpp:165] Memory required for data: 413733952
I0411 21:11:08.781399 21842 layer_factory.hpp:77] Creating layer conv6_2_mbox_loc
I0411 21:11:08.781409 21842 net.cpp:100] Creating Layer conv6_2_mbox_loc
I0411 21:11:08.781415 21842 net.cpp:434] conv6_2_mbox_loc <- conv6_2_conv6_2_relu_0_split_1
I0411 21:11:08.781424 21842 net.cpp:408] conv6_2_mbox_loc -> conv6_2_mbox_loc
I0411 21:11:08.804471 21842 net.cpp:150] Setting up conv6_2_mbox_loc
I0411 21:11:08.804488 21842 net.cpp:157] Top shape: 1 240 12 12 (34560)
I0411 21:11:08.804493 21842 net.cpp:165] Memory required for data: 413872192
I0411 21:11:08.804502 21842 layer_factory.hpp:77] Creating layer conv6_2_mbox_loc_perm
I0411 21:11:08.804513 21842 net.cpp:100] Creating Layer conv6_2_mbox_loc_perm
I0411 21:11:08.804519 21842 net.cpp:434] conv6_2_mbox_loc_perm <- conv6_2_mbox_loc
I0411 21:11:08.804527 21842 net.cpp:408] conv6_2_mbox_loc_perm -> conv6_2_mbox_loc_perm
I0411 21:11:08.804711 21842 net.cpp:150] Setting up conv6_2_mbox_loc_perm
I0411 21:11:08.804723 21842 net.cpp:157] Top shape: 1 12 12 240 (34560)
I0411 21:11:08.804726 21842 net.cpp:165] Memory required for data: 414010432
I0411 21:11:08.804729 21842 layer_factory.hpp:77] Creating layer conv6_2_mbox_loc_flat
I0411 21:11:08.804736 21842 net.cpp:100] Creating Layer conv6_2_mbox_loc_flat
I0411 21:11:08.804740 21842 net.cpp:434] conv6_2_mbox_loc_flat <- conv6_2_mbox_loc_perm
I0411 21:11:08.804749 21842 net.cpp:408] conv6_2_mbox_loc_flat -> conv6_2_mbox_loc_flat
I0411 21:11:08.804786 21842 net.cpp:150] Setting up conv6_2_mbox_loc_flat
I0411 21:11:08.804800 21842 net.cpp:157] Top shape: 1 34560 (34560)
I0411 21:11:08.804805 21842 net.cpp:165] Memory required for data: 414148672
I0411 21:11:08.804808 21842 layer_factory.hpp:77] Creating layer conv6_2_mbox_conf
I0411 21:11:08.804821 21842 net.cpp:100] Creating Layer conv6_2_mbox_conf
I0411 21:11:08.804826 21842 net.cpp:434] conv6_2_mbox_conf <- conv6_2_conv6_2_relu_0_split_2
I0411 21:11:08.804831 21842 net.cpp:408] conv6_2_mbox_conf -> conv6_2_mbox_conf
I0411 21:11:08.810113 21842 net.cpp:150] Setting up conv6_2_mbox_conf
I0411 21:11:08.810132 21842 net.cpp:157] Top shape: 1 40 12 12 (5760)
I0411 21:11:08.810137 21842 net.cpp:165] Memory required for data: 414171712
I0411 21:11:08.810144 21842 layer_factory.hpp:77] Creating layer conv6_2_mbox_conf_perm
I0411 21:11:08.810153 21842 net.cpp:100] Creating Layer conv6_2_mbox_conf_perm
I0411 21:11:08.810158 21842 net.cpp:434] conv6_2_mbox_conf_perm <- conv6_2_mbox_conf
I0411 21:11:08.810164 21842 net.cpp:408] conv6_2_mbox_conf_perm -> conv6_2_mbox_conf_perm
I0411 21:11:08.810348 21842 net.cpp:150] Setting up conv6_2_mbox_conf_perm
I0411 21:11:08.810359 21842 net.cpp:157] Top shape: 1 12 12 40 (5760)
I0411 21:11:08.810364 21842 net.cpp:165] Memory required for data: 414194752
I0411 21:11:08.810381 21842 layer_factory.hpp:77] Creating layer conv6_2_mbox_conf_flat
I0411 21:11:08.810390 21842 net.cpp:100] Creating Layer conv6_2_mbox_conf_flat
I0411 21:11:08.810395 21842 net.cpp:434] conv6_2_mbox_conf_flat <- conv6_2_mbox_conf_perm
I0411 21:11:08.810401 21842 net.cpp:408] conv6_2_mbox_conf_flat -> conv6_2_mbox_conf_flat
I0411 21:11:08.810444 21842 net.cpp:150] Setting up conv6_2_mbox_conf_flat
I0411 21:11:08.810454 21842 net.cpp:157] Top shape: 1 5760 (5760)
I0411 21:11:08.810458 21842 net.cpp:165] Memory required for data: 414217792
I0411 21:11:08.810462 21842 layer_factory.hpp:77] Creating layer conv6_2_mbox_priorbox
I0411 21:11:08.810469 21842 net.cpp:100] Creating Layer conv6_2_mbox_priorbox
I0411 21:11:08.810473 21842 net.cpp:434] conv6_2_mbox_priorbox <- conv6_2_conv6_2_relu_0_split_3
I0411 21:11:08.810479 21842 net.cpp:434] conv6_2_mbox_priorbox <- data_data_0_split_3
I0411 21:11:08.810487 21842 net.cpp:408] conv6_2_mbox_priorbox -> conv6_2_mbox_priorbox
I0411 21:11:08.810529 21842 net.cpp:150] Setting up conv6_2_mbox_priorbox
I0411 21:11:08.810539 21842 net.cpp:157] Top shape: 1 2 11520 (23040)
I0411 21:11:08.810542 21842 net.cpp:165] Memory required for data: 414309952
I0411 21:11:08.810546 21842 layer_factory.hpp:77] Creating layer conv7_2_mbox_loc
I0411 21:11:08.810559 21842 net.cpp:100] Creating Layer conv7_2_mbox_loc
I0411 21:11:08.810564 21842 net.cpp:434] conv7_2_mbox_loc <- conv7_2_conv7_2_relu_0_split_1
I0411 21:11:08.810570 21842 net.cpp:408] conv7_2_mbox_loc -> conv7_2_mbox_loc
I0411 21:11:08.822911 21842 net.cpp:150] Setting up conv7_2_mbox_loc
I0411 21:11:08.822928 21842 net.cpp:157] Top shape: 1 240 6 6 (8640)
I0411 21:11:08.822933 21842 net.cpp:165] Memory required for data: 414344512
I0411 21:11:08.822940 21842 layer_factory.hpp:77] Creating layer conv7_2_mbox_loc_perm
I0411 21:11:08.822952 21842 net.cpp:100] Creating Layer conv7_2_mbox_loc_perm
I0411 21:11:08.822958 21842 net.cpp:434] conv7_2_mbox_loc_perm <- conv7_2_mbox_loc
I0411 21:11:08.822965 21842 net.cpp:408] conv7_2_mbox_loc_perm -> conv7_2_mbox_loc_perm
I0411 21:11:08.823139 21842 net.cpp:150] Setting up conv7_2_mbox_loc_perm
I0411 21:11:08.823149 21842 net.cpp:157] Top shape: 1 6 6 240 (8640)
I0411 21:11:08.823153 21842 net.cpp:165] Memory required for data: 414379072
I0411 21:11:08.823158 21842 layer_factory.hpp:77] Creating layer conv7_2_mbox_loc_flat
I0411 21:11:08.823163 21842 net.cpp:100] Creating Layer conv7_2_mbox_loc_flat
I0411 21:11:08.823168 21842 net.cpp:434] conv7_2_mbox_loc_flat <- conv7_2_mbox_loc_perm
I0411 21:11:08.823175 21842 net.cpp:408] conv7_2_mbox_loc_flat -> conv7_2_mbox_loc_flat
I0411 21:11:08.823216 21842 net.cpp:150] Setting up conv7_2_mbox_loc_flat
I0411 21:11:08.823225 21842 net.cpp:157] Top shape: 1 8640 (8640)
I0411 21:11:08.823230 21842 net.cpp:165] Memory required for data: 414413632
I0411 21:11:08.823232 21842 layer_factory.hpp:77] Creating layer conv7_2_mbox_conf
I0411 21:11:08.823243 21842 net.cpp:100] Creating Layer conv7_2_mbox_conf
I0411 21:11:08.823247 21842 net.cpp:434] conv7_2_mbox_conf <- conv7_2_conv7_2_relu_0_split_2
I0411 21:11:08.823256 21842 net.cpp:408] conv7_2_mbox_conf -> conv7_2_mbox_conf
I0411 21:11:08.827044 21842 net.cpp:150] Setting up conv7_2_mbox_conf
I0411 21:11:08.827062 21842 net.cpp:157] Top shape: 1 40 6 6 (1440)
I0411 21:11:08.827066 21842 net.cpp:165] Memory required for data: 414419392
I0411 21:11:08.827075 21842 layer_factory.hpp:77] Creating layer conv7_2_mbox_conf_perm
I0411 21:11:08.827082 21842 net.cpp:100] Creating Layer conv7_2_mbox_conf_perm
I0411 21:11:08.827087 21842 net.cpp:434] conv7_2_mbox_conf_perm <- conv7_2_mbox_conf
I0411 21:11:08.827096 21842 net.cpp:408] conv7_2_mbox_conf_perm -> conv7_2_mbox_conf_perm
I0411 21:11:08.827275 21842 net.cpp:150] Setting up conv7_2_mbox_conf_perm
I0411 21:11:08.827286 21842 net.cpp:157] Top shape: 1 6 6 40 (1440)
I0411 21:11:08.827289 21842 net.cpp:165] Memory required for data: 414425152
I0411 21:11:08.827293 21842 layer_factory.hpp:77] Creating layer conv7_2_mbox_conf_flat
I0411 21:11:08.827299 21842 net.cpp:100] Creating Layer conv7_2_mbox_conf_flat
I0411 21:11:08.827319 21842 net.cpp:434] conv7_2_mbox_conf_flat <- conv7_2_mbox_conf_perm
I0411 21:11:08.827328 21842 net.cpp:408] conv7_2_mbox_conf_flat -> conv7_2_mbox_conf_flat
I0411 21:11:08.827369 21842 net.cpp:150] Setting up conv7_2_mbox_conf_flat
I0411 21:11:08.827379 21842 net.cpp:157] Top shape: 1 1440 (1440)
I0411 21:11:08.827383 21842 net.cpp:165] Memory required for data: 414430912
I0411 21:11:08.827386 21842 layer_factory.hpp:77] Creating layer conv7_2_mbox_priorbox
I0411 21:11:08.827395 21842 net.cpp:100] Creating Layer conv7_2_mbox_priorbox
I0411 21:11:08.827400 21842 net.cpp:434] conv7_2_mbox_priorbox <- conv7_2_conv7_2_relu_0_split_3
I0411 21:11:08.827406 21842 net.cpp:434] conv7_2_mbox_priorbox <- data_data_0_split_4
I0411 21:11:08.827414 21842 net.cpp:408] conv7_2_mbox_priorbox -> conv7_2_mbox_priorbox
I0411 21:11:08.827456 21842 net.cpp:150] Setting up conv7_2_mbox_priorbox
I0411 21:11:08.827466 21842 net.cpp:157] Top shape: 1 2 2880 (5760)
I0411 21:11:08.827469 21842 net.cpp:165] Memory required for data: 414453952
I0411 21:11:08.827472 21842 layer_factory.hpp:77] Creating layer conv8_2_mbox_loc
I0411 21:11:08.827486 21842 net.cpp:100] Creating Layer conv8_2_mbox_loc
I0411 21:11:08.827489 21842 net.cpp:434] conv8_2_mbox_loc <- conv8_2_conv8_2_relu_0_split_1
I0411 21:11:08.827497 21842 net.cpp:408] conv8_2_mbox_loc -> conv8_2_mbox_loc
I0411 21:11:08.839990 21842 net.cpp:150] Setting up conv8_2_mbox_loc
I0411 21:11:08.840008 21842 net.cpp:157] Top shape: 1 240 4 4 (3840)
I0411 21:11:08.840013 21842 net.cpp:165] Memory required for data: 414469312
I0411 21:11:08.840036 21842 layer_factory.hpp:77] Creating layer conv8_2_mbox_loc_perm
I0411 21:11:08.840045 21842 net.cpp:100] Creating Layer conv8_2_mbox_loc_perm
I0411 21:11:08.840050 21842 net.cpp:434] conv8_2_mbox_loc_perm <- conv8_2_mbox_loc
I0411 21:11:08.840059 21842 net.cpp:408] conv8_2_mbox_loc_perm -> conv8_2_mbox_loc_perm
I0411 21:11:08.840239 21842 net.cpp:150] Setting up conv8_2_mbox_loc_perm
I0411 21:11:08.840250 21842 net.cpp:157] Top shape: 1 4 4 240 (3840)
I0411 21:11:08.840253 21842 net.cpp:165] Memory required for data: 414484672
I0411 21:11:08.840257 21842 layer_factory.hpp:77] Creating layer conv8_2_mbox_loc_flat
I0411 21:11:08.840265 21842 net.cpp:100] Creating Layer conv8_2_mbox_loc_flat
I0411 21:11:08.840270 21842 net.cpp:434] conv8_2_mbox_loc_flat <- conv8_2_mbox_loc_perm
I0411 21:11:08.840276 21842 net.cpp:408] conv8_2_mbox_loc_flat -> conv8_2_mbox_loc_flat
I0411 21:11:08.840317 21842 net.cpp:150] Setting up conv8_2_mbox_loc_flat
I0411 21:11:08.840327 21842 net.cpp:157] Top shape: 1 3840 (3840)
I0411 21:11:08.840330 21842 net.cpp:165] Memory required for data: 414500032
I0411 21:11:08.840333 21842 layer_factory.hpp:77] Creating layer conv8_2_mbox_conf
I0411 21:11:08.840344 21842 net.cpp:100] Creating Layer conv8_2_mbox_conf
I0411 21:11:08.840349 21842 net.cpp:434] conv8_2_mbox_conf <- conv8_2_conv8_2_relu_0_split_2
I0411 21:11:08.840358 21842 net.cpp:408] conv8_2_mbox_conf -> conv8_2_mbox_conf
I0411 21:11:08.843828 21842 net.cpp:150] Setting up conv8_2_mbox_conf
I0411 21:11:08.843847 21842 net.cpp:157] Top shape: 1 40 4 4 (640)
I0411 21:11:08.843850 21842 net.cpp:165] Memory required for data: 414502592
I0411 21:11:08.843858 21842 layer_factory.hpp:77] Creating layer conv8_2_mbox_conf_perm
I0411 21:11:08.843865 21842 net.cpp:100] Creating Layer conv8_2_mbox_conf_perm
I0411 21:11:08.843870 21842 net.cpp:434] conv8_2_mbox_conf_perm <- conv8_2_mbox_conf
I0411 21:11:08.843879 21842 net.cpp:408] conv8_2_mbox_conf_perm -> conv8_2_mbox_conf_perm
I0411 21:11:08.844061 21842 net.cpp:150] Setting up conv8_2_mbox_conf_perm
I0411 21:11:08.844071 21842 net.cpp:157] Top shape: 1 4 4 40 (640)
I0411 21:11:08.844075 21842 net.cpp:165] Memory required for data: 414505152
I0411 21:11:08.844079 21842 layer_factory.hpp:77] Creating layer conv8_2_mbox_conf_flat
I0411 21:11:08.844086 21842 net.cpp:100] Creating Layer conv8_2_mbox_conf_flat
I0411 21:11:08.844091 21842 net.cpp:434] conv8_2_mbox_conf_flat <- conv8_2_mbox_conf_perm
I0411 21:11:08.844110 21842 net.cpp:408] conv8_2_mbox_conf_flat -> conv8_2_mbox_conf_flat
I0411 21:11:08.844156 21842 net.cpp:150] Setting up conv8_2_mbox_conf_flat
I0411 21:11:08.844166 21842 net.cpp:157] Top shape: 1 640 (640)
I0411 21:11:08.844168 21842 net.cpp:165] Memory required for data: 414507712
I0411 21:11:08.844172 21842 layer_factory.hpp:77] Creating layer conv8_2_mbox_priorbox
I0411 21:11:08.844182 21842 net.cpp:100] Creating Layer conv8_2_mbox_priorbox
I0411 21:11:08.844187 21842 net.cpp:434] conv8_2_mbox_priorbox <- conv8_2_conv8_2_relu_0_split_3
I0411 21:11:08.844192 21842 net.cpp:434] conv8_2_mbox_priorbox <- data_data_0_split_5
I0411 21:11:08.844198 21842 net.cpp:408] conv8_2_mbox_priorbox -> conv8_2_mbox_priorbox
I0411 21:11:08.844243 21842 net.cpp:150] Setting up conv8_2_mbox_priorbox
I0411 21:11:08.844251 21842 net.cpp:157] Top shape: 1 2 1280 (2560)
I0411 21:11:08.844255 21842 net.cpp:165] Memory required for data: 414517952
I0411 21:11:08.844259 21842 layer_factory.hpp:77] Creating layer conv9_2_mbox_loc
I0411 21:11:08.844269 21842 net.cpp:100] Creating Layer conv9_2_mbox_loc
I0411 21:11:08.844274 21842 net.cpp:434] conv9_2_mbox_loc <- conv9_2_conv9_2_relu_0_split_0
I0411 21:11:08.844283 21842 net.cpp:408] conv9_2_mbox_loc -> conv9_2_mbox_loc
I0411 21:11:08.857985 21842 net.cpp:150] Setting up conv9_2_mbox_loc
I0411 21:11:08.858002 21842 net.cpp:157] Top shape: 1 240 2 2 (960)
I0411 21:11:08.858006 21842 net.cpp:165] Memory required for data: 414521792
I0411 21:11:08.858014 21842 layer_factory.hpp:77] Creating layer conv9_2_mbox_loc_perm
I0411 21:11:08.858022 21842 net.cpp:100] Creating Layer conv9_2_mbox_loc_perm
I0411 21:11:08.858027 21842 net.cpp:434] conv9_2_mbox_loc_perm <- conv9_2_mbox_loc
I0411 21:11:08.858036 21842 net.cpp:408] conv9_2_mbox_loc_perm -> conv9_2_mbox_loc_perm
I0411 21:11:08.858229 21842 net.cpp:150] Setting up conv9_2_mbox_loc_perm
I0411 21:11:08.858240 21842 net.cpp:157] Top shape: 1 2 2 240 (960)
I0411 21:11:08.858244 21842 net.cpp:165] Memory required for data: 414525632
I0411 21:11:08.858248 21842 layer_factory.hpp:77] Creating layer conv9_2_mbox_loc_flat
I0411 21:11:08.858255 21842 net.cpp:100] Creating Layer conv9_2_mbox_loc_flat
I0411 21:11:08.858260 21842 net.cpp:434] conv9_2_mbox_loc_flat <- conv9_2_mbox_loc_perm
I0411 21:11:08.858266 21842 net.cpp:408] conv9_2_mbox_loc_flat -> conv9_2_mbox_loc_flat
I0411 21:11:08.858309 21842 net.cpp:150] Setting up conv9_2_mbox_loc_flat
I0411 21:11:08.858319 21842 net.cpp:157] Top shape: 1 960 (960)
I0411 21:11:08.858322 21842 net.cpp:165] Memory required for data: 414529472
I0411 21:11:08.858326 21842 layer_factory.hpp:77] Creating layer conv9_2_mbox_conf
I0411 21:11:08.858336 21842 net.cpp:100] Creating Layer conv9_2_mbox_conf
I0411 21:11:08.858341 21842 net.cpp:434] conv9_2_mbox_conf <- conv9_2_conv9_2_relu_0_split_1
I0411 21:11:08.858350 21842 net.cpp:408] conv9_2_mbox_conf -> conv9_2_mbox_conf
I0411 21:11:08.863677 21842 net.cpp:150] Setting up conv9_2_mbox_conf
I0411 21:11:08.863693 21842 net.cpp:157] Top shape: 1 40 2 2 (160)
I0411 21:11:08.863698 21842 net.cpp:165] Memory required for data: 414530112
I0411 21:11:08.863705 21842 layer_factory.hpp:77] Creating layer conv9_2_mbox_conf_perm
I0411 21:11:08.863714 21842 net.cpp:100] Creating Layer conv9_2_mbox_conf_perm
I0411 21:11:08.863720 21842 net.cpp:434] conv9_2_mbox_conf_perm <- conv9_2_mbox_conf
I0411 21:11:08.863729 21842 net.cpp:408] conv9_2_mbox_conf_perm -> conv9_2_mbox_conf_perm
I0411 21:11:08.863910 21842 net.cpp:150] Setting up conv9_2_mbox_conf_perm
I0411 21:11:08.863921 21842 net.cpp:157] Top shape: 1 2 2 40 (160)
I0411 21:11:08.863925 21842 net.cpp:165] Memory required for data: 414530752
I0411 21:11:08.863929 21842 layer_factory.hpp:77] Creating layer conv9_2_mbox_conf_flat
I0411 21:11:08.863936 21842 net.cpp:100] Creating Layer conv9_2_mbox_conf_flat
I0411 21:11:08.863941 21842 net.cpp:434] conv9_2_mbox_conf_flat <- conv9_2_mbox_conf_perm
I0411 21:11:08.863947 21842 net.cpp:408] conv9_2_mbox_conf_flat -> conv9_2_mbox_conf_flat
I0411 21:11:08.864006 21842 net.cpp:150] Setting up conv9_2_mbox_conf_flat
I0411 21:11:08.864017 21842 net.cpp:157] Top shape: 1 160 (160)
I0411 21:11:08.864019 21842 net.cpp:165] Memory required for data: 414531392
I0411 21:11:08.864023 21842 layer_factory.hpp:77] Creating layer conv9_2_mbox_priorbox
I0411 21:11:08.864032 21842 net.cpp:100] Creating Layer conv9_2_mbox_priorbox
I0411 21:11:08.864037 21842 net.cpp:434] conv9_2_mbox_priorbox <- conv9_2_conv9_2_relu_0_split_2
I0411 21:11:08.864042 21842 net.cpp:434] conv9_2_mbox_priorbox <- data_data_0_split_6
I0411 21:11:08.864048 21842 net.cpp:408] conv9_2_mbox_priorbox -> conv9_2_mbox_priorbox
I0411 21:11:08.864094 21842 net.cpp:150] Setting up conv9_2_mbox_priorbox
I0411 21:11:08.864102 21842 net.cpp:157] Top shape: 1 2 320 (640)
I0411 21:11:08.864106 21842 net.cpp:165] Memory required for data: 414533952
I0411 21:11:08.864110 21842 layer_factory.hpp:77] Creating layer mbox_loc
I0411 21:11:08.864117 21842 net.cpp:100] Creating Layer mbox_loc
I0411 21:11:08.864123 21842 net.cpp:434] mbox_loc <- conv4_3_norm_mbox_loc_flat
I0411 21:11:08.864130 21842 net.cpp:434] mbox_loc <- fc7_mbox_loc_flat
I0411 21:11:08.864138 21842 net.cpp:434] mbox_loc <- conv6_2_mbox_loc_flat
I0411 21:11:08.864143 21842 net.cpp:434] mbox_loc <- conv7_2_mbox_loc_flat
I0411 21:11:08.864148 21842 net.cpp:434] mbox_loc <- conv8_2_mbox_loc_flat
I0411 21:11:08.864152 21842 net.cpp:434] mbox_loc <- conv9_2_mbox_loc_flat
I0411 21:11:08.864158 21842 net.cpp:408] mbox_loc -> mbox_loc
I0411 21:11:08.864200 21842 net.cpp:150] Setting up mbox_loc
I0411 21:11:08.864213 21842 net.cpp:157] Top shape: 1 739200 (739200)
I0411 21:11:08.864217 21842 net.cpp:165] Memory required for data: 417490752
I0411 21:11:08.864220 21842 layer_factory.hpp:77] Creating layer mbox_conf
I0411 21:11:08.864228 21842 net.cpp:100] Creating Layer mbox_conf
I0411 21:11:08.864233 21842 net.cpp:434] mbox_conf <- conv4_3_norm_mbox_conf_flat
I0411 21:11:08.864239 21842 net.cpp:434] mbox_conf <- fc7_mbox_conf_flat
I0411 21:11:08.864244 21842 net.cpp:434] mbox_conf <- conv6_2_mbox_conf_flat
I0411 21:11:08.864249 21842 net.cpp:434] mbox_conf <- conv7_2_mbox_conf_flat
I0411 21:11:08.864253 21842 net.cpp:434] mbox_conf <- conv8_2_mbox_conf_flat
I0411 21:11:08.864259 21842 net.cpp:434] mbox_conf <- conv9_2_mbox_conf_flat
I0411 21:11:08.864264 21842 net.cpp:408] mbox_conf -> mbox_conf
I0411 21:11:08.864302 21842 net.cpp:150] Setting up mbox_conf
I0411 21:11:08.864315 21842 net.cpp:157] Top shape: 1 123200 (123200)
I0411 21:11:08.864317 21842 net.cpp:165] Memory required for data: 417983552
I0411 21:11:08.864321 21842 layer_factory.hpp:77] Creating layer mbox_priorbox
I0411 21:11:08.864329 21842 net.cpp:100] Creating Layer mbox_priorbox
I0411 21:11:08.864333 21842 net.cpp:434] mbox_priorbox <- conv4_3_norm_mbox_priorbox
I0411 21:11:08.864339 21842 net.cpp:434] mbox_priorbox <- fc7_mbox_priorbox
I0411 21:11:08.864343 21842 net.cpp:434] mbox_priorbox <- conv6_2_mbox_priorbox
I0411 21:11:08.864348 21842 net.cpp:434] mbox_priorbox <- conv7_2_mbox_priorbox
I0411 21:11:08.864352 21842 net.cpp:434] mbox_priorbox <- conv8_2_mbox_priorbox
I0411 21:11:08.864356 21842 net.cpp:434] mbox_priorbox <- conv9_2_mbox_priorbox
I0411 21:11:08.864362 21842 net.cpp:408] mbox_priorbox -> mbox_priorbox
I0411 21:11:08.864400 21842 net.cpp:150] Setting up mbox_priorbox
I0411 21:11:08.864414 21842 net.cpp:157] Top shape: 1 2 246400 (492800)
I0411 21:11:08.864418 21842 net.cpp:165] Memory required for data: 419954752
I0411 21:11:08.864423 21842 layer_factory.hpp:77] Creating layer mbox_conf_reshape
I0411 21:11:08.864437 21842 net.cpp:100] Creating Layer mbox_conf_reshape
I0411 21:11:08.864441 21842 net.cpp:434] mbox_conf_reshape <- mbox_conf
I0411 21:11:08.864449 21842 net.cpp:408] mbox_conf_reshape -> mbox_conf_reshape
I0411 21:11:08.864503 21842 net.cpp:150] Setting up mbox_conf_reshape
I0411 21:11:08.864512 21842 net.cpp:157] Top shape: 1 61600 2 (123200)
I0411 21:11:08.864516 21842 net.cpp:165] Memory required for data: 420447552
I0411 21:11:08.864519 21842 layer_factory.hpp:77] Creating layer mbox_conf_softmax
I0411 21:11:08.864537 21842 net.cpp:100] Creating Layer mbox_conf_softmax
I0411 21:11:08.864542 21842 net.cpp:434] mbox_conf_softmax <- mbox_conf_reshape
I0411 21:11:08.864548 21842 net.cpp:408] mbox_conf_softmax -> mbox_conf_softmax
I0411 21:11:08.864887 21842 net.cpp:150] Setting up mbox_conf_softmax
I0411 21:11:08.864902 21842 net.cpp:157] Top shape: 1 61600 2 (123200)
I0411 21:11:08.864907 21842 net.cpp:165] Memory required for data: 420940352
I0411 21:11:08.864909 21842 layer_factory.hpp:77] Creating layer mbox_conf_flatten
I0411 21:11:08.864915 21842 net.cpp:100] Creating Layer mbox_conf_flatten
I0411 21:11:08.864920 21842 net.cpp:434] mbox_conf_flatten <- mbox_conf_softmax
I0411 21:11:08.864926 21842 net.cpp:408] mbox_conf_flatten -> mbox_conf_flatten
I0411 21:11:08.864970 21842 net.cpp:150] Setting up mbox_conf_flatten
I0411 21:11:08.864977 21842 net.cpp:157] Top shape: 1 123200 (123200)
I0411 21:11:08.864980 21842 net.cpp:165] Memory required for data: 421433152
I0411 21:11:08.864984 21842 layer_factory.hpp:77] Creating layer detection_out
I0411 21:11:08.865000 21842 net.cpp:100] Creating Layer detection_out
I0411 21:11:08.865005 21842 net.cpp:434] detection_out <- mbox_loc
I0411 21:11:08.865008 21842 net.cpp:434] detection_out <- mbox_conf_flatten
I0411 21:11:08.865013 21842 net.cpp:434] detection_out <- mbox_priorbox
I0411 21:11:08.865020 21842 net.cpp:408] detection_out -> detection_out
I0411 21:11:08.865514 21842 net.cpp:150] Setting up detection_out
I0411 21:11:08.865530 21842 net.cpp:157] Top shape: 1 1 1 15 (15)
I0411 21:11:08.865535 21842 net.cpp:165] Memory required for data: 421433212
I0411 21:11:08.865538 21842 layer_factory.hpp:77] Creating layer detection_eval
I0411 21:11:08.865547 21842 net.cpp:100] Creating Layer detection_eval
I0411 21:11:08.865552 21842 net.cpp:434] detection_eval <- detection_out
I0411 21:11:08.865559 21842 net.cpp:434] detection_eval <- label
I0411 21:11:08.865566 21842 net.cpp:408] detection_eval -> detection_eval
I0411 21:11:08.865643 21842 net.cpp:150] Setting up detection_eval
I0411 21:11:08.865653 21842 net.cpp:157] Top shape: 1 1 2 5 (10)
I0411 21:11:08.865656 21842 net.cpp:165] Memory required for data: 421433252
I0411 21:11:08.865659 21842 net.cpp:228] detection_eval does not need backward computation.
I0411 21:11:08.865664 21842 net.cpp:228] detection_out does not need backward computation.
I0411 21:11:08.865669 21842 net.cpp:228] mbox_conf_flatten does not need backward computation.
I0411 21:11:08.865672 21842 net.cpp:228] mbox_conf_softmax does not need backward computation.
…
