…
      sampler {
        min_scale: 0.3
        max_scale: 1
        min_aspect_ratio: 0.5
        max_aspect_ratio: 2
      }
      sample_constraint {
        min_object_coverage: 0.9
      }
      max_sample: 1
      max_trials: 50
    }
    batch_sampler {
      sampler {
        min_scale: 0.3
        max_scale: 1
        min_aspect_ratio: 0.5
        max_aspect_ratio: 2
      }
      sample_constraint {
        max_jaccard_overlap: 1
      }
      max_sample: 1
      max_trials: 50
    }
    label_map_file: "data/text/labelmap_voc.prototxt"
  }
}
layer {
  name: "conv1_1"
  type: "Convolution"
  bottom: "data"
  top: "conv1_1"
  param {
    lr_mult: 0
    decay_mult: 0
  }
  param {
    lr_mult: 0
    decay_mult: 0
  }
  convolution_param {
    num_output: 64
    pad: 1
    kernel_size: 3
    weight_filler {
      type: "xavier"
    }
    bias_filler {
      type: "constant"
      value: 0
    }
  }
}
layer {
  name: "relu1_1"
  type: "ReLU"
  bottom: "conv1_1"
  top: "conv1_1"
}
layer {
  name: "conv1_2"
  type: "Convolution"
  bottom: "conv1_1"
  top: "conv1_2"
  param {
    lr_mult: 0
    decay_mult: 0
  }
  param {
    lr_mult: 0
    decay_mult: 0
  }
  convolution_param {
    num_output: 64
    pad: 1
    kernel_size: 3
    weight_filler {
      type: "xavier"
    }
    bias_filler {
      type: "constant"
      value: 0
    }
  }
}
layer {
  name: "relu1_2"
  type: "ReLU"
  bottom: "conv1_2"
  top: "conv1_2"
}
layer {
  name: "pool1"
  type: "Pooling"
  bottom: "conv1_2"
  top: "pool1"
  pooling_param {
    pool: MAX
    kernel_size: 2
    stride: 2
  }
}
layer {
  name: "conv2_1"
  type: "Convolution"
  bottom: "pool1"
  top: "conv2_1"
  param {
    lr_mult: 0
    decay_mult: 0
  }
  param {
    lr_mult: 0
    decay_mult: 0
  }
  convolution_param {
    num_output: 128
    pad: 1
    kernel_size: 3
    weight_filler {
      type: "xavier"
    }
    bias_filler {
      type: "constant"
      value: 0
    }
  }
}
layer {
  name: "relu2_1"
  type: "ReLU"
  bottom: "conv2_1"
  top: "conv2_1"
}
layer {
  name: "conv2_2"
  type: "Convolution"
  bottom: "conv2_1"
  top: "conv2_2"
  param {
    lr_mult: 0
    decay_mult: 0
  }
  param {
    lr_mult: 0
    decay_mult: 0
  }
  convolution_param {
    num_output: 128
    pad: 1
    kernel_size: 3
    weight_filler {
      type: "xavier"
    }
    bias_filler {
      type: "constant"
      value: 0
    }
  }
}
layer {
  name: "relu2_2"
  type: "ReLU"
  bottom: "conv2_2"
  top: "conv2_2"
}
layer {
  name: "pool2"
  type: "Pooling"
  bottom: "conv2_2"
  top: "pool2"
  pooling_param {
    pool: MAX
    kernel_size: 2
    stride: 2
  }
}
layer {
  name: "conv3_1"
  type: "Convolution"
  bottom: "pool2"
  top: "conv3_1"
  param {
    lr_mult: 1
    decay_mult: 1
  }
  param {
    lr_mult: 2
    decay_mult: 0
  }
  convolution_param {
    num_output: 256
    pad: 1
    kernel_size: 3
    weight_filler {
      type: "xavier"
    }
    bias_filler {
      type: "constant"
      value: 0
    }
  }
}
layer {
  name: "relu3_1"
  type: "ReLU"
  bottom: "conv3_1"
  top: "conv3_1"
}
layer {
  name: "conv3_2"
  type: "Convolution"
  bottom: "conv3_1"
  top: "conv3_2"
  param {
    lr_mult: 1
    decay_mult: 1
  }
  param {
    lr_mult: 2
    decay_mult: 0
  }
  convolution_param {
    num_output: 256
    pad: 1
    kernel_size: 3
    weight_filler {
      type: "xavier"
    }
    bias_filler {
      type: "constant"
      value: 0
    }
  }
}
layer {
  name: "relu3_2"
  type: "ReLU"
  bottom: "conv3_2"
  top: "conv3_2"
}
layer {
  name: "conv3_3"
  type: "Convolution"
  bottom: "conv3_2"
  top: "conv3_3"
  param {
    lr_mult: 1
    decay_mult: 1
  }
  param {
    lr_mult: 2
    decay_mult: 0
  }
  convolution_param {
    num_output: 256
    pad: 1
    kernel_size: 3
    weight_filler {
      type: "xavier"
    }
    bias_filler {
      type: "constant"
      value: 0
    }
  }
}
layer {
  name: "relu3_3"
  type: "ReLU"
  bottom: "conv3_3"
  top: "conv3_3"
}
layer {
  name: "pool3"
  type: "Pooling"
  bottom: "conv3_3"
  top: "pool3"
  pooling_param {
    pool: MAX
    kernel_size: 2
    stride: 2
  }
}
layer {
  name: "conv4_1"
  type: "Convolution"
  bottom: "pool3"
  top: "conv4_1"
  param {
    lr_mult: 1
    decay_mult: 1
  }
  param {
    lr_mult: 2
    decay_mult: 0
  }
  convolution_param {
    num_output: 512
    pad: 1
    kernel_size: 3
    weight_filler {
      type: "xavier"
    }
    bias_filler {
      type: "constant"
      value: 0
    }
  }
}
layer {
  name: "relu4_1"
  type: "ReLU"
  bottom: "conv4_1"
  top: "conv4_1"
}
layer {
  name: "conv4_2"
  type: "Convolution"
  bottom: "conv4_1"
  top: "conv4_2"
  param {
    lr_mult: 1
    decay_mult: 1
  }
  param {
    lr_mult: 2
    decay_mult: 0
  }
  convolution_param {
    num_output: 512
    pad: 1
    kernel_size: 3
    weight_filler {
      type: "xavier"
    }
    bias_filler {
      type: "constant"
      value: 0
    }
  }
}
layer {
  name: "relu4_2"
  type: "ReLU"
  bottom: "conv4_2"
  top: "conv4_2"
}
layer {
  name: "conv4_3"
  type: "Convolution"
  bottom: "conv4_2"
  top: "conv4_3"
  param {
    lr_mult: 1
    decay_mult: 1
  }
  param {
    lr_mult: 2
    decay_mult: 0
  }
  convolution_param {
    num_output: 512
    pad: 1
    kernel_size: 3
    weight_filler {
      type: "xavier"
    }
    bias_filler {
      type: "constant"
      value: 0
    }
  }
}
layer {
  name: "relu4_3"
  type: "ReLU"
  bottom: "conv4_3"
  top: "conv4_3"
}
layer {
  name: "pool4"
  type: "Pooling"
  bottom: "conv4_3"
  top: "pool4"
  pooling_param {
    pool: MAX
    kernel_size: 2
    stride: 2
  }
}
layer {
  name: "conv5_1"
  type: "Convolution"
  bottom: "pool4"
  top: "conv5_1"
  param {
    lr_mult: 1
    decay_mult: 1
  }
  param {
    lr_mult: 2
    decay_mult: 0
  }
  convolution_param {
    num_output: 512
    pad: 1
    kernel_size: 3
    weight_filler {
      type: "xavier"
    }
    bias_filler {
      type: "constant"
      value: 0
    }
    dilation: 1
  }
}
layer {
  name: "relu5_1"
  type: "ReLU"
  bottom: "conv5_1"
  top: "conv5_1"
}
layer {
  name: "conv5_2"
  type: "Convolution"
  bottom: "conv5_1"
  top: "conv5_2"
  param {
    lr_mult: 1
    decay_mult: 1
  }
  param {
    lr_mult: 2
    decay_mult: 0
  }
  convolution_param {
    num_output: 512
    pad: 1
    kernel_size: 3
    weight_filler {
      type: "xavier"
    }
    bias_filler {
      type: "constant"
      value: 0
    }
    dilation: 1
  }
}
layer {
  name: "relu5_2"
  type: "ReLU"
  bottom: "conv5_2"
  top: "conv5_2"
}
layer {
  name: "conv5_3"
  type: "Convolution"
  bottom: "conv5_2"
  top: "conv5_3"
  param {
    lr_mult: 1
    decay_mult: 1
  }
  param {
    lr_mult: 2
    decay_mult: 0
  }
  convolution_param {
    num_output: 512
    pad: 1
    kernel_size: 3
    weight_filler {
      type: "xavier"
    }
    bias_filler {
      type: "constant"
      value: 0
    }
    dilation: 1
  }
}
layer {
  name: "relu5_3"
  type: "ReLU"
  bottom: "conv5_3"
  top: "conv5_3"
}
layer {
  name: "pool5"
  type: "Pooling"
  bottom: "conv5_3"
  top: "pool5"
  pooling_param {
    pool: MAX
    kernel_size: 3
    stride: 1
    pad: 1
  }
}
layer {
  name: "fc6"
  type: "Convolution"
  bottom: "pool5"
  top: "fc6"
  param {
    lr_mult: 1
    decay_mult: 1
  }
  param {
    lr_mult: 2
    decay_mult: 0
  }
  convolution_param {
    num_output: 1024
    pad: 6
    kernel_size: 3
    weight_filler {
      type: "xavier"
    }
    bias_filler {
      type: "constant"
      value: 0
    }
    dilation: 6
  }
}
layer {
  name: "relu6"
  type: "ReLU"
  bottom: "fc6"
  top: "fc6"
}
layer {
  name: "fc7"
  type: "Convolution"
  bottom: "fc6"
  top: "fc7"
  param {
    lr_mult: 1
    decay_mult: 1
  }
  param {
    lr_mult: 2
    decay_mult: 0
  }
  convolution_param {
    num_output: 1024
    kernel_size: 1
    weight_filler {
      type: "xavier"
    }
    bias_filler {
      type: "constant"
      value: 0
    }
  }
}
layer {
  name: "relu7"
  type: "ReLU"
  bottom: "fc7"
  top: "fc7"
}
layer {
  name: "conv6_1"
  type: "Convolution"
  bottom: "fc7"
  top: "conv6_1"
  param {
    lr_mult: 1
    decay_mult: 1
  }
  param {
    lr_mult: 2
    decay_mult: 0
  }
  convolution_param {
    num_output: 256
    pad: 0
    kernel_size: 1
    stride: 1
    weight_filler {
      type: "xavier"
    }
    bias_filler {
      type: "constant"
      value: 0
    }
  }
}
layer {
  name: "conv6_1_relu"
  type: "ReLU"
  bottom: "conv6_1"
  top: "conv6_1"
}
layer {
  name: "conv6_2"
  type: "Convolution"
  bottom: "conv6_1"
  top: "conv6_2"
  param {
    lr_mult: 1
    decay_mult: 1
  }
  param {
    lr_mult: 2
    decay_mult: 0
  }
  convolution_param {
    num_output: 512
    pad: 1
    kernel_size: 3
    stride: 2
    weight_filler {
      type: "xavier"
    }
    bias_filler {
      type: "constant"
      value: 0
    }
  }
}
layer {
  name: "conv6_2_relu"
  type: "ReLU"
  bottom: "conv6_2"
  top: "conv6_2"
}
layer {
  name: "conv7_1"
  type: "Convolution"
  bottom: "conv6_2"
  top: "conv7_1"
  param {
    lr_mult: 1
    decay_mult: 1
  }
  param {
    lr_mult: 2
    decay_mult: 0
  }
  convolution_param {
    num_output: 128
    pad: 0
    kernel_size: 1
    stride: 1
    weight_filler {
      type: "xavier"
    }
    bias_filler {
      type: "constant"
      value: 0
    }
  }
}
layer {
  name: "conv7_1_relu"
  type: "ReLU"
  bottom: "conv7_1"
  top: "conv7_1"
}
layer {
  name: "conv7_2"
  type: "Convolution"
  bottom: "conv7_1"
  top: "conv7_2"
  param {
    lr_mult: 1
    decay_mult: 1
  }
  param {
    lr_mult: 2
    decay_mult: 0
  }
  convolution_param {
    num_output: 256
    pad: 1
    kernel_size: 3
    stride: 2
    weight_filler {
      type: "xavier"
    }
    bias_filler {
      type: "constant"
      value: 0
    }
  }
}
layer {
  name: "conv7_2_relu"
  type: "ReLU"
  bottom: "conv7_2"
  top: "conv7_2"
}
layer {
  name: "conv8_1"
  type: "Convolution"
  bottom: "conv7_2"
  top: "conv8_1"
  param {
    lr_mult: 1
    decay_mult: 1
  }
  param {
    lr_mult: 2
    decay_mult: 0
  }
  convolution_param {
    num_output: 128
    pad: 0
    kernel_size: 1
    stride: 1
    weight_filler {
      type: "xavier"
    }
    bias_filler {
      type: "constant"
      value: 0
    }
  }
}
layer {
  name: "conv8_1_relu"
  type: "ReLU"
  bottom: "conv8_1"
  top: "conv8_1"
}
layer {
  name: "conv8_2"
  type: "Convolution"
  bottom: "conv8_1"
  top: "conv8_2"
  param {
    lr_mult: 1
    decay_mult: 1
  }
  param {
    lr_mult: 2
    decay_mult: 0
  }
  convolution_param {
    num_output: 256
    pad: 0
    kernel_size: 3
    stride: 1
    weight_filler {
      type: "xavier"
    }
    bias_filler {
      type: "constant"
      value: 0
    }
  }
}
layer {
  name: "conv8_2_relu"
  type: "ReLU"
  bottom: "conv8_2"
  top: "conv8_2"
}
layer {
  name: "conv9_1"
  type: "Convolution"
  bottom: "conv8_2"
  top: "conv9_1"
  param {
    lr_mult: 1
    decay_mult: 1
  }
  param {
    lr_mult: 2
    decay_mult: 0
  }
  convolution_param {
    num_output: 128
    pad: 0
    kernel_size: 1
    stride: 1
    weight_filler {
      type: "xavier"
    }
    bias_filler {
      type: "constant"
      value: 0
    }
  }
}
layer {
  name: "conv9_1_relu"
  type: "ReLU"
  bottom: "conv9_1"
  top: "conv9_1"
}
layer {
  name: "conv9_2"
  type: "Convolution"
  bottom: "conv9_1"
  top: "conv9_2"
  param {
    lr_mult: 1
    decay_mult: 1
  }
  param {
    lr_mult: 2
    decay_mult: 0
  }
  convolution_param {
    num_output: 256
    pad: 0
    kernel_size: 3
    stride: 1
    weight_filler {
      type: "xavier"
    }
    bias_filler {
      type: "constant"
      value: 0
    }
  }
}
layer {
  name: "conv9_2_relu"
  type: "ReLU"
  bottom: "conv9_2"
  top: "conv9_2"
}
layer {
  name: "conv4_3_norm"
  type: "Normalize"
  bottom: "conv4_3"
  top: "conv4_3_norm"
  norm_param {
    across_spatial: false
    scale_filler {
      type: "constant"
      value: 20
    }
    channel_shared: false
  }
}
layer {
  name: "conv4_3_norm_mbox_loc"
  type: "Convolution"
  bottom: "conv4_3_norm"
  top: "conv4_3_norm_mbox_loc"
  param {
    lr_mult: 1
    decay_mult: 1
  }
  param {
    lr_mult: 2
    decay_mult: 0
  }
  convolution_param {
    num_output: 240
    weight_filler {
      type: "xavier"
    }
    bias_filler {
      type: "constant"
      value: 0
    }
    pad_h: 1
    pad_w: 2
    kernel_h: 3
    kernel_w: 5
    stride_h: 1
    stride_w: 1
  }
}
layer {
  name: "conv4_3_norm_mbox_loc_perm"
  type: "Permute"
  bottom: "conv4_3_norm_mbox_loc"
  top: "conv4_3_norm_mbox_loc_perm"
  permute_param {
    order: 0
    order: 2
    order: 3
    order: 1
  }
}
layer {
  name: "conv4_3_norm_mbox_loc_flat"
  type: "Flatten"
  bottom: "conv4_3_norm_mbox_loc_perm"
  top: "conv4_3_norm_mbox_loc_flat"
  flatten_param {
    axis: 1
  }
}
layer {
  name: "conv4_3_norm_mbox_conf"
  type: "Convolution"
  bottom: "conv4_3_norm"
  top: "conv4_3_norm_mbox_conf"
  param {
    lr_mult: 1
    decay_mult: 1
  }
  param {
    lr_mult: 2
    decay_mult: 0
  }
  convolution_param {
    num_output: 40
    weight_filler {
      type: "xavier"
    }
    bias_filler {
      type: "constant"
      value: 0
    }
    pad_h: 1
    pad_w: 2
    kernel_h: 3
    kernel_w: 5
    stride_h: 1
    stride_w: 1
  }
}
layer {
  name: "conv4_3_norm_mbox_conf_perm"
  type: "Permute"
  bottom: "conv4_3_norm_mbox_conf"
  top: "conv4_3_norm_mbox_conf_perm"
  permute_param {
    order: 0
    order: 2
    order: 3
    order: 1
  }
}
layer {
  name: "conv4_3_norm_mbox_conf_flat"
  type: "Flatten"
  bottom: "conv4_3_norm_mbox_conf_perm"
  top: "conv4_3_norm_mbox_conf_flat"
  flatten_param {
    axis: 1
  }
}
layer {
  name: "conv4_3_norm_mbox_priorbox"
  type: "PriorBox"
  bottom: "conv4_3_norm"
  bottom: "data"
  top: "conv4_3_norm_mbox_priorbox"
  prior_box_param {
    min_size: 30
    max_size: 60
    aspect_ratio: 2
    aspect_ratio: 3
    aspect_ratio: 4
    aspect_ratio: 5
    flip: true
    clip: false
    variance: 0.1
    variance: 0.1
    variance: 0.2
    variance: 0.2
    step: 8
    offset: 0.5
    denser_prior_boxes: true
  }
}
layer {
  name: "fc7_mbox_loc"
  type: "Convolution"
  bottom: "fc7"
  top: "fc7_mbox_loc"
  param {
    lr_mult: 1
    decay_mult: 1
  }
  param {
    lr_mult: 2
    decay_mult: 0
  }
  convolution_param {
    num_output: 240
    weight_filler {
      type: "xavier"
    }
    bias_filler {
      type: "constant"
      value: 0
    }
    pad_h: 1
    pad_w: 2
    kernel_h: 3
    kernel_w: 5
    stride_h: 1
    stride_w: 1
  }
}
layer {
  name: "fc7_mbox_loc_perm"
  type: "Permute"
  bottom: "fc7_mbox_loc"
  top: "fc7_mbox_loc_perm"
  permute_param {
    order: 0
    order: 2
    order: 3
    order: 1
  }
}
layer {
  name: "fc7_mbox_loc_flat"
  type: "Flatten"
  bottom: "fc7_mbox_loc_perm"
  top: "fc7_mbox_loc_flat"
  flatten_param {
    axis: 1
  }
}
layer {
  name: "fc7_mbox_conf"
  type: "Convolution"
  bottom: "fc7"
  top: "fc7_mbox_conf"
  param {
    lr_mult: 1
    decay_mult: 1
  }
  param {
    lr_mult: 2
    decay_mult: 0
  }
  convolution_param {
    num_output: 40
    weight_filler {
      type: "xavier"
    }
    bias_filler {
      type: "constant"
      value: 0
    }
    pad_h: 1
    pad_w: 2
    kernel_h: 3
    kernel_w: 5
    stride_h: 1
    stride_w: 1
  }
}
layer {
  name: "fc7_mbox_conf_perm"
  type: "Permute"
  bottom: "fc7_mbox_conf"
  top: "fc7_mbox_conf_perm"
  permute_param {
    order: 0
    order: 2
    order: 3
    order: 1
  }
}
layer {
  name: "fc7_mbox_conf_flat"
  type: "Flatten"
  bottom: "fc7_mbox_conf_perm"
  top: "fc7_mbox_conf_flat"
  flatten_param {
    axis: 1
  }
}
layer {
  name: "fc7_mbox_priorbox"
  type: "PriorBox"
  bottom: "fc7"
  bottom: "data"
  top: "fc7_mbox_priorbox"
  prior_box_param {
    min_size: 30
    max_size: 90
    aspect_ratio: 2
    aspect_ratio: 3
    aspect_ratio: 4
    aspect_ratio: 5
    flip: true
    clip: false
    variance: 0.1
    variance: 0.1
    variance: 0.2
    variance: 0.2
    step: 16
    offset: 0.5
    denser_prior_boxes: true
  }
}
layer {
  name: "conv6_2_mbox_loc"
  type: "Convolution"
  bottom: "conv6_2"
  top: "conv6_2_mbox_loc"
  param {
    lr_mult: 1
    decay_mult: 1
  }
  param {
    lr_mult: 2
    decay_mult: 0
  }
  convolution_param {
    num_output: 240
    weight_filler {
      type: "xavier"
    }
    bias_filler {
      type: "constant"
      value: 0
    }
    pad_h: 1
    pad_w: 2
    kernel_h: 3
    kernel_w: 5
    stride_h: 1
    stride_w: 1
  }
}
layer {
  name: "conv6_2_mbox_loc_perm"
  type: "Permute"
  bottom: "conv6_2_mbox_loc"
  top: "conv6_2_mbox_loc_perm"
  permute_param {
    order: 0
    order: 2
    order: 3
    order: 1
  }
}
layer {
  name: "conv6_2_mbox_loc_flat"
  type: "Flatten"
  bottom: "conv6_2_mbox_loc_perm"
  top: "conv6_2_mbox_loc_flat"
  flatten_param {
    axis: 1
  }
}
layer {
  name: "conv6_2_mbox_conf"
  type: "Convolution"
  bottom: "conv6_2"
  top: "conv6_2_mbox_conf"
  param {
    lr_mult: 1
    decay_mult: 1
  }
  param {
    lr_mult: 2
    decay_mult: 0
  }
  convolution_param {
    num_output: 40
    weight_filler {
      type: "xavier"
    }
    bias_filler {
      type: "constant"
      value: 0
    }
    pad_h: 1
    pad_w: 2
    kernel_h: 3
    kernel_w: 5
    stride_h: 1
    stride_w: 1
  }
}
layer {
  name: "conv6_2_mbox_conf_perm"
  type: "Permute"
  bottom: "conv6_2_mbox_conf"
  top: "conv6_2_mbox_conf_perm"
  permute_param {
    order: 0
    order: 2
    order: 3
    order: 1
  }
}
layer {
  name: "conv6_2_mbox_conf_flat"
  type: "Flatten"
  bottom: "conv6_2_mbox_conf_perm"
  top: "conv6_2_mbox_conf_flat"
  flatten_param {
    axis: 1
  }
}
layer {
  name: "conv6_2_mbox_priorbox"
  type: "PriorBox"
  bottom: "conv6_2"
  bottom: "data"
  top: "conv6_2_mbox_priorbox"
  prior_box_param {
    min_size: 90
    max_size: 150
    aspect_ratio: 2
    aspect_ratio: 3
    aspect_ratio: 4
    aspect_ratio: 5
    flip: true
    clip: false
    variance: 0.1
    variance: 0.1
    variance: 0.2
    variance: 0.2
    step: 32
    offset: 0.5
    denser_prior_boxes: true
  }
}
layer {
  name: "conv7_2_mbox_loc"
  type: "Convolution"
  bottom: "conv7_2"
  top: "conv7_2_mbox_loc"
  param {
    lr_mult: 1
    decay_mult: 1
  }
  param {
    lr_mult: 2
    decay_mult: 0
  }
  convolution_param {
    num_output: 240
    weight_filler {
      type: "xavier"
    }
    bias_filler {
      type: "constant"
      value: 0
    }
    pad_h: 1
    pad_w: 2
    kernel_h: 3
    kernel_w: 5
    stride_h: 1
    stride_w: 1
  }
}
layer {
  name: "conv7_2_mbox_loc_perm"
  type: "Permute"
  bottom: "conv7_2_mbox_loc"
  top: "conv7_2_mbox_loc_perm"
  permute_param {
    order: 0
    order: 2
    order: 3
    order: 1
  }
}
layer {
  name: "conv7_2_mbox_loc_flat"
  type: "Flatten"
  bottom: "conv7_2_mbox_loc_perm"
  top: "conv7_2_mbox_loc_flat"
  flatten_param {
    axis: 1
  }
}
layer {
  name: "conv7_2_mbox_conf"
  type: "Convolution"
  bottom: "conv7_2"
  top: "conv7_2_mbox_conf"
  param {
    lr_mult: 1
    decay_mult: 1
  }
  param {
    lr_mult: 2
    decay_mult: 0
  }
  convolution_param {
    num_output: 40
    weight_filler {
      type: "xavier"
    }
    bias_filler {
      type: "constant"
      value: 0
    }
    pad_h: 1
    pad_w: 2
    kernel_h: 3
    kernel_w: 5
    stride_h: 1
    stride_w: 1
  }
}
layer {
  name: "conv7_2_mbox_conf_perm"
  type: "Permute"
  bottom: "conv7_2_mbox_conf"
  top: "conv7_2_mbox_conf_perm"
  permute_param {
    order: 0
    order: 2
    order: 3
    order: 1
  }
}
layer {
  name: "conv7_2_mbox_conf_flat"
  type: "Flatten"
  bottom: "conv7_2_mbox_conf_perm"
  top: "conv7_2_mbox_conf_flat"
  flatten_param {
    axis: 1
  }
}
layer {
  name: "conv7_2_mbox_priorbox"
  type: "PriorBox"
  bottom: "conv7_2"
  bottom: "data"
  top: "conv7_2_mbox_priorbox"
  prior_box_param {
    min_size: 150
    max_size: 210
    aspect_ratio: 2
    aspect_ratio: 3
    aspect_ratio: 4
    aspect_ratio: 5
    flip: true
    clip: false
    variance: 0.1
    variance: 0.1
    variance: 0.2
    variance: 0.2
    step: 64
    offset: 0.5
    denser_prior_boxes: true
  }
}
layer {
  name: "conv8_2_mbox_loc"
  type: "Convolution"
  bottom: "conv8_2"
  top: "conv8_2_mbox_loc"
  param {
    lr_mult: 1
    decay_mult: 1
  }
  param {
    lr_mult: 2
    decay_mult: 0
  }
  convolution_param {
    num_output: 240
    weight_filler {
      type: "xavier"
    }
    bias_filler {
      type: "constant"
      value: 0
    }
    pad_h: 1
    pad_w: 2
    kernel_h: 3
    kernel_w: 5
    stride_h: 1
    stride_w: 1
  }
}
layer {
  name: "conv8_2_mbox_loc_perm"
  type: "Permute"
  bottom: "conv8_2_mbox_loc"
  top: "conv8_2_mbox_loc_perm"
  permute_param {
    order: 0
    order: 2
    order: 3
    order: 1
  }
}
layer {
  name: "conv8_2_mbox_loc_flat"
  type: "Flatten"
  bottom: "conv8_2_mbox_loc_perm"
  top: "conv8_2_mbox_loc_flat"
  flatten_param {
    axis: 1
  }
}
layer {
  name: "conv8_2_mbox_conf"
  type: "Convolution"
  bottom: "conv8_2"
  top: "conv8_2_mbox_conf"
  param {
    lr_mult: 1
    decay_mult: 1
  }
  param {
    lr_mult: 2
    decay_mult: 0
  }
  convolution_param {
    num_output: 40
    weight_filler {
      type: "xavier"
    }
    bias_filler {
      type: "constant"
      value: 0
    }
    pad_h: 1
    pad_w: 2
    kernel_h: 3
    kernel_w: 5
    stride_h: 1
    stride_w: 1
  }
}
layer {
  name: "conv8_2_mbox_conf_perm"
  type: "Permute"
  bottom: "conv8_2_mbox_conf"
  top: "conv8_2_mbox_conf_perm"
  permute_param {
    order: 0
    order: 2
    order: 3
    order: 1
  }
}
layer {
  name: "conv8_2_mbox_conf_flat"
  type: "Flatten"
  bottom: "conv8_2_mbox_conf_perm"
  top: "conv8_2_mbox_conf_flat"
  flatten_param {
    axis: 1
  }
}
layer {
  name: "conv8_2_mbox_priorbox"
  type: "PriorBox"
  bottom: "conv8_2"
  bottom: "data"
  top: "conv8_2_mbox_priorbox"
  prior_box_param {
    min_size: 210
    max_size: 270
    aspect_ratio: 2
    aspect_ratio: 3
    aspect_ratio: 4
    aspect_ratio: 5
    flip: true
    clip: false
    variance: 0.1
    variance: 0.1
    variance: 0.2
    variance: 0.2
    step: 100
    offset: 0.5
    denser_prior_boxes: true
  }
}
layer {
  name: "conv9_2_mbox_loc"
  type: "Convolution"
  bottom: "conv9_2"
  top: "conv9_2_mbox_loc"
  param {
    lr_mult: 1
    decay_mult: 1
  }
  param {
    lr_mult: 2
    decay_mult: 0
  }
  convolution_param {
    num_output: 240
    weight_filler {
      type: "xavier"
    }
    bias_filler {
      type: "constant"
      value: 0
    }
    pad_h: 1
    pad_w: 2
    kernel_h: 3
    kernel_w: 5
    stride_h: 1
    stride_w: 1
  }
}
layer {
  name: "conv9_2_mbox_loc_perm"
  type: "Permute"
  bottom: "conv9_2_mbox_loc"
  top: "conv9_2_mbox_loc_perm"
  permute_param {
    order: 0
    order: 2
    order: 3
    order: 1
  }
}
layer {
  name: "conv9_2_mbox_loc_flat"
  type: "Flatten"
  bottom: "conv9_2_mbox_loc_perm"
  top: "conv9_2_mbox_loc_flat"
  flatten_param {
    axis: 1
  }
}
layer {
  name: "conv9_2_mbox_conf"
  type: "Convolution"
  bottom: "conv9_2"
  top: "conv9_2_mbox_conf"
  param {
    lr_mult: 1
    decay_mult: 1
  }
  param {
    lr_mult: 2
    decay_mult: 0
  }
  convolution_param {
    num_output: 40
    weight_filler {
      type: "xavier"
    }
    bias_filler {
      type: "constant"
      value: 0
    }
    pad_h: 1
    pad_w: 2
    kernel_h: 3
    kernel_w: 5
    stride_h: 1
    stride_w: 1
  }
}
layer {
  name: "conv9_2_mbox_conf_perm"
  type: "Permute"
  bottom: "conv9_2_mbox_conf"
  top: "conv9_2_mbox_conf_perm"
  permute_param {
    order: 0
    order: 2
    order: 3
    order: 1
  }
}
layer {
  name: "conv9_2_mbox_conf_flat"
  type: "Flatten"
  bottom: "conv9_2_mbox_conf_perm"
  top: "conv9_2_mbox_conf_flat"
  flatten_param {
    axis: 1
  }
}
layer {
  name: "conv9_2_mbox_priorbox"
  type: "PriorBox"
  bottom: "conv9_2"
  bottom: "data"
  top: "conv9_2_mbox_priorbox"
  prior_box_param {
    min_size: 270
    max_size: 330
    aspect_ratio: 2
    aspect_ratio: 3
    aspect_ratio: 4
    aspect_ratio: 5
    flip: true
    clip: false
    variance: 0.1
    variance: 0.1
    variance: 0.2
    variance: 0.2
    step: 300
    offset: 0.5
    denser_prior_boxes: true
  }
}
layer {
  name: "mbox_loc"
  type: "Concat"
  bottom: "conv4_3_norm_mbox_loc_flat"
  bottom: "fc7_mbox_loc_flat"
  bottom: "conv6_2_mbox_loc_flat"
  bottom: "conv7_2_mbox_loc_flat"
  bottom: "conv8_2_mbox_loc_flat"
  bottom: "conv9_2_mbox_loc_flat"
  top: "mbox_loc"
  concat_param {
    axis: 1
  }
}
layer {
  name: "mbox_conf"
  type: "Concat"
  bottom: "conv4_3_norm_mbox_conf_flat"
  bottom: "fc7_mbox_conf_flat"
  bottom: "conv6_2_mbox_conf_flat"
  bottom: "conv7_2_mbox_conf_flat"
  bottom: "conv8_2_mbox_conf_flat"
  bottom: "conv9_2_mbox_conf_flat"
  top: "mbox_conf"
  concat_param {
    axis: 1
  }
}
layer {
  name: "mbox_priorbox"
  type: "Concat"
  bottom: "conv4_3_norm_mbox_priorbox"
  bottom: "fc7_mbox_priorbox"
  bottom: "conv6_2_mbox_priorbox"
  bottom: "conv7_2_mbox_priorbox"
  bottom: "conv8_2_mbox_priorbox"
  bottom: "conv9_2_mbox_priorbox"
  top: "mbox_priorbox"
  concat_param {
    axis: 2
  }
}
layer {
  name: "mbox_loss"
  type: "MultiBoxLoss"
  bottom: "mbox_loc"
  bottom: "mbox_conf"
  bottom: "mbox_priorbox"
  bottom: "label"
  top: "mbox_loss"
  include {
    phase: TRAIN
  }
  propagate_down: true
  propagate_down: true
  propagate_down: false
  propagate_down: false
  loss_param {
    normalization: VALID
  }
  multibox_loss_param {
    loc_loss_type: SMOOTH_L1
    conf_loss_type: SOFTMAX
    loc_weight: 0.2
    num_classes: 2
    share_location: true
    match_type: PER_PREDICTION
    overlap_threshold: 0.5
    use_prior_for_matching: true
    background_label_id: 0
    use_difficult_gt: false
    neg_pos_ratio: 3
    neg_overlap: 0.5
    code_type: CENTER_SIZE
    ignore_cross_boundary_bbox: false
    mining_type: MAX_NEGATIVE
    use_polygon: true
  }
}
I0414 18:27:39.917933  1468 layer_factory.hpp:77] Creating layer data
I0414 18:27:39.918548  1468 net.cpp:100] Creating Layer data
I0414 18:27:39.918604  1468 net.cpp:408] data -> data
I0414 18:27:39.918700  1468 net.cpp:408] data -> label
I0414 18:27:39.919944  1473 db_lmdb.cpp:35] Opened lmdb ./data/easy_lmdb/lmdb/text_train_lmdb/
I0414 18:27:39.948886  1468 annotated_data_layer.cpp:62] output data size: 16,3,384,384
I0414 18:27:40.009243  1468 net.cpp:150] Setting up data
I0414 18:27:40.009347  1468 net.cpp:157] Top shape: 16 3 384 384 (7077888)
I0414 18:27:40.009359  1468 net.cpp:157] Top shape: 1 1 2 16 (32)
I0414 18:27:40.009364  1468 net.cpp:165] Memory required for data: 28311680
I0414 18:27:40.009376  1468 layer_factory.hpp:77] Creating layer data_data_0_split
I0414 18:27:40.009402  1468 net.cpp:100] Creating Layer data_data_0_split
I0414 18:27:40.009412  1468 net.cpp:434] data_data_0_split <- data
I0414 18:27:40.009428  1468 net.cpp:408] data_data_0_split -> data_data_0_split_0
I0414 18:27:40.009446  1468 net.cpp:408] data_data_0_split -> data_data_0_split_1
I0414 18:27:40.009455  1468 net.cpp:408] data_data_0_split -> data_data_0_split_2
I0414 18:27:40.009471  1468 net.cpp:408] data_data_0_split -> data_data_0_split_3
I0414 18:27:40.009481  1468 net.cpp:408] data_data_0_split -> data_data_0_split_4
I0414 18:27:40.009491  1468 net.cpp:408] data_data_0_split -> data_data_0_split_5
I0414 18:27:40.009503  1468 net.cpp:408] data_data_0_split -> data_data_0_split_6
I0414 18:27:40.009649  1468 net.cpp:150] Setting up data_data_0_split
I0414 18:27:40.009665  1468 net.cpp:157] Top shape: 16 3 384 384 (7077888)
I0414 18:27:40.009675  1468 net.cpp:157] Top shape: 16 3 384 384 (7077888)
I0414 18:27:40.009686  1468 net.cpp:157] Top shape: 16 3 384 384 (7077888)
I0414 18:27:40.009696  1468 net.cpp:157] Top shape: 16 3 384 384 (7077888)
I0414 18:27:40.009706  1468 net.cpp:157] Top shape: 16 3 384 384 (7077888)
I0414 18:27:40.009716  1468 net.cpp:157] Top shape: 16 3 384 384 (7077888)
I0414 18:27:40.009724  1468 net.cpp:157] Top shape: 16 3 384 384 (7077888)
I0414 18:27:40.009734  1468 net.cpp:165] Memory required for data: 226492544
I0414 18:27:40.009739  1468 layer_factory.hpp:77] Creating layer conv1_1
I0414 18:27:40.009763  1468 net.cpp:100] Creating Layer conv1_1
I0414 18:27:40.009769  1468 net.cpp:434] conv1_1 <- data_data_0_split_0
I0414 18:27:40.009778  1468 net.cpp:408] conv1_1 -> conv1_1
I0414 18:27:40.283118  1474 blocking_queue.cpp:50] Waiting for data
I0414 18:27:40.354342  1468 net.cpp:150] Setting up conv1_1
I0414 18:27:40.354492  1468 net.cpp:157] Top shape: 16 64 384 384 (150994944)
I0414 18:27:40.354526  1468 net.cpp:165] Memory required for data: 830472320
I0414 18:27:40.354558  1468 layer_factory.hpp:77] Creating layer relu1_1
I0414 18:27:40.354578  1468 net.cpp:100] Creating Layer relu1_1
I0414 18:27:40.354584  1468 net.cpp:434] relu1_1 <- conv1_1
I0414 18:27:40.354594  1468 net.cpp:395] relu1_1 -> conv1_1 (in-place)
I0414 18:27:40.355075  1468 net.cpp:150] Setting up relu1_1
I0414 18:27:40.355121  1468 net.cpp:157] Top shape: 16 64 384 384 (150994944)
I0414 18:27:40.355144  1468 net.cpp:165] Memory required for data: 1434452096
I0414 18:27:40.355166  1468 layer_factory.hpp:77] Creating layer conv1_2
I0414 18:27:40.355204  1468 net.cpp:100] Creating Layer conv1_2
I0414 18:27:40.355231  1468 net.cpp:434] conv1_2 <- conv1_1
I0414 18:27:40.355248  1468 net.cpp:408] conv1_2 -> conv1_2
I0414 18:27:40.358799  1468 net.cpp:150] Setting up conv1_2
I0414 18:27:40.358875  1468 net.cpp:157] Top shape: 16 64 384 384 (150994944)
I0414 18:27:40.358885  1468 net.cpp:165] Memory required for data: 2038431872
I0414 18:27:40.358896  1468 layer_factory.hpp:77] Creating layer relu1_2
I0414 18:27:40.358907  1468 net.cpp:100] Creating Layer relu1_2
I0414 18:27:40.358913  1468 net.cpp:434] relu1_2 <- conv1_2
I0414 18:27:40.358922  1468 net.cpp:395] relu1_2 -> conv1_2 (in-place)
I0414 18:27:40.359181  1468 net.cpp:150] Setting up relu1_2
I0414 18:27:40.359201  1468 net.cpp:157] Top shape: 16 64 384 384 (150994944)
I0414 18:27:40.359210  1468 net.cpp:165] Memory required for data: 2642411648
I0414 18:27:40.359220  1468 layer_factory.hpp:77] Creating layer pool1
I0414 18:27:40.359236  1468 net.cpp:100] Creating Layer pool1
I0414 18:27:40.359246  1468 net.cpp:434] pool1 <- conv1_2
I0414 18:27:40.359257  1468 net.cpp:408] pool1 -> pool1
I0414 18:27:40.359318  1468 net.cpp:150] Setting up pool1
I0414 18:27:40.359328  1468 net.cpp:157] Top shape: 16 64 192 192 (37748736)
I0414 18:27:40.359333  1468 net.cpp:165] Memory required for data: 2793406592
I0414 18:27:40.359338  1468 layer_factory.hpp:77] Creating layer conv2_1
I0414 18:27:40.359352  1468 net.cpp:100] Creating Layer conv2_1
I0414 18:27:40.359364  1468 net.cpp:434] conv2_1 <- pool1
I0414 18:27:40.359378  1468 net.cpp:408] conv2_1 -> conv2_1
I0414 18:27:40.361886  1468 net.cpp:150] Setting up conv2_1
I0414 18:27:40.361909  1468 net.cpp:157] Top shape: 16 128 192 192 (75497472)
I0414 18:27:40.361919  1468 net.cpp:165] Memory required for data: 3095396480
I0414 18:27:40.361938  1468 layer_factory.hpp:77] Creating layer relu2_1
I0414 18:27:40.361958  1468 net.cpp:100] Creating Layer relu2_1
I0414 18:27:40.361965  1468 net.cpp:434] relu2_1 <- conv2_1
I0414 18:27:40.361975  1468 net.cpp:395] relu2_1 -> conv2_1 (in-place)
I0414 18:27:40.362220  1468 net.cpp:150] Setting up relu2_1
I0414 18:27:40.362267  1468 net.cpp:157] Top shape: 16 128 192 192 (75497472)
I0414 18:27:40.362293  1468 net.cpp:165] Memory required for data: 3397386368
I0414 18:27:40.362316  1468 layer_factory.hpp:77] Creating layer conv2_2
I0414 18:27:40.362349  1468 net.cpp:100] Creating Layer conv2_2
I0414 18:27:40.362373  1468 net.cpp:434] conv2_2 <- conv2_1
I0414 18:27:40.362402  1468 net.cpp:408] conv2_2 -> conv2_2
I0414 18:27:40.366400  1468 net.cpp:150] Setting up conv2_2
I0414 18:27:40.366451  1468 net.cpp:157] Top shape: 16 128 192 192 (75497472)
I0414 18:27:40.366459  1468 net.cpp:165] Memory required for data: 3699376256
I0414 18:27:40.366468  1468 layer_factory.hpp:77] Creating layer relu2_2
I0414 18:27:40.366478  1468 net.cpp:100] Creating Layer relu2_2
I0414 18:27:40.366482  1468 net.cpp:434] relu2_2 <- conv2_2
I0414 18:27:40.366490  1468 net.cpp:395] relu2_2 -> conv2_2 (in-place)
I0414 18:27:40.366951  1468 net.cpp:150] Setting up relu2_2
I0414 18:27:40.366994  1468 net.cpp:157] Top shape: 16 128 192 192 (75497472)
I0414 18:27:40.367020  1468 net.cpp:165] Memory required for data: 4001366144
I0414 18:27:40.367046  1468 layer_factory.hpp:77] Creating layer pool2
I0414 18:27:40.367074  1468 net.cpp:100] Creating Layer pool2
I0414 18:27:40.367100  1468 net.cpp:434] pool2 <- conv2_2
I0414 18:27:40.367128  1468 net.cpp:408] pool2 -> pool2
I0414 18:27:40.367208  1468 net.cpp:150] Setting up pool2
I0414 18:27:40.367220  1468 net.cpp:157] Top shape: 16 128 96 96 (18874368)
I0414 18:27:40.367224  1468 net.cpp:165] Memory required for data: 4076863616
I0414 18:27:40.367230  1468 layer_factory.hpp:77] Creating layer conv3_1
I0414 18:27:40.367242  1468 net.cpp:100] Creating Layer conv3_1
I0414 18:27:40.367249  1468 net.cpp:434] conv3_1 <- pool2
I0414 18:27:40.367259  1468 net.cpp:408] conv3_1 -> conv3_1
I0414 18:27:40.373518  1468 net.cpp:150] Setting up conv3_1
I0414 18:27:40.373570  1468 net.cpp:157] Top shape: 16 256 96 96 (37748736)
I0414 18:27:40.373594  1468 net.cpp:165] Memory required for data: 4227858560
I0414 18:27:40.373626  1468 layer_factory.hpp:77] Creating layer relu3_1
I0414 18:27:40.373661  1468 net.cpp:100] Creating Layer relu3_1
I0414 18:27:40.373708  1468 net.cpp:434] relu3_1 <- conv3_1
I0414 18:27:40.373739  1468 net.cpp:395] relu3_1 -> conv3_1 (in-place)
I0414 18:27:40.374001  1468 net.cpp:150] Setting up relu3_1
I0414 18:27:40.374020  1468 net.cpp:157] Top shape: 16 256 96 96 (37748736)
I0414 18:27:40.374027  1468 net.cpp:165] Memory required for data: 4378853504
I0414 18:27:40.374037  1468 layer_factory.hpp:77] Creating layer conv3_2
I0414 18:27:40.374056  1468 net.cpp:100] Creating Layer conv3_2
I0414 18:27:40.374066  1468 net.cpp:434] conv3_2 <- conv3_1
I0414 18:27:40.374083  1468 net.cpp:408] conv3_2 -> conv3_2
I0414 18:27:40.383196  1468 net.cpp:150] Setting up conv3_2
I0414 18:27:40.383219  1468 net.cpp:157] Top shape: 16 256 96 96 (37748736)
I0414 18:27:40.383226  1468 net.cpp:165] Memory required for data: 4529848448
I0414 18:27:40.383239  1468 layer_factory.hpp:77] Creating layer relu3_2
I0414 18:27:40.383256  1468 net.cpp:100] Creating Layer relu3_2
I0414 18:27:40.383266  1468 net.cpp:434] relu3_2 <- conv3_2
I0414 18:27:40.383280  1468 net.cpp:395] relu3_2 -> conv3_2 (in-place)
I0414 18:27:40.383493  1468 net.cpp:150] Setting up relu3_2
I0414 18:27:40.383508  1468 net.cpp:157] Top shape: 16 256 96 96 (37748736)
I0414 18:27:40.383515  1468 net.cpp:165] Memory required for data: 4680843392
I0414 18:27:40.383541  1468 layer_factory.hpp:77] Creating layer conv3_3
I0414 18:27:40.383563  1468 net.cpp:100] Creating Layer conv3_3
I0414 18:27:40.383569  1468 net.cpp:434] conv3_3 <- conv3_2
I0414 18:27:40.383579  1468 net.cpp:408] conv3_3 -> conv3_3
I0414 18:27:40.391767  1468 net.cpp:150] Setting up conv3_3
I0414 18:27:40.391788  1468 net.cpp:157] Top shape: 16 256 96 96 (37748736)
I0414 18:27:40.391796  1468 net.cpp:165] Memory required for data: 4831838336
I0414 18:27:40.391808  1468 layer_factory.hpp:77] Creating layer relu3_3
I0414 18:27:40.391825  1468 net.cpp:100] Creating Layer relu3_3
I0414 18:27:40.391836  1468 net.cpp:434] relu3_3 <- conv3_3
I0414 18:27:40.391854  1468 net.cpp:395] relu3_3 -> conv3_3 (in-place)
I0414 18:27:40.392254  1468 net.cpp:150] Setting up relu3_3
I0414 18:27:40.392272  1468 net.cpp:157] Top shape: 16 256 96 96 (37748736)
I0414 18:27:40.392280  1468 net.cpp:165] Memory required for data: 4982833280
I0414 18:27:40.392290  1468 layer_factory.hpp:77] Creating layer pool3
I0414 18:27:40.392310  1468 net.cpp:100] Creating Layer pool3
I0414 18:27:40.392320  1468 net.cpp:434] pool3 <- conv3_3
I0414 18:27:40.392335  1468 net.cpp:408] pool3 -> pool3
I0414 18:27:40.392391  1468 net.cpp:150] Setting up pool3
I0414 18:27:40.392401  1468 net.cpp:157] Top shape: 16 256 48 48 (9437184)
I0414 18:27:40.392405  1468 net.cpp:165] Memory required for data: 5020582016
I0414 18:27:40.392410  1468 layer_factory.hpp:77] Creating layer conv4_1
I0414 18:27:40.392422  1468 net.cpp:100] Creating Layer conv4_1
I0414 18:27:40.392429  1468 net.cpp:434] conv4_1 <- pool3
I0414 18:27:40.392438  1468 net.cpp:408] conv4_1 -> conv4_1
I0414 18:27:40.408161  1468 net.cpp:150] Setting up conv4_1
I0414 18:27:40.408186  1468 net.cpp:157] Top shape: 16 512 48 48 (18874368)
I0414 18:27:40.408195  1468 net.cpp:165] Memory required for data: 5096079488
I0414 18:27:40.408208  1468 layer_factory.hpp:77] Creating layer relu4_1
I0414 18:27:40.408241  1468 net.cpp:100] Creating Layer relu4_1
I0414 18:27:40.408252  1468 net.cpp:434] relu4_1 <- conv4_1
I0414 18:27:40.408267  1468 net.cpp:395] relu4_1 -> conv4_1 (in-place)
I0414 18:27:40.408488  1468 net.cpp:150] Setting up relu4_1
I0414 18:27:40.408504  1468 net.cpp:157] Top shape: 16 512 48 48 (18874368)
I0414 18:27:40.408511  1468 net.cpp:165] Memory required for data: 5171576960
I0414 18:27:40.408520  1468 layer_factory.hpp:77] Creating layer conv4_2
I0414 18:27:40.408541  1468 net.cpp:100] Creating Layer conv4_2
I0414 18:27:40.408551  1468 net.cpp:434] conv4_2 <- conv4_1
I0414 18:27:40.408566  1468 net.cpp:408] conv4_2 -> conv4_2
I0414 18:27:40.439719  1468 net.cpp:150] Setting up conv4_2
I0414 18:27:40.439754  1468 net.cpp:157] Top shape: 16 512 48 48 (18874368)
I0414 18:27:40.439762  1468 net.cpp:165] Memory required for data: 5247074432
I0414 18:27:40.439821  1468 layer_factory.hpp:77] Creating layer relu4_2
I0414 18:27:40.439846  1468 net.cpp:100] Creating Layer relu4_2
I0414 18:27:40.439862  1468 net.cpp:434] relu4_2 <- conv4_2
I0414 18:27:40.439879  1468 net.cpp:395] relu4_2 -> conv4_2 (in-place)
I0414 18:27:40.440089  1468 net.cpp:150] Setting up relu4_2
I0414 18:27:40.440104  1468 net.cpp:157] Top shape: 16 512 48 48 (18874368)
I0414 18:27:40.440109  1468 net.cpp:165] Memory required for data: 5322571904
I0414 18:27:40.440112  1468 layer_factory.hpp:77] Creating layer conv4_3
I0414 18:27:40.440125  1468 net.cpp:100] Creating Layer conv4_3
I0414 18:27:40.440132  1468 net.cpp:434] conv4_3 <- conv4_2
I0414 18:27:40.440141  1468 net.cpp:408] conv4_3 -> conv4_3
I0414 18:27:40.468664  1468 net.cpp:150] Setting up conv4_3
I0414 18:27:40.468688  1468 net.cpp:157] Top shape: 16 512 48 48 (18874368)
I0414 18:27:40.468693  1468 net.cpp:165] Memory required for data: 5398069376
I0414 18:27:40.468703  1468 layer_factory.hpp:77] Creating layer relu4_3
I0414 18:27:40.468716  1468 net.cpp:100] Creating Layer relu4_3
I0414 18:27:40.468725  1468 net.cpp:434] relu4_3 <- conv4_3
I0414 18:27:40.468740  1468 net.cpp:395] relu4_3 -> conv4_3 (in-place)
I0414 18:27:40.469146  1468 net.cpp:150] Setting up relu4_3
I0414 18:27:40.469166  1468 net.cpp:157] Top shape: 16 512 48 48 (18874368)
I0414 18:27:40.469174  1468 net.cpp:165] Memory required for data: 5473566848
I0414 18:27:40.469184  1468 layer_factory.hpp:77] Creating layer conv4_3_relu4_3_0_split
I0414 18:27:40.469202  1468 net.cpp:100] Creating Layer conv4_3_relu4_3_0_split
I0414 18:27:40.469210  1468 net.cpp:434] conv4_3_relu4_3_0_split <- conv4_3
I0414 18:27:40.469225  1468 net.cpp:408] conv4_3_relu4_3_0_split -> conv4_3_relu4_3_0_split_0
I0414 18:27:40.469240  1468 net.cpp:408] conv4_3_relu4_3_0_split -> conv4_3_relu4_3_0_split_1
I0414 18:27:40.469295  1468 net.cpp:150] Setting up conv4_3_relu4_3_0_split
I0414 18:27:40.469305  1468 net.cpp:157] Top shape: 16 512 48 48 (18874368)
I0414 18:27:40.469311  1468 net.cpp:157] Top shape: 16 512 48 48 (18874368)
I0414 18:27:40.469314  1468 net.cpp:165] Memory required for data: 5624561792
I0414 18:27:40.469318  1468 layer_factory.hpp:77] Creating layer pool4
I0414 18:27:40.469327  1468 net.cpp:100] Creating Layer pool4
I0414 18:27:40.469333  1468 net.cpp:434] pool4 <- conv4_3_relu4_3_0_split_0
I0414 18:27:40.469342  1468 net.cpp:408] pool4 -> pool4
I0414 18:27:40.469388  1468 net.cpp:150] Setting up pool4
I0414 18:27:40.469398  1468 net.cpp:157] Top shape: 16 512 24 24 (4718592)
I0414 18:27:40.469401  1468 net.cpp:165] Memory required for data: 5643436160
I0414 18:27:40.469405  1468 layer_factory.hpp:77] Creating layer conv5_1
I0414 18:27:40.469418  1468 net.cpp:100] Creating Layer conv5_1
I0414 18:27:40.469424  1468 net.cpp:434] conv5_1 <- pool4
I0414 18:27:40.469434  1468 net.cpp:408] conv5_1 -> conv5_1
I0414 18:27:40.497951  1468 net.cpp:150] Setting up conv5_1
I0414 18:27:40.497977  1468 net.cpp:157] Top shape: 16 512 24 24 (4718592)
I0414 18:27:40.497982  1468 net.cpp:165] Memory required for data: 5662310528
I0414 18:27:40.497990  1468 layer_factory.hpp:77] Creating layer relu5_1
I0414 18:27:40.498001  1468 net.cpp:100] Creating Layer relu5_1
I0414 18:27:40.498008  1468 net.cpp:434] relu5_1 <- conv5_1
I0414 18:27:40.498018  1468 net.cpp:395] relu5_1 -> conv5_1 (in-place)
I0414 18:27:40.498236  1468 net.cpp:150] Setting up relu5_1
I0414 18:27:40.498251  1468 net.cpp:157] Top shape: 16 512 24 24 (4718592)
I0414 18:27:40.498256  1468 net.cpp:165] Memory required for data: 5681184896
I0414 18:27:40.498262  1468 layer_factory.hpp:77] Creating layer conv5_2
I0414 18:27:40.498276  1468 net.cpp:100] Creating Layer conv5_2
I0414 18:27:40.498284  1468 net.cpp:434] conv5_2 <- conv5_1
I0414 18:27:40.498292  1468 net.cpp:408] conv5_2 -> conv5_2
I0414 18:27:40.526890  1468 net.cpp:150] Setting up conv5_2
I0414 18:27:40.526921  1468 net.cpp:157] Top shape: 16 512 24 24 (4718592)
I0414 18:27:40.526926  1468 net.cpp:165] Memory required for data: 5700059264
I0414 18:27:40.526957  1468 layer_factory.hpp:77] Creating layer relu5_2
I0414 18:27:40.526967  1468 net.cpp:100] Creating Layer relu5_2
I0414 18:27:40.526974  1468 net.cpp:434] relu5_2 <- conv5_2
I0414 18:27:40.526985  1468 net.cpp:395] relu5_2 -> conv5_2 (in-place)
I0414 18:27:40.527199  1468 net.cpp:150] Setting up relu5_2
I0414 18:27:40.527212  1468 net.cpp:157] Top shape: 16 512 24 24 (4718592)
I0414 18:27:40.527216  1468 net.cpp:165] Memory required for data: 5718933632
I0414 18:27:40.527220  1468 layer_factory.hpp:77] Creating layer conv5_3
I0414 18:27:40.527237  1468 net.cpp:100] Creating Layer conv5_3
I0414 18:27:40.527245  1468 net.cpp:434] conv5_3 <- conv5_2
I0414 18:27:40.527253  1468 net.cpp:408] conv5_3 -> conv5_3
I0414 18:27:40.555856  1468 net.cpp:150] Setting up conv5_3
I0414 18:27:40.555881  1468 net.cpp:157] Top shape: 16 512 24 24 (4718592)
I0414 18:27:40.555886  1468 net.cpp:165] Memory required for data: 5737808000
I0414 18:27:40.555896  1468 layer_factory.hpp:77] Creating layer relu5_3
I0414 18:27:40.555918  1468 net.cpp:100] Creating Layer relu5_3
I0414 18:27:40.555924  1468 net.cpp:434] relu5_3 <- conv5_3
I0414 18:27:40.555933  1468 net.cpp:395] relu5_3 -> conv5_3 (in-place)
I0414 18:27:40.556339  1468 net.cpp:150] Setting up relu5_3
I0414 18:27:40.556356  1468 net.cpp:157] Top shape: 16 512 24 24 (4718592)
I0414 18:27:40.556360  1468 net.cpp:165] Memory required for data: 5756682368
I0414 18:27:40.556365  1468 layer_factory.hpp:77] Creating layer pool5
I0414 18:27:40.556376  1468 net.cpp:100] Creating Layer pool5
I0414 18:27:40.556380  1468 net.cpp:434] pool5 <- conv5_3
I0414 18:27:40.556387  1468 net.cpp:408] pool5 -> pool5
I0414 18:27:40.556443  1468 net.cpp:150] Setting up pool5
I0414 18:27:40.556457  1468 net.cpp:157] Top shape: 16 512 24 24 (4718592)
I0414 18:27:40.556463  1468 net.cpp:165] Memory required for data: 5775556736
I0414 18:27:40.556469  1468 layer_factory.hpp:77] Creating layer fc6
I0414 18:27:40.556490  1468 net.cpp:100] Creating Layer fc6
I0414 18:27:40.556501  1468 net.cpp:434] fc6 <- pool5
I0414 18:27:40.556516  1468 net.cpp:408] fc6 -> fc6
I0414 18:27:40.611853  1468 net.cpp:150] Setting up fc6
I0414 18:27:40.611891  1468 net.cpp:157] Top shape: 16 1024 24 24 (9437184)
I0414 18:27:40.611897  1468 net.cpp:165] Memory required for data: 5813305472
I0414 18:27:40.611912  1468 layer_factory.hpp:77] Creating layer relu6
I0414 18:27:40.611929  1468 net.cpp:100] Creating Layer relu6
I0414 18:27:40.611965  1468 net.cpp:434] relu6 <- fc6
I0414 18:27:40.612000  1468 net.cpp:395] relu6 -> fc6 (in-place)
I0414 18:27:40.612313  1468 net.cpp:150] Setting up relu6
I0414 18:27:40.612331  1468 net.cpp:157] Top shape: 16 1024 24 24 (9437184)
I0414 18:27:40.612339  1468 net.cpp:165] Memory required for data: 5851054208
I0414 18:27:40.612368  1468 layer_factory.hpp:77] Creating layer fc7
I0414 18:27:40.612412  1468 net.cpp:100] Creating Layer fc7
I0414 18:27:40.612442  1468 net.cpp:434] fc7 <- fc6
I0414 18:27:40.612478  1468 net.cpp:408] fc7 -> fc7
I0414 18:27:40.626314  1468 net.cpp:150] Setting up fc7
I0414 18:27:40.626335  1468 net.cpp:157] Top shape: 16 1024 24 24 (9437184)
I0414 18:27:40.626343  1468 net.cpp:165] Memory required for data: 5888802944
I0414 18:27:40.626356  1468 layer_factory.hpp:77] Creating layer relu7
I0414 18:27:40.626394  1468 net.cpp:100] Creating Layer relu7
I0414 18:27:40.626435  1468 net.cpp:434] relu7 <- fc7
I0414 18:27:40.626469  1468 net.cpp:395] relu7 -> fc7 (in-place)
I0414 18:27:40.626912  1468 net.cpp:150] Setting up relu7
I0414 18:27:40.626929  1468 net.cpp:157] Top shape: 16 1024 24 24 (9437184)
I0414 18:27:40.626933  1468 net.cpp:165] Memory required for data: 5926551680
I0414 18:27:40.626938  1468 layer_factory.hpp:77] Creating layer fc7_relu7_0_split
I0414 18:27:40.626950  1468 net.cpp:100] Creating Layer fc7_relu7_0_split
I0414 18:27:40.626958  1468 net.cpp:434] fc7_relu7_0_split <- fc7
I0414 18:27:40.626971  1468 net.cpp:408] fc7_relu7_0_split -> fc7_relu7_0_split_0
I0414 18:27:40.626986  1468 net.cpp:408] fc7_relu7_0_split -> fc7_relu7_0_split_1
I0414 18:27:40.627068  1468 net.cpp:408] fc7_relu7_0_split -> fc7_relu7_0_split_2
I0414 18:27:40.627084  1468 net.cpp:408] fc7_relu7_0_split -> fc7_relu7_0_split_3
I0414 18:27:40.627202  1468 net.cpp:150] Setting up fc7_relu7_0_split
I0414 18:27:40.627216  1468 net.cpp:157] Top shape: 16 1024 24 24 (9437184)
I0414 18:27:40.627223  1468 net.cpp:157] Top shape: 16 1024 24 24 (9437184)
I0414 18:27:40.627231  1468 net.cpp:157] Top shape: 16 1024 24 24 (9437184)
I0414 18:27:40.627240  1468 net.cpp:157] Top shape: 16 1024 24 24 (9437184)
I0414 18:27:40.627249  1468 net.cpp:165] Memory required for data: 6077546624
I0414 18:27:40.627259  1468 layer_factory.hpp:77] Creating layer conv6_1
I0414 18:27:40.627280  1468 net.cpp:100] Creating Layer conv6_1
I0414 18:27:40.627290  1468 net.cpp:434] conv6_1 <- fc7_relu7_0_split_0
I0414 18:27:40.627308  1468 net.cpp:408] conv6_1 -> conv6_1
I0414 18:27:40.632071  1468 net.cpp:150] Setting up conv6_1
I0414 18:27:40.632097  1468 net.cpp:157] Top shape: 16 256 24 24 (2359296)
I0414 18:27:40.632104  1468 net.cpp:165] Memory required for data: 6086983808
I0414 18:27:40.632117  1468 layer_factory.hpp:77] Creating layer conv6_1_relu
I0414 18:27:40.632129  1468 net.cpp:100] Creating Layer conv6_1_relu
I0414 18:27:40.632139  1468 net.cpp:434] conv6_1_relu <- conv6_1
I0414 18:27:40.632151  1468 net.cpp:395] conv6_1_relu -> conv6_1 (in-place)
I0414 18:27:40.632652  1468 net.cpp:150] Setting up conv6_1_relu
I0414 18:27:40.632701  1468 net.cpp:157] Top shape: 16 256 24 24 (2359296)
I0414 18:27:40.632712  1468 net.cpp:165] Memory required for data: 6096420992
I0414 18:27:40.632720  1468 layer_factory.hpp:77] Creating layer conv6_2
I0414 18:27:40.632740  1468 net.cpp:100] Creating Layer conv6_2
I0414 18:27:40.632750  1468 net.cpp:434] conv6_2 <- conv6_1
I0414 18:27:40.632766  1468 net.cpp:408] conv6_2 -> conv6_2
I0414 18:27:40.647737  1468 net.cpp:150] Setting up conv6_2
I0414 18:27:40.647759  1468 net.cpp:157] Top shape: 16 512 12 12 (1179648)
I0414 18:27:40.647768  1468 net.cpp:165] Memory required for data: 6101139584
I0414 18:27:40.647795  1468 layer_factory.hpp:77] Creating layer conv6_2_relu
I0414 18:27:40.647810  1468 net.cpp:100] Creating Layer conv6_2_relu
I0414 18:27:40.647822  1468 net.cpp:434] conv6_2_relu <- conv6_2
I0414 18:27:40.647835  1468 net.cpp:395] conv6_2_relu -> conv6_2 (in-place)
I0414 18:27:40.648070  1468 net.cpp:150] Setting up conv6_2_relu
I0414 18:27:40.648087  1468 net.cpp:157] Top shape: 16 512 12 12 (1179648)
I0414 18:27:40.648094  1468 net.cpp:165] Memory required for data: 6105858176
I0414 18:27:40.648104  1468 layer_factory.hpp:77] Creating layer conv6_2_conv6_2_relu_0_split
I0414 18:27:40.648118  1468 net.cpp:100] Creating Layer conv6_2_conv6_2_relu_0_split
I0414 18:27:40.648128  1468 net.cpp:434] conv6_2_conv6_2_relu_0_split <- conv6_2
I0414 18:27:40.648144  1468 net.cpp:408] conv6_2_conv6_2_relu_0_split -> conv6_2_conv6_2_relu_0_split_0
I0414 18:27:40.648160  1468 net.cpp:408] conv6_2_conv6_2_relu_0_split -> conv6_2_conv6_2_relu_0_split_1
I0414 18:27:40.648175  1468 net.cpp:408] conv6_2_conv6_2_relu_0_split -> conv6_2_conv6_2_relu_0_split_2
I0414 18:27:40.648188  1468 net.cpp:408] conv6_2_conv6_2_relu_0_split -> conv6_2_conv6_2_relu_0_split_3
I0414 18:27:40.648279  1468 net.cpp:150] Setting up conv6_2_conv6_2_relu_0_split
I0414 18:27:40.648293  1468 net.cpp:157] Top shape: 16 512 12 12 (1179648)
I0414 18:27:40.648304  1468 net.cpp:157] Top shape: 16 512 12 12 (1179648)
I0414 18:27:40.648310  1468 net.cpp:157] Top shape: 16 512 12 12 (1179648)
I0414 18:27:40.648315  1468 net.cpp:157] Top shape: 16 512 12 12 (1179648)
I0414 18:27:40.648319  1468 net.cpp:165] Memory required for data: 6124732544
I0414 18:27:40.648326  1468 layer_factory.hpp:77] Creating layer conv7_1
I0414 18:27:40.648345  1468 net.cpp:100] Creating Layer conv7_1
I0414 18:27:40.648355  1468 net.cpp:434] conv7_1 <- conv6_2_conv6_2_relu_0_split_0
I0414 18:27:40.648371  1468 net.cpp:408] conv7_1 -> conv7_1
I0414 18:27:40.650552  1468 net.cpp:150] Setting up conv7_1
I0414 18:27:40.650573  1468 net.cpp:157] Top shape: 16 128 12 12 (294912)
I0414 18:27:40.650595  1468 net.cpp:165] Memory required for data: 6125912192
I0414 18:27:40.650616  1468 layer_factory.hpp:77] Creating layer conv7_1_relu
I0414 18:27:40.650629  1468 net.cpp:100] Creating Layer conv7_1_relu
I0414 18:27:40.650640  1468 net.cpp:434] conv7_1_relu <- conv7_1
I0414 18:27:40.650656  1468 net.cpp:395] conv7_1_relu -> conv7_1 (in-place)
I0414 18:27:40.651069  1468 net.cpp:150] Setting up conv7_1_relu
I0414 18:27:40.651087  1468 net.cpp:157] Top shape: 16 128 12 12 (294912)
I0414 18:27:40.651094  1468 net.cpp:165] Memory required for data: 6127091840
I0414 18:27:40.651104  1468 layer_factory.hpp:77] Creating layer conv7_2
I0414 18:27:40.651127  1468 net.cpp:100] Creating Layer conv7_2
I0414 18:27:40.651136  1468 net.cpp:434] conv7_2 <- conv7_1
I0414 18:27:40.651155  1468 net.cpp:408] conv7_2 -> conv7_2
I0414 18:27:40.655913  1468 net.cpp:150] Setting up conv7_2
I0414 18:27:40.655935  1468 net.cpp:157] Top shape: 16 256 6 6 (147456)
I0414 18:27:40.655942  1468 net.cpp:165] Memory required for data: 6127681664
I0414 18:27:40.655954  1468 layer_factory.hpp:77] Creating layer conv7_2_relu
I0414 18:27:40.655968  1468 net.cpp:100] Creating Layer conv7_2_relu
I0414 18:27:40.655979  1468 net.cpp:434] conv7_2_relu <- conv7_2
I0414 18:27:40.655997  1468 net.cpp:395] conv7_2_relu -> conv7_2 (in-place)
I0414 18:27:40.656402  1468 net.cpp:150] Setting up conv7_2_relu
I0414 18:27:40.656420  1468 net.cpp:157] Top shape: 16 256 6 6 (147456)
I0414 18:27:40.656427  1468 net.cpp:165] Memory required for data: 6128271488
I0414 18:27:40.656438  1468 layer_factory.hpp:77] Creating layer conv7_2_conv7_2_relu_0_split
I0414 18:27:40.656448  1468 net.cpp:100] Creating Layer conv7_2_conv7_2_relu_0_split
I0414 18:27:40.656455  1468 net.cpp:434] conv7_2_conv7_2_relu_0_split <- conv7_2
I0414 18:27:40.656466  1468 net.cpp:408] conv7_2_conv7_2_relu_0_split -> conv7_2_conv7_2_relu_0_split_0
I0414 18:27:40.656476  1468 net.cpp:408] conv7_2_conv7_2_relu_0_split -> conv7_2_conv7_2_relu_0_split_1
I0414 18:27:40.656482  1468 net.cpp:408] conv7_2_conv7_2_relu_0_split -> conv7_2_conv7_2_relu_0_split_2
I0414 18:27:40.656491  1468 net.cpp:408] conv7_2_conv7_2_relu_0_split -> conv7_2_conv7_2_relu_0_split_3
I0414 18:27:40.656580  1468 net.cpp:150] Setting up conv7_2_conv7_2_relu_0_split
I0414 18:27:40.656594  1468 net.cpp:157] Top shape: 16 256 6 6 (147456)
I0414 18:27:40.656599  1468 net.cpp:157] Top shape: 16 256 6 6 (147456)
I0414 18:27:40.656603  1468 net.cpp:157] Top shape: 16 256 6 6 (147456)
I0414 18:27:40.656607  1468 net.cpp:157] Top shape: 16 256 6 6 (147456)
I0414 18:27:40.656611  1468 net.cpp:165] Memory required for data: 6130630784
I0414 18:27:40.656615  1468 layer_factory.hpp:77] Creating layer conv8_1
I0414 18:27:40.656627  1468 net.cpp:100] Creating Layer conv8_1
I0414 18:27:40.656635  1468 net.cpp:434] conv8_1 <- conv7_2_conv7_2_relu_0_split_0
I0414 18:27:40.656644  1468 net.cpp:408] conv8_1 -> conv8_1
I0414 18:27:40.658272  1468 net.cpp:150] Setting up conv8_1
I0414 18:27:40.658289  1468 net.cpp:157] Top shape: 16 128 6 6 (73728)
I0414 18:27:40.658294  1468 net.cpp:165] Memory required for data: 6130925696
I0414 18:27:40.658303  1468 layer_factory.hpp:77] Creating layer conv8_1_relu
I0414 18:27:40.658315  1468 net.cpp:100] Creating Layer conv8_1_relu
I0414 18:27:40.658320  1468 net.cpp:434] conv8_1_relu <- conv8_1
I0414 18:27:40.658327  1468 net.cpp:395] conv8_1_relu -> conv8_1 (in-place)
I0414 18:27:40.658535  1468 net.cpp:150] Setting up conv8_1_relu
I0414 18:27:40.658547  1468 net.cpp:157] Top shape: 16 128 6 6 (73728)
I0414 18:27:40.658552  1468 net.cpp:165] Memory required for data: 6131220608
I0414 18:27:40.658556  1468 layer_factory.hpp:77] Creating layer conv8_2
I0414 18:27:40.658574  1468 net.cpp:100] Creating Layer conv8_2
I0414 18:27:40.658581  1468 net.cpp:434] conv8_2 <- conv8_1
I0414 18:27:40.658591  1468 net.cpp:408] conv8_2 -> conv8_2
I0414 18:27:40.663458  1468 net.cpp:150] Setting up conv8_2
I0414 18:27:40.663477  1468 net.cpp:157] Top shape: 16 256 4 4 (65536)
I0414 18:27:40.663482  1468 net.cpp:165] Memory required for data: 6131482752
I0414 18:27:40.663502  1468 layer_factory.hpp:77] Creating layer conv8_2_relu
I0414 18:27:40.663513  1468 net.cpp:100] Creating Layer conv8_2_relu
I0414 18:27:40.663518  1468 net.cpp:434] conv8_2_relu <- conv8_2
I0414 18:27:40.663528  1468 net.cpp:395] conv8_2_relu -> conv8_2 (in-place)
I0414 18:27:40.663924  1468 net.cpp:150] Setting up conv8_2_relu
I0414 18:27:40.663940  1468 net.cpp:157] Top shape: 16 256 4 4 (65536)
I0414 18:27:40.663946  1468 net.cpp:165] Memory required for data: 6131744896
I0414 18:27:40.663951  1468 layer_factory.hpp:77] Creating layer conv8_2_conv8_2_relu_0_split
I0414 18:27:40.663959  1468 net.cpp:100] Creating Layer conv8_2_conv8_2_relu_0_split
I0414 18:27:40.663964  1468 net.cpp:434] conv8_2_conv8_2_relu_0_split <- conv8_2
I0414 18:27:40.663975  1468 net.cpp:408] conv8_2_conv8_2_relu_0_split -> conv8_2_conv8_2_relu_0_split_0
I0414 18:27:40.663983  1468 net.cpp:408] conv8_2_conv8_2_relu_0_split -> conv8_2_conv8_2_relu_0_split_1
I0414 18:27:40.663992  1468 net.cpp:408] conv8_2_conv8_2_relu_0_split -> conv8_2_conv8_2_relu_0_split_2
I0414 18:27:40.664000  1468 net.cpp:408] conv8_2_conv8_2_relu_0_split -> conv8_2_conv8_2_relu_0_split_3
I0414 18:27:40.664085  1468 net.cpp:150] Setting up conv8_2_conv8_2_relu_0_split
I0414 18:27:40.664094  1468 net.cpp:157] Top shape: 16 256 4 4 (65536)
I0414 18:27:40.664099  1468 net.cpp:157] Top shape: 16 256 4 4 (65536)
I0414 18:27:40.664106  1468 net.cpp:157] Top shape: 16 256 4 4 (65536)
I0414 18:27:40.664111  1468 net.cpp:157] Top shape: 16 256 4 4 (65536)
I0414 18:27:40.664117  1468 net.cpp:165] Memory required for data: 6132793472
I0414 18:27:40.664121  1468 layer_factory.hpp:77] Creating layer conv9_1
I0414 18:27:40.664134  1468 net.cpp:100] Creating Layer conv9_1
I0414 18:27:40.664140  1468 net.cpp:434] conv9_1 <- conv8_2_conv8_2_relu_0_split_0
I0414 18:27:40.664149  1468 net.cpp:408] conv9_1 -> conv9_1
I0414 18:27:40.665598  1468 net.cpp:150] Setting up conv9_1
I0414 18:27:40.665618  1468 net.cpp:157] Top shape: 16 128 4 4 (32768)
I0414 18:27:40.665623  1468 net.cpp:165] Memory required for data: 6132924544
I0414 18:27:40.665632  1468 layer_factory.hpp:77] Creating layer conv9_1_relu
I0414 18:27:40.665642  1468 net.cpp:100] Creating Layer conv9_1_relu
I0414 18:27:40.665647  1468 net.cpp:434] conv9_1_relu <- conv9_1
I0414 18:27:40.665654  1468 net.cpp:395] conv9_1_relu -> conv9_1 (in-place)
I0414 18:27:40.666056  1468 net.cpp:150] Setting up conv9_1_relu
I0414 18:27:40.666074  1468 net.cpp:157] Top shape: 16 128 4 4 (32768)
I0414 18:27:40.666077  1468 net.cpp:165] Memory required for data: 6133055616
I0414 18:27:40.666085  1468 layer_factory.hpp:77] Creating layer conv9_2
I0414 18:27:40.666100  1468 net.cpp:100] Creating Layer conv9_2
I0414 18:27:40.666106  1468 net.cpp:434] conv9_2 <- conv9_1
I0414 18:27:40.666115  1468 net.cpp:408] conv9_2 -> conv9_2
I0414 18:27:40.671241  1468 net.cpp:150] Setting up conv9_2
I0414 18:27:40.671260  1468 net.cpp:157] Top shape: 16 256 2 2 (16384)
I0414 18:27:40.671265  1468 net.cpp:165] Memory required for data: 6133121152
I0414 18:27:40.671273  1468 layer_factory.hpp:77] Creating layer conv9_2_relu
I0414 18:27:40.671283  1468 net.cpp:100] Creating Layer conv9_2_relu
I0414 18:27:40.671291  1468 net.cpp:434] conv9_2_relu <- conv9_2
I0414 18:27:40.671298  1468 net.cpp:395] conv9_2_relu -> conv9_2 (in-place)
I0414 18:27:40.671506  1468 net.cpp:150] Setting up conv9_2_relu
I0414 18:27:40.671519  1468 net.cpp:157] Top shape: 16 256 2 2 (16384)
I0414 18:27:40.671525  1468 net.cpp:165] Memory required for data: 6133186688
I0414 18:27:40.671530  1468 layer_factory.hpp:77] Creating layer conv9_2_conv9_2_relu_0_split
I0414 18:27:40.671540  1468 net.cpp:100] Creating Layer conv9_2_conv9_2_relu_0_split
I0414 18:27:40.671545  1468 net.cpp:434] conv9_2_conv9_2_relu_0_split <- conv9_2
I0414 18:27:40.671552  1468 net.cpp:408] conv9_2_conv9_2_relu_0_split -> conv9_2_conv9_2_relu_0_split_0
I0414 18:27:40.671562  1468 net.cpp:408] conv9_2_conv9_2_relu_0_split -> conv9_2_conv9_2_relu_0_split_1
I0414 18:27:40.671583  1468 net.cpp:408] conv9_2_conv9_2_relu_0_split -> conv9_2_conv9_2_relu_0_split_2
I0414 18:27:40.671654  1468 net.cpp:150] Setting up conv9_2_conv9_2_relu_0_split
I0414 18:27:40.671664  1468 net.cpp:157] Top shape: 16 256 2 2 (16384)
I0414 18:27:40.671672  1468 net.cpp:157] Top shape: 16 256 2 2 (16384)
I0414 18:27:40.671677  1468 net.cpp:157] Top shape: 16 256 2 2 (16384)
I0414 18:27:40.671680  1468 net.cpp:165] Memory required for data: 6133383296
I0414 18:27:40.671684  1468 layer_factory.hpp:77] Creating layer conv4_3_norm
I0414 18:27:40.671699  1468 net.cpp:100] Creating Layer conv4_3_norm
I0414 18:27:40.671705  1468 net.cpp:434] conv4_3_norm <- conv4_3_relu4_3_0_split_1
I0414 18:27:40.671710  1468 net.cpp:408] conv4_3_norm -> conv4_3_norm
I0414 18:27:40.671900  1468 net.cpp:150] Setting up conv4_3_norm
I0414 18:27:40.671911  1468 net.cpp:157] Top shape: 16 512 48 48 (18874368)
I0414 18:27:40.671914  1468 net.cpp:165] Memory required for data: 6208880768
I0414 18:27:40.671921  1468 layer_factory.hpp:77] Creating layer conv4_3_norm_conv4_3_norm_0_split
I0414 18:27:40.671929  1468 net.cpp:100] Creating Layer conv4_3_norm_conv4_3_norm_0_split
I0414 18:27:40.671936  1468 net.cpp:434] conv4_3_norm_conv4_3_norm_0_split <- conv4_3_norm
I0414 18:27:40.671941  1468 net.cpp:408] conv4_3_norm_conv4_3_norm_0_split -> conv4_3_norm_conv4_3_norm_0_split_0
I0414 18:27:40.671950  1468 net.cpp:408] conv4_3_norm_conv4_3_norm_0_split -> conv4_3_norm_conv4_3_norm_0_split_1
I0414 18:27:40.671958  1468 net.cpp:408] conv4_3_norm_conv4_3_norm_0_split -> conv4_3_norm_conv4_3_norm_0_split_2
I0414 18:27:40.672017  1468 net.cpp:150] Setting up conv4_3_norm_conv4_3_norm_0_split
I0414 18:27:40.672026  1468 net.cpp:157] Top shape: 16 512 48 48 (18874368)
I0414 18:27:40.672031  1468 net.cpp:157] Top shape: 16 512 48 48 (18874368)
I0414 18:27:40.672039  1468 net.cpp:157] Top shape: 16 512 48 48 (18874368)
I0414 18:27:40.672041  1468 net.cpp:165] Memory required for data: 6435373184
I0414 18:27:40.672045  1468 layer_factory.hpp:77] Creating layer conv4_3_norm_mbox_loc
I0414 18:27:40.672060  1468 net.cpp:100] Creating Layer conv4_3_norm_mbox_loc
I0414 18:27:40.672065  1468 net.cpp:434] conv4_3_norm_mbox_loc <- conv4_3_norm_conv4_3_norm_0_split_0
I0414 18:27:40.672073  1468 net.cpp:408] conv4_3_norm_mbox_loc -> conv4_3_norm_mbox_loc
I0414 18:27:40.694614  1468 net.cpp:150] Setting up conv4_3_norm_mbox_loc
I0414 18:27:40.694634  1468 net.cpp:157] Top shape: 16 240 48 48 (8847360)
I0414 18:27:40.694639  1468 net.cpp:165] Memory required for data: 6470762624
I0414 18:27:40.694649  1468 layer_factory.hpp:77] Creating layer conv4_3_norm_mbox_loc_perm
I0414 18:27:40.694660  1468 net.cpp:100] Creating Layer conv4_3_norm_mbox_loc_perm
I0414 18:27:40.694666  1468 net.cpp:434] conv4_3_norm_mbox_loc_perm <- conv4_3_norm_mbox_loc
I0414 18:27:40.694677  1468 net.cpp:408] conv4_3_norm_mbox_loc_perm -> conv4_3_norm_mbox_loc_perm
I0414 18:27:40.694816  1468 net.cpp:150] Setting up conv4_3_norm_mbox_loc_perm
I0414 18:27:40.694826  1468 net.cpp:157] Top shape: 16 48 48 240 (8847360)
I0414 18:27:40.694830  1468 net.cpp:165] Memory required for data: 6506152064
I0414 18:27:40.694838  1468 layer_factory.hpp:77] Creating layer conv4_3_norm_mbox_loc_flat
I0414 18:27:40.694854  1468 net.cpp:100] Creating Layer conv4_3_norm_mbox_loc_flat
I0414 18:27:40.694860  1468 net.cpp:434] conv4_3_norm_mbox_loc_flat <- conv4_3_norm_mbox_loc_perm
I0414 18:27:40.694869  1468 net.cpp:408] conv4_3_norm_mbox_loc_flat -> conv4_3_norm_mbox_loc_flat
I0414 18:27:40.694911  1468 net.cpp:150] Setting up conv4_3_norm_mbox_loc_flat
I0414 18:27:40.694921  1468 net.cpp:157] Top shape: 16 552960 (8847360)
I0414 18:27:40.694926  1468 net.cpp:165] Memory required for data: 6541541504
I0414 18:27:40.694931  1468 layer_factory.hpp:77] Creating layer conv4_3_norm_mbox_conf
I0414 18:27:40.694952  1468 net.cpp:100] Creating Layer conv4_3_norm_mbox_conf
I0414 18:27:40.694957  1468 net.cpp:434] conv4_3_norm_mbox_conf <- conv4_3_norm_conv4_3_norm_0_split_1
I0414 18:27:40.694967  1468 net.cpp:408] conv4_3_norm_mbox_conf -> conv4_3_norm_mbox_conf
I0414 18:27:40.700065  1468 net.cpp:150] Setting up conv4_3_norm_mbox_conf
I0414 18:27:40.700084  1468 net.cpp:157] Top shape: 16 40 48 48 (1474560)
I0414 18:27:40.700089  1468 net.cpp:165] Memory required for data: 6547439744
I0414 18:27:40.700098  1468 layer_factory.hpp:77] Creating layer conv4_3_norm_mbox_conf_perm
I0414 18:27:40.700110  1468 net.cpp:100] Creating Layer conv4_3_norm_mbox_conf_perm
I0414 18:27:40.700117  1468 net.cpp:434] conv4_3_norm_mbox_conf_perm <- conv4_3_norm_mbox_conf
I0414 18:27:40.700126  1468 net.cpp:408] conv4_3_norm_mbox_conf_perm -> conv4_3_norm_mbox_conf_perm
I0414 18:27:40.700256  1468 net.cpp:150] Setting up conv4_3_norm_mbox_conf_perm
I0414 18:27:40.700268  1468 net.cpp:157] Top shape: 16 48 48 40 (1474560)
I0414 18:27:40.700271  1468 net.cpp:165] Memory required for data: 6553337984
I0414 18:27:40.700275  1468 layer_factory.hpp:77] Creating layer conv4_3_norm_mbox_conf_flat
I0414 18:27:40.700284  1468 net.cpp:100] Creating Layer conv4_3_norm_mbox_conf_flat
I0414 18:27:40.700291  1468 net.cpp:434] conv4_3_norm_mbox_conf_flat <- conv4_3_norm_mbox_conf_perm
I0414 18:27:40.700299  1468 net.cpp:408] conv4_3_norm_mbox_conf_flat -> conv4_3_norm_mbox_conf_flat
I0414 18:27:40.700330  1468 net.cpp:150] Setting up conv4_3_norm_mbox_conf_flat
I0414 18:27:40.700340  1468 net.cpp:157] Top shape: 16 92160 (1474560)
I0414 18:27:40.700343  1468 net.cpp:165] Memory required for data: 6559236224
I0414 18:27:40.700348  1468 layer_factory.hpp:77] Creating layer conv4_3_norm_mbox_priorbox
I0414 18:27:40.700358  1468 net.cpp:100] Creating Layer conv4_3_norm_mbox_priorbox
I0414 18:27:40.700364  1468 net.cpp:434] conv4_3_norm_mbox_priorbox <- conv4_3_norm_conv4_3_norm_0_split_2
I0414 18:27:40.700371  1468 net.cpp:434] conv4_3_norm_mbox_priorbox <- data_data_0_split_1
I0414 18:27:40.700381  1468 net.cpp:408] conv4_3_norm_mbox_priorbox -> conv4_3_norm_mbox_priorbox
I0414 18:27:40.700417  1468 net.cpp:150] Setting up conv4_3_norm_mbox_priorbox
I0414 18:27:40.700425  1468 net.cpp:157] Top shape: 1 2 184320 (368640)
I0414 18:27:40.700429  1468 net.cpp:165] Memory required for data: 6560710784
I0414 18:27:40.700435  1468 layer_factory.hpp:77] Creating layer fc7_mbox_loc
I0414 18:27:40.700448  1468 net.cpp:100] Creating Layer fc7_mbox_loc
I0414 18:27:40.700455  1468 net.cpp:434] fc7_mbox_loc <- fc7_relu7_0_split_1
I0414 18:27:40.700462  1468 net.cpp:408] fc7_mbox_loc -> fc7_mbox_loc
I0414 18:27:40.743553  1468 net.cpp:150] Setting up fc7_mbox_loc
I0414 18:27:40.743582  1468 net.cpp:157] Top shape: 16 240 24 24 (2211840)
I0414 18:27:40.743587  1468 net.cpp:165] Memory required for data: 6569558144
I0414 18:27:40.743598  1468 layer_factory.hpp:77] Creating layer fc7_mbox_loc_perm
I0414 18:27:40.743607  1468 net.cpp:100] Creating Layer fc7_mbox_loc_perm
I0414 18:27:40.743616  1468 net.cpp:434] fc7_mbox_loc_perm <- fc7_mbox_loc
I0414 18:27:40.743628  1468 net.cpp:408] fc7_mbox_loc_perm -> fc7_mbox_loc_perm
I0414 18:27:40.743755  1468 net.cpp:150] Setting up fc7_mbox_loc_perm
I0414 18:27:40.743767  1468 net.cpp:157] Top shape: 16 24 24 240 (2211840)
I0414 18:27:40.743773  1468 net.cpp:165] Memory required for data: 6578405504
I0414 18:27:40.743777  1468 layer_factory.hpp:77] Creating layer fc7_mbox_loc_flat
I0414 18:27:40.743783  1468 net.cpp:100] Creating Layer fc7_mbox_loc_flat
I0414 18:27:40.743788  1468 net.cpp:434] fc7_mbox_loc_flat <- fc7_mbox_loc_perm
I0414 18:27:40.743795  1468 net.cpp:408] fc7_mbox_loc_flat -> fc7_mbox_loc_flat
I0414 18:27:40.743824  1468 net.cpp:150] Setting up fc7_mbox_loc_flat
I0414 18:27:40.743832  1468 net.cpp:157] Top shape: 16 138240 (2211840)
I0414 18:27:40.743839  1468 net.cpp:165] Memory required for data: 6587252864
I0414 18:27:40.743841  1468 layer_factory.hpp:77] Creating layer fc7_mbox_conf
I0414 18:27:40.743855  1468 net.cpp:100] Creating Layer fc7_mbox_conf
I0414 18:27:40.743861  1468 net.cpp:434] fc7_mbox_conf <- fc7_relu7_0_split_2
I0414 18:27:40.743868  1468 net.cpp:408] fc7_mbox_conf -> fc7_mbox_conf
I0414 18:27:40.751713  1468 net.cpp:150] Setting up fc7_mbox_conf
I0414 18:27:40.751732  1468 net.cpp:157] Top shape: 16 40 24 24 (368640)
I0414 18:27:40.751740  1468 net.cpp:165] Memory required for data: 6588727424
I0414 18:27:40.751754  1468 layer_factory.hpp:77] Creating layer fc7_mbox_conf_perm
I0414 18:27:40.751768  1468 net.cpp:100] Creating Layer fc7_mbox_conf_perm
I0414 18:27:40.751778  1468 net.cpp:434] fc7_mbox_conf_perm <- fc7_mbox_conf
I0414 18:27:40.751794  1468 net.cpp:408] fc7_mbox_conf_perm -> fc7_mbox_conf_perm
I0414 18:27:40.751936  1468 net.cpp:150] Setting up fc7_mbox_conf_perm
I0414 18:27:40.751950  1468 net.cpp:157] Top shape: 16 24 24 40 (368640)
I0414 18:27:40.751956  1468 net.cpp:165] Memory required for data: 6590201984
I0414 18:27:40.751965  1468 layer_factory.hpp:77] Creating layer fc7_mbox_conf_flat
I0414 18:27:40.751981  1468 net.cpp:100] Creating Layer fc7_mbox_conf_flat
I0414 18:27:40.751991  1468 net.cpp:434] fc7_mbox_conf_flat <- fc7_mbox_conf_perm
I0414 18:27:40.752007  1468 net.cpp:408] fc7_mbox_conf_flat -> fc7_mbox_conf_flat
I0414 18:27:40.752045  1468 net.cpp:150] Setting up fc7_mbox_conf_flat
I0414 18:27:40.752058  1468 net.cpp:157] Top shape: 16 23040 (368640)
I0414 18:27:40.752063  1468 net.cpp:165] Memory required for data: 6591676544
I0414 18:27:40.752073  1468 layer_factory.hpp:77] Creating layer fc7_mbox_priorbox
I0414 18:27:40.752089  1468 net.cpp:100] Creating Layer fc7_mbox_priorbox
I0414 18:27:40.752096  1468 net.cpp:434] fc7_mbox_priorbox <- fc7_relu7_0_split_3
I0414 18:27:40.752110  1468 net.cpp:434] fc7_mbox_priorbox <- data_data_0_split_2
I0414 18:27:40.752123  1468 net.cpp:408] fc7_mbox_priorbox -> fc7_mbox_priorbox
I0414 18:27:40.752166  1468 net.cpp:150] Setting up fc7_mbox_priorbox
I0414 18:27:40.752177  1468 net.cpp:157] Top shape: 1 2 46080 (92160)
I0414 18:27:40.752187  1468 net.cpp:165] Memory required for data: 6592045184
I0414 18:27:40.752192  1468 layer_factory.hpp:77] Creating layer conv6_2_mbox_loc
I0414 18:27:40.752204  1468 net.cpp:100] Creating Layer conv6_2_mbox_loc
I0414 18:27:40.752210  1468 net.cpp:434] conv6_2_mbox_loc <- conv6_2_conv6_2_relu_0_split_1
I0414 18:27:40.752219  1468 net.cpp:408] conv6_2_mbox_loc -> conv6_2_mbox_loc
I0414 18:27:40.773710  1468 net.cpp:150] Setting up conv6_2_mbox_loc
I0414 18:27:40.773736  1468 net.cpp:157] Top shape: 16 240 12 12 (552960)
I0414 18:27:40.773744  1468 net.cpp:165] Memory required for data: 6594257024
I0414 18:27:40.773759  1468 layer_factory.hpp:77] Creating layer conv6_2_mbox_loc_perm
I0414 18:27:40.773778  1468 net.cpp:100] Creating Layer conv6_2_mbox_loc_perm
I0414 18:27:40.773789  1468 net.cpp:434] conv6_2_mbox_loc_perm <- conv6_2_mbox_loc
I0414 18:27:40.773805  1468 net.cpp:408] conv6_2_mbox_loc_perm -> conv6_2_mbox_loc_perm
I0414 18:27:40.773947  1468 net.cpp:150] Setting up conv6_2_mbox_loc_perm
I0414 18:27:40.773962  1468 net.cpp:157] Top shape: 16 12 12 240 (552960)
I0414 18:27:40.773972  1468 net.cpp:165] Memory required for data: 6596468864
I0414 18:27:40.773977  1468 layer_factory.hpp:77] Creating layer conv6_2_mbox_loc_flat
I0414 18:27:40.773986  1468 net.cpp:100] Creating Layer conv6_2_mbox_loc_flat
I0414 18:27:40.773993  1468 net.cpp:434] conv6_2_mbox_loc_flat <- conv6_2_mbox_loc_perm
I0414 18:27:40.773998  1468 net.cpp:408] conv6_2_mbox_loc_flat -> conv6_2_mbox_loc_flat
I0414 18:27:40.774035  1468 net.cpp:150] Setting up conv6_2_mbox_loc_flat
I0414 18:27:40.774045  1468 net.cpp:157] Top shape: 16 34560 (552960)
I0414 18:27:40.774051  1468 net.cpp:165] Memory required for data: 6598680704
I0414 18:27:40.774057  1468 layer_factory.hpp:77] Creating layer conv6_2_mbox_conf
I0414 18:27:40.774075  1468 net.cpp:100] Creating Layer conv6_2_mbox_conf
I0414 18:27:40.774083  1468 net.cpp:434] conv6_2_mbox_conf <- conv6_2_conv6_2_relu_0_split_2
I0414 18:27:40.774097  1468 net.cpp:408] conv6_2_mbox_conf -> conv6_2_mbox_conf
I0414 18:27:40.778827  1468 net.cpp:150] Setting up conv6_2_mbox_conf
I0414 18:27:40.778846  1468 net.cpp:157] Top shape: 16 40 12 12 (92160)
I0414 18:27:40.778853  1468 net.cpp:165] Memory required for data: 6599049344
I0414 18:27:40.778887  1468 layer_factory.hpp:77] Creating layer conv6_2_mbox_conf_perm
I0414 18:27:40.778906  1468 net.cpp:100] Creating Layer conv6_2_mbox_conf_perm
I0414 18:27:40.778918  1468 net.cpp:434] conv6_2_mbox_conf_perm <- conv6_2_mbox_conf
I0414 18:27:40.778930  1468 net.cpp:408] conv6_2_mbox_conf_perm -> conv6_2_mbox_conf_perm
I0414 18:27:40.779067  1468 net.cpp:150] Setting up conv6_2_mbox_conf_perm
I0414 18:27:40.779079  1468 net.cpp:157] Top shape: 16 12 12 40 (92160)
I0414 18:27:40.779085  1468 net.cpp:165] Memory required for data: 6599417984
I0414 18:27:40.779094  1468 layer_factory.hpp:77] Creating layer conv6_2_mbox_conf_flat
I0414 18:27:40.779104  1468 net.cpp:100] Creating Layer conv6_2_mbox_conf_flat
I0414 18:27:40.779111  1468 net.cpp:434] conv6_2_mbox_conf_flat <- conv6_2_mbox_conf_perm
I0414 18:27:40.779120  1468 net.cpp:408] conv6_2_mbox_conf_flat -> conv6_2_mbox_conf_flat
I0414 18:27:40.779155  1468 net.cpp:150] Setting up conv6_2_mbox_conf_flat
I0414 18:27:40.779165  1468 net.cpp:157] Top shape: 16 5760 (92160)
I0414 18:27:40.779173  1468 net.cpp:165] Memory required for data: 6599786624
I0414 18:27:40.779181  1468 layer_factory.hpp:77] Creating layer conv6_2_mbox_priorbox
I0414 18:27:40.779196  1468 net.cpp:100] Creating Layer conv6_2_mbox_priorbox
I0414 18:27:40.779203  1468 net.cpp:434] conv6_2_mbox_priorbox <- conv6_2_conv6_2_relu_0_split_3
I0414 18:27:40.779215  1468 net.cpp:434] conv6_2_mbox_priorbox <- data_data_0_split_3
I0414 18:27:40.779227  1468 net.cpp:408] conv6_2_mbox_priorbox -> conv6_2_mbox_priorbox
I0414 18:27:40.779271  1468 net.cpp:150] Setting up conv6_2_mbox_priorbox
I0414 18:27:40.779284  1468 net.cpp:157] Top shape: 1 2 11520 (23040)
I0414 18:27:40.779289  1468 net.cpp:165] Memory required for data: 6599878784
I0414 18:27:40.779297  1468 layer_factory.hpp:77] Creating layer conv7_2_mbox_loc
I0414 18:27:40.779314  1468 net.cpp:100] Creating Layer conv7_2_mbox_loc
I0414 18:27:40.779323  1468 net.cpp:434] conv7_2_mbox_loc <- conv7_2_conv7_2_relu_0_split_1
I0414 18:27:40.779340  1468 net.cpp:408] conv7_2_mbox_loc -> conv7_2_mbox_loc
I0414 18:27:40.790571  1468 net.cpp:150] Setting up conv7_2_mbox_loc
I0414 18:27:40.790591  1468 net.cpp:157] Top shape: 16 240 6 6 (138240)
I0414 18:27:40.790598  1468 net.cpp:165] Memory required for data: 6600431744
I0414 18:27:40.790612  1468 layer_factory.hpp:77] Creating layer conv7_2_mbox_loc_perm
I0414 18:27:40.790627  1468 net.cpp:100] Creating Layer conv7_2_mbox_loc_perm
I0414 18:27:40.790638  1468 net.cpp:434] conv7_2_mbox_loc_perm <- conv7_2_mbox_loc
I0414 18:27:40.790654  1468 net.cpp:408] conv7_2_mbox_loc_perm -> conv7_2_mbox_loc_perm
I0414 18:27:40.790792  1468 net.cpp:150] Setting up conv7_2_mbox_loc_perm
I0414 18:27:40.790804  1468 net.cpp:157] Top shape: 16 6 6 240 (138240)
I0414 18:27:40.790812  1468 net.cpp:165] Memory required for data: 6600984704
I0414 18:27:40.790819  1468 layer_factory.hpp:77] Creating layer conv7_2_mbox_loc_flat
I0414 18:27:40.790830  1468 net.cpp:100] Creating Layer conv7_2_mbox_loc_flat
I0414 18:27:40.790837  1468 net.cpp:434] conv7_2_mbox_loc_flat <- conv7_2_mbox_loc_perm
I0414 18:27:40.790848  1468 net.cpp:408] conv7_2_mbox_loc_flat -> conv7_2_mbox_loc_flat
I0414 18:27:40.790879  1468 net.cpp:150] Setting up conv7_2_mbox_loc_flat
I0414 18:27:40.790889  1468 net.cpp:157] Top shape: 16 8640 (138240)
I0414 18:27:40.790892  1468 net.cpp:165] Memory required for data: 6601537664
I0414 18:27:40.790896  1468 layer_factory.hpp:77] Creating layer conv7_2_mbox_conf
I0414 18:27:40.790910  1468 net.cpp:100] Creating Layer conv7_2_mbox_conf
I0414 18:27:40.790918  1468 net.cpp:434] conv7_2_mbox_conf <- conv7_2_conv7_2_relu_0_split_2
I0414 18:27:40.790925  1468 net.cpp:408] conv7_2_mbox_conf -> conv7_2_mbox_conf
I0414 18:27:40.794392  1468 net.cpp:150] Setting up conv7_2_mbox_conf
I0414 18:27:40.794410  1468 net.cpp:157] Top shape: 16 40 6 6 (23040)
I0414 18:27:40.794415  1468 net.cpp:165] Memory required for data: 6601629824
I0414 18:27:40.794423  1468 layer_factory.hpp:77] Creating layer conv7_2_mbox_conf_perm
I0414 18:27:40.794446  1468 net.cpp:100] Creating Layer conv7_2_mbox_conf_perm
I0414 18:27:40.794453  1468 net.cpp:434] conv7_2_mbox_conf_perm <- conv7_2_mbox_conf
I0414 18:27:40.794463  1468 net.cpp:408] conv7_2_mbox_conf_perm -> conv7_2_mbox_conf_perm
I0414 18:27:40.794589  1468 net.cpp:150] Setting up conv7_2_mbox_conf_perm
I0414 18:27:40.794600  1468 net.cpp:157] Top shape: 16 6 6 40 (23040)
I0414 18:27:40.794602  1468 net.cpp:165] Memory required for data: 6601721984
I0414 18:27:40.794606  1468 layer_factory.hpp:77] Creating layer conv7_2_mbox_conf_flat
I0414 18:27:40.794612  1468 net.cpp:100] Creating Layer conv7_2_mbox_conf_flat
I0414 18:27:40.794618  1468 net.cpp:434] conv7_2_mbox_conf_flat <- conv7_2_mbox_conf_perm
I0414 18:27:40.794626  1468 net.cpp:408] conv7_2_mbox_conf_flat -> conv7_2_mbox_conf_flat
I0414 18:27:40.794659  1468 net.cpp:150] Setting up conv7_2_mbox_conf_flat
I0414 18:27:40.794668  1468 net.cpp:157] Top shape: 16 1440 (23040)
I0414 18:27:40.794672  1468 net.cpp:165] Memory required for data: 6601814144
I0414 18:27:40.794677  1468 layer_factory.hpp:77] Creating layer conv7_2_mbox_priorbox
I0414 18:27:40.794683  1468 net.cpp:100] Creating Layer conv7_2_mbox_priorbox
I0414 18:27:40.794689  1468 net.cpp:434] conv7_2_mbox_priorbox <- conv7_2_conv7_2_relu_0_split_3
I0414 18:27:40.794695  1468 net.cpp:434] conv7_2_mbox_priorbox <- data_data_0_split_4
I0414 18:27:40.794704  1468 net.cpp:408] conv7_2_mbox_priorbox -> conv7_2_mbox_priorbox
I0414 18:27:40.794739  1468 net.cpp:150] Setting up conv7_2_mbox_priorbox
I0414 18:27:40.794749  1468 net.cpp:157] Top shape: 1 2 2880 (5760)
I0414 18:27:40.794752  1468 net.cpp:165] Memory required for data: 6601837184
I0414 18:27:40.794757  1468 layer_factory.hpp:77] Creating layer conv8_2_mbox_loc
I0414 18:27:40.794771  1468 net.cpp:100] Creating Layer conv8_2_mbox_loc
I0414 18:27:40.794777  1468 net.cpp:434] conv8_2_mbox_loc <- conv8_2_conv8_2_relu_0_split_1
I0414 18:27:40.794786  1468 net.cpp:408] conv8_2_mbox_loc -> conv8_2_mbox_loc
I0414 18:27:40.805881  1468 net.cpp:150] Setting up conv8_2_mbox_loc
I0414 18:27:40.805897  1468 net.cpp:157] Top shape: 16 240 4 4 (61440)
I0414 18:27:40.805902  1468 net.cpp:165] Memory required for data: 6602082944
I0414 18:27:40.805925  1468 layer_factory.hpp:77] Creating layer conv8_2_mbox_loc_perm
I0414 18:27:40.805939  1468 net.cpp:100] Creating Layer conv8_2_mbox_loc_perm
I0414 18:27:40.805948  1468 net.cpp:434] conv8_2_mbox_loc_perm <- conv8_2_mbox_loc
I0414 18:27:40.805963  1468 net.cpp:408] conv8_2_mbox_loc_perm -> conv8_2_mbox_loc_perm
I0414 18:27:40.806100  1468 net.cpp:150] Setting up conv8_2_mbox_loc_perm
I0414 18:27:40.806115  1468 net.cpp:157] Top shape: 16 4 4 240 (61440)
I0414 18:27:40.806123  1468 net.cpp:165] Memory required for data: 6602328704
I0414 18:27:40.806131  1468 layer_factory.hpp:77] Creating layer conv8_2_mbox_loc_flat
I0414 18:27:40.806143  1468 net.cpp:100] Creating Layer conv8_2_mbox_loc_flat
I0414 18:27:40.806152  1468 net.cpp:434] conv8_2_mbox_loc_flat <- conv8_2_mbox_loc_perm
I0414 18:27:40.806160  1468 net.cpp:408] conv8_2_mbox_loc_flat -> conv8_2_mbox_loc_flat
I0414 18:27:40.806195  1468 net.cpp:150] Setting up conv8_2_mbox_loc_flat
I0414 18:27:40.806212  1468 net.cpp:157] Top shape: 16 3840 (61440)
I0414 18:27:40.806216  1468 net.cpp:165] Memory required for data: 6602574464
I0414 18:27:40.806221  1468 layer_factory.hpp:77] Creating layer conv8_2_mbox_conf
I0414 18:27:40.806232  1468 net.cpp:100] Creating Layer conv8_2_mbox_conf
I0414 18:27:40.806238  1468 net.cpp:434] conv8_2_mbox_conf <- conv8_2_conv8_2_relu_0_split_2
I0414 18:27:40.806249  1468 net.cpp:408] conv8_2_mbox_conf -> conv8_2_mbox_conf
I0414 18:27:40.809481  1468 net.cpp:150] Setting up conv8_2_mbox_conf
I0414 18:27:40.809499  1468 net.cpp:157] Top shape: 16 40 4 4 (10240)
I0414 18:27:40.809506  1468 net.cpp:165] Memory required for data: 6602615424
I0414 18:27:40.809514  1468 layer_factory.hpp:77] Creating layer conv8_2_mbox_conf_perm
I0414 18:27:40.809525  1468 net.cpp:100] Creating Layer conv8_2_mbox_conf_perm
I0414 18:27:40.809540  1468 net.cpp:434] conv8_2_mbox_conf_perm <- conv8_2_mbox_conf
I0414 18:27:40.809551  1468 net.cpp:408] conv8_2_mbox_conf_perm -> conv8_2_mbox_conf_perm
I0414 18:27:40.809693  1468 net.cpp:150] Setting up conv8_2_mbox_conf_perm
I0414 18:27:40.809706  1468 net.cpp:157] Top shape: 16 4 4 40 (10240)
I0414 18:27:40.809713  1468 net.cpp:165] Memory required for data: 6602656384
I0414 18:27:40.809722  1468 layer_factory.hpp:77] Creating layer conv8_2_mbox_conf_flat
I0414 18:27:40.809737  1468 net.cpp:100] Creating Layer conv8_2_mbox_conf_flat
I0414 18:27:40.809747  1468 net.cpp:434] conv8_2_mbox_conf_flat <- conv8_2_mbox_conf_perm
I0414 18:27:40.809761  1468 net.cpp:408] conv8_2_mbox_conf_flat -> conv8_2_mbox_conf_flat
I0414 18:27:40.809804  1468 net.cpp:150] Setting up conv8_2_mbox_conf_flat
I0414 18:27:40.809816  1468 net.cpp:157] Top shape: 16 640 (10240)
I0414 18:27:40.809823  1468 net.cpp:165] Memory required for data: 6602697344
I0414 18:27:40.809831  1468 layer_factory.hpp:77] Creating layer conv8_2_mbox_priorbox
I0414 18:27:40.809842  1468 net.cpp:100] Creating Layer conv8_2_mbox_priorbox
I0414 18:27:40.809850  1468 net.cpp:434] conv8_2_mbox_priorbox <- conv8_2_conv8_2_relu_0_split_3
I0414 18:27:40.809864  1468 net.cpp:434] conv8_2_mbox_priorbox <- data_data_0_split_5
I0414 18:27:40.809872  1468 net.cpp:408] conv8_2_mbox_priorbox -> conv8_2_mbox_priorbox
I0414 18:27:40.809911  1468 net.cpp:150] Setting up conv8_2_mbox_priorbox
I0414 18:27:40.809921  1468 net.cpp:157] Top shape: 1 2 1280 (2560)
I0414 18:27:40.809924  1468 net.cpp:165] Memory required for data: 6602707584
I0414 18:27:40.809928  1468 layer_factory.hpp:77] Creating layer conv9_2_mbox_loc
I0414 18:27:40.809938  1468 net.cpp:100] Creating Layer conv9_2_mbox_loc
I0414 18:27:40.809945  1468 net.cpp:434] conv9_2_mbox_loc <- conv9_2_conv9_2_relu_0_split_0
I0414 18:27:40.809953  1468 net.cpp:408] conv9_2_mbox_loc -> conv9_2_mbox_loc
I0414 18:27:40.821162  1468 net.cpp:150] Setting up conv9_2_mbox_loc
I0414 18:27:40.821182  1468 net.cpp:157] Top shape: 16 240 2 2 (15360)
I0414 18:27:40.821187  1468 net.cpp:165] Memory required for data: 6602769024
I0414 18:27:40.821193  1468 layer_factory.hpp:77] Creating layer conv9_2_mbox_loc_perm
I0414 18:27:40.821202  1468 net.cpp:100] Creating Layer conv9_2_mbox_loc_perm
I0414 18:27:40.821208  1468 net.cpp:434] conv9_2_mbox_loc_perm <- conv9_2_mbox_loc
I0414 18:27:40.821214  1468 net.cpp:408] conv9_2_mbox_loc_perm -> conv9_2_mbox_loc_perm
I0414 18:27:40.821342  1468 net.cpp:150] Setting up conv9_2_mbox_loc_perm
I0414 18:27:40.821353  1468 net.cpp:157] Top shape: 16 2 2 240 (15360)
I0414 18:27:40.821357  1468 net.cpp:165] Memory required for data: 6602830464
I0414 18:27:40.821362  1468 layer_factory.hpp:77] Creating layer conv9_2_mbox_loc_flat
I0414 18:27:40.821370  1468 net.cpp:100] Creating Layer conv9_2_mbox_loc_flat
I0414 18:27:40.821375  1468 net.cpp:434] conv9_2_mbox_loc_flat <- conv9_2_mbox_loc_perm
I0414 18:27:40.821382  1468 net.cpp:408] conv9_2_mbox_loc_flat -> conv9_2_mbox_loc_flat
I0414 18:27:40.821413  1468 net.cpp:150] Setting up conv9_2_mbox_loc_flat
I0414 18:27:40.821422  1468 net.cpp:157] Top shape: 16 960 (15360)
I0414 18:27:40.821426  1468 net.cpp:165] Memory required for data: 6602891904
I0414 18:27:40.821430  1468 layer_factory.hpp:77] Creating layer conv9_2_mbox_conf
I0414 18:27:40.821441  1468 net.cpp:100] Creating Layer conv9_2_mbox_conf
I0414 18:27:40.821446  1468 net.cpp:434] conv9_2_mbox_conf <- conv9_2_conv9_2_relu_0_split_1
I0414 18:27:40.821455  1468 net.cpp:408] conv9_2_mbox_conf -> conv9_2_mbox_conf
I0414 18:27:40.824710  1468 net.cpp:150] Setting up conv9_2_mbox_conf
I0414 18:27:40.824729  1468 net.cpp:157] Top shape: 16 40 2 2 (2560)
I0414 18:27:40.824736  1468 net.cpp:165] Memory required for data: 6602902144
I0414 18:27:40.824748  1468 layer_factory.hpp:77] Creating layer conv9_2_mbox_conf_perm
I0414 18:27:40.824766  1468 net.cpp:100] Creating Layer conv9_2_mbox_conf_perm
I0414 18:27:40.824777  1468 net.cpp:434] conv9_2_mbox_conf_perm <- conv9_2_mbox_conf
I0414 18:27:40.824805  1468 net.cpp:408] conv9_2_mbox_conf_perm -> conv9_2_mbox_conf_perm
I0414 18:27:40.824951  1468 net.cpp:150] Setting up conv9_2_mbox_conf_perm
I0414 18:27:40.824965  1468 net.cpp:157] Top shape: 16 2 2 40 (2560)
I0414 18:27:40.824971  1468 net.cpp:165] Memory required for data: 6602912384
I0414 18:27:40.824980  1468 layer_factory.hpp:77] Creating layer conv9_2_mbox_conf_flat
I0414 18:27:40.824995  1468 net.cpp:100] Creating Layer conv9_2_mbox_conf_flat
I0414 18:27:40.825003  1468 net.cpp:434] conv9_2_mbox_conf_flat <- conv9_2_mbox_conf_perm
I0414 18:27:40.825016  1468 net.cpp:408] conv9_2_mbox_conf_flat -> conv9_2_mbox_conf_flat
I0414 18:27:40.825060  1468 net.cpp:150] Setting up conv9_2_mbox_conf_flat
I0414 18:27:40.825072  1468 net.cpp:157] Top shape: 16 160 (2560)
I0414 18:27:40.825078  1468 net.cpp:165] Memory required for data: 6602922624
I0414 18:27:40.825086  1468 layer_factory.hpp:77] Creating layer conv9_2_mbox_priorbox
I0414 18:27:40.825099  1468 net.cpp:100] Creating Layer conv9_2_mbox_priorbox
I0414 18:27:40.825107  1468 net.cpp:434] conv9_2_mbox_priorbox <- conv9_2_conv9_2_relu_0_split_2
I0414 18:27:40.825117  1468 net.cpp:434] conv9_2_mbox_priorbox <- data_data_0_split_6
I0414 18:27:40.825131  1468 net.cpp:408] conv9_2_mbox_priorbox -> conv9_2_mbox_priorbox
I0414 18:27:40.825177  1468 net.cpp:150] Setting up conv9_2_mbox_priorbox
I0414 18:27:40.825189  1468 net.cpp:157] Top shape: 1 2 320 (640)
I0414 18:27:40.825198  1468 net.cpp:165] Memory required for data: 6602925184
I0414 18:27:40.825206  1468 layer_factory.hpp:77] Creating layer mbox_loc
I0414 18:27:40.825222  1468 net.cpp:100] Creating Layer mbox_loc
I0414 18:27:40.825232  1468 net.cpp:434] mbox_loc <- conv4_3_norm_mbox_loc_flat
I0414 18:27:40.825242  1468 net.cpp:434] mbox_loc <- fc7_mbox_loc_flat
I0414 18:27:40.825253  1468 net.cpp:434] mbox_loc <- conv6_2_mbox_loc_flat
I0414 18:27:40.825263  1468 net.cpp:434] mbox_loc <- conv7_2_mbox_loc_flat
I0414 18:27:40.825273  1468 net.cpp:434] mbox_loc <- conv8_2_mbox_loc_flat
I0414 18:27:40.825284  1468 net.cpp:434] mbox_loc <- conv9_2_mbox_loc_flat
I0414 18:27:40.825296  1468 net.cpp:408] mbox_loc -> mbox_loc
I0414 18:27:40.825356  1468 net.cpp:150] Setting up mbox_loc
I0414 18:27:40.825368  1468 net.cpp:157] Top shape: 16 739200 (11827200)
I0414 18:27:40.825374  1468 net.cpp:165] Memory required for data: 6650233984
I0414 18:27:40.825381  1468 layer_factory.hpp:77] Creating layer mbox_conf
I0414 18:27:40.825397  1468 net.cpp:100] Creating Layer mbox_conf
I0414 18:27:40.825405  1468 net.cpp:434] mbox_conf <- conv4_3_norm_mbox_conf_flat
I0414 18:27:40.825417  1468 net.cpp:434] mbox_conf <- fc7_mbox_conf_flat
I0414 18:27:40.825426  1468 net.cpp:434] mbox_conf <- conv6_2_mbox_conf_flat
I0414 18:27:40.825436  1468 net.cpp:434] mbox_conf <- conv7_2_mbox_conf_flat
I0414 18:27:40.825445  1468 net.cpp:434] mbox_conf <- conv8_2_mbox_conf_flat
I0414 18:27:40.825455  1468 net.cpp:434] mbox_conf <- conv9_2_mbox_conf_flat
I0414 18:27:40.825466  1468 net.cpp:408] mbox_conf -> mbox_conf
I0414 18:27:40.825506  1468 net.cpp:150] Setting up mbox_conf
I0414 18:27:40.825517  1468 net.cpp:157] Top shape: 16 123200 (1971200)
I0414 18:27:40.825526  1468 net.cpp:165] Memory required for data: 6658118784
I0414 18:27:40.825534  1468 layer_factory.hpp:77] Creating layer mbox_priorbox
I0414 18:27:40.825547  1468 net.cpp:100] Creating Layer mbox_priorbox
I0414 18:27:40.825556  1468 net.cpp:434] mbox_priorbox <- conv4_3_norm_mbox_priorbox
I0414 18:27:40.825567  1468 net.cpp:434] mbox_priorbox <- fc7_mbox_priorbox
I0414 18:27:40.825577  1468 net.cpp:434] mbox_priorbox <- conv6_2_mbox_priorbox
I0414 18:27:40.825587  1468 net.cpp:434] mbox_priorbox <- conv7_2_mbox_priorbox
I0414 18:27:40.825595  1468 net.cpp:434] mbox_priorbox <- conv8_2_mbox_priorbox
I0414 18:27:40.825608  1468 net.cpp:434] mbox_priorbox <- conv9_2_mbox_priorbox
I0414 18:27:40.825618  1468 net.cpp:408] mbox_priorbox -> mbox_priorbox
I0414 18:27:40.825659  1468 net.cpp:150] Setting up mbox_priorbox
I0414 18:27:40.825670  1468 net.cpp:157] Top shape: 1 2 246400 (492800)
I0414 18:27:40.825688  1468 net.cpp:165] Memory required for data: 6660089984
I0414 18:27:40.825697  1468 layer_factory.hpp:77] Creating layer mbox_loss
I0414 18:27:40.825717  1468 net.cpp:100] Creating Layer mbox_loss
I0414 18:27:40.825726  1468 net.cpp:434] mbox_loss <- mbox_loc
I0414 18:27:40.825736  1468 net.cpp:434] mbox_loss <- mbox_conf
I0414 18:27:40.825747  1468 net.cpp:434] mbox_loss <- mbox_priorbox
…
layer {
  name: "data"
  type: "AnnotatedData"
  top: "data"
  top: "label"
  include {
    phase: TEST
  }
  transform_param {
    mean_value: 104
    mean_value: 117
    mean_value: 123
    force_color: true
    resize_param {
      prob: 1
      resize_mode: WARP
      height: 384
      width: 384
      interp_mode: LINEAR
    }
  }
  data_param {
    source: "./data/easy_lmdb/lmdb/text_test_lmdb/"
    batch_size: 1
    backend: LMDB
  }
  annotated_data_param {
    batch_sampler {
    }
    label_map_file: "data/text/labelmap_voc.prototxt"
  }
}
layer {
  name: "conv1_1"
  type: "Convolution"
  bottom: "data"
  top: "conv1_1"
  param {
    lr_mult: 0
    decay_mult: 0
  }
  param {
    lr_mult: 0
    decay_mult: 0
  }
  convolution_param {
    num_output: 64
    pad: 1
    kernel_size: 3
    weight_filler {
      type: "xavier"
    }
    bias_filler {
      type: "constant"
      value: 0
    }
  }
}
layer {
  name: "relu1_1"
  type: "ReLU"
  bottom: "conv1_1"
  top: "conv1_1"
}
layer {
  name: "conv1_2"
  type: "Convolution"
  bottom: "conv1_1"
  top: "conv1_2"
  param {
    lr_mult: 0
    decay_mult: 0
  }
  param {
    lr_mult: 0
    decay_mult: 0
  }
  convolution_param {
    num_output: 64
    pad: 1
    kernel_size: 3
    weight_filler {
      type: "xavier"
    }
    bias_filler {
      type: "constant"
      value: 0
    }
  }
}
layer {
  name: "relu1_2"
  type: "ReLU"
  bottom: "conv1_2"
  top: "conv1_2"
}
layer {
  name: "pool1"
  type: "Pooling"
  bottom: "conv1_2"
  top: "pool1"
  pooling_param {
    pool: MAX
    kernel_size: 2
    stride: 2
  }
}
layer {
  name: "conv2_1"
  type: "Convolution"
  bottom: "pool1"
  top: "conv2_1"
  param {
    lr_mult: 0
    decay_mult: 0
  }
  param {
    lr_mult: 0
    decay_mult: 0
  }
  convolution_param {
    num_output: 128
    pad: 1
    kernel_size: 3
    weight_filler {
      type: "xavier"
    }
    bias_filler {
      type: "constant"
      value: 0
    }
  }
}
layer {
  name: "relu2_1"
  type: "ReLU"
  bottom: "conv2_1"
  top: "conv2_1"
}
layer {
  name: "conv2_2"
  type: "Convolution"
  bottom: "conv2_1"
  top: "conv2_2"
  param {
    lr_mult: 0
    decay_mult: 0
  }
  param {
    lr_mult: 0
    decay_mult: 0
  }
  convolution_param {
    num_output: 128
    pad: 1
    kernel_size: 3
    weight_filler {
      type: "xavier"
    }
    bias_filler {
      type: "constant"
      value: 0
    }
  }
}
layer {
  name: "relu2_2"
  type: "ReLU"
  bottom: "conv2_2"
  top: "conv2_2"
}
layer {
  name: "pool2"
  type: "Pooling"
  bottom: "conv2_2"
  top: "pool2"
  pooling_param {
    pool: MAX
    kernel_size: 2
    stride: 2
  }
}
layer {
  name: "conv3_1"
  type: "Convolution"
  bottom: "pool2"
  top: "conv3_1"
  param {
    lr_mult: 1
    decay_mult: 1
  }
  param {
    lr_mult: 2
    decay_mult: 0
  }
  convolution_param {
    num_output: 256
    pad: 1
    kernel_size: 3
    weight_filler {
      type: "xavier"
    }
    bias_filler {
      type: "constant"
      value: 0
    }
  }
}
layer {
  name: "relu3_1"
  type: "ReLU"
  bottom: "conv3_1"
  top: "conv3_1"
}
layer {
  name: "conv3_2"
  type: "Convolution"
  bottom: "conv3_1"
  top: "conv3_2"
  param {
    lr_mult: 1
    decay_mult: 1
  }
  param {
    lr_mult: 2
    decay_mult: 0
  }
  convolution_param {
    num_output: 256
    pad: 1
    kernel_size: 3
    weight_filler {
      type: "xavier"
    }
    bias_filler {
      type: "constant"
      value: 0
    }
  }
}
layer {
  name: "relu3_2"
  type: "ReLU"
  bottom: "conv3_2"
  top: "conv3_2"
}
layer {
  name: "conv3_3"
  type: "Convolution"
  bottom: "conv3_2"
  top: "conv3_3"
  param {
    lr_mult: 1
    decay_mult: 1
  }
  param {
    lr_mult: 2
    decay_mult: 0
  }
  convolution_param {
    num_output: 256
    pad: 1
    kernel_size: 3
    weight_filler {
      type: "xavier"
    }
    bias_filler {
      type: "constant"
      value: 0
    }
  }
}
layer {
  name: "relu3_3"
  type: "ReLU"
  bottom: "conv3_3"
  top: "conv3_3"
}
layer {
  name: "pool3"
  type: "Pooling"
  bottom: "conv3_3"
  top: "pool3"
  pooling_param {
    pool: MAX
    kernel_size: 2
    stride: 2
  }
}
layer {
  name: "conv4_1"
  type: "Convolution"
  bottom: "pool3"
  top: "conv4_1"
  param {
    lr_mult: 1
    decay_mult: 1
  }
  param {
    lr_mult: 2
    decay_mult: 0
  }
  convolution_param {
    num_output: 512
    pad: 1
    kernel_size: 3
    weight_filler {
      type: "xavier"
    }
    bias_filler {
      type: "constant"
      value: 0
    }
  }
}
layer {
  name: "relu4_1"
  type: "ReLU"
  bottom: "conv4_1"
  top: "conv4_1"
}
layer {
  name: "conv4_2"
  type: "Convolution"
  bottom: "conv4_1"
  top: "conv4_2"
  param {
    lr_mult: 1
    decay_mult: 1
  }
  param {
    lr_mult: 2
    decay_mult: 0
  }
  convolution_param {
    num_output: 512
    pad: 1
    kernel_size: 3
    weight_filler {
      type: "xavier"
    }
    bias_filler {
      type: "constant"
      value: 0
    }
  }
}
layer {
  name: "relu4_2"
  type: "ReLU"
  bottom: "conv4_2"
  top: "conv4_2"
}
layer {
  name: "conv4_3"
  type: "Convolution"
  bottom: "conv4_2"
  top: "conv4_3"
  param {
    lr_mult: 1
    decay_mult: 1
  }
  param {
    lr_mult: 2
    decay_mult: 0
  }
  convolution_param {
    num_output: 512
    pad: 1
    kernel_size: 3
    weight_filler {
      type: "xavier"
    }
    bias_filler {
      type: "constant"
      value: 0
    }
  }
}
layer {
  name: "relu4_3"
  type: "ReLU"
  bottom: "conv4_3"
  top: "conv4_3"
}
layer {
  name: "pool4"
  type: "Pooling"
  bottom: "conv4_3"
  top: "pool4"
  pooling_param {
    pool: MAX
    kernel_size: 2
    stride: 2
  }
}
layer {
  name: "conv5_1"
  type: "Convolution"
  bottom: "pool4"
  top: "conv5_1"
  param {
    lr_mult: 1
    decay_mult: 1
  }
  param {
    lr_mult: 2
    decay_mult: 0
  }
  convolution_param {
    num_output: 512
    pad: 1
    kernel_size: 3
    weight_filler {
      type: "xavier"
    }
    bias_filler {
      type: "constant"
      value: 0
    }
    dilation: 1
  }
}
layer {
  name: "relu5_1"
  type: "ReLU"
  bottom: "conv5_1"
  top: "conv5_1"
}
layer {
  name: "conv5_2"
  type: "Convolution"
  bottom: "conv5_1"
  top: "conv5_2"
  param {
    lr_mult: 1
    decay_mult: 1
  }
  param {
    lr_mult: 2
    decay_mult: 0
  }
  convolution_param {
    num_output: 512
    pad: 1
    kernel_size: 3
    weight_filler {
      type: "xavier"
    }
    bias_filler {
      type: "constant"
      value: 0
    }
    dilation: 1
  }
}
layer {
  name: "relu5_2"
  type: "ReLU"
  bottom: "conv5_2"
  top: "conv5_2"
}
layer {
  name: "conv5_3"
  type: "Convolution"
  bottom: "conv5_2"
  top: "conv5_3"
  param {
    lr_mult: 1
    decay_mult: 1
  }
  param {
    lr_mult: 2
    decay_mult: 0
  }
  convolution_param {
    num_output: 512
    pad: 1
    kernel_size: 3
    weight_filler {
      type: "xavier"
    }
    bias_filler {
      type: "constant"
      value: 0
    }
    dilation: 1
  }
}
layer {
  name: "relu5_3"
  type: "ReLU"
  bottom: "conv5_3"
  top: "conv5_3"
}
layer {
  name: "pool5"
  type: "Pooling"
  bottom: "conv5_3"
  top: "pool5"
  pooling_param {
    pool: MAX
    kernel_size: 3
    stride: 1
    pad: 1
  }
}
layer {
  name: "fc6"
  type: "Convolution"
  bottom: "pool5"
  top: "fc6"
  param {
    lr_mult: 1
    decay_mult: 1
  }
  param {
    lr_mult: 2
    decay_mult: 0
  }
  convolution_param {
    num_output: 1024
    pad: 6
    kernel_size: 3
    weight_filler {
      type: "xavier"
    }
    bias_filler {
      type: "constant"
      value: 0
    }
    dilation: 6
  }
}
layer {
  name: "relu6"
  type: "ReLU"
  bottom: "fc6"
  top: "fc6"
}
layer {
  name: "fc7"
  type: "Convolution"
  bottom: "fc6"
  top: "fc7"
  param {
    lr_mult: 1
    decay_mult: 1
  }
  param {
    lr_mult: 2
    decay_mult: 0
  }
  convolution_param {
    num_output: 1024
    kernel_size: 1
    weight_filler {
      type: "xavier"
    }
    bias_filler {
      type: "constant"
      value: 0
    }
  }
}
layer {
  name: "relu7"
  type: "ReLU"
  bottom: "fc7"
  top: "fc7"
}
layer {
  name: "conv6_1"
  type: "Convolution"
  bottom: "fc7"
  top: "conv6_1"
  param {
    lr_mult: 1
    decay_mult: 1
  }
  param {
    lr_mult: 2
    decay_mult: 0
  }
  convolution_param {
    num_output: 256
    pad: 0
    kernel_size: 1
    stride: 1
    weight_filler {
      type: "xavier"
    }
    bias_filler {
      type: "constant"
      value: 0
    }
  }
}
layer {
  name: "conv6_1_relu"
  type: "ReLU"
  bottom: "conv6_1"
  top: "conv6_1"
}
layer {
  name: "conv6_2"
  type: "Convolution"
  bottom: "conv6_1"
  top: "conv6_2"
  param {
    lr_mult: 1
    decay_mult: 1
  }
  param {
    lr_mult: 2
    decay_mult: 0
  }
  convolution_param {
    num_output: 512
    pad: 1
    kernel_size: 3
    stride: 2
    weight_filler {
      type: "xavier"
    }
    bias_filler {
      type: "constant"
      value: 0
    }
  }
}
layer {
  name: "conv6_2_relu"
  type: "ReLU"
  bottom: "conv6_2"
  top: "conv6_2"
}
layer {
  name: "conv7_1"
  type: "Convolution"
  bottom: "conv6_2"
  top: "conv7_1"
  param {
    lr_mult: 1
    decay_mult: 1
  }
  param {
    lr_mult: 2
    decay_mult: 0
  }
  convolution_param {
    num_output: 128
    pad: 0
    kernel_size: 1
    stride: 1
    weight_filler {
      type: "xavier"
    }
    bias_filler {
      type: "constant"
      value: 0
    }
  }
}
layer {
  name: "conv7_1_relu"
  type: "ReLU"
  bottom: "conv7_1"
  top: "conv7_1"
}
layer {
  name: "conv7_2"
  type: "Convolution"
  bottom: "conv7_1"
  top: "conv7_2"
  param {
    lr_mult: 1
    decay_mult: 1
  }
  param {
    lr_mult: 2
    decay_mult: 0
  }
  convolution_param {
    num_output: 256
    pad: 1
    kernel_size: 3
    stride: 2
    weight_filler {
      type: "xavier"
    }
    bias_filler {
      type: "constant"
      value: 0
    }
  }
}
layer {
  name: "conv7_2_relu"
  type: "ReLU"
  bottom: "conv7_2"
  top: "conv7_2"
}
layer {
  name: "conv8_1"
  type: "Convolution"
  bottom: "conv7_2"
  top: "conv8_1"
  param {
    lr_mult: 1
    decay_mult: 1
  }
  param {
    lr_mult: 2
    decay_mult: 0
  }
  convolution_param {
    num_output: 128
    pad: 0
    kernel_size: 1
    stride: 1
    weight_filler {
      type: "xavier"
    }
    bias_filler {
      type: "constant"
      value: 0
    }
  }
}
layer {
  name: "conv8_1_relu"
  type: "ReLU"
  bottom: "conv8_1"
  top: "conv8_1"
}
layer {
  name: "conv8_2"
  type: "Convolution"
  bottom: "conv8_1"
  top: "conv8_2"
  param {
    lr_mult: 1
    decay_mult: 1
  }
  param {
    lr_mult: 2
    decay_mult: 0
  }
  convolution_param {
    num_output: 256
    pad: 0
    kernel_size: 3
    stride: 1
    weight_filler {
      type: "xavier"
    }
    bias_filler {
      type: "constant"
      value: 0
    }
  }
}
layer {
  name: "conv8_2_relu"
  type: "ReLU"
  bottom: "conv8_2"
  top: "conv8_2"
}
layer {
  name: "conv9_1"
  type: "Convolution"
  bottom: "conv8_2"
  top: "conv9_1"
  param {
    lr_mult: 1
    decay_mult: 1
  }
  param {
    lr_mult: 2
    decay_mult: 0
  }
  convolution_param {
    num_output: 128
    pad: 0
    kernel_size: 1
    stride: 1
    weight_filler {
      type: "xavier"
    }
    bias_filler {
      type: "constant"
      value: 0
    }
  }
}
layer {
  name: "conv9_1_relu"
  type: "ReLU"
  bottom: "conv9_1"
  top: "conv9_1"
}
layer {
  name: "conv9_2"
  type: "Convolution"
  bottom: "conv9_1"
  top: "conv9_2"
  param {
    lr_mult: 1
    decay_mult: 1
  }
  param {
    lr_mult: 2
    decay_mult: 0
  }
  convolution_param {
    num_output: 256
    pad: 0
    kernel_size: 3
    stride: 1
    weight_filler {
      type: "xavier"
    }
    bias_filler {
      type: "constant"
      value: 0
    }
  }
}
layer {
  name: "conv9_2_relu"
  type: "ReLU"
  bottom: "conv9_2"
  top: "conv9_2"
}
layer {
  name: "conv4_3_norm"
  type: "Normalize"
  bottom: "conv4_3"
  top: "conv4_3_norm"
  norm_param {
    across_spatial: false
    scale_filler {
      type: "constant"
      value: 20
    }
    channel_shared: false
  }
}
layer {
  name: "conv4_3_norm_mbox_loc"
  type: "Convolution"
  bottom: "conv4_3_norm"
  top: "conv4_3_norm_mbox_loc"
  param {
    lr_mult: 1
    decay_mult: 1
  }
  param {
    lr_mult: 2
    decay_mult: 0
  }
  convolution_param {
    num_output: 240
    weight_filler {
      type: "xavier"
    }
    bias_filler {
      type: "constant"
      value: 0
    }
    pad_h: 1
    pad_w: 2
    kernel_h: 3
    kernel_w: 5
    stride_h: 1
    stride_w: 1
  }
}
layer {
  name: "conv4_3_norm_mbox_loc_perm"
  type: "Permute"
  bottom: "conv4_3_norm_mbox_loc"
  top: "conv4_3_norm_mbox_loc_perm"
  permute_param {
    order: 0
    order: 2
    order: 3
    order: 1
  }
}
layer {
  name: "conv4_3_norm_mbox_loc_flat"
  type: "Flatten"
  bottom: "conv4_3_norm_mbox_loc_perm"
  top: "conv4_3_norm_mbox_loc_flat"
  flatten_param {
    axis: 1
  }
}
layer {
  name: "conv4_3_norm_mbox_conf"
  type: "Convolution"
  bottom: "conv4_3_norm"
  top: "conv4_3_norm_mbox_conf"
  param {
    lr_mult: 1
    decay_mult: 1
  }
  param {
    lr_mult: 2
    decay_mult: 0
  }
  convolution_param {
    num_output: 40
    weight_filler {
      type: "xavier"
    }
    bias_filler {
      type: "constant"
      value: 0
    }
    pad_h: 1
    pad_w: 2
    kernel_h: 3
    kernel_w: 5
    stride_h: 1
    stride_w: 1
  }
}
layer {
  name: "conv4_3_norm_mbox_conf_perm"
  type: "Permute"
  bottom: "conv4_3_norm_mbox_conf"
  top: "conv4_3_norm_mbox_conf_perm"
  permute_param {
    order: 0
    order: 2
    order: 3
    order: 1
  }
}
layer {
  name: "conv4_3_norm_mbox_conf_flat"
  type: "Flatten"
  bottom: "conv4_3_norm_mbox_conf_perm"
  top: "conv4_3_norm_mbox_conf_flat"
  flatten_param {
    axis: 1
  }
}
layer {
  name: "conv4_3_norm_mbox_priorbox"
  type: "PriorBox"
  bottom: "conv4_3_norm"
  bottom: "data"
  top: "conv4_3_norm_mbox_priorbox"
  prior_box_param {
    min_size: 30
    max_size: 60
    aspect_ratio: 2
    aspect_ratio: 3
    aspect_ratio: 4
    aspect_ratio: 5
    flip: true
    clip: false
    variance: 0.1
    variance: 0.1
    variance: 0.2
    variance: 0.2
    step: 8
    offset: 0.5
    denser_prior_boxes: true
  }
}
layer {
  name: "fc7_mbox_loc"
  type: "Convolution"
  bottom: "fc7"
  top: "fc7_mbox_loc"
  param {
    lr_mult: 1
    decay_mult: 1
  }
  param {
    lr_mult: 2
    decay_mult: 0
  }
  convolution_param {
    num_output: 240
    weight_filler {
      type: "xavier"
    }
    bias_filler {
      type: "constant"
      value: 0
    }
    pad_h: 1
    pad_w: 2
    kernel_h: 3
    kernel_w: 5
    stride_h: 1
    stride_w: 1
  }
}
layer {
  name: "fc7_mbox_loc_perm"
  type: "Permute"
  bottom: "fc7_mbox_loc"
  top: "fc7_mbox_loc_perm"
  permute_param {
    order: 0
    order: 2
    order: 3
    order: 1
  }
}
layer {
  name: "fc7_mbox_loc_flat"
  type: "Flatten"
  bottom: "fc7_mbox_loc_perm"
  top: "fc7_mbox_loc_flat"
  flatten_param {
    axis: 1
  }
}
layer {
  name: "fc7_mbox_conf"
  type: "Convolution"
  bottom: "fc7"
  top: "fc7_mbox_conf"
  param {
    lr_mult: 1
    decay_mult: 1
  }
  param {
    lr_mult: 2
    decay_mult: 0
  }
  convolution_param {
    num_output: 40
    weight_filler {
      type: "xavier"
    }
    bias_filler {
      type: "constant"
      value: 0
    }
    pad_h: 1
    pad_w: 2
    kernel_h: 3
    kernel_w: 5
    stride_h: 1
    stride_w: 1
  }
}
layer {
  name: "fc7_mbox_conf_perm"
  type: "Permute"
  bottom: "fc7_mbox_conf"
  top: "fc7_mbox_conf_perm"
  permute_param {
    order: 0
    order: 2
    order: 3
    order: 1
  }
}
layer {
  name: "fc7_mbox_conf_flat"
  type: "Flatten"
  bottom: "fc7_mbox_conf_perm"
  top: "fc7_mbox_conf_flat"
  flatten_param {
    axis: 1
  }
}
layer {
  name: "fc7_mbox_priorbox"
  type: "PriorBox"
  bottom: "fc7"
  bottom: "data"
  top: "fc7_mbox_priorbox"
  prior_box_param {
    min_size: 30
    max_size: 90
    aspect_ratio: 2
    aspect_ratio: 3
    aspect_ratio: 4
    aspect_ratio: 5
    flip: true
    clip: false
    variance: 0.1
    variance: 0.1
    variance: 0.2
    variance: 0.2
    step: 16
    offset: 0.5
    denser_prior_boxes: true
  }
}
layer {
  name: "conv6_2_mbox_loc"
  type: "Convolution"
  bottom: "conv6_2"
  top: "conv6_2_mbox_loc"
  param {
    lr_mult: 1
    decay_mult: 1
  }
  param {
    lr_mult: 2
    decay_mult: 0
  }
  convolution_param {
    num_output: 240
    weight_filler {
      type: "xavier"
    }
    bias_filler {
      type: "constant"
      value: 0
    }
    pad_h: 1
    pad_w: 2
    kernel_h: 3
    kernel_w: 5
    stride_h: 1
    stride_w: 1
  }
}
layer {
  name: "conv6_2_mbox_loc_perm"
  type: "Permute"
  bottom: "conv6_2_mbox_loc"
  top: "conv6_2_mbox_loc_perm"
  permute_param {
    order: 0
    order: 2
    order: 3
    order: 1
  }
}
layer {
  name: "conv6_2_mbox_loc_flat"
  type: "Flatten"
  bottom: "conv6_2_mbox_loc_perm"
  top: "conv6_2_mbox_loc_flat"
  flatten_param {
    axis: 1
  }
}
layer {
  name: "conv6_2_mbox_conf"
  type: "Convolution"
  bottom: "conv6_2"
  top: "conv6_2_mbox_conf"
  param {
    lr_mult: 1
    decay_mult: 1
  }
  param {
    lr_mult: 2
    decay_mult: 0
  }
  convolution_param {
    num_output: 40
    weight_filler {
      type: "xavier"
    }
    bias_filler {
      type: "constant"
      value: 0
    }
    pad_h: 1
    pad_w: 2
    kernel_h: 3
    kernel_w: 5
    stride_h: 1
    stride_w: 1
  }
}
layer {
  name: "conv6_2_mbox_conf_perm"
  type: "Permute"
  bottom: "conv6_2_mbox_conf"
  top: "conv6_2_mbox_conf_perm"
  permute_param {
    order: 0
    order: 2
    order: 3
    order: 1
  }
}
layer {
  name: "conv6_2_mbox_conf_flat"
  type: "Flatten"
  bottom: "conv6_2_mbox_conf_perm"
  top: "conv6_2_mbox_conf_flat"
  flatten_param {
    axis: 1
  }
}
layer {
  name: "conv6_2_mbox_priorbox"
  type: "PriorBox"
  bottom: "conv6_2"
  bottom: "data"
  top: "conv6_2_mbox_priorbox"
  prior_box_param {
    min_size: 90
    max_size: 150
    aspect_ratio: 2
    aspect_ratio: 3
    aspect_ratio: 4
    aspect_ratio: 5
    flip: true
    clip: false
    variance: 0.1
    variance: 0.1
    variance: 0.2
    variance: 0.2
    step: 32
    offset: 0.5
    denser_prior_boxes: true
  }
}
layer {
  name: "conv7_2_mbox_loc"
  type: "Convolution"
  bottom: "conv7_2"
  top: "conv7_2_mbox_loc"
  param {
    lr_mult: 1
    decay_mult: 1
  }
  param {
    lr_mult: 2
    decay_mult: 0
  }
  convolution_param {
    num_output: 240
    weight_filler {
      type: "xavier"
    }
    bias_filler {
      type: "constant"
      value: 0
    }
    pad_h: 1
    pad_w: 2
    kernel_h: 3
    kernel_w: 5
    stride_h: 1
    stride_w: 1
  }
}
layer {
  name: "conv7_2_mbox_loc_perm"
  type: "Permute"
  bottom: "conv7_2_mbox_loc"
  top: "conv7_2_mbox_loc_perm"
  permute_param {
    order: 0
    order: 2
    order: 3
    order: 1
  }
}
layer {
  name: "conv7_2_mbox_loc_flat"
  type: "Flatten"
  bottom: "conv7_2_mbox_loc_perm"
  top: "conv7_2_mbox_loc_flat"
  flatten_param {
    axis: 1
  }
}
layer {
  name: "conv7_2_mbox_conf"
  type: "Convolution"
  bottom: "conv7_2"
  top: "conv7_2_mbox_conf"
  param {
    lr_mult: 1
    decay_mult: 1
  }
  param {
    lr_mult: 2
    decay_mult: 0
  }
  convolution_param {
    num_output: 40
    weight_filler {
      type: "xavier"
    }
    bias_filler {
      type: "constant"
      value: 0
    }
    pad_h: 1
    pad_w: 2
    kernel_h: 3
    kernel_w: 5
    stride_h: 1
    stride_w: 1
  }
}
layer {
  name: "conv7_2_mbox_conf_perm"
  type: "Permute"
  bottom: "conv7_2_mbox_conf"
  top: "conv7_2_mbox_conf_perm"
  permute_param {
    order: 0
    order: 2
    order: 3
    order: 1
  }
}
layer {
  name: "conv7_2_mbox_conf_flat"
  type: "Flatten"
  bottom: "conv7_2_mbox_conf_perm"
  top: "conv7_2_mbox_conf_flat"
  flatten_param {
    axis: 1
  }
}
layer {
  name: "conv7_2_mbox_priorbox"
  type: "PriorBox"
  bottom: "conv7_2"
  bottom: "data"
  top: "conv7_2_mbox_priorbox"
  prior_box_param {
    min_size: 150
    max_size: 210
    aspect_ratio: 2
    aspect_ratio: 3
    aspect_ratio: 4
    aspect_ratio: 5
    flip: true
    clip: false
    variance: 0.1
    variance: 0.1
    variance: 0.2
    variance: 0.2
    step: 64
    offset: 0.5
    denser_prior_boxes: true
  }
}
layer {
  name: "conv8_2_mbox_loc"
  type: "Convolution"
  bottom: "conv8_2"
  top: "conv8_2_mbox_loc"
  param {
    lr_mult: 1
    decay_mult: 1
  }
  param {
    lr_mult: 2
    decay_mult: 0
  }
  convolution_param {
    num_output: 240
    weight_filler {
      type: "xavier"
    }
    bias_filler {
      type: "constant"
      value: 0
    }
    pad_h: 1
    pad_w: 2
    kernel_h: 3
    kernel_w: 5
    stride_h: 1
    stride_w: 1
  }
}
layer {
  name: "conv8_2_mbox_loc_perm"
  type: "Permute"
  bottom: "conv8_2_mbox_loc"
  top: "conv8_2_mbox_loc_perm"
  permute_param {
    order: 0
    order: 2
    order: 3
    order: 1
  }
}
layer {
  name: "conv8_2_mbox_loc_flat"
  type: "Flatten"
  bottom: "conv8_2_mbox_loc_perm"
  top: "conv8_2_mbox_loc_flat"
  flatten_param {
    axis: 1
  }
}
layer {
  name: "conv8_2_mbox_conf"
  type: "Convolution"
  bottom: "conv8_2"
  top: "conv8_2_mbox_conf"
  param {
    lr_mult: 1
    decay_mult: 1
  }
  param {
    lr_mult: 2
    decay_mult: 0
  }
  convolution_param {
    num_output: 40
    weight_filler {
      type: "xavier"
    }
    bias_filler {
      type: "constant"
      value: 0
    }
    pad_h: 1
    pad_w: 2
    kernel_h: 3
    kernel_w: 5
    stride_h: 1
    stride_w: 1
  }
}
layer {
  name: "conv8_2_mbox_conf_perm"
  type: "Permute"
  bottom: "conv8_2_mbox_conf"
  top: "conv8_2_mbox_conf_perm"
  permute_param {
    order: 0
    order: 2
    order: 3
    order: 1
  }
}
layer {
  name: "conv8_2_mbox_conf_flat"
  type: "Flatten"
  bottom: "conv8_2_mbox_conf_perm"
  top: "conv8_2_mbox_conf_flat"
  flatten_param {
    axis: 1
  }
}
layer {
  name: "conv8_2_mbox_priorbox"
  type: "PriorBox"
  bottom: "conv8_2"
  bottom: "data"
  top: "conv8_2_mbox_priorbox"
  prior_box_param {
    min_size: 210
    max_size: 270
    aspect_ratio: 2
    aspect_ratio: 3
    aspect_ratio: 4
    aspect_ratio: 5
    flip: true
    clip: false
    variance: 0.1
    variance: 0.1
    variance: 0.2
    variance: 0.2
    step: 100
    offset: 0.5
    denser_prior_boxes: true
  }
}
layer {
  name: "conv9_2_mbox_loc"
  type: "Convolution"
  bottom: "conv9_2"
  top: "conv9_2_mbox_loc"
  param {
    lr_mult: 1
    decay_mult: 1
  }
  param {
    lr_mult: 2
    decay_mult: 0
  }
  convolution_param {
    num_output: 240
    weight_filler {
      type: "xavier"
    }
    bias_filler {
      type: "constant"
      value: 0
    }
    pad_h: 1
    pad_w: 2
    kernel_h: 3
    kernel_w: 5
    stride_h: 1
    stride_w: 1
  }
}
layer {
  name: "conv9_2_mbox_loc_perm"
  type: "Permute"
  bottom: "conv9_2_mbox_loc"
  top: "conv9_2_mbox_loc_perm"
  permute_param {
    order: 0
    order: 2
    order: 3
    order: 1
  }
}
layer {
  name: "conv9_2_mbox_loc_flat"
  type: "Flatten"
  bottom: "conv9_2_mbox_loc_perm"
  top: "conv9_2_mbox_loc_flat"
  flatten_param {
    axis: 1
  }
}
layer {
  name: "conv9_2_mbox_conf"
  type: "Convolution"
  bottom: "conv9_2"
  top: "conv9_2_mbox_conf"
  param {
    lr_mult: 1
    decay_mult: 1
  }
  param {
    lr_mult: 2
    decay_mult: 0
  }
  convolution_param {
    num_output: 40
    weight_filler {
      type: "xavier"
    }
    bias_filler {
      type: "constant"
      value: 0
    }
    pad_h: 1
    pad_w: 2
    kernel_h: 3
    kernel_w: 5
    stride_h: 1
    stride_w: 1
  }
}
layer {
  name: "conv9_2_mbox_conf_perm"
  type: "Permute"
  bottom: "conv9_2_mbox_conf"
  top: "conv9_2_mbox_conf_perm"
  permute_param {
    order: 0
    order: 2
    order: 3
    order: 1
  }
}
layer {
  name: "conv9_2_mbox_conf_flat"
  type: "Flatten"
  bottom: "conv9_2_mbox_conf_perm"
  top: "conv9_2_mbox_conf_flat"
  flatten_param {
    axis: 1
  }
}
layer {
  name: "conv9_2_mbox_priorbox"
  type: "PriorBox"
  bottom: "conv9_2"
  bottom: "data"
  top: "conv9_2_mbox_priorbox"
  prior_box_param {
    min_size: 270
    max_size: 330
    aspect_ratio: 2
    aspect_ratio: 3
    aspect_ratio: 4
    aspect_ratio: 5
    flip: true
    clip: false
    variance: 0.1
    variance: 0.1
    variance: 0.2
    variance: 0.2
    step: 300
    offset: 0.5
    denser_prior_boxes: true
  }
}
layer {
  name: "mbox_loc"
  type: "Concat"
  bottom: "conv4_3_norm_mbox_loc_flat"
  bottom: "fc7_mbox_loc_flat"
  bottom: "conv6_2_mbox_loc_flat"
  bottom: "conv7_2_mbox_loc_flat"
  bottom: "conv8_2_mbox_loc_flat"
  bottom: "conv9_2_mbox_loc_flat"
  top: "mbox_loc"
  concat_param {
    axis: 1
  }
}
layer {
  name: "mbox_conf"
  type: "Concat"
  bottom: "conv4_3_norm_mbox_conf_flat"
  bottom: "fc7_mbox_conf_flat"
  bottom: "conv6_2_mbox_conf_flat"
  bottom: "conv7_2_mbox_conf_flat"
  bottom: "conv8_2_mbox_conf_flat"
  bottom: "conv9_2_mbox_conf_flat"
  top: "mbox_conf"
  concat_param {
    axis: 1
  }
}
layer {
  name: "mbox_priorbox"
  type: "Concat"
  bottom: "conv4_3_norm_mbox_priorbox"
  bottom: "fc7_mbox_priorbox"
  bottom: "conv6_2_mbox_priorbox"
  bottom: "conv7_2_mbox_priorbox"
  bottom: "conv8_2_mbox_priorbox"
  bottom: "conv9_2_mbox_priorbox"
  top: "mbox_priorbox"
  concat_param {
    axis: 2
  }
}
layer {
  name: "mbox_conf_reshape"
  type: "Reshape"
  bottom: "mbox_conf"
  top: "mbox_conf_reshape"
  reshape_param {
    shape {
      dim: 0
      dim: -1
      dim: 2
    }
  }
}
layer {
  name: "mbox_conf_softmax"
  type: "Softmax"
  bottom: "mbox_conf_reshape"
  top: "mbox_conf_softmax"
  softmax_param {
    axis: 2
  }
}
layer {
  name: "mbox_conf_flatten"
  type: "Flatten"
  bottom: "mbox_conf_softmax"
  top: "mbox_conf_flatten"
  flatten_param {
    axis: 1
  }
}
layer {
  name: "detection_out"
  type: "DetectionOutput"
  bottom: "mbox_loc"
  bottom: "mbox_conf_flatten"
  bottom: "mbox_priorbox"
  top: "detection_out"
  include {
    phase: TEST
  }
  detection_output_param {
    num_classes: 2
    share_location: true
    background_label_id: 0
    nms_param {
      nms_threshold: 0.45
      top_k: 400
    }
    save_output_param {
      output_directory: "/home/amax/data/text/results/text/text_polygon_precise_fix_order_384x384/Main"
      output_name_prefix: "comp4_det_test_"
      output_format: "VOC"
      label_map_file: "data/text/labelmap_voc.prototxt"
      num_test_image: 500
    }
    code_type: CENTER_SIZE
    keep_top_k: 200
    confidence_threshold: 0.01
    use_polygon: true
  }
}
layer {
  name: "detection_eval"
  type: "DetectionEvaluate"
  bottom: "detection_out"
  bottom: "label"
  top: "detection_eval"
  include {
    phase: TEST
  }
  detection_evaluate_param {
    num_classes: 2
    background_label_id: 0
    overlap_threshold: 0.5
    evaluate_difficult_gt: false
    use_polygon: true
  }
}
I0414 18:27:40.830745  1468 layer_factory.hpp:77] Creating layer data
I0414 18:27:40.830821  1468 net.cpp:100] Creating Layer data
I0414 18:27:40.830833  1468 net.cpp:408] data -> data
I0414 18:27:40.830847  1468 net.cpp:408] data -> label
I0414 18:27:40.832109  1503 db_lmdb.cpp:35] Opened lmdb ./data/easy_lmdb/lmdb/text_test_lmdb/
I0414 18:27:40.842617  1468 annotated_data_layer.cpp:62] output data size: 1,3,384,384
I0414 18:27:40.847539  1468 net.cpp:150] Setting up data
I0414 18:27:40.847586  1468 net.cpp:157] Top shape: 1 3 384 384 (442368)
I0414 18:27:40.847596  1468 net.cpp:157] Top shape: 1 1 15 16 (240)
I0414 18:27:40.847600  1468 net.cpp:165] Memory required for data: 1770432
I0414 18:27:40.847605  1468 layer_factory.hpp:77] Creating layer data_data_0_split
I0414 18:27:40.847615  1468 net.cpp:100] Creating Layer data_data_0_split
I0414 18:27:40.847620  1468 net.cpp:434] data_data_0_split <- data
I0414 18:27:40.847627  1468 net.cpp:408] data_data_0_split -> data_data_0_split_0
I0414 18:27:40.847637  1468 net.cpp:408] data_data_0_split -> data_data_0_split_1
I0414 18:27:40.847646  1468 net.cpp:408] data_data_0_split -> data_data_0_split_2
I0414 18:27:40.847654  1468 net.cpp:408] data_data_0_split -> data_data_0_split_3
I0414 18:27:40.847661  1468 net.cpp:408] data_data_0_split -> data_data_0_split_4
I0414 18:27:40.847668  1468 net.cpp:408] data_data_0_split -> data_data_0_split_5
I0414 18:27:40.847674  1468 net.cpp:408] data_data_0_split -> data_data_0_split_6
I0414 18:27:40.847856  1468 net.cpp:150] Setting up data_data_0_split
I0414 18:27:40.847872  1468 net.cpp:157] Top shape: 1 3 384 384 (442368)
I0414 18:27:40.847879  1468 net.cpp:157] Top shape: 1 3 384 384 (442368)
I0414 18:27:40.847890  1468 net.cpp:157] Top shape: 1 3 384 384 (442368)
I0414 18:27:40.847898  1468 net.cpp:157] Top shape: 1 3 384 384 (442368)
I0414 18:27:40.847908  1468 net.cpp:157] Top shape: 1 3 384 384 (442368)
I0414 18:27:40.847914  1468 net.cpp:157] Top shape: 1 3 384 384 (442368)
I0414 18:27:40.847925  1468 net.cpp:157] Top shape: 1 3 384 384 (442368)
I0414 18:27:40.847931  1468 net.cpp:165] Memory required for data: 14156736
I0414 18:27:40.847937  1468 layer_factory.hpp:77] Creating layer conv1_1
I0414 18:27:40.847955  1468 net.cpp:100] Creating Layer conv1_1
I0414 18:27:40.847964  1468 net.cpp:434] conv1_1 <- data_data_0_split_0
I0414 18:27:40.847973  1468 net.cpp:408] conv1_1 -> conv1_1
I0414 18:27:40.850657  1468 net.cpp:150] Setting up conv1_1
I0414 18:27:40.850677  1468 net.cpp:157] Top shape: 1 64 384 384 (9437184)
I0414 18:27:40.850682  1468 net.cpp:165] Memory required for data: 51905472
I0414 18:27:40.850694  1468 layer_factory.hpp:77] Creating layer relu1_1
I0414 18:27:40.850703  1468 net.cpp:100] Creating Layer relu1_1
I0414 18:27:40.850708  1468 net.cpp:434] relu1_1 <- conv1_1
I0414 18:27:40.850715  1468 net.cpp:395] relu1_1 -> conv1_1 (in-place)
I0414 18:27:40.851153  1468 net.cpp:150] Setting up relu1_1
I0414 18:27:40.851169  1468 net.cpp:157] Top shape: 1 64 384 384 (9437184)
I0414 18:27:40.851176  1468 net.cpp:165] Memory required for data: 89654208
I0414 18:27:40.851182  1468 layer_factory.hpp:77] Creating layer conv1_2
I0414 18:27:40.851197  1468 net.cpp:100] Creating Layer conv1_2
I0414 18:27:40.851227  1468 net.cpp:434] conv1_2 <- conv1_1
I0414 18:27:40.851255  1468 net.cpp:408] conv1_2 -> conv1_2
I0414 18:27:40.854812  1468 net.cpp:150] Setting up conv1_2
I0414 18:27:40.854856  1468 net.cpp:157] Top shape: 1 64 384 384 (9437184)
I0414 18:27:40.854879  1468 net.cpp:165] Memory required for data: 127402944
I0414 18:27:40.854910  1468 layer_factory.hpp:77] Creating layer relu1_2
I0414 18:27:40.854938  1468 net.cpp:100] Creating Layer relu1_2
I0414 18:27:40.854943  1468 net.cpp:434] relu1_2 <- conv1_2
I0414 18:27:40.854950  1468 net.cpp:395] relu1_2 -> conv1_2 (in-place)
I0414 18:27:40.855207  1468 net.cpp:150] Setting up relu1_2
I0414 18:27:40.855226  1468 net.cpp:157] Top shape: 1 64 384 384 (9437184)
I0414 18:27:40.855232  1468 net.cpp:165] Memory required for data: 165151680
I0414 18:27:40.855238  1468 layer_factory.hpp:77] Creating layer pool1
I0414 18:27:40.855248  1468 net.cpp:100] Creating Layer pool1
I0414 18:27:40.855258  1468 net.cpp:434] pool1 <- conv1_2
I0414 18:27:40.855268  1468 net.cpp:408] pool1 -> pool1
I0414 18:27:40.855338  1468 net.cpp:150] Setting up pool1
I0414 18:27:40.855348  1468 net.cpp:157] Top shape: 1 64 192 192 (2359296)
I0414 18:27:40.855352  1468 net.cpp:165] Memory required for data: 174588864
I0414 18:27:40.855356  1468 layer_factory.hpp:77] Creating layer conv2_1
I0414 18:27:40.855365  1468 net.cpp:100] Creating Layer conv2_1
I0414 18:27:40.855370  1468 net.cpp:434] conv2_1 <- pool1
I0414 18:27:40.855377  1468 net.cpp:408] conv2_1 -> conv2_1
I0414 18:27:40.857897  1468 net.cpp:150] Setting up conv2_1
I0414 18:27:40.857919  1468 net.cpp:157] Top shape: 1 128 192 192 (4718592)
I0414 18:27:40.857925  1468 net.cpp:165] Memory required for data: 193463232
I0414 18:27:40.857940  1468 layer_factory.hpp:77] Creating layer relu2_1
I0414 18:27:40.857951  1468 net.cpp:100] Creating Layer relu2_1
I0414 18:27:40.857959  1468 net.cpp:434] relu2_1 <- conv2_1
I0414 18:27:40.857967  1468 net.cpp:395] relu2_1 -> conv2_1 (in-place)
I0414 18:27:40.858204  1468 net.cpp:150] Setting up relu2_1
I0414 18:27:40.858248  1468 net.cpp:157] Top shape: 1 128 192 192 (4718592)
I0414 18:27:40.858271  1468 net.cpp:165] Memory required for data: 212337600
I0414 18:27:40.858291  1468 layer_factory.hpp:77] Creating layer conv2_2
I0414 18:27:40.858319  1468 net.cpp:100] Creating Layer conv2_2
I0414 18:27:40.858338  1468 net.cpp:434] conv2_2 <- conv2_1
I0414 18:27:40.858371  1468 net.cpp:408] conv2_2 -> conv2_2
I0414 18:27:40.862262  1468 net.cpp:150] Setting up conv2_2
I0414 18:27:40.862306  1468 net.cpp:157] Top shape: 1 128 192 192 (4718592)
I0414 18:27:40.862315  1468 net.cpp:165] Memory required for data: 231211968
I0414 18:27:40.862323  1468 layer_factory.hpp:77] Creating layer relu2_2
I0414 18:27:40.862330  1468 net.cpp:100] Creating Layer relu2_2
I0414 18:27:40.862334  1468 net.cpp:434] relu2_2 <- conv2_2
I0414 18:27:40.862345  1468 net.cpp:395] relu2_2 -> conv2_2 (in-place)
I0414 18:27:40.863029  1468 net.cpp:150] Setting up relu2_2
I0414 18:27:40.863066  1468 net.cpp:157] Top shape: 1 128 192 192 (4718592)
I0414 18:27:40.863075  1468 net.cpp:165] Memory required for data: 250086336
I0414 18:27:40.863080  1468 layer_factory.hpp:77] Creating layer pool2
I0414 18:27:40.863086  1468 net.cpp:100] Creating Layer pool2
I0414 18:27:40.863090  1468 net.cpp:434] pool2 <- conv2_2
I0414 18:27:40.863097  1468 net.cpp:408] pool2 -> pool2
I0414 18:27:40.863169  1468 net.cpp:150] Setting up pool2
I0414 18:27:40.863183  1468 net.cpp:157] Top shape: 1 128 96 96 (1179648)
I0414 18:27:40.863189  1468 net.cpp:165] Memory required for data: 254804928
I0414 18:27:40.863195  1468 layer_factory.hpp:77] Creating layer conv3_1
I0414 18:27:40.863209  1468 net.cpp:100] Creating Layer conv3_1
I0414 18:27:40.863214  1468 net.cpp:434] conv3_1 <- pool2
I0414 18:27:40.863230  1468 net.cpp:408] conv3_1 -> conv3_1
I0414 18:27:40.868451  1468 net.cpp:150] Setting up conv3_1
I0414 18:27:40.868468  1468 net.cpp:157] Top shape: 1 256 96 96 (2359296)
I0414 18:27:40.868474  1468 net.cpp:165] Memory required for data: 264242112
I0414 18:27:40.868484  1468 layer_factory.hpp:77] Creating layer relu3_1
I0414 18:27:40.868494  1468 net.cpp:100] Creating Layer relu3_1
I0414 18:27:40.868499  1468 net.cpp:434] relu3_1 <- conv3_1
I0414 18:27:40.868505  1468 net.cpp:395] relu3_1 -> conv3_1 (in-place)
I0414 18:27:40.868763  1468 net.cpp:150] Setting up relu3_1
I0414 18:27:40.868780  1468 net.cpp:157] Top shape: 1 256 96 96 (2359296)
I0414 18:27:40.868788  1468 net.cpp:165] Memory required for data: 273679296
I0414 18:27:40.868809  1468 layer_factory.hpp:77] Creating layer conv3_2
I0414 18:27:40.868827  1468 net.cpp:100] Creating Layer conv3_2
I0414 18:27:40.868835  1468 net.cpp:434] conv3_2 <- conv3_1
I0414 18:27:40.868849  1468 net.cpp:408] conv3_2 -> conv3_2
I0414 18:27:40.877527  1468 net.cpp:150] Setting up conv3_2
I0414 18:27:40.877547  1468 net.cpp:157] Top shape: 1 256 96 96 (2359296)
I0414 18:27:40.877550  1468 net.cpp:165] Memory required for data: 283116480
I0414 18:27:40.877558  1468 layer_factory.hpp:77] Creating layer relu3_2
I0414 18:27:40.877565  1468 net.cpp:100] Creating Layer relu3_2
I0414 18:27:40.877571  1468 net.cpp:434] relu3_2 <- conv3_2
I0414 18:27:40.877578  1468 net.cpp:395] relu3_2 -> conv3_2 (in-place)
I0414 18:27:40.877830  1468 net.cpp:150] Setting up relu3_2
I0414 18:27:40.877871  1468 net.cpp:157] Top shape: 1 256 96 96 (2359296)
I0414 18:27:40.877882  1468 net.cpp:165] Memory required for data: 292553664
I0414 18:27:40.877888  1468 layer_factory.hpp:77] Creating layer conv3_3
I0414 18:27:40.877905  1468 net.cpp:100] Creating Layer conv3_3
I0414 18:27:40.877913  1468 net.cpp:434] conv3_3 <- conv3_2
I0414 18:27:40.877926  1468 net.cpp:408] conv3_3 -> conv3_3
I0414 18:27:40.886590  1468 net.cpp:150] Setting up conv3_3
I0414 18:27:40.886637  1468 net.cpp:157] Top shape: 1 256 96 96 (2359296)
I0414 18:27:40.886660  1468 net.cpp:165] Memory required for data: 301990848
I0414 18:27:40.886684  1468 layer_factory.hpp:77] Creating layer relu3_3
I0414 18:27:40.886699  1468 net.cpp:100] Creating Layer relu3_3
I0414 18:27:40.886704  1468 net.cpp:434] relu3_3 <- conv3_3
I0414 18:27:40.886716  1468 net.cpp:395] relu3_3 -> conv3_3 (in-place)
I0414 18:27:40.887169  1468 net.cpp:150] Setting up relu3_3
I0414 18:27:40.887207  1468 net.cpp:157] Top shape: 1 256 96 96 (2359296)
I0414 18:27:40.887228  1468 net.cpp:165] Memory required for data: 311428032
I0414 18:27:40.887248  1468 layer_factory.hpp:77] Creating layer pool3
I0414 18:27:40.887271  1468 net.cpp:100] Creating Layer pool3
I0414 18:27:40.887291  1468 net.cpp:434] pool3 <- conv3_3
I0414 18:27:40.887315  1468 net.cpp:408] pool3 -> pool3
I0414 18:27:40.887411  1468 net.cpp:150] Setting up pool3
I0414 18:27:40.887439  1468 net.cpp:157] Top shape: 1 256 48 48 (589824)
I0414 18:27:40.887449  1468 net.cpp:165] Memory required for data: 313787328
I0414 18:27:40.887452  1468 layer_factory.hpp:77] Creating layer conv4_1
I0414 18:27:40.887462  1468 net.cpp:100] Creating Layer conv4_1
I0414 18:27:40.887468  1468 net.cpp:434] conv4_1 <- pool3
I0414 18:27:40.887476  1468 net.cpp:408] conv4_1 -> conv4_1
I0414 18:27:40.902977  1468 net.cpp:150] Setting up conv4_1
I0414 18:27:40.902997  1468 net.cpp:157] Top shape: 1 512 48 48 (1179648)
I0414 18:27:40.903002  1468 net.cpp:165] Memory required for data: 318505920
I0414 18:27:40.903008  1468 layer_factory.hpp:77] Creating layer relu4_1
I0414 18:27:40.903019  1468 net.cpp:100] Creating Layer relu4_1
I0414 18:27:40.903024  1468 net.cpp:434] relu4_1 <- conv4_1
I0414 18:27:40.903031  1468 net.cpp:395] relu4_1 -> conv4_1 (in-place)
I0414 18:27:40.903303  1468 net.cpp:150] Setting up relu4_1
I0414 18:27:40.903319  1468 net.cpp:157] Top shape: 1 512 48 48 (1179648)
I0414 18:27:40.903324  1468 net.cpp:165] Memory required for data: 323224512
I0414 18:27:40.903328  1468 layer_factory.hpp:77] Creating layer conv4_2
I0414 18:27:40.903338  1468 net.cpp:100] Creating Layer conv4_2
I0414 18:27:40.903344  1468 net.cpp:434] conv4_2 <- conv4_1
I0414 18:27:40.903352  1468 net.cpp:408] conv4_2 -> conv4_2
I0414 18:27:40.932529  1468 net.cpp:150] Setting up conv4_2
I0414 18:27:40.932555  1468 net.cpp:157] Top shape: 1 512 48 48 (1179648)
I0414 18:27:40.932562  1468 net.cpp:165] Memory required for data: 327943104
I0414 18:27:40.932581  1468 layer_factory.hpp:77] Creating layer relu4_2
I0414 18:27:40.932592  1468 net.cpp:100] Creating Layer relu4_2
I0414 18:27:40.932598  1468 net.cpp:434] relu4_2 <- conv4_2
I0414 18:27:40.932605  1468 net.cpp:395] relu4_2 -> conv4_2 (in-place)
I0414 18:27:40.932875  1468 net.cpp:150] Setting up relu4_2
I0414 18:27:40.932893  1468 net.cpp:157] Top shape: 1 512 48 48 (1179648)
I0414 18:27:40.932902  1468 net.cpp:165] Memory required for data: 332661696
I0414 18:27:40.932909  1468 layer_factory.hpp:77] Creating layer conv4_3
I0414 18:27:40.932925  1468 net.cpp:100] Creating Layer conv4_3
I0414 18:27:40.932934  1468 net.cpp:434] conv4_3 <- conv4_2
I0414 18:27:40.932946  1468 net.cpp:408] conv4_3 -> conv4_3
I0414 18:27:40.962059  1468 net.cpp:150] Setting up conv4_3
I0414 18:27:40.962080  1468 net.cpp:157] Top shape: 1 512 48 48 (1179648)
I0414 18:27:40.962088  1468 net.cpp:165] Memory required for data: 337380288
I0414 18:27:40.962100  1468 layer_factory.hpp:77] Creating layer relu4_3
I0414 18:27:40.962136  1468 net.cpp:100] Creating Layer relu4_3
I0414 18:27:40.962160  1468 net.cpp:434] relu4_3 <- conv4_3
I0414 18:27:40.962185  1468 net.cpp:395] relu4_3 -> conv4_3 (in-place)
I0414 18:27:40.962695  1468 net.cpp:150] Setting up relu4_3
I0414 18:27:40.962713  1468 net.cpp:157] Top shape: 1 512 48 48 (1179648)
I0414 18:27:40.962716  1468 net.cpp:165] Memory required for data: 342098880
I0414 18:27:40.962721  1468 layer_factory.hpp:77] Creating layer conv4_3_relu4_3_0_split
I0414 18:27:40.962728  1468 net.cpp:100] Creating Layer conv4_3_relu4_3_0_split
I0414 18:27:40.962734  1468 net.cpp:434] conv4_3_relu4_3_0_split <- conv4_3
I0414 18:27:40.962741  1468 net.cpp:408] conv4_3_relu4_3_0_split -> conv4_3_relu4_3_0_split_0
I0414 18:27:40.962751  1468 net.cpp:408] conv4_3_relu4_3_0_split -> conv4_3_relu4_3_0_split_1
I0414 18:27:40.962823  1468 net.cpp:150] Setting up conv4_3_relu4_3_0_split
I0414 18:27:40.962858  1468 net.cpp:157] Top shape: 1 512 48 48 (1179648)
I0414 18:27:40.962882  1468 net.cpp:157] Top shape: 1 512 48 48 (1179648)
I0414 18:27:40.962900  1468 net.cpp:165] Memory required for data: 351536064
I0414 18:27:40.962919  1468 layer_factory.hpp:77] Creating layer pool4
I0414 18:27:40.962944  1468 net.cpp:100] Creating Layer pool4
I0414 18:27:40.962963  1468 net.cpp:434] pool4 <- conv4_3_relu4_3_0_split_0
I0414 18:27:40.962987  1468 net.cpp:408] pool4 -> pool4
I0414 18:27:40.963076  1468 net.cpp:150] Setting up pool4
I0414 18:27:40.963088  1468 net.cpp:157] Top shape: 1 512 24 24 (294912)
I0414 18:27:40.963091  1468 net.cpp:165] Memory required for data: 352715712
I0414 18:27:40.963095  1468 layer_factory.hpp:77] Creating layer conv5_1
I0414 18:27:40.963109  1468 net.cpp:100] Creating Layer conv5_1
I0414 18:27:40.963114  1468 net.cpp:434] conv5_1 <- pool4
I0414 18:27:40.963122  1468 net.cpp:408] conv5_1 -> conv5_1
I0414 18:27:40.992512  1468 net.cpp:150] Setting up conv5_1
I0414 18:27:40.992537  1468 net.cpp:157] Top shape: 1 512 24 24 (294912)
I0414 18:27:40.992542  1468 net.cpp:165] Memory required for data: 353895360
I0414 18:27:40.992549  1468 layer_factory.hpp:77] Creating layer relu5_1
I0414 18:27:40.992559  1468 net.cpp:100] Creating Layer relu5_1
I0414 18:27:40.992564  1468 net.cpp:434] relu5_1 <- conv5_1
I0414 18:27:40.992573  1468 net.cpp:395] relu5_1 -> conv5_1 (in-place)
I0414 18:27:40.992851  1468 net.cpp:150] Setting up relu5_1
I0414 18:27:40.992864  1468 net.cpp:157] Top shape: 1 512 24 24 (294912)
I0414 18:27:40.992868  1468 net.cpp:165] Memory required for data: 355075008
I0414 18:27:40.992875  1468 layer_factory.hpp:77] Creating layer conv5_2
I0414 18:27:40.992887  1468 net.cpp:100] Creating Layer conv5_2
I0414 18:27:40.992892  1468 net.cpp:434] conv5_2 <- conv5_1
I0414 18:27:40.992899  1468 net.cpp:408] conv5_2 -> conv5_2
I0414 18:27:41.022058  1468 net.cpp:150] Setting up conv5_2
I0414 18:27:41.022091  1468 net.cpp:157] Top shape: 1 512 24 24 (294912)
I0414 18:27:41.022099  1468 net.cpp:165] Memory required for data: 356254656
I0414 18:27:41.022110  1468 layer_factory.hpp:77] Creating layer relu5_2
I0414 18:27:41.022127  1468 net.cpp:100] Creating Layer relu5_2
I0414 18:27:41.022135  1468 net.cpp:434] relu5_2 <- conv5_2
I0414 18:27:41.022148  1468 net.cpp:395] relu5_2 -> conv5_2 (in-place)
I0414 18:27:41.022389  1468 net.cpp:150] Setting up relu5_2
I0414 18:27:41.022418  1468 net.cpp:157] Top shape: 1 512 24 24 (294912)
I0414 18:27:41.022423  1468 net.cpp:165] Memory required for data: 357434304
I0414 18:27:41.022426  1468 layer_factory.hpp:77] Creating layer conv5_3
I0414 18:27:41.022447  1468 net.cpp:100] Creating Layer conv5_3
I0414 18:27:41.022457  1468 net.cpp:434] conv5_3 <- conv5_2
I0414 18:27:41.022473  1468 net.cpp:408] conv5_3 -> conv5_3
I0414 18:27:41.051554  1468 net.cpp:150] Setting up conv5_3
I0414 18:27:41.051585  1468 net.cpp:157] Top shape: 1 512 24 24 (294912)
I0414 18:27:41.051592  1468 net.cpp:165] Memory required for data: 358613952
I0414 18:27:41.051604  1468 layer_factory.hpp:77] Creating layer relu5_3
I0414 18:27:41.051628  1468 net.cpp:100] Creating Layer relu5_3
I0414 18:27:41.051640  1468 net.cpp:434] relu5_3 <- conv5_3
I0414 18:27:41.051652  1468 net.cpp:395] relu5_3 -> conv5_3 (in-place)
I0414 18:27:41.052129  1468 net.cpp:150] Setting up relu5_3
I0414 18:27:41.052143  1468 net.cpp:157] Top shape: 1 512 24 24 (294912)
I0414 18:27:41.052150  1468 net.cpp:165] Memory required for data: 359793600
I0414 18:27:41.052155  1468 layer_factory.hpp:77] Creating layer pool5
I0414 18:27:41.052165  1468 net.cpp:100] Creating Layer pool5
I0414 18:27:41.052171  1468 net.cpp:434] pool5 <- conv5_3
I0414 18:27:41.052178  1468 net.cpp:408] pool5 -> pool5
I0414 18:27:41.052263  1468 net.cpp:150] Setting up pool5
I0414 18:27:41.052276  1468 net.cpp:157] Top shape: 1 512 24 24 (294912)
I0414 18:27:41.052285  1468 net.cpp:165] Memory required for data: 360973248
I0414 18:27:41.052291  1468 layer_factory.hpp:77] Creating layer fc6
I0414 18:27:41.052309  1468 net.cpp:100] Creating Layer fc6
I0414 18:27:41.052314  1468 net.cpp:434] fc6 <- pool5
I0414 18:27:41.052326  1468 net.cpp:408] fc6 -> fc6
I0414 18:27:41.108079  1468 net.cpp:150] Setting up fc6
I0414 18:27:41.108176  1468 net.cpp:157] Top shape: 1 1024 24 24 (589824)
I0414 18:27:41.108203  1468 net.cpp:165] Memory required for data: 363332544
I0414 18:27:41.108235  1468 layer_factory.hpp:77] Creating layer relu6
I0414 18:27:41.108264  1468 net.cpp:100] Creating Layer relu6
I0414 18:27:41.108274  1468 net.cpp:434] relu6 <- fc6
I0414 18:27:41.108288  1468 net.cpp:395] relu6 -> fc6 (in-place)
I0414 18:27:41.108628  1468 net.cpp:150] Setting up relu6
I0414 18:27:41.108667  1468 net.cpp:157] Top shape: 1 1024 24 24 (589824)
I0414 18:27:41.108675  1468 net.cpp:165] Memory required for data: 365691840
I0414 18:27:41.108680  1468 layer_factory.hpp:77] Creating layer fc7
I0414 18:27:41.108695  1468 net.cpp:100] Creating Layer fc7
I0414 18:27:41.108701  1468 net.cpp:434] fc7 <- fc6
I0414 18:27:41.108711  1468 net.cpp:408] fc7 -> fc7
I0414 18:27:41.122781  1468 net.cpp:150] Setting up fc7
I0414 18:27:41.122833  1468 net.cpp:157] Top shape: 1 1024 24 24 (589824)
I0414 18:27:41.122862  1468 net.cpp:165] Memory required for data: 368051136
I0414 18:27:41.122889  1468 layer_factory.hpp:77] Creating layer relu7
I0414 18:27:41.122913  1468 net.cpp:100] Creating Layer relu7
I0414 18:27:41.122933  1468 net.cpp:434] relu7 <- fc7
I0414 18:27:41.122956  1468 net.cpp:395] relu7 -> fc7 (in-place)
I0414 18:27:41.123452  1468 net.cpp:150] Setting up relu7
I0414 18:27:41.123468  1468 net.cpp:157] Top shape: 1 1024 24 24 (589824)
I0414 18:27:41.123472  1468 net.cpp:165] Memory required for data: 370410432
I0414 18:27:41.123476  1468 layer_factory.hpp:77] Creating layer fc7_relu7_0_split
I0414 18:27:41.123486  1468 net.cpp:100] Creating Layer fc7_relu7_0_split
I0414 18:27:41.123492  1468 net.cpp:434] fc7_relu7_0_split <- fc7
I0414 18:27:41.123500  1468 net.cpp:408] fc7_relu7_0_split -> fc7_relu7_0_split_0
I0414 18:27:41.123510  1468 net.cpp:408] fc7_relu7_0_split -> fc7_relu7_0_split_1
I0414 18:27:41.123527  1468 net.cpp:408] fc7_relu7_0_split -> fc7_relu7_0_split_2
I0414 18:27:41.123564  1468 net.cpp:408] fc7_relu7_0_split -> fc7_relu7_0_split_3
I0414 18:27:41.123719  1468 net.cpp:150] Setting up fc7_relu7_0_split
I0414 18:27:41.123751  1468 net.cpp:157] Top shape: 1 1024 24 24 (589824)
I0414 18:27:41.123783  1468 net.cpp:157] Top shape: 1 1024 24 24 (589824)
I0414 18:27:41.123811  1468 net.cpp:157] Top shape: 1 1024 24 24 (589824)
I0414 18:27:41.123816  1468 net.cpp:157] Top shape: 1 1024 24 24 (589824)
I0414 18:27:41.123821  1468 net.cpp:165] Memory required for data: 379847616
I0414 18:27:41.123826  1468 layer_factory.hpp:77] Creating layer conv6_1
I0414 18:27:41.123838  1468 net.cpp:100] Creating Layer conv6_1
I0414 18:27:41.123844  1468 net.cpp:434] conv6_1 <- fc7_relu7_0_split_0
I0414 18:27:41.123854  1468 net.cpp:408] conv6_1 -> conv6_1
I0414 18:27:41.128584  1468 net.cpp:150] Setting up conv6_1
I0414 18:27:41.128633  1468 net.cpp:157] Top shape: 1 256 24 24 (147456)
I0414 18:27:41.128654  1468 net.cpp:165] Memory required for data: 380437440
I0414 18:27:41.128680  1468 layer_factory.hpp:77] Creating layer conv6_1_relu
I0414 18:27:41.128707  1468 net.cpp:100] Creating Layer conv6_1_relu
I0414 18:27:41.128728  1468 net.cpp:434] conv6_1_relu <- conv6_1
I0414 18:27:41.128752  1468 net.cpp:395] conv6_1_relu -> conv6_1 (in-place)
I0414 18:27:41.129238  1468 net.cpp:150] Setting up conv6_1_relu
I0414 18:27:41.129256  1468 net.cpp:157] Top shape: 1 256 24 24 (147456)
I0414 18:27:41.129259  1468 net.cpp:165] Memory required for data: 381027264
I0414 18:27:41.129263  1468 layer_factory.hpp:77] Creating layer conv6_2
I0414 18:27:41.129278  1468 net.cpp:100] Creating Layer conv6_2
I0414 18:27:41.129285  1468 net.cpp:434] conv6_2 <- conv6_1
I0414 18:27:41.129299  1468 net.cpp:408] conv6_2 -> conv6_2
I0414 18:27:41.144851  1468 net.cpp:150] Setting up conv6_2
I0414 18:27:41.144871  1468 net.cpp:157] Top shape: 1 512 12 12 (73728)
I0414 18:27:41.144876  1468 net.cpp:165] Memory required for data: 381322176
I0414 18:27:41.144891  1468 layer_factory.hpp:77] Creating layer conv6_2_relu
I0414 18:27:41.144901  1468 net.cpp:100] Creating Layer conv6_2_relu
I0414 18:27:41.144906  1468 net.cpp:434] conv6_2_relu <- conv6_2
I0414 18:27:41.144914  1468 net.cpp:395] conv6_2_relu -> conv6_2 (in-place)
I0414 18:27:41.145221  1468 net.cpp:150] Setting up conv6_2_relu
I0414 18:27:41.145236  1468 net.cpp:157] Top shape: 1 512 12 12 (73728)
I0414 18:27:41.145239  1468 net.cpp:165] Memory required for data: 381617088
I0414 18:27:41.145246  1468 layer_factory.hpp:77] Creating layer conv6_2_conv6_2_relu_0_split
I0414 18:27:41.145256  1468 net.cpp:100] Creating Layer conv6_2_conv6_2_relu_0_split
I0414 18:27:41.145261  1468 net.cpp:434] conv6_2_conv6_2_relu_0_split <- conv6_2
I0414 18:27:41.145268  1468 net.cpp:408] conv6_2_conv6_2_relu_0_split -> conv6_2_conv6_2_relu_0_split_0
I0414 18:27:41.145277  1468 net.cpp:408] conv6_2_conv6_2_relu_0_split -> conv6_2_conv6_2_relu_0_split_1
I0414 18:27:41.145289  1468 net.cpp:408] conv6_2_conv6_2_relu_0_split -> conv6_2_conv6_2_relu_0_split_2
I0414 18:27:41.145295  1468 net.cpp:408] conv6_2_conv6_2_relu_0_split -> conv6_2_conv6_2_relu_0_split_3
I0414 18:27:41.145421  1468 net.cpp:150] Setting up conv6_2_conv6_2_relu_0_split
I0414 18:27:41.145459  1468 net.cpp:157] Top shape: 1 512 12 12 (73728)
I0414 18:27:41.145483  1468 net.cpp:157] Top shape: 1 512 12 12 (73728)
I0414 18:27:41.145506  1468 net.cpp:157] Top shape: 1 512 12 12 (73728)
I0414 18:27:41.145527  1468 net.cpp:157] Top shape: 1 512 12 12 (73728)
I0414 18:27:41.145547  1468 net.cpp:165] Memory required for data: 382796736
I0414 18:27:41.145570  1468 layer_factory.hpp:77] Creating layer conv7_1
I0414 18:27:41.145586  1468 net.cpp:100] Creating Layer conv7_1
I0414 18:27:41.145593  1468 net.cpp:434] conv7_1 <- conv6_2_conv6_2_relu_0_split_0
I0414 18:27:41.145602  1468 net.cpp:408] conv7_1 -> conv7_1
I0414 18:27:41.147955  1468 net.cpp:150] Setting up conv7_1
I0414 18:27:41.147979  1468 net.cpp:157] Top shape: 1 128 12 12 (18432)
I0414 18:27:41.147984  1468 net.cpp:165] Memory required for data: 382870464
I0414 18:27:41.147995  1468 layer_factory.hpp:77] Creating layer conv7_1_relu
I0414 18:27:41.148008  1468 net.cpp:100] Creating Layer conv7_1_relu
I0414 18:27:41.148017  1468 net.cpp:434] conv7_1_relu <- conv7_1
I0414 18:27:41.148030  1468 net.cpp:395] conv7_1_relu -> conv7_1 (in-place)
I0414 18:27:41.148528  1468 net.cpp:150] Setting up conv7_1_relu
I0414 18:27:41.148548  1468 net.cpp:157] Top shape: 1 128 12 12 (18432)
I0414 18:27:41.148556  1468 net.cpp:165] Memory required for data: 382944192
I0414 18:27:41.148561  1468 layer_factory.hpp:77] Creating layer conv7_2
I0414 18:27:41.148574  1468 net.cpp:100] Creating Layer conv7_2
I0414 18:27:41.148579  1468 net.cpp:434] conv7_2 <- conv7_1
I0414 18:27:41.148587  1468 net.cpp:408] conv7_2 -> conv7_2
I0414 18:27:41.153933  1468 net.cpp:150] Setting up conv7_2
I0414 18:27:41.153982  1468 net.cpp:157] Top shape: 1 256 6 6 (9216)
I0414 18:27:41.153991  1468 net.cpp:165] Memory required for data: 382981056
I0414 18:27:41.153998  1468 layer_factory.hpp:77] Creating layer conv7_2_relu
I0414 18:27:41.154007  1468 net.cpp:100] Creating Layer conv7_2_relu
I0414 18:27:41.154014  1468 net.cpp:434] conv7_2_relu <- conv7_2
I0414 18:27:41.154021  1468 net.cpp:395] conv7_2_relu -> conv7_2 (in-place)
I0414 18:27:41.154490  1468 net.cpp:150] Setting up conv7_2_relu
I0414 18:27:41.154541  1468 net.cpp:157] Top shape: 1 256 6 6 (9216)
I0414 18:27:41.154566  1468 net.cpp:165] Memory required for data: 383017920
I0414 18:27:41.154585  1468 layer_factory.hpp:77] Creating layer conv7_2_conv7_2_relu_0_split
I0414 18:27:41.154608  1468 net.cpp:100] Creating Layer conv7_2_conv7_2_relu_0_split
I0414 18:27:41.154630  1468 net.cpp:434] conv7_2_conv7_2_relu_0_split <- conv7_2
I0414 18:27:41.154654  1468 net.cpp:408] conv7_2_conv7_2_relu_0_split -> conv7_2_conv7_2_relu_0_split_0
I0414 18:27:41.154686  1468 net.cpp:408] conv7_2_conv7_2_relu_0_split -> conv7_2_conv7_2_relu_0_split_1
I0414 18:27:41.154698  1468 net.cpp:408] conv7_2_conv7_2_relu_0_split -> conv7_2_conv7_2_relu_0_split_2
I0414 18:27:41.154705  1468 net.cpp:408] conv7_2_conv7_2_relu_0_split -> conv7_2_conv7_2_relu_0_split_3
I0414 18:27:41.154815  1468 net.cpp:150] Setting up conv7_2_conv7_2_relu_0_split
I0414 18:27:41.154829  1468 net.cpp:157] Top shape: 1 256 6 6 (9216)
I0414 18:27:41.154836  1468 net.cpp:157] Top shape: 1 256 6 6 (9216)
I0414 18:27:41.154844  1468 net.cpp:157] Top shape: 1 256 6 6 (9216)
I0414 18:27:41.154870  1468 net.cpp:157] Top shape: 1 256 6 6 (9216)
I0414 18:27:41.154889  1468 net.cpp:165] Memory required for data: 383165376
I0414 18:27:41.154909  1468 layer_factory.hpp:77] Creating layer conv8_1
I0414 18:27:41.154940  1468 net.cpp:100] Creating Layer conv8_1
I0414 18:27:41.154963  1468 net.cpp:434] conv8_1 <- conv7_2_conv7_2_relu_0_split_0
I0414 18:27:41.154987  1468 net.cpp:408] conv8_1 -> conv8_1
I0414 18:27:41.157007  1468 net.cpp:150] Setting up conv8_1
I0414 18:27:41.157047  1468 net.cpp:157] Top shape: 1 128 6 6 (4608)
I0414 18:27:41.157068  1468 net.cpp:165] Memory required for data: 383183808
I0414 18:27:41.157093  1468 layer_factory.hpp:77] Creating layer conv8_1_relu
I0414 18:27:41.157117  1468 net.cpp:100] Creating Layer conv8_1_relu
I0414 18:27:41.157138  1468 net.cpp:434] conv8_1_relu <- conv8_1
I0414 18:27:41.157161  1468 net.cpp:395] conv8_1_relu -> conv8_1 (in-place)
I0414 18:27:41.157424  1468 net.cpp:150] Setting up conv8_1_relu
I0414 18:27:41.157459  1468 net.cpp:157] Top shape: 1 128 6 6 (4608)
I0414 18:27:41.157482  1468 net.cpp:165] Memory required for data: 383202240
I0414 18:27:41.157501  1468 layer_factory.hpp:77] Creating layer conv8_2
I0414 18:27:41.157531  1468 net.cpp:100] Creating Layer conv8_2
I0414 18:27:41.157552  1468 net.cpp:434] conv8_2 <- conv8_1
I0414 18:27:41.157577  1468 net.cpp:408] conv8_2 -> conv8_2
I0414 18:27:41.162942  1468 net.cpp:150] Setting up conv8_2
I0414 18:27:41.162988  1468 net.cpp:157] Top shape: 1 256 4 4 (4096)
I0414 18:27:41.163010  1468 net.cpp:165] Memory required for data: 383218624
I0414 18:27:41.163036  1468 layer_factory.hpp:77] Creating layer conv8_2_relu
I0414 18:27:41.163050  1468 net.cpp:100] Creating Layer conv8_2_relu
I0414 18:27:41.163058  1468 net.cpp:434] conv8_2_relu <- conv8_2
I0414 18:27:41.163069  1468 net.cpp:395] conv8_2_relu -> conv8_2 (in-place)
I0414 18:27:41.163533  1468 net.cpp:150] Setting up conv8_2_relu
I0414 18:27:41.163585  1468 net.cpp:157] Top shape: 1 256 4 4 (4096)
I0414 18:27:41.163607  1468 net.cpp:165] Memory required for data: 383235008
I0414 18:27:41.163627  1468 layer_factory.hpp:77] Creating layer conv8_2_conv8_2_relu_0_split
I0414 18:27:41.163650  1468 net.cpp:100] Creating Layer conv8_2_conv8_2_relu_0_split
I0414 18:27:41.163671  1468 net.cpp:434] conv8_2_conv8_2_relu_0_split <- conv8_2
I0414 18:27:41.163697  1468 net.cpp:408] conv8_2_conv8_2_relu_0_split -> conv8_2_conv8_2_relu_0_split_0
I0414 18:27:41.163724  1468 net.cpp:408] conv8_2_conv8_2_relu_0_split -> conv8_2_conv8_2_relu_0_split_1
I0414 18:27:41.163750  1468 net.cpp:408] conv8_2_conv8_2_relu_0_split -> conv8_2_conv8_2_relu_0_split_2
I0414 18:27:41.163763  1468 net.cpp:408] conv8_2_conv8_2_relu_0_split -> conv8_2_conv8_2_relu_0_split_3
I0414 18:27:41.163877  1468 net.cpp:150] Setting up conv8_2_conv8_2_relu_0_split
I0414 18:27:41.163908  1468 net.cpp:157] Top shape: 1 256 4 4 (4096)
I0414 18:27:41.163930  1468 net.cpp:157] Top shape: 1 256 4 4 (4096)
I0414 18:27:41.163951  1468 net.cpp:157] Top shape: 1 256 4 4 (4096)
I0414 18:27:41.163971  1468 net.cpp:157] Top shape: 1 256 4 4 (4096)
I0414 18:27:41.163990  1468 net.cpp:165] Memory required for data: 383300544
I0414 18:27:41.164008  1468 layer_factory.hpp:77] Creating layer conv9_1
I0414 18:27:41.164041  1468 net.cpp:100] Creating Layer conv9_1
I0414 18:27:41.164062  1468 net.cpp:434] conv9_1 <- conv8_2_conv8_2_relu_0_split_0
I0414 18:27:41.164088  1468 net.cpp:408] conv9_1 -> conv9_1
I0414 18:27:41.165904  1468 net.cpp:150] Setting up conv9_1
I0414 18:27:41.165920  1468 net.cpp:157] Top shape: 1 128 4 4 (2048)
I0414 18:27:41.165925  1468 net.cpp:165] Memory required for data: 383308736
I0414 18:27:41.165933  1468 layer_factory.hpp:77] Creating layer conv9_1_relu
I0414 18:27:41.165943  1468 net.cpp:100] Creating Layer conv9_1_relu
I0414 18:27:41.165951  1468 net.cpp:434] conv9_1_relu <- conv9_1
I0414 18:27:41.165959  1468 net.cpp:395] conv9_1_relu -> conv9_1 (in-place)
I0414 18:27:41.166435  1468 net.cpp:150] Setting up conv9_1_relu
I0414 18:27:41.166479  1468 net.cpp:157] Top shape: 1 128 4 4 (2048)
I0414 18:27:41.166501  1468 net.cpp:165] Memory required for data: 383316928
I0414 18:27:41.166520  1468 layer_factory.hpp:77] Creating layer conv9_2
I0414 18:27:41.166554  1468 net.cpp:100] Creating Layer conv9_2
I0414 18:27:41.166575  1468 net.cpp:434] conv9_2 <- conv9_1
I0414 18:27:41.166601  1468 net.cpp:408] conv9_2 -> conv9_2
I0414 18:27:41.171744  1468 net.cpp:150] Setting up conv9_2
I0414 18:27:41.171762  1468 net.cpp:157] Top shape: 1 256 2 2 (1024)
I0414 18:27:41.171767  1468 net.cpp:165] Memory required for data: 383321024
I0414 18:27:41.171774  1468 layer_factory.hpp:77] Creating layer conv9_2_relu
I0414 18:27:41.171782  1468 net.cpp:100] Creating Layer conv9_2_relu
I0414 18:27:41.171790  1468 net.cpp:434] conv9_2_relu <- conv9_2
I0414 18:27:41.171798  1468 net.cpp:395] conv9_2_relu -> conv9_2 (in-place)
I0414 18:27:41.172047  1468 net.cpp:150] Setting up conv9_2_relu
I0414 18:27:41.172083  1468 net.cpp:157] Top shape: 1 256 2 2 (1024)
I0414 18:27:41.172091  1468 net.cpp:165] Memory required for data: 383325120
I0414 18:27:41.172094  1468 layer_factory.hpp:77] Creating layer conv9_2_conv9_2_relu_0_split
I0414 18:27:41.172103  1468 net.cpp:100] Creating Layer conv9_2_conv9_2_relu_0_split
I0414 18:27:41.172109  1468 net.cpp:434] conv9_2_conv9_2_relu_0_split <- conv9_2
I0414 18:27:41.172118  1468 net.cpp:408] conv9_2_conv9_2_relu_0_split -> conv9_2_conv9_2_relu_0_split_0
I0414 18:27:41.172127  1468 net.cpp:408] conv9_2_conv9_2_relu_0_split -> conv9_2_conv9_2_relu_0_split_1
I0414 18:27:41.172134  1468 net.cpp:408] conv9_2_conv9_2_relu_0_split -> conv9_2_conv9_2_relu_0_split_2
I0414 18:27:41.172240  1468 net.cpp:150] Setting up conv9_2_conv9_2_relu_0_split
I0414 18:27:41.172271  1468 net.cpp:157] Top shape: 1 256 2 2 (1024)
I0414 18:27:41.172293  1468 net.cpp:157] Top shape: 1 256 2 2 (1024)
I0414 18:27:41.172313  1468 net.cpp:157] Top shape: 1 256 2 2 (1024)
I0414 18:27:41.172338  1468 net.cpp:165] Memory required for data: 383337408
I0414 18:27:41.172370  1468 layer_factory.hpp:77] Creating layer conv4_3_norm
I0414 18:27:41.172402  1468 net.cpp:100] Creating Layer conv4_3_norm
I0414 18:27:41.172425  1468 net.cpp:434] conv4_3_norm <- conv4_3_relu4_3_0_split_1
I0414 18:27:41.172435  1468 net.cpp:408] conv4_3_norm -> conv4_3_norm
I0414 18:27:41.172730  1468 net.cpp:150] Setting up conv4_3_norm
I0414 18:27:41.172763  1468 net.cpp:157] Top shape: 1 512 48 48 (1179648)
I0414 18:27:41.172785  1468 net.cpp:165] Memory required for data: 388056000
I0414 18:27:41.172796  1468 layer_factory.hpp:77] Creating layer conv4_3_norm_conv4_3_norm_0_split
I0414 18:27:41.172804  1468 net.cpp:100] Creating Layer conv4_3_norm_conv4_3_norm_0_split
I0414 18:27:41.172811  1468 net.cpp:434] conv4_3_norm_conv4_3_norm_0_split <- conv4_3_norm
I0414 18:27:41.172816  1468 net.cpp:408] conv4_3_norm_conv4_3_norm_0_split -> conv4_3_norm_conv4_3_norm_0_split_0
I0414 18:27:41.172825  1468 net.cpp:408] conv4_3_norm_conv4_3_norm_0_split -> conv4_3_norm_conv4_3_norm_0_split_1
I0414 18:27:41.172833  1468 net.cpp:408] conv4_3_norm_conv4_3_norm_0_split -> conv4_3_norm_conv4_3_norm_0_split_2
I0414 18:27:41.172921  1468 net.cpp:150] Setting up conv4_3_norm_conv4_3_norm_0_split
I0414 18:27:41.172951  1468 net.cpp:157] Top shape: 1 512 48 48 (1179648)
I0414 18:27:41.172972  1468 net.cpp:157] Top shape: 1 512 48 48 (1179648)
I0414 18:27:41.172993  1468 net.cpp:157] Top shape: 1 512 48 48 (1179648)
I0414 18:27:41.173012  1468 net.cpp:165] Memory required for data: 402211776
I0414 18:27:41.173029  1468 layer_factory.hpp:77] Creating layer conv4_3_norm_mbox_loc
I0414 18:27:41.173058  1468 net.cpp:100] Creating Layer conv4_3_norm_mbox_loc
I0414 18:27:41.173079  1468 net.cpp:434] conv4_3_norm_mbox_loc <- conv4_3_norm_conv4_3_norm_0_split_0
I0414 18:27:41.173102  1468 net.cpp:408] conv4_3_norm_mbox_loc -> conv4_3_norm_mbox_loc
I0414 18:27:41.196281  1468 net.cpp:150] Setting up conv4_3_norm_mbox_loc
I0414 18:27:41.196337  1468 net.cpp:157] Top shape: 1 240 48 48 (552960)
I0414 18:27:41.196360  1468 net.cpp:165] Memory required for data: 404423616
I0414 18:27:41.196388  1468 layer_factory.hpp:77] Creating layer conv4_3_norm_mbox_loc_perm
I0414 18:27:41.196400  1468 net.cpp:100] Creating Layer conv4_3_norm_mbox_loc_perm
I0414 18:27:41.196406  1468 net.cpp:434] conv4_3_norm_mbox_loc_perm <- conv4_3_norm_mbox_loc
I0414 18:27:41.196413  1468 net.cpp:408] conv4_3_norm_mbox_loc_perm -> conv4_3_norm_mbox_loc_perm
I0414 18:27:41.196610  1468 net.cpp:150] Setting up conv4_3_norm_mbox_loc_perm
I0414 18:27:41.196643  1468 net.cpp:157] Top shape: 1 48 48 240 (552960)
I0414 18:27:41.196662  1468 net.cpp:165] Memory required for data: 406635456
I0414 18:27:41.196681  1468 layer_factory.hpp:77] Creating layer conv4_3_norm_mbox_loc_flat
I0414 18:27:41.196707  1468 net.cpp:100] Creating Layer conv4_3_norm_mbox_loc_flat
I0414 18:27:41.196727  1468 net.cpp:434] conv4_3_norm_mbox_loc_flat <- conv4_3_norm_mbox_loc_perm
I0414 18:27:41.196750  1468 net.cpp:408] conv4_3_norm_mbox_loc_flat -> conv4_3_norm_mbox_loc_flat
I0414 18:27:41.196810  1468 net.cpp:150] Setting up conv4_3_norm_mbox_loc_flat
I0414 18:27:41.196822  1468 net.cpp:157] Top shape: 1 552960 (552960)
I0414 18:27:41.196827  1468 net.cpp:165] Memory required for data: 408847296
I0414 18:27:41.196831  1468 layer_factory.hpp:77] Creating layer conv4_3_norm_mbox_conf
I0414 18:27:41.196851  1468 net.cpp:100] Creating Layer conv4_3_norm_mbox_conf
I0414 18:27:41.196858  1468 net.cpp:434] conv4_3_norm_mbox_conf <- conv4_3_norm_conv4_3_norm_0_split_1
I0414 18:27:41.196869  1468 net.cpp:408] conv4_3_norm_mbox_conf -> conv4_3_norm_mbox_conf
I0414 18:27:41.202373  1468 net.cpp:150] Setting up conv4_3_norm_mbox_conf
I0414 18:27:41.202419  1468 net.cpp:157] Top shape: 1 40 48 48 (92160)
I0414 18:27:41.202441  1468 net.cpp:165] Memory required for data: 409215936
I0414 18:27:41.202466  1468 layer_factory.hpp:77] Creating layer conv4_3_norm_mbox_conf_perm
I0414 18:27:41.202491  1468 net.cpp:100] Creating Layer conv4_3_norm_mbox_conf_perm
I0414 18:27:41.202533  1468 net.cpp:434] conv4_3_norm_mbox_conf_perm <- conv4_3_norm_mbox_conf
I0414 18:27:41.202564  1468 net.cpp:408] conv4_3_norm_mbox_conf_perm -> conv4_3_norm_mbox_conf_perm
I0414 18:27:41.202780  1468 net.cpp:150] Setting up conv4_3_norm_mbox_conf_perm
I0414 18:27:41.202813  1468 net.cpp:157] Top shape: 1 48 48 40 (92160)
I0414 18:27:41.202833  1468 net.cpp:165] Memory required for data: 409584576
I0414 18:27:41.202852  1468 layer_factory.hpp:77] Creating layer conv4_3_norm_mbox_conf_flat
I0414 18:27:41.202877  1468 net.cpp:100] Creating Layer conv4_3_norm_mbox_conf_flat
I0414 18:27:41.202898  1468 net.cpp:434] conv4_3_norm_mbox_conf_flat <- conv4_3_norm_mbox_conf_perm
I0414 18:27:41.202924  1468 net.cpp:408] conv4_3_norm_mbox_conf_flat -> conv4_3_norm_mbox_conf_flat
I0414 18:27:41.202972  1468 net.cpp:150] Setting up conv4_3_norm_mbox_conf_flat
I0414 18:27:41.202981  1468 net.cpp:157] Top shape: 1 92160 (92160)
I0414 18:27:41.202986  1468 net.cpp:165] Memory required for data: 409953216
I0414 18:27:41.202991  1468 layer_factory.hpp:77] Creating layer conv4_3_norm_mbox_priorbox
I0414 18:27:41.203001  1468 net.cpp:100] Creating Layer conv4_3_norm_mbox_priorbox
I0414 18:27:41.203006  1468 net.cpp:434] conv4_3_norm_mbox_priorbox <- conv4_3_norm_conv4_3_norm_0_split_2
I0414 18:27:41.203014  1468 net.cpp:434] conv4_3_norm_mbox_priorbox <- data_data_0_split_1
I0414 18:27:41.203021  1468 net.cpp:408] conv4_3_norm_mbox_priorbox -> conv4_3_norm_mbox_priorbox
I0414 18:27:41.203069  1468 net.cpp:150] Setting up conv4_3_norm_mbox_priorbox
I0414 18:27:41.203099  1468 net.cpp:157] Top shape: 1 2 184320 (368640)
I0414 18:27:41.203119  1468 net.cpp:165] Memory required for data: 411427776
I0414 18:27:41.203138  1468 layer_factory.hpp:77] Creating layer fc7_mbox_loc
I0414 18:27:41.203171  1468 net.cpp:100] Creating Layer fc7_mbox_loc
I0414 18:27:41.203193  1468 net.cpp:434] fc7_mbox_loc <- fc7_relu7_0_split_1
I0414 18:27:41.203224  1468 net.cpp:408] fc7_mbox_loc -> fc7_mbox_loc
I0414 18:27:41.248306  1468 net.cpp:150] Setting up fc7_mbox_loc
I0414 18:27:41.248380  1468 net.cpp:157] Top shape: 1 240 24 24 (138240)
I0414 18:27:41.248406  1468 net.cpp:165] Memory required for data: 411980736
I0414 18:27:41.248435  1468 layer_factory.hpp:77] Creating layer fc7_mbox_loc_perm
I0414 18:27:41.248455  1468 net.cpp:100] Creating Layer fc7_mbox_loc_perm
I0414 18:27:41.248464  1468 net.cpp:434] fc7_mbox_loc_perm <- fc7_mbox_loc
I0414 18:27:41.248476  1468 net.cpp:408] fc7_mbox_loc_perm -> fc7_mbox_loc_perm
I0414 18:27:41.248687  1468 net.cpp:150] Setting up fc7_mbox_loc_perm
I0414 18:27:41.248725  1468 net.cpp:157] Top shape: 1 24 24 240 (138240)
I0414 18:27:41.248746  1468 net.cpp:165] Memory required for data: 412533696
I0414 18:27:41.248765  1468 layer_factory.hpp:77] Creating layer fc7_mbox_loc_flat
I0414 18:27:41.248790  1468 net.cpp:100] Creating Layer fc7_mbox_loc_flat
I0414 18:27:41.248798  1468 net.cpp:434] fc7_mbox_loc_flat <- fc7_mbox_loc_perm
I0414 18:27:41.248805  1468 net.cpp:408] fc7_mbox_loc_flat -> fc7_mbox_loc_flat
I0414 18:27:41.248853  1468 net.cpp:150] Setting up fc7_mbox_loc_flat
I0414 18:27:41.248863  1468 net.cpp:157] Top shape: 1 138240 (138240)
I0414 18:27:41.248869  1468 net.cpp:165] Memory required for data: 413086656
I0414 18:27:41.248873  1468 layer_factory.hpp:77] Creating layer fc7_mbox_conf
I0414 18:27:41.248884  1468 net.cpp:100] Creating Layer fc7_mbox_conf
I0414 18:27:41.248890  1468 net.cpp:434] fc7_mbox_conf <- fc7_relu7_0_split_2
I0414 18:27:41.248900  1468 net.cpp:408] fc7_mbox_conf -> fc7_mbox_conf
I0414 18:27:41.257974  1468 net.cpp:150] Setting up fc7_mbox_conf
I0414 18:27:41.257992  1468 net.cpp:157] Top shape: 1 40 24 24 (23040)
I0414 18:27:41.257997  1468 net.cpp:165] Memory required for data: 413178816
I0414 18:27:41.258004  1468 layer_factory.hpp:77] Creating layer fc7_mbox_conf_perm
I0414 18:27:41.258015  1468 net.cpp:100] Creating Layer fc7_mbox_conf_perm
I0414 18:27:41.258025  1468 net.cpp:434] fc7_mbox_conf_perm <- fc7_mbox_conf
I0414 18:27:41.258038  1468 net.cpp:408] fc7_mbox_conf_perm -> fc7_mbox_conf_perm
I0414 18:27:41.258285  1468 net.cpp:150] Setting up fc7_mbox_conf_perm
I0414 18:27:41.258298  1468 net.cpp:157] Top shape: 1 24 24 40 (23040)
I0414 18:27:41.258302  1468 net.cpp:165] Memory required for data: 413270976
I0414 18:27:41.258306  1468 layer_factory.hpp:77] Creating layer fc7_mbox_conf_flat
I0414 18:27:41.258314  1468 net.cpp:100] Creating Layer fc7_mbox_conf_flat
I0414 18:27:41.258318  1468 net.cpp:434] fc7_mbox_conf_flat <- fc7_mbox_conf_perm
I0414 18:27:41.258327  1468 net.cpp:408] fc7_mbox_conf_flat -> fc7_mbox_conf_flat
I0414 18:27:41.258366  1468 net.cpp:150] Setting up fc7_mbox_conf_flat
I0414 18:27:41.258378  1468 net.cpp:157] Top shape: 1 23040 (23040)
I0414 18:27:41.258406  1468 net.cpp:165] Memory required for data: 413363136
I0414 18:27:41.258430  1468 layer_factory.hpp:77] Creating layer fc7_mbox_priorbox
I0414 18:27:41.258455  1468 net.cpp:100] Creating Layer fc7_mbox_priorbox
I0414 18:27:41.258477  1468 net.cpp:434] fc7_mbox_priorbox <- fc7_relu7_0_split_3
I0414 18:27:41.258504  1468 net.cpp:434] fc7_mbox_priorbox <- data_data_0_split_2
I0414 18:27:41.258536  1468 net.cpp:408] fc7_mbox_priorbox -> fc7_mbox_priorbox
I0414 18:27:41.258617  1468 net.cpp:150] Setting up fc7_mbox_priorbox
I0414 18:27:41.258633  1468 net.cpp:157] Top shape: 1 2 46080 (92160)
I0414 18:27:41.258641  1468 net.cpp:165] Memory required for data: 413731776
I0414 18:27:41.258646  1468 layer_factory.hpp:77] Creating layer conv6_2_mbox_loc
I0414 18:27:41.258656  1468 net.cpp:100] Creating Layer conv6_2_mbox_loc
I0414 18:27:41.258663  1468 net.cpp:434] conv6_2_mbox_loc <- conv6_2_conv6_2_relu_0_split_1
I0414 18:27:41.258673  1468 net.cpp:408] conv6_2_mbox_loc -> conv6_2_mbox_loc
I0414 18:27:41.282119  1468 net.cpp:150] Setting up conv6_2_mbox_loc
I0414 18:27:41.282178  1468 net.cpp:157] Top shape: 1 240 12 12 (34560)
I0414 18:27:41.282208  1468 net.cpp:165] Memory required for data: 413870016
I0414 18:27:41.282240  1468 layer_factory.hpp:77] Creating layer conv6_2_mbox_loc_perm
I0414 18:27:41.282274  1468 net.cpp:100] Creating Layer conv6_2_mbox_loc_perm
I0414 18:27:41.282297  1468 net.cpp:434] conv6_2_mbox_loc_perm <- conv6_2_mbox_loc
I0414 18:27:41.282308  1468 net.cpp:408] conv6_2_mbox_loc_perm -> conv6_2_mbox_loc_perm
I0414 18:27:41.282487  1468 net.cpp:150] Setting up conv6_2_mbox_loc_perm
I0414 18:27:41.282497  1468 net.cpp:157] Top shape: 1 12 12 240 (34560)
I0414 18:27:41.282503  1468 net.cpp:165] Memory required for data: 414008256
I0414 18:27:41.282507  1468 layer_factory.hpp:77] Creating layer conv6_2_mbox_loc_flat
I0414 18:27:41.282513  1468 net.cpp:100] Creating Layer conv6_2_mbox_loc_flat
I0414 18:27:41.282518  1468 net.cpp:434] conv6_2_mbox_loc_flat <- conv6_2_mbox_loc_perm
I0414 18:27:41.282528  1468 net.cpp:408] conv6_2_mbox_loc_flat -> conv6_2_mbox_loc_flat
I0414 18:27:41.282604  1468 net.cpp:150] Setting up conv6_2_mbox_loc_flat
I0414 18:27:41.282622  1468 net.cpp:157] Top shape: 1 34560 (34560)
I0414 18:27:41.282627  1468 net.cpp:165] Memory required for data: 414146496
I0414 18:27:41.282635  1468 layer_factory.hpp:77] Creating layer conv6_2_mbox_conf
I0414 18:27:41.282647  1468 net.cpp:100] Creating Layer conv6_2_mbox_conf
I0414 18:27:41.282675  1468 net.cpp:434] conv6_2_mbox_conf <- conv6_2_conv6_2_relu_0_split_2
I0414 18:27:41.282702  1468 net.cpp:408] conv6_2_mbox_conf -> conv6_2_mbox_conf
I0414 18:27:41.288269  1468 net.cpp:150] Setting up conv6_2_mbox_conf
I0414 18:27:41.288287  1468 net.cpp:157] Top shape: 1 40 12 12 (5760)
I0414 18:27:41.288292  1468 net.cpp:165] Memory required for data: 414169536
I0414 18:27:41.288301  1468 layer_factory.hpp:77] Creating layer conv6_2_mbox_conf_perm
I0414 18:27:41.288311  1468 net.cpp:100] Creating Layer conv6_2_mbox_conf_perm
I0414 18:27:41.288316  1468 net.cpp:434] conv6_2_mbox_conf_perm <- conv6_2_mbox_conf
I0414 18:27:41.288324  1468 net.cpp:408] conv6_2_mbox_conf_perm -> conv6_2_mbox_conf_perm
I0414 18:27:41.288540  1468 net.cpp:150] Setting up conv6_2_mbox_conf_perm
I0414 18:27:41.288588  1468 net.cpp:157] Top shape: 1 12 12 40 (5760)
I0414 18:27:41.288626  1468 net.cpp:165] Memory required for data: 414192576
I0414 18:27:41.288635  1468 layer_factory.hpp:77] Creating layer conv6_2_mbox_conf_flat
I0414 18:27:41.288641  1468 net.cpp:100] Creating Layer conv6_2_mbox_conf_flat
I0414 18:27:41.288647  1468 net.cpp:434] conv6_2_mbox_conf_flat <- conv6_2_mbox_conf_perm
I0414 18:27:41.288656  1468 net.cpp:408] conv6_2_mbox_conf_flat -> conv6_2_mbox_conf_flat
I0414 18:27:41.288705  1468 net.cpp:150] Setting up conv6_2_mbox_conf_flat
I0414 18:27:41.288714  1468 net.cpp:157] Top shape: 1 5760 (5760)
I0414 18:27:41.288719  1468 net.cpp:165] Memory required for data: 414215616
I0414 18:27:41.288723  1468 layer_factory.hpp:77] Creating layer conv6_2_mbox_priorbox
I0414 18:27:41.288730  1468 net.cpp:100] Creating Layer conv6_2_mbox_priorbox
I0414 18:27:41.288736  1468 net.cpp:434] conv6_2_mbox_priorbox <- conv6_2_conv6_2_relu_0_split_3
I0414 18:27:41.288743  1468 net.cpp:434] conv6_2_mbox_priorbox <- data_data_0_split_3
I0414 18:27:41.288749  1468 net.cpp:408] conv6_2_mbox_priorbox -> conv6_2_mbox_priorbox
I0414 18:27:41.288805  1468 net.cpp:150] Setting up conv6_2_mbox_priorbox
I0414 18:27:41.288838  1468 net.cpp:157] Top shape: 1 2 11520 (23040)
I0414 18:27:41.288858  1468 net.cpp:165] Memory required for data: 414307776
I0414 18:27:41.288877  1468 layer_factory.hpp:77] Creating layer conv7_2_mbox_loc
I0414 18:27:41.288908  1468 net.cpp:100] Creating Layer conv7_2_mbox_loc
I0414 18:27:41.288931  1468 net.cpp:434] conv7_2_mbox_loc <- conv7_2_conv7_2_relu_0_split_1
I0414 18:27:41.288955  1468 net.cpp:408] conv7_2_mbox_loc -> conv7_2_mbox_loc
I0414 18:27:41.301556  1468 net.cpp:150] Setting up conv7_2_mbox_loc
I0414 18:27:41.301604  1468 net.cpp:157] Top shape: 1 240 6 6 (8640)
I0414 18:27:41.301625  1468 net.cpp:165] Memory required for data: 414342336
I0414 18:27:41.301652  1468 layer_factory.hpp:77] Creating layer conv7_2_mbox_loc_perm
I0414 18:27:41.301669  1468 net.cpp:100] Creating Layer conv7_2_mbox_loc_perm
I0414 18:27:41.301681  1468 net.cpp:434] conv7_2_mbox_loc_perm <- conv7_2_mbox_loc
I0414 18:27:41.301689  1468 net.cpp:408] conv7_2_mbox_loc_perm -> conv7_2_mbox_loc_perm
I0414 18:27:41.301904  1468 net.cpp:150] Setting up conv7_2_mbox_loc_perm
I0414 18:27:41.301937  1468 net.cpp:157] Top shape: 1 6 6 240 (8640)
I0414 18:27:41.301957  1468 net.cpp:165] Memory required for data: 414376896
I0414 18:27:41.301976  1468 layer_factory.hpp:77] Creating layer conv7_2_mbox_loc_flat
I0414 18:27:41.301998  1468 net.cpp:100] Creating Layer conv7_2_mbox_loc_flat
I0414 18:27:41.302018  1468 net.cpp:434] conv7_2_mbox_loc_flat <- conv7_2_mbox_loc_perm
I0414 18:27:41.302044  1468 net.cpp:408] conv7_2_mbox_loc_flat -> conv7_2_mbox_loc_flat
I0414 18:27:41.302096  1468 net.cpp:150] Setting up conv7_2_mbox_loc_flat
I0414 18:27:41.302105  1468 net.cpp:157] Top shape: 1 8640 (8640)
I0414 18:27:41.302110  1468 net.cpp:165] Memory required for data: 414411456
I0414 18:27:41.302114  1468 layer_factory.hpp:77] Creating layer conv7_2_mbox_conf
I0414 18:27:41.302129  1468 net.cpp:100] Creating Layer conv7_2_mbox_conf
I0414 18:27:41.302135  1468 net.cpp:434] conv7_2_mbox_conf <- conv7_2_conv7_2_relu_0_split_2
I0414 18:27:41.302142  1468 net.cpp:408] conv7_2_mbox_conf -> conv7_2_mbox_conf
I0414 18:27:41.306097  1468 net.cpp:150] Setting up conv7_2_mbox_conf
I0414 18:27:41.306146  1468 net.cpp:157] Top shape: 1 40 6 6 (1440)
I0414 18:27:41.306169  1468 net.cpp:165] Memory required for data: 414417216
I0414 18:27:41.306195  1468 layer_factory.hpp:77] Creating layer conv7_2_mbox_conf_perm
I0414 18:27:41.306232  1468 net.cpp:100] Creating Layer conv7_2_mbox_conf_perm
I0414 18:27:41.306257  1468 net.cpp:434] conv7_2_mbox_conf_perm <- conv7_2_mbox_conf
I0414 18:27:41.306282  1468 net.cpp:408] conv7_2_mbox_conf_perm -> conv7_2_mbox_conf_perm
I0414 18:27:41.306484  1468 net.cpp:150] Setting up conv7_2_mbox_conf_perm
I0414 18:27:41.306519  1468 net.cpp:157] Top shape: 1 6 6 40 (1440)
I0414 18:27:41.306538  1468 net.cpp:165] Memory required for data: 414422976
I0414 18:27:41.306563  1468 layer_factory.hpp:77] Creating layer conv7_2_mbox_conf_flat
I0414 18:27:41.306603  1468 net.cpp:100] Creating Layer conv7_2_mbox_conf_flat
I0414 18:27:41.306625  1468 net.cpp:434] conv7_2_mbox_conf_flat <- conv7_2_mbox_conf_perm
I0414 18:27:41.306648  1468 net.cpp:408] conv7_2_mbox_conf_flat -> conv7_2_mbox_conf_flat
I0414 18:27:41.306722  1468 net.cpp:150] Setting up conv7_2_mbox_conf_flat
I0414 18:27:41.306752  1468 net.cpp:157] Top shape: 1 1440 (1440)
I0414 18:27:41.306774  1468 net.cpp:165] Memory required for data: 414428736
I0414 18:27:41.306792  1468 layer_factory.hpp:77] Creating layer conv7_2_mbox_priorbox
I0414 18:27:41.306819  1468 net.cpp:100] Creating Layer conv7_2_mbox_priorbox
I0414 18:27:41.306840  1468 net.cpp:434] conv7_2_mbox_priorbox <- conv7_2_conv7_2_relu_0_split_3
I0414 18:27:41.306850  1468 net.cpp:434] conv7_2_mbox_priorbox <- data_data_0_split_4
I0414 18:27:41.306857  1468 net.cpp:408] conv7_2_mbox_priorbox -> conv7_2_mbox_priorbox
I0414 18:27:41.306907  1468 net.cpp:150] Setting up conv7_2_mbox_priorbox
I0414 18:27:41.306916  1468 net.cpp:157] Top shape: 1 2 2880 (5760)
I0414 18:27:41.306921  1468 net.cpp:165] Memory required for data: 414451776
I0414 18:27:41.306926  1468 layer_factory.hpp:77] Creating layer conv8_2_mbox_loc
I0414 18:27:41.306936  1468 net.cpp:100] Creating Layer conv8_2_mbox_loc
I0414 18:27:41.306941  1468 net.cpp:434] conv8_2_mbox_loc <- conv8_2_conv8_2_relu_0_split_1
I0414 18:27:41.306953  1468 net.cpp:408] conv8_2_mbox_loc -> conv8_2_mbox_loc
I0414 18:27:41.319489  1468 net.cpp:150] Setting up conv8_2_mbox_loc
I0414 18:27:41.319538  1468 net.cpp:157] Top shape: 1 240 4 4 (3840)
I0414 18:27:41.319561  1468 net.cpp:165] Memory required for data: 414467136
I0414 18:27:41.319605  1468 layer_factory.hpp:77] Creating layer conv8_2_mbox_loc_perm
I0414 18:27:41.319635  1468 net.cpp:100] Creating Layer conv8_2_mbox_loc_perm
I0414 18:27:41.319644  1468 net.cpp:434] conv8_2_mbox_loc_perm <- conv8_2_mbox_loc
I0414 18:27:41.319651  1468 net.cpp:408] conv8_2_mbox_loc_perm -> conv8_2_mbox_loc_perm
I0414 18:27:41.319866  1468 net.cpp:150] Setting up conv8_2_mbox_loc_perm
I0414 18:27:41.319902  1468 net.cpp:157] Top shape: 1 4 4 240 (3840)
I0414 18:27:41.319922  1468 net.cpp:165] Memory required for data: 414482496
I0414 18:27:41.319941  1468 layer_factory.hpp:77] Creating layer conv8_2_mbox_loc_flat
I0414 18:27:41.319963  1468 net.cpp:100] Creating Layer conv8_2_mbox_loc_flat
I0414 18:27:41.319983  1468 net.cpp:434] conv8_2_mbox_loc_flat <- conv8_2_mbox_loc_perm
I0414 18:27:41.320006  1468 net.cpp:408] conv8_2_mbox_loc_flat -> conv8_2_mbox_loc_flat
I0414 18:27:41.320058  1468 net.cpp:150] Setting up conv8_2_mbox_loc_flat
I0414 18:27:41.320067  1468 net.cpp:157] Top shape: 1 3840 (3840)
I0414 18:27:41.320072  1468 net.cpp:165] Memory required for data: 414497856
I0414 18:27:41.320076  1468 layer_factory.hpp:77] Creating layer conv8_2_mbox_conf
I0414 18:27:41.320088  1468 net.cpp:100] Creating Layer conv8_2_mbox_conf
I0414 18:27:41.320094  1468 net.cpp:434] conv8_2_mbox_conf <- conv8_2_conv8_2_relu_0_split_2
I0414 18:27:41.320104  1468 net.cpp:408] conv8_2_mbox_conf -> conv8_2_mbox_conf
I0414 18:27:41.323825  1468 net.cpp:150] Setting up conv8_2_mbox_conf
I0414 18:27:41.323871  1468 net.cpp:157] Top shape: 1 40 4 4 (640)
I0414 18:27:41.323881  1468 net.cpp:165] Memory required for data: 414500416
I0414 18:27:41.323890  1468 layer_factory.hpp:77] Creating layer conv8_2_mbox_conf_perm
I0414 18:27:41.323901  1468 net.cpp:100] Creating Layer conv8_2_mbox_conf_perm
I0414 18:27:41.323909  1468 net.cpp:434] conv8_2_mbox_conf_perm <- conv8_2_mbox_conf
I0414 18:27:41.323920  1468 net.cpp:408] conv8_2_mbox_conf_perm -> conv8_2_mbox_conf_perm
I0414 18:27:41.324127  1468 net.cpp:150] Setting up conv8_2_mbox_conf_perm
I0414 18:27:41.324142  1468 net.cpp:157] Top shape: 1 4 4 40 (640)
I0414 18:27:41.324151  1468 net.cpp:165] Memory required for data: 414502976
I0414 18:27:41.324156  1468 layer_factory.hpp:77] Creating layer conv8_2_mbox_conf_flat
I0414 18:27:41.324167  1468 net.cpp:100] Creating Layer conv8_2_mbox_conf_flat
I0414 18:27:41.324188  1468 net.cpp:434] conv8_2_mbox_conf_flat <- conv8_2_mbox_conf_perm
I0414 18:27:41.324199  1468 net.cpp:408] conv8_2_mbox_conf_flat -> conv8_2_mbox_conf_flat
I0414 18:27:41.324259  1468 net.cpp:150] Setting up conv8_2_mbox_conf_flat
I0414 18:27:41.324270  1468 net.cpp:157] Top shape: 1 640 (640)
I0414 18:27:41.324277  1468 net.cpp:165] Memory required for data: 414505536
I0414 18:27:41.324283  1468 layer_factory.hpp:77] Creating layer conv8_2_mbox_priorbox
I0414 18:27:41.324295  1468 net.cpp:100] Creating Layer conv8_2_mbox_priorbox
I0414 18:27:41.324302  1468 net.cpp:434] conv8_2_mbox_priorbox <- conv8_2_conv8_2_relu_0_split_3
I0414 18:27:41.324308  1468 net.cpp:434] conv8_2_mbox_priorbox <- data_data_0_split_5
I0414 18:27:41.324314  1468 net.cpp:408] conv8_2_mbox_priorbox -> conv8_2_mbox_priorbox
I0414 18:27:41.324360  1468 net.cpp:150] Setting up conv8_2_mbox_priorbox
I0414 18:27:41.324369  1468 net.cpp:157] Top shape: 1 2 1280 (2560)
I0414 18:27:41.324374  1468 net.cpp:165] Memory required for data: 414515776
I0414 18:27:41.324378  1468 layer_factory.hpp:77] Creating layer conv9_2_mbox_loc
I0414 18:27:41.324389  1468 net.cpp:100] Creating Layer conv9_2_mbox_loc
I0414 18:27:41.324394  1468 net.cpp:434] conv9_2_mbox_loc <- conv9_2_conv9_2_relu_0_split_0
I0414 18:27:41.324404  1468 net.cpp:408] conv9_2_mbox_loc -> conv9_2_mbox_loc
I0414 18:27:41.337010  1468 net.cpp:150] Setting up conv9_2_mbox_loc
I0414 18:27:41.337059  1468 net.cpp:157] Top shape: 1 240 2 2 (960)
I0414 18:27:41.337085  1468 net.cpp:165] Memory required for data: 414519616
I0414 18:27:41.337110  1468 layer_factory.hpp:77] Creating layer conv9_2_mbox_loc_perm
I0414 18:27:41.337138  1468 net.cpp:100] Creating Layer conv9_2_mbox_loc_perm
I0414 18:27:41.337149  1468 net.cpp:434] conv9_2_mbox_loc_perm <- conv9_2_mbox_loc
I0414 18:27:41.337160  1468 net.cpp:408] conv9_2_mbox_loc_perm -> conv9_2_mbox_loc_perm
I0414 18:27:41.337361  1468 net.cpp:150] Setting up conv9_2_mbox_loc_perm
I0414 18:27:41.337399  1468 net.cpp:157] Top shape: 1 2 2 240 (960)
I0414 18:27:41.337420  1468 net.cpp:165] Memory required for data: 414523456
I0414 18:27:41.337440  1468 layer_factory.hpp:77] Creating layer conv9_2_mbox_loc_flat
I0414 18:27:41.337465  1468 net.cpp:100] Creating Layer conv9_2_mbox_loc_flat
I0414 18:27:41.337484  1468 net.cpp:434] conv9_2_mbox_loc_flat <- conv9_2_mbox_loc_perm
I0414 18:27:41.337508  1468 net.cpp:408] conv9_2_mbox_loc_flat -> conv9_2_mbox_loc_flat
I0414 18:27:41.337579  1468 net.cpp:150] Setting up conv9_2_mbox_loc_flat
I0414 18:27:41.337591  1468 net.cpp:157] Top shape: 1 960 (960)
I0414 18:27:41.337594  1468 net.cpp:165] Memory required for data: 414527296
I0414 18:27:41.337599  1468 layer_factory.hpp:77] Creating layer conv9_2_mbox_conf
I0414 18:27:41.337610  1468 net.cpp:100] Creating Layer conv9_2_mbox_conf
I0414 18:27:41.337615  1468 net.cpp:434] conv9_2_mbox_conf <- conv9_2_conv9_2_relu_0_split_1
I0414 18:27:41.337625  1468 net.cpp:408] conv9_2_mbox_conf -> conv9_2_mbox_conf
I0414 18:27:41.341588  1468 net.cpp:150] Setting up conv9_2_mbox_conf
I0414 18:27:41.341639  1468 net.cpp:157] Top shape: 1 40 2 2 (160)
I0414 18:27:41.341665  1468 net.cpp:165] Memory required for data: 414527936
I0414 18:27:41.341691  1468 layer_factory.hpp:77] Creating layer conv9_2_mbox_conf_perm
I0414 18:27:41.341713  1468 net.cpp:100] Creating Layer conv9_2_mbox_conf_perm
I0414 18:27:41.341734  1468 net.cpp:434] conv9_2_mbox_conf_perm <- conv9_2_mbox_conf
I0414 18:27:41.341759  1468 net.cpp:408] conv9_2_mbox_conf_perm -> conv9_2_mbox_conf_perm
I0414 18:27:41.341969  1468 net.cpp:150] Setting up conv9_2_mbox_conf_perm
I0414 18:27:41.342000  1468 net.cpp:157] Top shape: 1 2 2 40 (160)
I0414 18:27:41.342020  1468 net.cpp:165] Memory required for data: 414528576
I0414 18:27:41.342039  1468 layer_factory.hpp:77] Creating layer conv9_2_mbox_conf_flat
I0414 18:27:41.342062  1468 net.cpp:100] Creating Layer conv9_2_mbox_conf_flat
I0414 18:27:41.342083  1468 net.cpp:434] conv9_2_mbox_conf_flat <- conv9_2_mbox_conf_perm
I0414 18:27:41.342128  1468 net.cpp:408] conv9_2_mbox_conf_flat -> conv9_2_mbox_conf_flat
I0414 18:27:41.342202  1468 net.cpp:150] Setting up conv9_2_mbox_conf_flat
I0414 18:27:41.342216  1468 net.cpp:157] Top shape: 1 160 (160)
I0414 18:27:41.342218  1468 net.cpp:165] Memory required for data: 414529216
I0414 18:27:41.342222  1468 layer_factory.hpp:77] Creating layer conv9_2_mbox_priorbox
I0414 18:27:41.342231  1468 net.cpp:100] Creating Layer conv9_2_mbox_priorbox
I0414 18:27:41.342236  1468 net.cpp:434] conv9_2_mbox_priorbox <- conv9_2_conv9_2_relu_0_split_2
I0414 18:27:41.342242  1468 net.cpp:434] conv9_2_mbox_priorbox <- data_data_0_split_6
I0414 18:27:41.342252  1468 net.cpp:408] conv9_2_mbox_priorbox -> conv9_2_mbox_priorbox
I0414 18:27:41.342298  1468 net.cpp:150] Setting up conv9_2_mbox_priorbox
I0414 18:27:41.342309  1468 net.cpp:157] Top shape: 1 2 320 (640)
I0414 18:27:41.342315  1468 net.cpp:165] Memory required for data: 414531776
I0414 18:27:41.342321  1468 layer_factory.hpp:77] Creating layer mbox_loc
I0414 18:27:41.342353  1468 net.cpp:100] Creating Layer mbox_loc
I0414 18:27:41.342375  1468 net.cpp:434] mbox_loc <- conv4_3_norm_mbox_loc_flat
I0414 18:27:41.342397  1468 net.cpp:434] mbox_loc <- fc7_mbox_loc_flat
I0414 18:27:41.342422  1468 net.cpp:434] mbox_loc <- conv6_2_mbox_loc_flat
I0414 18:27:41.342443  1468 net.cpp:434] mbox_loc <- conv7_2_mbox_loc_flat
I0414 18:27:41.342463  1468 net.cpp:434] mbox_loc <- conv8_2_mbox_loc_flat
I0414 18:27:41.342484  1468 net.cpp:434] mbox_loc <- conv9_2_mbox_loc_flat
I0414 18:27:41.342514  1468 net.cpp:408] mbox_loc -> mbox_loc
I0414 18:27:41.342583  1468 net.cpp:150] Setting up mbox_loc
I0414 18:27:41.342597  1468 net.cpp:157] Top shape: 1 739200 (739200)
I0414 18:27:41.342602  1468 net.cpp:165] Memory required for data: 417488576
I0414 18:27:41.342605  1468 layer_factory.hpp:77] Creating layer mbox_conf
I0414 18:27:41.342612  1468 net.cpp:100] Creating Layer mbox_conf
I0414 18:27:41.342617  1468 net.cpp:434] mbox_conf <- conv4_3_norm_mbox_conf_flat
I0414 18:27:41.342624  1468 net.cpp:434] mbox_conf <- fc7_mbox_conf_flat
I0414 18:27:41.342629  1468 net.cpp:434] mbox_conf <- conv6_2_mbox_conf_flat
I0414 18:27:41.342634  1468 net.cpp:434] mbox_conf <- conv7_2_mbox_conf_flat
I0414 18:27:41.342640  1468 net.cpp:434] mbox_conf <- conv8_2_mbox_conf_flat
I0414 18:27:41.342644  1468 net.cpp:434] mbox_conf <- conv9_2_mbox_conf_flat
I0414 18:27:41.342650  1468 net.cpp:408] mbox_conf -> mbox_conf
I0414 18:27:41.342695  1468 net.cpp:150] Setting up mbox_conf
I0414 18:27:41.342725  1468 net.cpp:157] Top shape: 1 123200 (123200)
I0414 18:27:41.342744  1468 net.cpp:165] Memory required for data: 417981376
I0414 18:27:41.342762  1468 layer_factory.hpp:77] Creating layer mbox_priorbox
I0414 18:27:41.342784  1468 net.cpp:100] Creating Layer mbox_priorbox
I0414 18:27:41.342805  1468 net.cpp:434] mbox_priorbox <- conv4_3_norm_mbox_priorbox
I0414 18:27:41.342828  1468 net.cpp:434] mbox_priorbox <- fc7_mbox_priorbox
I0414 18:27:41.342849  1468 net.cpp:434] mbox_priorbox <- conv6_2_mbox_priorbox
I0414 18:27:41.342869  1468 net.cpp:434] mbox_priorbox <- conv7_2_mbox_priorbox
I0414 18:27:41.342890  1468 net.cpp:434] mbox_priorbox <- conv8_2_mbox_priorbox
I0414 18:27:41.342909  1468 net.cpp:434] mbox_priorbox <- conv9_2_mbox_priorbox
I0414 18:27:41.342931  1468 net.cpp:408] mbox_priorbox -> mbox_priorbox
I0414 18:27:41.342998  1468 net.cpp:150] Setting up mbox_priorbox
I0414 18:27:41.343009  1468 net.cpp:157] Top shape: 1 2 246400 (492800)
I0414 18:27:41.343013  1468 net.cpp:165] Memory required for data: 419952576
I0414 18:27:41.343019  1468 layer_factory.hpp:77] Creating layer mbox_conf_reshape
I0414 18:27:41.343032  1468 net.cpp:100] Creating Layer mbox_conf_reshape
I0414 18:27:41.343039  1468 net.cpp:434] mbox_conf_reshape <- mbox_conf
I0414 18:27:41.343046  1468 net.cpp:408] mbox_conf_reshape -> mbox_conf_reshape
I0414 18:27:41.343107  1468 net.cpp:150] Setting up mbox_conf_reshape
I0414 18:27:41.343123  1468 net.cpp:157] Top shape: 1 61600 2 (123200)
I0414 18:27:41.343132  1468 net.cpp:165] Memory required for data: 420445376
I0414 18:27:41.343152  1468 layer_factory.hpp:77] Creating layer mbox_conf_softmax
I0414 18:27:41.343168  1468 net.cpp:100] Creating Layer mbox_conf_softmax
I0414 18:27:41.343175  1468 net.cpp:434] mbox_conf_softmax <- mbox_conf_reshape
I0414 18:27:41.343189  1468 net.cpp:408] mbox_conf_softmax -> mbox_conf_softmax
I0414 18:27:41.343571  1468 net.cpp:150] Setting up mbox_conf_softmax
I0414 18:27:41.343590  1468 net.cpp:157] Top shape: 1 61600 2 (123200)
I0414 18:27:41.343600  1468 net.cpp:165] Memory required for data: 420938176
I0414 18:27:41.343607  1468 layer_factory.hpp:77] Creating layer mbox_conf_flatten
I0414 18:27:41.343621  1468 net.cpp:100] Creating Layer mbox_conf_flatten
I0414 18:27:41.343631  1468 net.cpp:434] mbox_conf_flatten <- mbox_conf_softmax
I0414 18:27:41.343641  1468 net.cpp:408] mbox_conf_flatten -> mbox_conf_flatten
I0414 18:27:41.343698  1468 net.cpp:150] Setting up mbox_conf_flatten
I0414 18:27:41.343711  1468 net.cpp:157] Top shape: 1 123200 (123200)
I0414 18:27:41.343719  1468 net.cpp:165] Memory required for data: 421430976
I0414 18:27:41.343727  1468 layer_factory.hpp:77] Creating layer detection_out
I0414 18:27:41.343749  1468 net.cpp:100] Creating Layer detection_out
I0414 18:27:41.343758  1468 net.cpp:434] detection_out <- mbox_loc
I0414 18:27:41.343767  1468 net.cpp:434] detection_out <- mbox_conf_flatten
I0414 18:27:41.343775  1468 net.cpp:434] detection_out <- mbox_priorbox
I0414 18:27:41.343782  1468 net.cpp:408] detection_out -> detection_out
I0414 18:27:41.344310  1468 net.cpp:150] Setting up detection_out
I0414 18:27:41.344331  1468 net.cpp:157] Top shape: 1 1 1 15 (15)
I0414 18:27:41.344339  1468 net.cpp:165] Memory required for data: 421431036
I0414 18:27:41.344347  1468 layer_factory.hpp:77] Creating layer detection_eval
I0414 18:27:41.344359  1468 net.cpp:100] Creating Layer detection_eval
I0414 18:27:41.344368  1468 net.cpp:434] detection_eval <- detection_out
I0414 18:27:41.344379  1468 net.cpp:434] detection_eval <- label
I0414 18:27:41.344393  1468 net.cpp:408] detection_eval -> detection_eval
I0414 18:27:41.344486  1468 net.cpp:150] Setting up detection_eval
I0414 18:27:41.344501  1468 net.cpp:157] Top shape: 1 1 2 5 (10)
I0414 18:27:41.344508  1468 net.cpp:165] Memory required for data: 421431076
I0414 18:27:41.344516  1468 net.cpp:228] detection_eval does not need backward computation.
I0414 18:27:41.344527  1468 net.cpp:228] detection_out does not need backward computation.
I0414 18:27:41.344533  1468 net.cpp:228] mbox_conf_flatten does not need backward computation.
I0414 18:27:41.344537  1468 net.cpp:228] mbox_conf_softmax does not need backward computation.
…
