…
      sampler {
        min_scale: 0.3
        max_scale: 1
        min_aspect_ratio: 0.5
        max_aspect_ratio: 2
      }
      sample_constraint {
        min_object_coverage: 0.9
      }
      max_sample: 1
      max_trials: 50
    }
    batch_sampler {
      sampler {
        min_scale: 0.3
        max_scale: 1
        min_aspect_ratio: 0.5
        max_aspect_ratio: 2
      }
      sample_constraint {
        max_jaccard_overlap: 1
      }
      max_sample: 1
      max_trials: 50
    }
    label_map_file: "data/text/labelmap_voc.prototxt"
  }
}
layer {
  name: "conv1_1"
  type: "Convolution"
  bottom: "data"
  top: "conv1_1"
  param {
    lr_mult: 1
    decay_mult: 1
  }
  param {
    lr_mult: 2
    decay_mult: 0
  }
  convolution_param {
    num_output: 64
    pad: 1
    kernel_size: 3
    weight_filler {
      type: "xavier"
    }
    bias_filler {
      type: "constant"
      value: 0
    }
  }
}
layer {
  name: "relu1_1"
  type: "ReLU"
  bottom: "conv1_1"
  top: "conv1_1"
}
layer {
  name: "conv1_2"
  type: "Convolution"
  bottom: "conv1_1"
  top: "conv1_2"
  param {
    lr_mult: 1
    decay_mult: 1
  }
  param {
    lr_mult: 2
    decay_mult: 0
  }
  convolution_param {
    num_output: 64
    pad: 1
    kernel_size: 3
    weight_filler {
      type: "xavier"
    }
    bias_filler {
      type: "constant"
      value: 0
    }
  }
}
layer {
  name: "relu1_2"
  type: "ReLU"
  bottom: "conv1_2"
  top: "conv1_2"
}
layer {
  name: "pool1"
  type: "Pooling"
  bottom: "conv1_2"
  top: "pool1"
  pooling_param {
    pool: MAX
    kernel_size: 2
    stride: 2
  }
}
layer {
  name: "conv2_1"
  type: "Convolution"
  bottom: "pool1"
  top: "conv2_1"
  param {
    lr_mult: 1
    decay_mult: 1
  }
  param {
    lr_mult: 2
    decay_mult: 0
  }
  convolution_param {
    num_output: 128
    pad: 1
    kernel_size: 3
    weight_filler {
      type: "xavier"
    }
    bias_filler {
      type: "constant"
      value: 0
    }
  }
}
layer {
  name: "relu2_1"
  type: "ReLU"
  bottom: "conv2_1"
  top: "conv2_1"
}
layer {
  name: "conv2_2"
  type: "Convolution"
  bottom: "conv2_1"
  top: "conv2_2"
  param {
    lr_mult: 1
    decay_mult: 1
  }
  param {
    lr_mult: 2
    decay_mult: 0
  }
  convolution_param {
    num_output: 128
    pad: 1
    kernel_size: 3
    weight_filler {
      type: "xavier"
    }
    bias_filler {
      type: "constant"
      value: 0
    }
  }
}
layer {
  name: "relu2_2"
  type: "ReLU"
  bottom: "conv2_2"
  top: "conv2_2"
}
layer {
  name: "pool2"
  type: "Pooling"
  bottom: "conv2_2"
  top: "pool2"
  pooling_param {
    pool: MAX
    kernel_size: 2
    stride: 2
  }
}
layer {
  name: "conv3_1"
  type: "Convolution"
  bottom: "pool2"
  top: "conv3_1"
  param {
    lr_mult: 1
    decay_mult: 1
  }
  param {
    lr_mult: 2
    decay_mult: 0
  }
  convolution_param {
    num_output: 256
    pad: 1
    kernel_size: 3
    weight_filler {
      type: "xavier"
    }
    bias_filler {
      type: "constant"
      value: 0
    }
  }
}
layer {
  name: "relu3_1"
  type: "ReLU"
  bottom: "conv3_1"
  top: "conv3_1"
}
layer {
  name: "conv3_2"
  type: "Convolution"
  bottom: "conv3_1"
  top: "conv3_2"
  param {
    lr_mult: 1
    decay_mult: 1
  }
  param {
    lr_mult: 2
    decay_mult: 0
  }
  convolution_param {
    num_output: 256
    pad: 1
    kernel_size: 3
    weight_filler {
      type: "xavier"
    }
    bias_filler {
      type: "constant"
      value: 0
    }
  }
}
layer {
  name: "relu3_2"
  type: "ReLU"
  bottom: "conv3_2"
  top: "conv3_2"
}
layer {
  name: "conv3_3"
  type: "Convolution"
  bottom: "conv3_2"
  top: "conv3_3"
  param {
    lr_mult: 1
    decay_mult: 1
  }
  param {
    lr_mult: 2
    decay_mult: 0
  }
  convolution_param {
    num_output: 256
    pad: 1
    kernel_size: 3
    weight_filler {
      type: "xavier"
    }
    bias_filler {
      type: "constant"
      value: 0
    }
  }
}
layer {
  name: "relu3_3"
  type: "ReLU"
  bottom: "conv3_3"
  top: "conv3_3"
}
layer {
  name: "pool3"
  type: "Pooling"
  bottom: "conv3_3"
  top: "pool3"
  pooling_param {
    pool: MAX
    kernel_size: 2
    stride: 2
  }
}
layer {
  name: "conv4_1"
  type: "Convolution"
  bottom: "pool3"
  top: "conv4_1"
  param {
    lr_mult: 1
    decay_mult: 1
  }
  param {
    lr_mult: 2
    decay_mult: 0
  }
  convolution_param {
    num_output: 512
    pad: 1
    kernel_size: 3
    weight_filler {
      type: "xavier"
    }
    bias_filler {
      type: "constant"
      value: 0
    }
  }
}
layer {
  name: "relu4_1"
  type: "ReLU"
  bottom: "conv4_1"
  top: "conv4_1"
}
layer {
  name: "conv4_2"
  type: "Convolution"
  bottom: "conv4_1"
  top: "conv4_2"
  param {
    lr_mult: 1
    decay_mult: 1
  }
  param {
    lr_mult: 2
    decay_mult: 0
  }
  convolution_param {
    num_output: 512
    pad: 1
    kernel_size: 3
    weight_filler {
      type: "xavier"
    }
    bias_filler {
      type: "constant"
      value: 0
    }
  }
}
layer {
  name: "relu4_2"
  type: "ReLU"
  bottom: "conv4_2"
  top: "conv4_2"
}
layer {
  name: "conv4_3"
  type: "Convolution"
  bottom: "conv4_2"
  top: "conv4_3"
  param {
    lr_mult: 1
    decay_mult: 1
  }
  param {
    lr_mult: 2
    decay_mult: 0
  }
  convolution_param {
    num_output: 512
    pad: 1
    kernel_size: 3
    weight_filler {
      type: "xavier"
    }
    bias_filler {
      type: "constant"
      value: 0
    }
  }
}
layer {
  name: "relu4_3"
  type: "ReLU"
  bottom: "conv4_3"
  top: "conv4_3"
}
layer {
  name: "pool4"
  type: "Pooling"
  bottom: "conv4_3"
  top: "pool4"
  pooling_param {
    pool: MAX
    kernel_size: 2
    stride: 2
  }
}
layer {
  name: "conv5_1"
  type: "Convolution"
  bottom: "pool4"
  top: "conv5_1"
  param {
    lr_mult: 1
    decay_mult: 1
  }
  param {
    lr_mult: 2
    decay_mult: 0
  }
  convolution_param {
    num_output: 512
    pad: 1
    kernel_size: 3
    weight_filler {
      type: "xavier"
    }
    bias_filler {
      type: "constant"
      value: 0
    }
    dilation: 1
  }
}
layer {
  name: "relu5_1"
  type: "ReLU"
  bottom: "conv5_1"
  top: "conv5_1"
}
layer {
  name: "conv5_2"
  type: "Convolution"
  bottom: "conv5_1"
  top: "conv5_2"
  param {
    lr_mult: 1
    decay_mult: 1
  }
  param {
    lr_mult: 2
    decay_mult: 0
  }
  convolution_param {
    num_output: 512
    pad: 1
    kernel_size: 3
    weight_filler {
      type: "xavier"
    }
    bias_filler {
      type: "constant"
      value: 0
    }
    dilation: 1
  }
}
layer {
  name: "relu5_2"
  type: "ReLU"
  bottom: "conv5_2"
  top: "conv5_2"
}
layer {
  name: "conv5_3"
  type: "Convolution"
  bottom: "conv5_2"
  top: "conv5_3"
  param {
    lr_mult: 1
    decay_mult: 1
  }
  param {
    lr_mult: 2
    decay_mult: 0
  }
  convolution_param {
    num_output: 512
    pad: 1
    kernel_size: 3
    weight_filler {
      type: "xavier"
    }
    bias_filler {
      type: "constant"
      value: 0
    }
    dilation: 1
  }
}
layer {
  name: "relu5_3"
  type: "ReLU"
  bottom: "conv5_3"
  top: "conv5_3"
}
layer {
  name: "pool5"
  type: "Pooling"
  bottom: "conv5_3"
  top: "pool5"
  pooling_param {
    pool: MAX
    kernel_size: 3
    stride: 1
    pad: 1
  }
}
layer {
  name: "fc6"
  type: "Convolution"
  bottom: "pool5"
  top: "fc6"
  param {
    lr_mult: 1
    decay_mult: 1
  }
  param {
    lr_mult: 2
    decay_mult: 0
  }
  convolution_param {
    num_output: 1024
    pad: 6
    kernel_size: 3
    weight_filler {
      type: "xavier"
    }
    bias_filler {
      type: "constant"
      value: 0
    }
    dilation: 6
  }
}
layer {
  name: "relu6"
  type: "ReLU"
  bottom: "fc6"
  top: "fc6"
}
layer {
  name: "fc7"
  type: "Convolution"
  bottom: "fc6"
  top: "fc7"
  param {
    lr_mult: 1
    decay_mult: 1
  }
  param {
    lr_mult: 2
    decay_mult: 0
  }
  convolution_param {
    num_output: 1024
    kernel_size: 1
    weight_filler {
      type: "xavier"
    }
    bias_filler {
      type: "constant"
      value: 0
    }
  }
}
layer {
  name: "relu7"
  type: "ReLU"
  bottom: "fc7"
  top: "fc7"
}
layer {
  name: "conv6_1"
  type: "Convolution"
  bottom: "fc7"
  top: "conv6_1"
  param {
    lr_mult: 1
    decay_mult: 1
  }
  param {
    lr_mult: 2
    decay_mult: 0
  }
  convolution_param {
    num_output: 256
    pad: 0
    kernel_size: 1
    stride: 1
    weight_filler {
      type: "xavier"
    }
    bias_filler {
      type: "constant"
      value: 0
    }
  }
}
layer {
  name: "conv6_1_relu"
  type: "ReLU"
  bottom: "conv6_1"
  top: "conv6_1"
}
layer {
  name: "conv6_2"
  type: "Convolution"
  bottom: "conv6_1"
  top: "conv6_2"
  param {
    lr_mult: 1
    decay_mult: 1
  }
  param {
    lr_mult: 2
    decay_mult: 0
  }
  convolution_param {
    num_output: 512
    pad: 1
    kernel_size: 3
    stride: 2
    weight_filler {
      type: "xavier"
    }
    bias_filler {
      type: "constant"
      value: 0
    }
  }
}
layer {
  name: "conv6_2_relu"
  type: "ReLU"
  bottom: "conv6_2"
  top: "conv6_2"
}
layer {
  name: "conv7_1"
  type: "Convolution"
  bottom: "conv6_2"
  top: "conv7_1"
  param {
    lr_mult: 1
    decay_mult: 1
  }
  param {
    lr_mult: 2
    decay_mult: 0
  }
  convolution_param {
    num_output: 128
    pad: 0
    kernel_size: 1
    stride: 1
    weight_filler {
      type: "xavier"
    }
    bias_filler {
      type: "constant"
      value: 0
    }
  }
}
layer {
  name: "conv7_1_relu"
  type: "ReLU"
  bottom: "conv7_1"
  top: "conv7_1"
}
layer {
  name: "conv7_2"
  type: "Convolution"
  bottom: "conv7_1"
  top: "conv7_2"
  param {
    lr_mult: 1
    decay_mult: 1
  }
  param {
    lr_mult: 2
    decay_mult: 0
  }
  convolution_param {
    num_output: 256
    pad: 1
    kernel_size: 3
    stride: 2
    weight_filler {
      type: "xavier"
    }
    bias_filler {
      type: "constant"
      value: 0
    }
  }
}
layer {
  name: "conv7_2_relu"
  type: "ReLU"
  bottom: "conv7_2"
  top: "conv7_2"
}
layer {
  name: "conv8_1"
  type: "Convolution"
  bottom: "conv7_2"
  top: "conv8_1"
  param {
    lr_mult: 1
    decay_mult: 1
  }
  param {
    lr_mult: 2
    decay_mult: 0
  }
  convolution_param {
    num_output: 128
    pad: 0
    kernel_size: 1
    stride: 1
    weight_filler {
      type: "xavier"
    }
    bias_filler {
      type: "constant"
      value: 0
    }
  }
}
layer {
  name: "conv8_1_relu"
  type: "ReLU"
  bottom: "conv8_1"
  top: "conv8_1"
}
layer {
  name: "conv8_2"
  type: "Convolution"
  bottom: "conv8_1"
  top: "conv8_2"
  param {
    lr_mult: 1
    decay_mult: 1
  }
  param {
    lr_mult: 2
    decay_mult: 0
  }
  convolution_param {
    num_output: 256
    pad: 0
    kernel_size: 3
    stride: 1
    weight_filler {
      type: "xavier"
    }
    bias_filler {
      type: "constant"
      value: 0
    }
  }
}
layer {
  name: "conv8_2_relu"
  type: "ReLU"
  bottom: "conv8_2"
  top: "conv8_2"
}
layer {
  name: "conv9_1"
  type: "Convolution"
  bottom: "conv8_2"
  top: "conv9_1"
  param {
    lr_mult: 1
    decay_mult: 1
  }
  param {
    lr_mult: 2
    decay_mult: 0
  }
  convolution_param {
    num_output: 128
    pad: 0
    kernel_size: 1
    stride: 1
    weight_filler {
      type: "xavier"
    }
    bias_filler {
      type: "constant"
      value: 0
    }
  }
}
layer {
  name: "conv9_1_relu"
  type: "ReLU"
  bottom: "conv9_1"
  top: "conv9_1"
}
layer {
  name: "conv9_2"
  type: "Convolution"
  bottom: "conv9_1"
  top: "conv9_2"
  param {
    lr_mult: 1
    decay_mult: 1
  }
  param {
    lr_mult: 2
    decay_mult: 0
  }
  convolution_param {
    num_output: 256
    pad: 0
    kernel_size: 3
    stride: 1
    weight_filler {
      type: "xavier"
    }
    bias_filler {
      type: "constant"
      value: 0
    }
  }
}
layer {
  name: "conv9_2_relu"
  type: "ReLU"
  bottom: "conv9_2"
  top: "conv9_2"
}
layer {
  name: "conv3_3_norm"
  type: "Normalize"
  bottom: "conv3_3"
  top: "conv3_3_norm"
  norm_param {
    across_spatial: false
    scale_filler {
      type: "constant"
      value: 20
    }
    channel_shared: false
  }
}
layer {
  name: "conv3_3_norm_mbox_loc"
  type: "Convolution"
  bottom: "conv3_3_norm"
  top: "conv3_3_norm_mbox_loc"
  param {
    lr_mult: 1
    decay_mult: 1
  }
  param {
    lr_mult: 2
    decay_mult: 0
  }
  convolution_param {
    num_output: 288
    weight_filler {
      type: "xavier"
    }
    bias_filler {
      type: "constant"
      value: 0
    }
    pad_h: 1
    pad_w: 2
    kernel_h: 3
    kernel_w: 5
    stride_h: 1
    stride_w: 1
  }
}
layer {
  name: "conv3_3_norm_mbox_loc_perm"
  type: "Permute"
  bottom: "conv3_3_norm_mbox_loc"
  top: "conv3_3_norm_mbox_loc_perm"
  permute_param {
    order: 0
    order: 2
    order: 3
    order: 1
  }
}
layer {
  name: "conv3_3_norm_mbox_loc_flat"
  type: "Flatten"
  bottom: "conv3_3_norm_mbox_loc_perm"
  top: "conv3_3_norm_mbox_loc_flat"
  flatten_param {
    axis: 1
  }
}
layer {
  name: "conv3_3_norm_mbox_conf"
  type: "Convolution"
  bottom: "conv3_3_norm"
  top: "conv3_3_norm_mbox_conf"
  param {
    lr_mult: 1
    decay_mult: 1
  }
  param {
    lr_mult: 2
    decay_mult: 0
  }
  convolution_param {
    num_output: 48
    weight_filler {
      type: "xavier"
    }
    bias_filler {
      type: "constant"
      value: 0
    }
    pad_h: 1
    pad_w: 2
    kernel_h: 3
    kernel_w: 5
    stride_h: 1
    stride_w: 1
  }
}
layer {
  name: "conv3_3_norm_mbox_conf_perm"
  type: "Permute"
  bottom: "conv3_3_norm_mbox_conf"
  top: "conv3_3_norm_mbox_conf_perm"
  permute_param {
    order: 0
    order: 2
    order: 3
    order: 1
  }
}
layer {
  name: "conv3_3_norm_mbox_conf_flat"
  type: "Flatten"
  bottom: "conv3_3_norm_mbox_conf_perm"
  top: "conv3_3_norm_mbox_conf_flat"
  flatten_param {
    axis: 1
  }
}
layer {
  name: "conv3_3_norm_mbox_priorbox"
  type: "PriorBox"
  bottom: "conv3_3_norm"
  bottom: "data"
  top: "conv3_3_norm_mbox_priorbox"
  prior_box_param {
    min_size: 10
    max_size: 30
    aspect_ratio: 2
    aspect_ratio: 3
    aspect_ratio: 4
    aspect_ratio: 5
    aspect_ratio: 7
    flip: true
    clip: false
    variance: 0.1
    variance: 0.1
    variance: 0.2
    variance: 0.2
    step: 4
    offset: 0.5
    denser_prior_boxes: true
  }
}
layer {
  name: "conv4_3_norm"
  type: "Normalize"
  bottom: "conv4_3"
  top: "conv4_3_norm"
  norm_param {
    across_spatial: false
    scale_filler {
      type: "constant"
      value: 20
    }
    channel_shared: false
  }
}
layer {
  name: "conv4_3_norm_mbox_loc"
  type: "Convolution"
  bottom: "conv4_3_norm"
  top: "conv4_3_norm_mbox_loc"
  param {
    lr_mult: 1
    decay_mult: 1
  }
  param {
    lr_mult: 2
    decay_mult: 0
  }
  convolution_param {
    num_output: 288
    weight_filler {
      type: "xavier"
    }
    bias_filler {
      type: "constant"
      value: 0
    }
    pad_h: 1
    pad_w: 2
    kernel_h: 3
    kernel_w: 5
    stride_h: 1
    stride_w: 1
  }
}
layer {
  name: "conv4_3_norm_mbox_loc_perm"
  type: "Permute"
  bottom: "conv4_3_norm_mbox_loc"
  top: "conv4_3_norm_mbox_loc_perm"
  permute_param {
    order: 0
    order: 2
    order: 3
    order: 1
  }
}
layer {
  name: "conv4_3_norm_mbox_loc_flat"
  type: "Flatten"
  bottom: "conv4_3_norm_mbox_loc_perm"
  top: "conv4_3_norm_mbox_loc_flat"
  flatten_param {
    axis: 1
  }
}
layer {
  name: "conv4_3_norm_mbox_conf"
  type: "Convolution"
  bottom: "conv4_3_norm"
  top: "conv4_3_norm_mbox_conf"
  param {
    lr_mult: 1
    decay_mult: 1
  }
  param {
    lr_mult: 2
    decay_mult: 0
  }
  convolution_param {
    num_output: 48
    weight_filler {
      type: "xavier"
    }
    bias_filler {
      type: "constant"
      value: 0
    }
    pad_h: 1
    pad_w: 2
    kernel_h: 3
    kernel_w: 5
    stride_h: 1
    stride_w: 1
  }
}
layer {
  name: "conv4_3_norm_mbox_conf_perm"
  type: "Permute"
  bottom: "conv4_3_norm_mbox_conf"
  top: "conv4_3_norm_mbox_conf_perm"
  permute_param {
    order: 0
    order: 2
    order: 3
    order: 1
  }
}
layer {
  name: "conv4_3_norm_mbox_conf_flat"
  type: "Flatten"
  bottom: "conv4_3_norm_mbox_conf_perm"
  top: "conv4_3_norm_mbox_conf_flat"
  flatten_param {
    axis: 1
  }
}
layer {
  name: "conv4_3_norm_mbox_priorbox"
  type: "PriorBox"
  bottom: "conv4_3_norm"
  bottom: "data"
  top: "conv4_3_norm_mbox_priorbox"
  prior_box_param {
    min_size: 30
    max_size: 78
    aspect_ratio: 2
    aspect_ratio: 3
    aspect_ratio: 4
    aspect_ratio: 5
    aspect_ratio: 7
    flip: true
    clip: false
    variance: 0.1
    variance: 0.1
    variance: 0.2
    variance: 0.2
    step: 8
    offset: 0.5
    denser_prior_boxes: true
  }
}
layer {
  name: "fc7_mbox_loc"
  type: "Convolution"
  bottom: "fc7"
  top: "fc7_mbox_loc"
  param {
    lr_mult: 1
    decay_mult: 1
  }
  param {
    lr_mult: 2
    decay_mult: 0
  }
  convolution_param {
    num_output: 288
    weight_filler {
      type: "xavier"
    }
    bias_filler {
      type: "constant"
      value: 0
    }
    pad_h: 1
    pad_w: 2
    kernel_h: 3
    kernel_w: 5
    stride_h: 1
    stride_w: 1
  }
}
layer {
  name: "fc7_mbox_loc_perm"
  type: "Permute"
  bottom: "fc7_mbox_loc"
  top: "fc7_mbox_loc_perm"
  permute_param {
    order: 0
    order: 2
    order: 3
    order: 1
  }
}
layer {
  name: "fc7_mbox_loc_flat"
  type: "Flatten"
  bottom: "fc7_mbox_loc_perm"
  top: "fc7_mbox_loc_flat"
  flatten_param {
    axis: 1
  }
}
layer {
  name: "fc7_mbox_conf"
  type: "Convolution"
  bottom: "fc7"
  top: "fc7_mbox_conf"
  param {
    lr_mult: 1
    decay_mult: 1
  }
  param {
    lr_mult: 2
    decay_mult: 0
  }
  convolution_param {
    num_output: 48
    weight_filler {
      type: "xavier"
    }
    bias_filler {
      type: "constant"
      value: 0
    }
    pad_h: 1
    pad_w: 2
    kernel_h: 3
    kernel_w: 5
    stride_h: 1
    stride_w: 1
  }
}
layer {
  name: "fc7_mbox_conf_perm"
  type: "Permute"
  bottom: "fc7_mbox_conf"
  top: "fc7_mbox_conf_perm"
  permute_param {
    order: 0
    order: 2
    order: 3
    order: 1
  }
}
layer {
  name: "fc7_mbox_conf_flat"
  type: "Flatten"
  bottom: "fc7_mbox_conf_perm"
  top: "fc7_mbox_conf_flat"
  flatten_param {
    axis: 1
  }
}
layer {
  name: "fc7_mbox_priorbox"
  type: "PriorBox"
  bottom: "fc7"
  bottom: "data"
  top: "fc7_mbox_priorbox"
  prior_box_param {
    min_size: 78
    max_size: 126
    aspect_ratio: 2
    aspect_ratio: 3
    aspect_ratio: 4
    aspect_ratio: 5
    aspect_ratio: 7
    flip: true
    clip: false
    variance: 0.1
    variance: 0.1
    variance: 0.2
    variance: 0.2
    step: 16
    offset: 0.5
    denser_prior_boxes: true
  }
}
layer {
  name: "conv6_2_mbox_loc"
  type: "Convolution"
  bottom: "conv6_2"
  top: "conv6_2_mbox_loc"
  param {
    lr_mult: 1
    decay_mult: 1
  }
  param {
    lr_mult: 2
    decay_mult: 0
  }
  convolution_param {
    num_output: 288
    weight_filler {
      type: "xavier"
    }
    bias_filler {
      type: "constant"
      value: 0
    }
    pad_h: 1
    pad_w: 2
    kernel_h: 3
    kernel_w: 5
    stride_h: 1
    stride_w: 1
  }
}
layer {
  name: "conv6_2_mbox_loc_perm"
  type: "Permute"
  bottom: "conv6_2_mbox_loc"
  top: "conv6_2_mbox_loc_perm"
  permute_param {
    order: 0
    order: 2
    order: 3
    order: 1
  }
}
layer {
  name: "conv6_2_mbox_loc_flat"
  type: "Flatten"
  bottom: "conv6_2_mbox_loc_perm"
  top: "conv6_2_mbox_loc_flat"
  flatten_param {
    axis: 1
  }
}
layer {
  name: "conv6_2_mbox_conf"
  type: "Convolution"
  bottom: "conv6_2"
  top: "conv6_2_mbox_conf"
  param {
    lr_mult: 1
    decay_mult: 1
  }
  param {
    lr_mult: 2
    decay_mult: 0
  }
  convolution_param {
    num_output: 48
    weight_filler {
      type: "xavier"
    }
    bias_filler {
      type: "constant"
      value: 0
    }
    pad_h: 1
    pad_w: 2
    kernel_h: 3
    kernel_w: 5
    stride_h: 1
    stride_w: 1
  }
}
layer {
  name: "conv6_2_mbox_conf_perm"
  type: "Permute"
  bottom: "conv6_2_mbox_conf"
  top: "conv6_2_mbox_conf_perm"
  permute_param {
    order: 0
    order: 2
    order: 3
    order: 1
  }
}
layer {
  name: "conv6_2_mbox_conf_flat"
  type: "Flatten"
  bottom: "conv6_2_mbox_conf_perm"
  top: "conv6_2_mbox_conf_flat"
  flatten_param {
    axis: 1
  }
}
layer {
  name: "conv6_2_mbox_priorbox"
  type: "PriorBox"
  bottom: "conv6_2"
  bottom: "data"
  top: "conv6_2_mbox_priorbox"
  prior_box_param {
    min_size: 126
    max_size: 174
    aspect_ratio: 2
    aspect_ratio: 3
    aspect_ratio: 4
    aspect_ratio: 5
    aspect_ratio: 7
    flip: true
    clip: false
    variance: 0.1
    variance: 0.1
    variance: 0.2
    variance: 0.2
    step: 32
    offset: 0.5
    denser_prior_boxes: true
  }
}
layer {
  name: "conv7_2_mbox_loc"
  type: "Convolution"
  bottom: "conv7_2"
  top: "conv7_2_mbox_loc"
  param {
    lr_mult: 1
    decay_mult: 1
  }
  param {
    lr_mult: 2
    decay_mult: 0
  }
  convolution_param {
    num_output: 288
    weight_filler {
      type: "xavier"
    }
    bias_filler {
      type: "constant"
      value: 0
    }
    pad_h: 1
    pad_w: 2
    kernel_h: 3
    kernel_w: 5
    stride_h: 1
    stride_w: 1
  }
}
layer {
  name: "conv7_2_mbox_loc_perm"
  type: "Permute"
  bottom: "conv7_2_mbox_loc"
  top: "conv7_2_mbox_loc_perm"
  permute_param {
    order: 0
    order: 2
    order: 3
    order: 1
  }
}
layer {
  name: "conv7_2_mbox_loc_flat"
  type: "Flatten"
  bottom: "conv7_2_mbox_loc_perm"
  top: "conv7_2_mbox_loc_flat"
  flatten_param {
    axis: 1
  }
}
layer {
  name: "conv7_2_mbox_conf"
  type: "Convolution"
  bottom: "conv7_2"
  top: "conv7_2_mbox_conf"
  param {
    lr_mult: 1
    decay_mult: 1
  }
  param {
    lr_mult: 2
    decay_mult: 0
  }
  convolution_param {
    num_output: 48
    weight_filler {
      type: "xavier"
    }
    bias_filler {
      type: "constant"
      value: 0
    }
    pad_h: 1
    pad_w: 2
    kernel_h: 3
    kernel_w: 5
    stride_h: 1
    stride_w: 1
  }
}
layer {
  name: "conv7_2_mbox_conf_perm"
  type: "Permute"
  bottom: "conv7_2_mbox_conf"
  top: "conv7_2_mbox_conf_perm"
  permute_param {
    order: 0
    order: 2
    order: 3
    order: 1
  }
}
layer {
  name: "conv7_2_mbox_conf_flat"
  type: "Flatten"
  bottom: "conv7_2_mbox_conf_perm"
  top: "conv7_2_mbox_conf_flat"
  flatten_param {
    axis: 1
  }
}
layer {
  name: "conv7_2_mbox_priorbox"
  type: "PriorBox"
  bottom: "conv7_2"
  bottom: "data"
  top: "conv7_2_mbox_priorbox"
  prior_box_param {
    min_size: 174
    max_size: 222
    aspect_ratio: 2
    aspect_ratio: 3
    aspect_ratio: 4
    aspect_ratio: 5
    aspect_ratio: 7
    flip: true
    clip: false
    variance: 0.1
    variance: 0.1
    variance: 0.2
    variance: 0.2
    step: 64
    offset: 0.5
    denser_prior_boxes: true
  }
}
layer {
  name: "conv8_2_mbox_loc"
  type: "Convolution"
  bottom: "conv8_2"
  top: "conv8_2_mbox_loc"
  param {
    lr_mult: 1
    decay_mult: 1
  }
  param {
    lr_mult: 2
    decay_mult: 0
  }
  convolution_param {
    num_output: 288
    weight_filler {
      type: "xavier"
    }
    bias_filler {
      type: "constant"
      value: 0
    }
    pad_h: 1
    pad_w: 2
    kernel_h: 3
    kernel_w: 5
    stride_h: 1
    stride_w: 1
  }
}
layer {
  name: "conv8_2_mbox_loc_perm"
  type: "Permute"
  bottom: "conv8_2_mbox_loc"
  top: "conv8_2_mbox_loc_perm"
  permute_param {
    order: 0
    order: 2
    order: 3
    order: 1
  }
}
layer {
  name: "conv8_2_mbox_loc_flat"
  type: "Flatten"
  bottom: "conv8_2_mbox_loc_perm"
  top: "conv8_2_mbox_loc_flat"
  flatten_param {
    axis: 1
  }
}
layer {
  name: "conv8_2_mbox_conf"
  type: "Convolution"
  bottom: "conv8_2"
  top: "conv8_2_mbox_conf"
  param {
    lr_mult: 1
    decay_mult: 1
  }
  param {
    lr_mult: 2
    decay_mult: 0
  }
  convolution_param {
    num_output: 48
    weight_filler {
      type: "xavier"
    }
    bias_filler {
      type: "constant"
      value: 0
    }
    pad_h: 1
    pad_w: 2
    kernel_h: 3
    kernel_w: 5
    stride_h: 1
    stride_w: 1
  }
}
layer {
  name: "conv8_2_mbox_conf_perm"
  type: "Permute"
  bottom: "conv8_2_mbox_conf"
  top: "conv8_2_mbox_conf_perm"
  permute_param {
    order: 0
    order: 2
    order: 3
    order: 1
  }
}
layer {
  name: "conv8_2_mbox_conf_flat"
  type: "Flatten"
  bottom: "conv8_2_mbox_conf_perm"
  top: "conv8_2_mbox_conf_flat"
  flatten_param {
    axis: 1
  }
}
layer {
  name: "conv8_2_mbox_priorbox"
  type: "PriorBox"
  bottom: "conv8_2"
  bottom: "data"
  top: "conv8_2_mbox_priorbox"
  prior_box_param {
    min_size: 222
    max_size: 270
    aspect_ratio: 2
    aspect_ratio: 3
    aspect_ratio: 4
    aspect_ratio: 5
    aspect_ratio: 7
    flip: true
    clip: false
    variance: 0.1
    variance: 0.1
    variance: 0.2
    variance: 0.2
    step: 100
    offset: 0.5
    denser_prior_boxes: true
  }
}
layer {
  name: "conv9_2_mbox_loc"
  type: "Convolution"
  bottom: "conv9_2"
  top: "conv9_2_mbox_loc"
  param {
    lr_mult: 1
    decay_mult: 1
  }
  param {
    lr_mult: 2
    decay_mult: 0
  }
  convolution_param {
    num_output: 288
    weight_filler {
      type: "xavier"
    }
    bias_filler {
      type: "constant"
      value: 0
    }
    pad_h: 1
    pad_w: 2
    kernel_h: 3
    kernel_w: 5
    stride_h: 1
    stride_w: 1
  }
}
layer {
  name: "conv9_2_mbox_loc_perm"
  type: "Permute"
  bottom: "conv9_2_mbox_loc"
  top: "conv9_2_mbox_loc_perm"
  permute_param {
    order: 0
    order: 2
    order: 3
    order: 1
  }
}
layer {
  name: "conv9_2_mbox_loc_flat"
  type: "Flatten"
  bottom: "conv9_2_mbox_loc_perm"
  top: "conv9_2_mbox_loc_flat"
  flatten_param {
    axis: 1
  }
}
layer {
  name: "conv9_2_mbox_conf"
  type: "Convolution"
  bottom: "conv9_2"
  top: "conv9_2_mbox_conf"
  param {
    lr_mult: 1
    decay_mult: 1
  }
  param {
    lr_mult: 2
    decay_mult: 0
  }
  convolution_param {
    num_output: 48
    weight_filler {
      type: "xavier"
    }
    bias_filler {
      type: "constant"
      value: 0
    }
    pad_h: 1
    pad_w: 2
    kernel_h: 3
    kernel_w: 5
    stride_h: 1
    stride_w: 1
  }
}
layer {
  name: "conv9_2_mbox_conf_perm"
  type: "Permute"
  bottom: "conv9_2_mbox_conf"
  top: "conv9_2_mbox_conf_perm"
  permute_param {
    order: 0
    order: 2
    order: 3
    order: 1
  }
}
layer {
  name: "conv9_2_mbox_conf_flat"
  type: "Flatten"
  bottom: "conv9_2_mbox_conf_perm"
  top: "conv9_2_mbox_conf_flat"
  flatten_param {
    axis: 1
  }
}
layer {
  name: "conv9_2_mbox_priorbox"
  type: "PriorBox"
  bottom: "conv9_2"
  bottom: "data"
  top: "conv9_2_mbox_priorbox"
  prior_box_param {
    min_size: 270
    max_size: 318
    aspect_ratio: 2
    aspect_ratio: 3
    aspect_ratio: 4
    aspect_ratio: 5
    aspect_ratio: 7
    flip: true
    clip: false
    variance: 0.1
    variance: 0.1
    variance: 0.2
    variance: 0.2
    step: 300
    offset: 0.5
    denser_prior_boxes: true
  }
}
layer {
  name: "mbox_loc"
  type: "Concat"
  bottom: "conv3_3_norm_mbox_loc_flat"
  bottom: "conv4_3_norm_mbox_loc_flat"
  bottom: "fc7_mbox_loc_flat"
  bottom: "conv6_2_mbox_loc_flat"
  bottom: "conv7_2_mbox_loc_flat"
  bottom: "conv8_2_mbox_loc_flat"
  bottom: "conv9_2_mbox_loc_flat"
  top: "mbox_loc"
  concat_param {
    axis: 1
  }
}
layer {
  name: "mbox_conf"
  type: "Concat"
  bottom: "conv3_3_norm_mbox_conf_flat"
  bottom: "conv4_3_norm_mbox_conf_flat"
  bottom: "fc7_mbox_conf_flat"
  bottom: "conv6_2_mbox_conf_flat"
  bottom: "conv7_2_mbox_conf_flat"
  bottom: "conv8_2_mbox_conf_flat"
  bottom: "conv9_2_mbox_conf_flat"
  top: "mbox_conf"
  concat_param {
    axis: 1
  }
}
layer {
  name: "mbox_priorbox"
  type: "Concat"
  bottom: "conv3_3_norm_mbox_priorbox"
  bottom: "conv4_3_norm_mbox_priorbox"
  bottom: "fc7_mbox_priorbox"
  bottom: "conv6_2_mbox_priorbox"
  bottom: "conv7_2_mbox_priorbox"
  bottom: "conv8_2_mbox_priorbox"
  bottom: "conv9_2_mbox_priorbox"
  top: "mbox_priorbox"
  concat_param {
    axis: 2
  }
}
layer {
  nam
I0421 13:36:13.917490  3802 layer_factory.hpp:77] Creating layer data
I0421 13:36:13.918000  3802 net.cpp:100] Creating Layer data
I0421 13:36:13.918023  3802 net.cpp:408] data -> data
I0421 13:36:13.918076  3802 net.cpp:408] data -> label
I0421 13:36:13.919136  3816 db_lmdb.cpp:35] Opened lmdb ./data/train_lmdb/
I0421 13:36:13.951373  3802 annotated_data_layer.cpp:62] output data size: 16,3,384,384
I0421 13:36:14.011106  3802 net.cpp:150] Setting up data
I0421 13:36:14.011149  3802 net.cpp:157] Top shape: 16 3 384 384 (7077888)
I0421 13:36:14.011162  3802 net.cpp:157] Top shape: 1 1 22 16 (352)
I0421 13:36:14.011168  3802 net.cpp:165] Memory required for data: 28312960
I0421 13:36:14.011183  3802 layer_factory.hpp:77] Creating layer data_data_0_split
I0421 13:36:14.011240  3802 net.cpp:100] Creating Layer data_data_0_split
I0421 13:36:14.011253  3802 net.cpp:434] data_data_0_split <- data
I0421 13:36:14.011271  3802 net.cpp:408] data_data_0_split -> data_data_0_split_0
I0421 13:36:14.011287  3802 net.cpp:408] data_data_0_split -> data_data_0_split_1
I0421 13:36:14.011296  3802 net.cpp:408] data_data_0_split -> data_data_0_split_2
I0421 13:36:14.011307  3802 net.cpp:408] data_data_0_split -> data_data_0_split_3
I0421 13:36:14.011339  3802 net.cpp:408] data_data_0_split -> data_data_0_split_4
I0421 13:36:14.011368  3802 net.cpp:408] data_data_0_split -> data_data_0_split_5
I0421 13:36:14.011392  3802 net.cpp:408] data_data_0_split -> data_data_0_split_6
I0421 13:36:14.011420  3802 net.cpp:408] data_data_0_split -> data_data_0_split_7
I0421 13:36:14.011564  3802 net.cpp:150] Setting up data_data_0_split
I0421 13:36:14.011605  3802 net.cpp:157] Top shape: 16 3 384 384 (7077888)
I0421 13:36:14.011631  3802 net.cpp:157] Top shape: 16 3 384 384 (7077888)
I0421 13:36:14.011636  3802 net.cpp:157] Top shape: 16 3 384 384 (7077888)
I0421 13:36:14.011641  3802 net.cpp:157] Top shape: 16 3 384 384 (7077888)
I0421 13:36:14.011646  3802 net.cpp:157] Top shape: 16 3 384 384 (7077888)
I0421 13:36:14.011651  3802 net.cpp:157] Top shape: 16 3 384 384 (7077888)
I0421 13:36:14.011656  3802 net.cpp:157] Top shape: 16 3 384 384 (7077888)
I0421 13:36:14.011662  3802 net.cpp:157] Top shape: 16 3 384 384 (7077888)
I0421 13:36:14.011668  3802 net.cpp:165] Memory required for data: 254805376
I0421 13:36:14.011677  3802 layer_factory.hpp:77] Creating layer conv1_1
I0421 13:36:14.011720  3802 net.cpp:100] Creating Layer conv1_1
I0421 13:36:14.011744  3802 net.cpp:434] conv1_1 <- data_data_0_split_0
I0421 13:36:14.011770  3802 net.cpp:408] conv1_1 -> conv1_1
I0421 13:36:14.296501  3817 blocking_queue.cpp:50] Waiting for data
I0421 13:36:14.336947  3802 net.cpp:150] Setting up conv1_1
I0421 13:36:14.337072  3802 net.cpp:157] Top shape: 16 64 384 384 (150994944)
I0421 13:36:14.337103  3802 net.cpp:165] Memory required for data: 858785152
I0421 13:36:14.337160  3802 layer_factory.hpp:77] Creating layer relu1_1
I0421 13:36:14.337199  3802 net.cpp:100] Creating Layer relu1_1
I0421 13:36:14.337210  3802 net.cpp:434] relu1_1 <- conv1_1
I0421 13:36:14.337219  3802 net.cpp:395] relu1_1 -> conv1_1 (in-place)
I0421 13:36:14.337826  3802 net.cpp:150] Setting up relu1_1
I0421 13:36:14.337874  3802 net.cpp:157] Top shape: 16 64 384 384 (150994944)
I0421 13:36:14.337883  3802 net.cpp:165] Memory required for data: 1462764928
I0421 13:36:14.337889  3802 layer_factory.hpp:77] Creating layer conv1_2
I0421 13:36:14.337908  3802 net.cpp:100] Creating Layer conv1_2
I0421 13:36:14.337932  3802 net.cpp:434] conv1_2 <- conv1_1
I0421 13:36:14.337960  3802 net.cpp:408] conv1_2 -> conv1_2
I0421 13:36:14.341390  3802 net.cpp:150] Setting up conv1_2
I0421 13:36:14.341441  3802 net.cpp:157] Top shape: 16 64 384 384 (150994944)
I0421 13:36:14.341467  3802 net.cpp:165] Memory required for data: 2066744704
I0421 13:36:14.341498  3802 layer_factory.hpp:77] Creating layer relu1_2
I0421 13:36:14.341511  3802 net.cpp:100] Creating Layer relu1_2
I0421 13:36:14.341516  3802 net.cpp:434] relu1_2 <- conv1_2
I0421 13:36:14.341524  3802 net.cpp:395] relu1_2 -> conv1_2 (in-place)
I0421 13:36:14.341754  3802 net.cpp:150] Setting up relu1_2
I0421 13:36:14.341771  3802 net.cpp:157] Top shape: 16 64 384 384 (150994944)
I0421 13:36:14.341800  3802 net.cpp:165] Memory required for data: 2670724480
I0421 13:36:14.341810  3802 layer_factory.hpp:77] Creating layer pool1
I0421 13:36:14.341821  3802 net.cpp:100] Creating Layer pool1
I0421 13:36:14.341826  3802 net.cpp:434] pool1 <- conv1_2
I0421 13:36:14.341833  3802 net.cpp:408] pool1 -> pool1
I0421 13:36:14.341907  3802 net.cpp:150] Setting up pool1
I0421 13:36:14.341943  3802 net.cpp:157] Top shape: 16 64 192 192 (37748736)
I0421 13:36:14.341967  3802 net.cpp:165] Memory required for data: 2821719424
I0421 13:36:14.341974  3802 layer_factory.hpp:77] Creating layer conv2_1
I0421 13:36:14.341985  3802 net.cpp:100] Creating Layer conv2_1
I0421 13:36:14.341990  3802 net.cpp:434] conv2_1 <- pool1
I0421 13:36:14.341998  3802 net.cpp:408] conv2_1 -> conv2_1
I0421 13:36:14.344368  3802 net.cpp:150] Setting up conv2_1
I0421 13:36:14.344385  3802 net.cpp:157] Top shape: 16 128 192 192 (75497472)
I0421 13:36:14.344390  3802 net.cpp:165] Memory required for data: 3123709312
I0421 13:36:14.344401  3802 layer_factory.hpp:77] Creating layer relu2_1
I0421 13:36:14.344421  3802 net.cpp:100] Creating Layer relu2_1
I0421 13:36:14.344455  3802 net.cpp:434] relu2_1 <- conv2_1
I0421 13:36:14.344483  3802 net.cpp:395] relu2_1 -> conv2_1 (in-place)
I0421 13:36:14.344739  3802 net.cpp:150] Setting up relu2_1
I0421 13:36:14.344777  3802 net.cpp:157] Top shape: 16 128 192 192 (75497472)
I0421 13:36:14.344804  3802 net.cpp:165] Memory required for data: 3425699200
I0421 13:36:14.344836  3802 layer_factory.hpp:77] Creating layer conv2_2
I0421 13:36:14.344874  3802 net.cpp:100] Creating Layer conv2_2
I0421 13:36:14.344882  3802 net.cpp:434] conv2_2 <- conv2_1
I0421 13:36:14.344892  3802 net.cpp:408] conv2_2 -> conv2_2
I0421 13:36:14.348772  3802 net.cpp:150] Setting up conv2_2
I0421 13:36:14.348791  3802 net.cpp:157] Top shape: 16 128 192 192 (75497472)
I0421 13:36:14.348796  3802 net.cpp:165] Memory required for data: 3727689088
I0421 13:36:14.348804  3802 layer_factory.hpp:77] Creating layer relu2_2
I0421 13:36:14.348812  3802 net.cpp:100] Creating Layer relu2_2
I0421 13:36:14.348842  3802 net.cpp:434] relu2_2 <- conv2_2
I0421 13:36:14.348872  3802 net.cpp:395] relu2_2 -> conv2_2 (in-place)
I0421 13:36:14.349347  3802 net.cpp:150] Setting up relu2_2
I0421 13:36:14.349367  3802 net.cpp:157] Top shape: 16 128 192 192 (75497472)
I0421 13:36:14.349375  3802 net.cpp:165] Memory required for data: 4029678976
I0421 13:36:14.349381  3802 layer_factory.hpp:77] Creating layer pool2
I0421 13:36:14.349418  3802 net.cpp:100] Creating Layer pool2
I0421 13:36:14.349442  3802 net.cpp:434] pool2 <- conv2_2
I0421 13:36:14.349469  3802 net.cpp:408] pool2 -> pool2
I0421 13:36:14.349532  3802 net.cpp:150] Setting up pool2
I0421 13:36:14.349563  3802 net.cpp:157] Top shape: 16 128 96 96 (18874368)
I0421 13:36:14.349583  3802 net.cpp:165] Memory required for data: 4105176448
I0421 13:36:14.349604  3802 layer_factory.hpp:77] Creating layer conv3_1
I0421 13:36:14.349632  3802 net.cpp:100] Creating Layer conv3_1
I0421 13:36:14.349640  3802 net.cpp:434] conv3_1 <- pool2
I0421 13:36:14.349649  3802 net.cpp:408] conv3_1 -> conv3_1
I0421 13:36:14.355623  3802 net.cpp:150] Setting up conv3_1
I0421 13:36:14.355672  3802 net.cpp:157] Top shape: 16 256 96 96 (37748736)
I0421 13:36:14.355682  3802 net.cpp:165] Memory required for data: 4256171392
I0421 13:36:14.355696  3802 layer_factory.hpp:77] Creating layer relu3_1
I0421 13:36:14.355710  3802 net.cpp:100] Creating Layer relu3_1
I0421 13:36:14.355717  3802 net.cpp:434] relu3_1 <- conv3_1
I0421 13:36:14.355731  3802 net.cpp:395] relu3_1 -> conv3_1 (in-place)
I0421 13:36:14.355978  3802 net.cpp:150] Setting up relu3_1
I0421 13:36:14.355998  3802 net.cpp:157] Top shape: 16 256 96 96 (37748736)
I0421 13:36:14.356004  3802 net.cpp:165] Memory required for data: 4407166336
I0421 13:36:14.356011  3802 layer_factory.hpp:77] Creating layer conv3_2
I0421 13:36:14.356027  3802 net.cpp:100] Creating Layer conv3_2
I0421 13:36:14.356036  3802 net.cpp:434] conv3_2 <- conv3_1
I0421 13:36:14.356050  3802 net.cpp:408] conv3_2 -> conv3_2
I0421 13:36:14.364621  3802 net.cpp:150] Setting up conv3_2
I0421 13:36:14.364642  3802 net.cpp:157] Top shape: 16 256 96 96 (37748736)
I0421 13:36:14.364647  3802 net.cpp:165] Memory required for data: 4558161280
I0421 13:36:14.364655  3802 layer_factory.hpp:77] Creating layer relu3_2
I0421 13:36:14.364665  3802 net.cpp:100] Creating Layer relu3_2
I0421 13:36:14.364671  3802 net.cpp:434] relu3_2 <- conv3_2
I0421 13:36:14.364681  3802 net.cpp:395] relu3_2 -> conv3_2 (in-place)
I0421 13:36:14.364943  3802 net.cpp:150] Setting up relu3_2
I0421 13:36:14.364958  3802 net.cpp:157] Top shape: 16 256 96 96 (37748736)
I0421 13:36:14.364962  3802 net.cpp:165] Memory required for data: 4709156224
I0421 13:36:14.364967  3802 layer_factory.hpp:77] Creating layer conv3_3
I0421 13:36:14.364985  3802 net.cpp:100] Creating Layer conv3_3
I0421 13:36:14.364995  3802 net.cpp:434] conv3_3 <- conv3_2
I0421 13:36:14.365010  3802 net.cpp:408] conv3_3 -> conv3_3
I0421 13:36:14.373623  3802 net.cpp:150] Setting up conv3_3
I0421 13:36:14.373644  3802 net.cpp:157] Top shape: 16 256 96 96 (37748736)
I0421 13:36:14.373651  3802 net.cpp:165] Memory required for data: 4860151168
I0421 13:36:14.373662  3802 layer_factory.hpp:77] Creating layer relu3_3
I0421 13:36:14.373703  3802 net.cpp:100] Creating Layer relu3_3
I0421 13:36:14.373733  3802 net.cpp:434] relu3_3 <- conv3_3
I0421 13:36:14.373757  3802 net.cpp:395] relu3_3 -> conv3_3 (in-place)
I0421 13:36:14.374238  3802 net.cpp:150] Setting up relu3_3
I0421 13:36:14.374292  3802 net.cpp:157] Top shape: 16 256 96 96 (37748736)
I0421 13:36:14.374315  3802 net.cpp:165] Memory required for data: 5011146112
I0421 13:36:14.374320  3802 layer_factory.hpp:77] Creating layer conv3_3_relu3_3_0_split
I0421 13:36:14.374331  3802 net.cpp:100] Creating Layer conv3_3_relu3_3_0_split
I0421 13:36:14.374341  3802 net.cpp:434] conv3_3_relu3_3_0_split <- conv3_3
I0421 13:36:14.374349  3802 net.cpp:408] conv3_3_relu3_3_0_split -> conv3_3_relu3_3_0_split_0
I0421 13:36:14.374362  3802 net.cpp:408] conv3_3_relu3_3_0_split -> conv3_3_relu3_3_0_split_1
I0421 13:36:14.374428  3802 net.cpp:150] Setting up conv3_3_relu3_3_0_split
I0421 13:36:14.374439  3802 net.cpp:157] Top shape: 16 256 96 96 (37748736)
I0421 13:36:14.374469  3802 net.cpp:157] Top shape: 16 256 96 96 (37748736)
I0421 13:36:14.374492  3802 net.cpp:165] Memory required for data: 5313136000
I0421 13:36:14.374513  3802 layer_factory.hpp:77] Creating layer pool3
I0421 13:36:14.374526  3802 net.cpp:100] Creating Layer pool3
I0421 13:36:14.374534  3802 net.cpp:434] pool3 <- conv3_3_relu3_3_0_split_0
I0421 13:36:14.374547  3802 net.cpp:408] pool3 -> pool3
I0421 13:36:14.374605  3802 net.cpp:150] Setting up pool3
I0421 13:36:14.374619  3802 net.cpp:157] Top shape: 16 256 48 48 (9437184)
I0421 13:36:14.374644  3802 net.cpp:165] Memory required for data: 5350884736
I0421 13:36:14.374665  3802 layer_factory.hpp:77] Creating layer conv4_1
I0421 13:36:14.374696  3802 net.cpp:100] Creating Layer conv4_1
I0421 13:36:14.374706  3802 net.cpp:434] conv4_1 <- pool3
I0421 13:36:14.374713  3802 net.cpp:408] conv4_1 -> conv4_1
I0421 13:36:14.390434  3802 net.cpp:150] Setting up conv4_1
I0421 13:36:14.390456  3802 net.cpp:157] Top shape: 16 512 48 48 (18874368)
I0421 13:36:14.390463  3802 net.cpp:165] Memory required for data: 5426382208
I0421 13:36:14.390475  3802 layer_factory.hpp:77] Creating layer relu4_1
I0421 13:36:14.390513  3802 net.cpp:100] Creating Layer relu4_1
I0421 13:36:14.390539  3802 net.cpp:434] relu4_1 <- conv4_1
I0421 13:36:14.390549  3802 net.cpp:395] relu4_1 -> conv4_1 (in-place)
I0421 13:36:14.390803  3802 net.cpp:150] Setting up relu4_1
I0421 13:36:14.390839  3802 net.cpp:157] Top shape: 16 512 48 48 (18874368)
I0421 13:36:14.390867  3802 net.cpp:165] Memory required for data: 5501879680
I0421 13:36:14.390887  3802 layer_factory.hpp:77] Creating layer conv4_2
I0421 13:36:14.390918  3802 net.cpp:100] Creating Layer conv4_2
I0421 13:36:14.390940  3802 net.cpp:434] conv4_2 <- conv4_1
I0421 13:36:14.390952  3802 net.cpp:408] conv4_2 -> conv4_2
I0421 13:36:14.420421  3802 net.cpp:150] Setting up conv4_2
I0421 13:36:14.420450  3802 net.cpp:157] Top shape: 16 512 48 48 (18874368)
I0421 13:36:14.420464  3802 net.cpp:165] Memory required for data: 5577377152
I0421 13:36:14.420485  3802 layer_factory.hpp:77] Creating layer relu4_2
I0421 13:36:14.420498  3802 net.cpp:100] Creating Layer relu4_2
I0421 13:36:14.420507  3802 net.cpp:434] relu4_2 <- conv4_2
I0421 13:36:14.420521  3802 net.cpp:395] relu4_2 -> conv4_2 (in-place)
I0421 13:36:14.420763  3802 net.cpp:150] Setting up relu4_2
I0421 13:36:14.420780  3802 net.cpp:157] Top shape: 16 512 48 48 (18874368)
I0421 13:36:14.420789  3802 net.cpp:165] Memory required for data: 5652874624
I0421 13:36:14.420797  3802 layer_factory.hpp:77] Creating layer conv4_3
I0421 13:36:14.420817  3802 net.cpp:100] Creating Layer conv4_3
I0421 13:36:14.420825  3802 net.cpp:434] conv4_3 <- conv4_2
I0421 13:36:14.420838  3802 net.cpp:408] conv4_3 -> conv4_3
I0421 13:36:14.449281  3802 net.cpp:150] Setting up conv4_3
I0421 13:36:14.449306  3802 net.cpp:157] Top shape: 16 512 48 48 (18874368)
I0421 13:36:14.449309  3802 net.cpp:165] Memory required for data: 5728372096
I0421 13:36:14.449318  3802 layer_factory.hpp:77] Creating layer relu4_3
I0421 13:36:14.449328  3802 net.cpp:100] Creating Layer relu4_3
I0421 13:36:14.449333  3802 net.cpp:434] relu4_3 <- conv4_3
I0421 13:36:14.449340  3802 net.cpp:395] relu4_3 -> conv4_3 (in-place)
I0421 13:36:14.449708  3802 net.cpp:150] Setting up relu4_3
I0421 13:36:14.449725  3802 net.cpp:157] Top shape: 16 512 48 48 (18874368)
I0421 13:36:14.449749  3802 net.cpp:165] Memory required for data: 5803869568
I0421 13:36:14.449754  3802 layer_factory.hpp:77] Creating layer conv4_3_relu4_3_0_split
I0421 13:36:14.449764  3802 net.cpp:100] Creating Layer conv4_3_relu4_3_0_split
I0421 13:36:14.449767  3802 net.cpp:434] conv4_3_relu4_3_0_split <- conv4_3
I0421 13:36:14.449774  3802 net.cpp:408] conv4_3_relu4_3_0_split -> conv4_3_relu4_3_0_split_0
I0421 13:36:14.449782  3802 net.cpp:408] conv4_3_relu4_3_0_split -> conv4_3_relu4_3_0_split_1
I0421 13:36:14.449837  3802 net.cpp:150] Setting up conv4_3_relu4_3_0_split
I0421 13:36:14.449846  3802 net.cpp:157] Top shape: 16 512 48 48 (18874368)
I0421 13:36:14.449851  3802 net.cpp:157] Top shape: 16 512 48 48 (18874368)
I0421 13:36:14.449854  3802 net.cpp:165] Memory required for data: 5954864512
I0421 13:36:14.449858  3802 layer_factory.hpp:77] Creating layer pool4
I0421 13:36:14.449867  3802 net.cpp:100] Creating Layer pool4
I0421 13:36:14.449872  3802 net.cpp:434] pool4 <- conv4_3_relu4_3_0_split_0
I0421 13:36:14.449878  3802 net.cpp:408] pool4 -> pool4
I0421 13:36:14.449921  3802 net.cpp:150] Setting up pool4
I0421 13:36:14.449929  3802 net.cpp:157] Top shape: 16 512 24 24 (4718592)
I0421 13:36:14.449934  3802 net.cpp:165] Memory required for data: 5973738880
I0421 13:36:14.449936  3802 layer_factory.hpp:77] Creating layer conv5_1
I0421 13:36:14.449949  3802 net.cpp:100] Creating Layer conv5_1
I0421 13:36:14.449954  3802 net.cpp:434] conv5_1 <- pool4
I0421 13:36:14.449962  3802 net.cpp:408] conv5_1 -> conv5_1
I0421 13:36:14.476469  3802 net.cpp:150] Setting up conv5_1
I0421 13:36:14.476490  3802 net.cpp:157] Top shape: 16 512 24 24 (4718592)
I0421 13:36:14.476493  3802 net.cpp:165] Memory required for data: 5992613248
I0421 13:36:14.476501  3802 layer_factory.hpp:77] Creating layer relu5_1
I0421 13:36:14.476508  3802 net.cpp:100] Creating Layer relu5_1
I0421 13:36:14.476513  3802 net.cpp:434] relu5_1 <- conv5_1
I0421 13:36:14.476521  3802 net.cpp:395] relu5_1 -> conv5_1 (in-place)
I0421 13:36:14.476716  3802 net.cpp:150] Setting up relu5_1
I0421 13:36:14.476727  3802 net.cpp:157] Top shape: 16 512 24 24 (4718592)
I0421 13:36:14.476732  3802 net.cpp:165] Memory required for data: 6011487616
I0421 13:36:14.476735  3802 layer_factory.hpp:77] Creating layer conv5_2
I0421 13:36:14.476752  3802 net.cpp:100] Creating Layer conv5_2
I0421 13:36:14.476758  3802 net.cpp:434] conv5_2 <- conv5_1
I0421 13:36:14.476764  3802 net.cpp:408] conv5_2 -> conv5_2
I0421 13:36:14.503381  3802 net.cpp:150] Setting up conv5_2
I0421 13:36:14.503407  3802 net.cpp:157] Top shape: 16 512 24 24 (4718592)
I0421 13:36:14.503412  3802 net.cpp:165] Memory required for data: 6030361984
I0421 13:36:14.503419  3802 layer_factory.hpp:77] Creating layer relu5_2
I0421 13:36:14.503427  3802 net.cpp:100] Creating Layer relu5_2
I0421 13:36:14.503434  3802 net.cpp:434] relu5_2 <- conv5_2
I0421 13:36:14.503442  3802 net.cpp:395] relu5_2 -> conv5_2 (in-place)
I0421 13:36:14.503629  3802 net.cpp:150] Setting up relu5_2
I0421 13:36:14.503641  3802 net.cpp:157] Top shape: 16 512 24 24 (4718592)
I0421 13:36:14.503645  3802 net.cpp:165] Memory required for data: 6049236352
I0421 13:36:14.503649  3802 layer_factory.hpp:77] Creating layer conv5_3
I0421 13:36:14.503667  3802 net.cpp:100] Creating Layer conv5_3
I0421 13:36:14.503674  3802 net.cpp:434] conv5_3 <- conv5_2
I0421 13:36:14.503682  3802 net.cpp:408] conv5_3 -> conv5_3
I0421 13:36:14.535619  3802 net.cpp:150] Setting up conv5_3
I0421 13:36:14.535660  3802 net.cpp:157] Top shape: 16 512 24 24 (4718592)
I0421 13:36:14.535665  3802 net.cpp:165] Memory required for data: 6068110720
I0421 13:36:14.535684  3802 layer_factory.hpp:77] Creating layer relu5_3
I0421 13:36:14.535701  3802 net.cpp:100] Creating Layer relu5_3
I0421 13:36:14.535713  3802 net.cpp:434] relu5_3 <- conv5_3
I0421 13:36:14.535723  3802 net.cpp:395] relu5_3 -> conv5_3 (in-place)
I0421 13:36:14.536109  3802 net.cpp:150] Setting up relu5_3
I0421 13:36:14.536124  3802 net.cpp:157] Top shape: 16 512 24 24 (4718592)
I0421 13:36:14.536128  3802 net.cpp:165] Memory required for data: 6086985088
I0421 13:36:14.536154  3802 layer_factory.hpp:77] Creating layer pool5
I0421 13:36:14.536164  3802 net.cpp:100] Creating Layer pool5
I0421 13:36:14.536167  3802 net.cpp:434] pool5 <- conv5_3
I0421 13:36:14.536180  3802 net.cpp:408] pool5 -> pool5
I0421 13:36:14.536237  3802 net.cpp:150] Setting up pool5
I0421 13:36:14.536245  3802 net.cpp:157] Top shape: 16 512 24 24 (4718592)
I0421 13:36:14.536249  3802 net.cpp:165] Memory required for data: 6105859456
I0421 13:36:14.536253  3802 layer_factory.hpp:77] Creating layer fc6
I0421 13:36:14.536270  3802 net.cpp:100] Creating Layer fc6
I0421 13:36:14.536276  3802 net.cpp:434] fc6 <- pool5
I0421 13:36:14.536283  3802 net.cpp:408] fc6 -> fc6
I0421 13:36:14.587949  3802 net.cpp:150] Setting up fc6
I0421 13:36:14.587985  3802 net.cpp:157] Top shape: 16 1024 24 24 (9437184)
I0421 13:36:14.587990  3802 net.cpp:165] Memory required for data: 6143608192
I0421 13:36:14.587999  3802 layer_factory.hpp:77] Creating layer relu6
I0421 13:36:14.588009  3802 net.cpp:100] Creating Layer relu6
I0421 13:36:14.588018  3802 net.cpp:434] relu6 <- fc6
I0421 13:36:14.588029  3802 net.cpp:395] relu6 -> fc6 (in-place)
I0421 13:36:14.588281  3802 net.cpp:150] Setting up relu6
I0421 13:36:14.588294  3802 net.cpp:157] Top shape: 16 1024 24 24 (9437184)
I0421 13:36:14.588299  3802 net.cpp:165] Memory required for data: 6181356928
I0421 13:36:14.588304  3802 layer_factory.hpp:77] Creating layer fc7
I0421 13:36:14.588317  3802 net.cpp:100] Creating Layer fc7
I0421 13:36:14.588327  3802 net.cpp:434] fc7 <- fc6
I0421 13:36:14.588341  3802 net.cpp:408] fc7 -> fc7
I0421 13:36:14.601248  3802 net.cpp:150] Setting up fc7
I0421 13:36:14.601267  3802 net.cpp:157] Top shape: 16 1024 24 24 (9437184)
I0421 13:36:14.601275  3802 net.cpp:165] Memory required for data: 6219105664
I0421 13:36:14.601286  3802 layer_factory.hpp:77] Creating layer relu7
I0421 13:36:14.601300  3802 net.cpp:100] Creating Layer relu7
I0421 13:36:14.601332  3802 net.cpp:434] relu7 <- fc7
I0421 13:36:14.601351  3802 net.cpp:395] relu7 -> fc7 (in-place)
I0421 13:36:14.601771  3802 net.cpp:150] Setting up relu7
I0421 13:36:14.601788  3802 net.cpp:157] Top shape: 16 1024 24 24 (9437184)
I0421 13:36:14.601794  3802 net.cpp:165] Memory required for data: 6256854400
I0421 13:36:14.601802  3802 layer_factory.hpp:77] Creating layer fc7_relu7_0_split
I0421 13:36:14.601819  3802 net.cpp:100] Creating Layer fc7_relu7_0_split
I0421 13:36:14.601852  3802 net.cpp:434] fc7_relu7_0_split <- fc7
I0421 13:36:14.601882  3802 net.cpp:408] fc7_relu7_0_split -> fc7_relu7_0_split_0
I0421 13:36:14.601927  3802 net.cpp:408] fc7_relu7_0_split -> fc7_relu7_0_split_1
I0421 13:36:14.601945  3802 net.cpp:408] fc7_relu7_0_split -> fc7_relu7_0_split_2
I0421 13:36:14.601959  3802 net.cpp:408] fc7_relu7_0_split -> fc7_relu7_0_split_3
I0421 13:36:14.602056  3802 net.cpp:150] Setting up fc7_relu7_0_split
I0421 13:36:14.602069  3802 net.cpp:157] Top shape: 16 1024 24 24 (9437184)
I0421 13:36:14.602078  3802 net.cpp:157] Top shape: 16 1024 24 24 (9437184)
I0421 13:36:14.602085  3802 net.cpp:157] Top shape: 16 1024 24 24 (9437184)
I0421 13:36:14.602113  3802 net.cpp:157] Top shape: 16 1024 24 24 (9437184)
I0421 13:36:14.602138  3802 net.cpp:165] Memory required for data: 6407849344
I0421 13:36:14.602161  3802 layer_factory.hpp:77] Creating layer conv6_1
I0421 13:36:14.602195  3802 net.cpp:100] Creating Layer conv6_1
I0421 13:36:14.602234  3802 net.cpp:434] conv6_1 <- fc7_relu7_0_split_0
I0421 13:36:14.602278  3802 net.cpp:408] conv6_1 -> conv6_1
I0421 13:36:14.606350  3802 net.cpp:150] Setting up conv6_1
I0421 13:36:14.606371  3802 net.cpp:157] Top shape: 16 256 24 24 (2359296)
I0421 13:36:14.606379  3802 net.cpp:165] Memory required for data: 6417286528
I0421 13:36:14.606391  3802 layer_factory.hpp:77] Creating layer conv6_1_relu
I0421 13:36:14.606423  3802 net.cpp:100] Creating Layer conv6_1_relu
I0421 13:36:14.606451  3802 net.cpp:434] conv6_1_relu <- conv6_1
I0421 13:36:14.606492  3802 net.cpp:395] conv6_1_relu -> conv6_1 (in-place)
I0421 13:36:14.606930  3802 net.cpp:150] Setting up conv6_1_relu
I0421 13:36:14.606947  3802 net.cpp:157] Top shape: 16 256 24 24 (2359296)
I0421 13:36:14.606953  3802 net.cpp:165] Memory required for data: 6426723712
I0421 13:36:14.606962  3802 layer_factory.hpp:77] Creating layer conv6_2
I0421 13:36:14.607002  3802 net.cpp:100] Creating Layer conv6_2
I0421 13:36:14.607038  3802 net.cpp:434] conv6_2 <- conv6_1
I0421 13:36:14.607074  3802 net.cpp:408] conv6_2 -> conv6_2
I0421 13:36:14.621773  3802 net.cpp:150] Setting up conv6_2
I0421 13:36:14.621794  3802 net.cpp:157] Top shape: 16 512 12 12 (1179648)
I0421 13:36:14.621803  3802 net.cpp:165] Memory required for data: 6431442304
I0421 13:36:14.621842  3802 layer_factory.hpp:77] Creating layer conv6_2_relu
I0421 13:36:14.621856  3802 net.cpp:100] Creating Layer conv6_2_relu
I0421 13:36:14.621867  3802 net.cpp:434] conv6_2_relu <- conv6_2
I0421 13:36:14.621876  3802 net.cpp:395] conv6_2_relu -> conv6_2 (in-place)
I0421 13:36:14.622081  3802 net.cpp:150] Setting up conv6_2_relu
I0421 13:36:14.622092  3802 net.cpp:157] Top shape: 16 512 12 12 (1179648)
I0421 13:36:14.622097  3802 net.cpp:165] Memory required for data: 6436160896
I0421 13:36:14.622100  3802 layer_factory.hpp:77] Creating layer conv6_2_conv6_2_relu_0_split
I0421 13:36:14.622107  3802 net.cpp:100] Creating Layer conv6_2_conv6_2_relu_0_split
I0421 13:36:14.622110  3802 net.cpp:434] conv6_2_conv6_2_relu_0_split <- conv6_2
I0421 13:36:14.622117  3802 net.cpp:408] conv6_2_conv6_2_relu_0_split -> conv6_2_conv6_2_relu_0_split_0
I0421 13:36:14.622130  3802 net.cpp:408] conv6_2_conv6_2_relu_0_split -> conv6_2_conv6_2_relu_0_split_1
I0421 13:36:14.622143  3802 net.cpp:408] conv6_2_conv6_2_relu_0_split -> conv6_2_conv6_2_relu_0_split_2
I0421 13:36:14.622155  3802 net.cpp:408] conv6_2_conv6_2_relu_0_split -> conv6_2_conv6_2_relu_0_split_3
I0421 13:36:14.622251  3802 net.cpp:150] Setting up conv6_2_conv6_2_relu_0_split
I0421 13:36:14.622263  3802 net.cpp:157] Top shape: 16 512 12 12 (1179648)
I0421 13:36:14.622272  3802 net.cpp:157] Top shape: 16 512 12 12 (1179648)
I0421 13:36:14.622280  3802 net.cpp:157] Top shape: 16 512 12 12 (1179648)
I0421 13:36:14.622305  3802 net.cpp:157] Top shape: 16 512 12 12 (1179648)
I0421 13:36:14.622313  3802 net.cpp:165] Memory required for data: 6455035264
I0421 13:36:14.622321  3802 layer_factory.hpp:77] Creating layer conv7_1
I0421 13:36:14.622354  3802 net.cpp:100] Creating Layer conv7_1
I0421 13:36:14.622364  3802 net.cpp:434] conv7_1 <- conv6_2_conv6_2_relu_0_split_0
I0421 13:36:14.622378  3802 net.cpp:408] conv7_1 -> conv7_1
I0421 13:36:14.624429  3802 net.cpp:150] Setting up conv7_1
I0421 13:36:14.624447  3802 net.cpp:157] Top shape: 16 128 12 12 (294912)
I0421 13:36:14.624454  3802 net.cpp:165] Memory required for data: 6456214912
I0421 13:36:14.624466  3802 layer_factory.hpp:77] Creating layer conv7_1_relu
I0421 13:36:14.624478  3802 net.cpp:100] Creating Layer conv7_1_relu
I0421 13:36:14.624488  3802 net.cpp:434] conv7_1_relu <- conv7_1
I0421 13:36:14.624505  3802 net.cpp:395] conv7_1_relu -> conv7_1 (in-place)
I0421 13:36:14.624894  3802 net.cpp:150] Setting up conv7_1_relu
I0421 13:36:14.624912  3802 net.cpp:157] Top shape: 16 128 12 12 (294912)
I0421 13:36:14.624918  3802 net.cpp:165] Memory required for data: 6457394560
I0421 13:36:14.624924  3802 layer_factory.hpp:77] Creating layer conv7_2
I0421 13:36:14.624959  3802 net.cpp:100] Creating Layer conv7_2
I0421 13:36:14.624969  3802 net.cpp:434] conv7_2 <- conv7_1
I0421 13:36:14.624985  3802 net.cpp:408] conv7_2 -> conv7_2
I0421 13:36:14.629441  3802 net.cpp:150] Setting up conv7_2
I0421 13:36:14.629461  3802 net.cpp:157] Top shape: 16 256 6 6 (147456)
I0421 13:36:14.629467  3802 net.cpp:165] Memory required for data: 6457984384
I0421 13:36:14.629479  3802 layer_factory.hpp:77] Creating layer conv7_2_relu
I0421 13:36:14.629513  3802 net.cpp:100] Creating Layer conv7_2_relu
I0421 13:36:14.629521  3802 net.cpp:434] conv7_2_relu <- conv7_2
I0421 13:36:14.629537  3802 net.cpp:395] conv7_2_relu -> conv7_2 (in-place)
I0421 13:36:14.629947  3802 net.cpp:150] Setting up conv7_2_relu
I0421 13:36:14.629966  3802 net.cpp:157] Top shape: 16 256 6 6 (147456)
I0421 13:36:14.629972  3802 net.cpp:165] Memory required for data: 6458574208
I0421 13:36:14.629979  3802 layer_factory.hpp:77] Creating layer conv7_2_conv7_2_relu_0_split
I0421 13:36:14.630009  3802 net.cpp:100] Creating Layer conv7_2_conv7_2_relu_0_split
I0421 13:36:14.630018  3802 net.cpp:434] conv7_2_conv7_2_relu_0_split <- conv7_2
I0421 13:36:14.630028  3802 net.cpp:408] conv7_2_conv7_2_relu_0_split -> conv7_2_conv7_2_relu_0_split_0
I0421 13:36:14.630039  3802 net.cpp:408] conv7_2_conv7_2_relu_0_split -> conv7_2_conv7_2_relu_0_split_1
I0421 13:36:14.630046  3802 net.cpp:408] conv7_2_conv7_2_relu_0_split -> conv7_2_conv7_2_relu_0_split_2
I0421 13:36:14.630054  3802 net.cpp:408] conv7_2_conv7_2_relu_0_split -> conv7_2_conv7_2_relu_0_split_3
I0421 13:36:14.630159  3802 net.cpp:150] Setting up conv7_2_conv7_2_relu_0_split
I0421 13:36:14.630172  3802 net.cpp:157] Top shape: 16 256 6 6 (147456)
I0421 13:36:14.630177  3802 net.cpp:157] Top shape: 16 256 6 6 (147456)
I0421 13:36:14.630182  3802 net.cpp:157] Top shape: 16 256 6 6 (147456)
I0421 13:36:14.630185  3802 net.cpp:157] Top shape: 16 256 6 6 (147456)
I0421 13:36:14.630188  3802 net.cpp:165] Memory required for data: 6460933504
I0421 13:36:14.630192  3802 layer_factory.hpp:77] Creating layer conv8_1
I0421 13:36:14.630208  3802 net.cpp:100] Creating Layer conv8_1
I0421 13:36:14.630213  3802 net.cpp:434] conv8_1 <- conv7_2_conv7_2_relu_0_split_0
I0421 13:36:14.630223  3802 net.cpp:408] conv8_1 -> conv8_1
I0421 13:36:14.631752  3802 net.cpp:150] Setting up conv8_1
I0421 13:36:14.631769  3802 net.cpp:157] Top shape: 16 128 6 6 (73728)
I0421 13:36:14.631773  3802 net.cpp:165] Memory required for data: 6461228416
I0421 13:36:14.631781  3802 layer_factory.hpp:77] Creating layer conv8_1_relu
I0421 13:36:14.631793  3802 net.cpp:100] Creating Layer conv8_1_relu
I0421 13:36:14.631799  3802 net.cpp:434] conv8_1_relu <- conv8_1
I0421 13:36:14.631806  3802 net.cpp:395] conv8_1_relu -> conv8_1 (in-place)
I0421 13:36:14.631999  3802 net.cpp:150] Setting up conv8_1_relu
I0421 13:36:14.632011  3802 net.cpp:157] Top shape: 16 128 6 6 (73728)
I0421 13:36:14.632015  3802 net.cpp:165] Memory required for data: 6461523328
I0421 13:36:14.632019  3802 layer_factory.hpp:77] Creating layer conv8_2
I0421 13:36:14.632032  3802 net.cpp:100] Creating Layer conv8_2
I0421 13:36:14.632038  3802 net.cpp:434] conv8_2 <- conv8_1
I0421 13:36:14.632046  3802 net.cpp:408] conv8_2 -> conv8_2
I0421 13:36:14.636647  3802 net.cpp:150] Setting up conv8_2
I0421 13:36:14.636667  3802 net.cpp:157] Top shape: 16 256 4 4 (65536)
I0421 13:36:14.636674  3802 net.cpp:165] Memory required for data: 6461785472
I0421 13:36:14.636687  3802 layer_factory.hpp:77] Creating layer conv8_2_relu
I0421 13:36:14.636699  3802 net.cpp:100] Creating Layer conv8_2_relu
I0421 13:36:14.636708  3802 net.cpp:434] conv8_2_relu <- conv8_2
I0421 13:36:14.636718  3802 net.cpp:395] conv8_2_relu -> conv8_2 (in-place)
I0421 13:36:14.637097  3802 net.cpp:150] Setting up conv8_2_relu
I0421 13:36:14.637112  3802 net.cpp:157] Top shape: 16 256 4 4 (65536)
I0421 13:36:14.637117  3802 net.cpp:165] Memory required for data: 6462047616
I0421 13:36:14.637121  3802 layer_factory.hpp:77] Creating layer conv8_2_conv8_2_relu_0_split
I0421 13:36:14.637128  3802 net.cpp:100] Creating Layer conv8_2_conv8_2_relu_0_split
I0421 13:36:14.637133  3802 net.cpp:434] conv8_2_conv8_2_relu_0_split <- conv8_2
I0421 13:36:14.637143  3802 net.cpp:408] conv8_2_conv8_2_relu_0_split -> conv8_2_conv8_2_relu_0_split_0
I0421 13:36:14.637154  3802 net.cpp:408] conv8_2_conv8_2_relu_0_split -> conv8_2_conv8_2_relu_0_split_1
I0421 13:36:14.637162  3802 net.cpp:408] conv8_2_conv8_2_relu_0_split -> conv8_2_conv8_2_relu_0_split_2
I0421 13:36:14.637172  3802 net.cpp:408] conv8_2_conv8_2_relu_0_split -> conv8_2_conv8_2_relu_0_split_3
I0421 13:36:14.637265  3802 net.cpp:150] Setting up conv8_2_conv8_2_relu_0_split
I0421 13:36:14.637279  3802 net.cpp:157] Top shape: 16 256 4 4 (65536)
I0421 13:36:14.637303  3802 net.cpp:157] Top shape: 16 256 4 4 (65536)
I0421 13:36:14.637310  3802 net.cpp:157] Top shape: 16 256 4 4 (65536)
I0421 13:36:14.637315  3802 net.cpp:157] Top shape: 16 256 4 4 (65536)
I0421 13:36:14.637317  3802 net.cpp:165] Memory required for data: 6463096192
I0421 13:36:14.637323  3802 layer_factory.hpp:77] Creating layer conv9_1
I0421 13:36:14.637336  3802 net.cpp:100] Creating Layer conv9_1
I0421 13:36:14.637341  3802 net.cpp:434] conv9_1 <- conv8_2_conv8_2_relu_0_split_0
I0421 13:36:14.637351  3802 net.cpp:408] conv9_1 -> conv9_1
I0421 13:36:14.638726  3802 net.cpp:150] Setting up conv9_1
I0421 13:36:14.638744  3802 net.cpp:157] Top shape: 16 128 4 4 (32768)
I0421 13:36:14.638748  3802 net.cpp:165] Memory required for data: 6463227264
I0421 13:36:14.638758  3802 layer_factory.hpp:77] Creating layer conv9_1_relu
I0421 13:36:14.638765  3802 net.cpp:100] Creating Layer conv9_1_relu
I0421 13:36:14.638773  3802 net.cpp:434] conv9_1_relu <- conv9_1
I0421 13:36:14.638782  3802 net.cpp:395] conv9_1_relu -> conv9_1 (in-place)
I0421 13:36:14.639178  3802 net.cpp:150] Setting up conv9_1_relu
I0421 13:36:14.639194  3802 net.cpp:157] Top shape: 16 128 4 4 (32768)
I0421 13:36:14.639201  3802 net.cpp:165] Memory required for data: 6463358336
I0421 13:36:14.639207  3802 layer_factory.hpp:77] Creating layer conv9_2
I0421 13:36:14.639246  3802 net.cpp:100] Creating Layer conv9_2
I0421 13:36:14.639256  3802 net.cpp:434] conv9_2 <- conv9_1
I0421 13:36:14.639263  3802 net.cpp:408] conv9_2 -> conv9_2
I0421 13:36:14.644510  3802 net.cpp:150] Setting up conv9_2
I0421 13:36:14.644527  3802 net.cpp:157] Top shape: 16 256 2 2 (16384)
I0421 13:36:14.644532  3802 net.cpp:165] Memory required for data: 6463423872
I0421 13:36:14.644539  3802 layer_factory.hpp:77] Creating layer conv9_2_relu
I0421 13:36:14.644548  3802 net.cpp:100] Creating Layer conv9_2_relu
I0421 13:36:14.644557  3802 net.cpp:434] conv9_2_relu <- conv9_2
I0421 13:36:14.644564  3802 net.cpp:395] conv9_2_relu -> conv9_2 (in-place)
I0421 13:36:14.644758  3802 net.cpp:150] Setting up conv9_2_relu
I0421 13:36:14.644770  3802 net.cpp:157] Top shape: 16 256 2 2 (16384)
I0421 13:36:14.644773  3802 net.cpp:165] Memory required for data: 6463489408
I0421 13:36:14.644778  3802 layer_factory.hpp:77] Creating layer conv9_2_conv9_2_relu_0_split
I0421 13:36:14.644786  3802 net.cpp:100] Creating Layer conv9_2_conv9_2_relu_0_split
I0421 13:36:14.644793  3802 net.cpp:434] conv9_2_conv9_2_relu_0_split <- conv9_2
I0421 13:36:14.644798  3802 net.cpp:408] conv9_2_conv9_2_relu_0_split -> conv9_2_conv9_2_relu_0_split_0
I0421 13:36:14.644807  3802 net.cpp:408] conv9_2_conv9_2_relu_0_split -> conv9_2_conv9_2_relu_0_split_1
I0421 13:36:14.644815  3802 net.cpp:408] conv9_2_conv9_2_relu_0_split -> conv9_2_conv9_2_relu_0_split_2
I0421 13:36:14.644883  3802 net.cpp:150] Setting up conv9_2_conv9_2_relu_0_split
I0421 13:36:14.644891  3802 net.cpp:157] Top shape: 16 256 2 2 (16384)
I0421 13:36:14.644896  3802 net.cpp:157] Top shape: 16 256 2 2 (16384)
I0421 13:36:14.644901  3802 net.cpp:157] Top shape: 16 256 2 2 (16384)
I0421 13:36:14.644903  3802 net.cpp:165] Memory required for data: 6463686016
I0421 13:36:14.644906  3802 layer_factory.hpp:77] Creating layer conv3_3_norm
I0421 13:36:14.644917  3802 net.cpp:100] Creating Layer conv3_3_norm
I0421 13:36:14.644923  3802 net.cpp:434] conv3_3_norm <- conv3_3_relu3_3_0_split_1
I0421 13:36:14.644929  3802 net.cpp:408] conv3_3_norm -> conv3_3_norm
I0421 13:36:14.645112  3802 net.cpp:150] Setting up conv3_3_norm
I0421 13:36:14.645123  3802 net.cpp:157] Top shape: 16 256 96 96 (37748736)
I0421 13:36:14.645126  3802 net.cpp:165] Memory required for data: 6614680960
I0421 13:36:14.645133  3802 layer_factory.hpp:77] Creating layer conv3_3_norm_conv3_3_norm_0_split
I0421 13:36:14.645139  3802 net.cpp:100] Creating Layer conv3_3_norm_conv3_3_norm_0_split
I0421 13:36:14.645145  3802 net.cpp:434] conv3_3_norm_conv3_3_norm_0_split <- conv3_3_norm
I0421 13:36:14.645151  3802 net.cpp:408] conv3_3_norm_conv3_3_norm_0_split -> conv3_3_norm_conv3_3_norm_0_split_0
I0421 13:36:14.645171  3802 net.cpp:408] conv3_3_norm_conv3_3_norm_0_split -> conv3_3_norm_conv3_3_norm_0_split_1
I0421 13:36:14.645179  3802 net.cpp:408] conv3_3_norm_conv3_3_norm_0_split -> conv3_3_norm_conv3_3_norm_0_split_2
I0421 13:36:14.645241  3802 net.cpp:150] Setting up conv3_3_norm_conv3_3_norm_0_split
I0421 13:36:14.645251  3802 net.cpp:157] Top shape: 16 256 96 96 (37748736)
I0421 13:36:14.645254  3802 net.cpp:157] Top shape: 16 256 96 96 (37748736)
I0421 13:36:14.645259  3802 net.cpp:157] Top shape: 16 256 96 96 (37748736)
I0421 13:36:14.645265  3802 net.cpp:165] Memory required for data: 7067665792
I0421 13:36:14.645270  3802 layer_factory.hpp:77] Creating layer conv3_3_norm_mbox_loc
I0421 13:36:14.645278  3802 net.cpp:100] Creating Layer conv3_3_norm_mbox_loc
I0421 13:36:14.645284  3802 net.cpp:434] conv3_3_norm_mbox_loc <- conv3_3_norm_conv3_3_norm_0_split_0
I0421 13:36:14.645295  3802 net.cpp:408] conv3_3_norm_mbox_loc -> conv3_3_norm_mbox_loc
I0421 13:36:14.658510  3802 net.cpp:150] Setting up conv3_3_norm_mbox_loc
I0421 13:36:14.658529  3802 net.cpp:157] Top shape: 16 288 96 96 (42467328)
I0421 13:36:14.658534  3802 net.cpp:165] Memory required for data: 7237535104
I0421 13:36:14.658540  3802 layer_factory.hpp:77] Creating layer conv3_3_norm_mbox_loc_perm
I0421 13:36:14.658552  3802 net.cpp:100] Creating Layer conv3_3_norm_mbox_loc_perm
I0421 13:36:14.658560  3802 net.cpp:434] conv3_3_norm_mbox_loc_perm <- conv3_3_norm_mbox_loc
I0421 13:36:14.658568  3802 net.cpp:408] conv3_3_norm_mbox_loc_perm -> conv3_3_norm_mbox_loc_perm
I0421 13:36:14.658696  3802 net.cpp:150] Setting up conv3_3_norm_mbox_loc_perm
I0421 13:36:14.658706  3802 net.cpp:157] Top shape: 16 96 96 288 (42467328)
I0421 13:36:14.658711  3802 net.cpp:165] Memory required for data: 7407404416
I0421 13:36:14.658715  3802 layer_factory.hpp:77] Creating layer conv3_3_norm_mbox_loc_flat
I0421 13:36:14.658746  3802 net.cpp:100] Creating Layer conv3_3_norm_mbox_loc_flat
I0421 13:36:14.658753  3802 net.cpp:434] conv3_3_norm_mbox_loc_flat <- conv3_3_norm_mbox_loc_perm
I0421 13:36:14.658761  3802 net.cpp:408] conv3_3_norm_mbox_loc_flat -> conv3_3_norm_mbox_loc_flat
I0421 13:36:14.658799  3802 net.cpp:150] Setting up conv3_3_norm_mbox_loc_flat
I0421 13:36:14.658807  3802 net.cpp:157] Top shape: 16 2654208 (42467328)
I0421 13:36:14.658812  3802 net.cpp:165] Memory required for data: 7577273728
I0421 13:36:14.658815  3802 layer_factory.hpp:77] Creating layer conv3_3_norm_mbox_conf
I0421 13:36:14.658830  3802 net.cpp:100] Creating Layer conv3_3_norm_mbox_conf
I0421 13:36:14.658836  3802 net.cpp:434] conv3_3_norm_mbox_conf <- conv3_3_norm_conv3_3_norm_0_split_1
I0421 13:36:14.658844  3802 net.cpp:408] conv3_3_norm_mbox_conf -> conv3_3_norm_mbox_conf
I0421 13:36:14.662403  3802 net.cpp:150] Setting up conv3_3_norm_mbox_conf
I0421 13:36:14.662420  3802 net.cpp:157] Top shape: 16 48 96 96 (7077888)
I0421 13:36:14.662425  3802 net.cpp:165] Memory required for data: 7605585280
I0421 13:36:14.662431  3802 layer_factory.hpp:77] Creating layer conv3_3_norm_mbox_conf_perm
I0421 13:36:14.662441  3802 net.cpp:100] Creating Layer conv3_3_norm_mbox_conf_perm
I0421 13:36:14.662447  3802 net.cpp:434] conv3_3_norm_mbox_conf_perm <- conv3_3_norm_mbox_conf
I0421 13:36:14.662456  3802 net.cpp:408] conv3_3_norm_mbox_conf_perm -> conv3_3_norm_mbox_conf_perm
I0421 13:36:14.662583  3802 net.cpp:150] Setting up conv3_3_norm_mbox_conf_perm
I0421 13:36:14.662592  3802 net.cpp:157] Top shape: 16 96 96 48 (7077888)
I0421 13:36:14.662595  3802 net.cpp:165] Memory required for data: 7633896832
I0421 13:36:14.662600  3802 layer_factory.hpp:77] Creating layer conv3_3_norm_mbox_conf_flat
I0421 13:36:14.662606  3802 net.cpp:100] Creating Layer conv3_3_norm_mbox_conf_flat
I0421 13:36:14.662612  3802 net.cpp:434] conv3_3_norm_mbox_conf_flat <- conv3_3_norm_mbox_conf_perm
I0421 13:36:14.662621  3802 net.cpp:408] conv3_3_norm_mbox_conf_flat -> conv3_3_norm_mbox_conf_flat
I0421 13:36:14.662649  3802 net.cpp:150] Setting up conv3_3_norm_mbox_conf_flat
I0421 13:36:14.662668  3802 net.cpp:157] Top shape: 16 442368 (7077888)
I0421 13:36:14.662672  3802 net.cpp:165] Memory required for data: 7662208384
I0421 13:36:14.662677  3802 layer_factory.hpp:77] Creating layer conv3_3_norm_mbox_priorbox
I0421 13:36:14.662686  3802 net.cpp:100] Creating Layer conv3_3_norm_mbox_priorbox
I0421 13:36:14.662693  3802 net.cpp:434] conv3_3_norm_mbox_priorbox <- conv3_3_norm_conv3_3_norm_0_split_2
I0421 13:36:14.662698  3802 net.cpp:434] conv3_3_norm_mbox_priorbox <- data_data_0_split_1
I0421 13:36:14.662706  3802 net.cpp:408] conv3_3_norm_mbox_priorbox -> conv3_3_norm_mbox_priorbox
I0421 13:36:14.662742  3802 net.cpp:150] Setting up conv3_3_norm_mbox_priorbox
I0421 13:36:14.662750  3802 net.cpp:157] Top shape: 1 2 884736 (1769472)
I0421 13:36:14.662755  3802 net.cpp:165] Memory required for data: 7669286272
I0421 13:36:14.662761  3802 layer_factory.hpp:77] Creating layer conv4_3_norm
I0421 13:36:14.662770  3802 net.cpp:100] Creating Layer conv4_3_norm
I0421 13:36:14.662773  3802 net.cpp:434] conv4_3_norm <- conv4_3_relu4_3_0_split_1
I0421 13:36:14.662781  3802 net.cpp:408] conv4_3_norm -> conv4_3_norm
I0421 13:36:14.662959  3802 net.cpp:150] Setting up conv4_3_norm
I0421 13:36:14.662968  3802 net.cpp:157] Top shape: 16 512 48 48 (18874368)
I0421 13:36:14.662972  3802 net.cpp:165] Memory required for data: 7744783744
I0421 13:36:14.662977  3802 layer_factory.hpp:77] Creating layer conv4_3_norm_conv4_3_norm_0_split
I0421 13:36:14.662984  3802 net.cpp:100] Creating Layer conv4_3_norm_conv4_3_norm_0_split
I0421 13:36:14.662991  3802 net.cpp:434] conv4_3_norm_conv4_3_norm_0_split <- conv4_3_norm
I0421 13:36:14.662997  3802 net.cpp:408] conv4_3_norm_conv4_3_norm_0_split -> conv4_3_norm_conv4_3_norm_0_split_0
I0421 13:36:14.663003  3802 net.cpp:408] conv4_3_norm_conv4_3_norm_0_split -> conv4_3_norm_conv4_3_norm_0_split_1
I0421 13:36:14.663010  3802 net.cpp:408] conv4_3_norm_conv4_3_norm_0_split -> conv4_3_norm_conv4_3_norm_0_split_2
I0421 13:36:14.663066  3802 net.cpp:150] Setting up conv4_3_norm_conv4_3_norm_0_split
I0421 13:36:14.663074  3802 net.cpp:157] Top shape: 16 512 48 48 (18874368)
I0421 13:36:14.663080  3802 net.cpp:157] Top shape: 16 512 48 48 (18874368)
I0421 13:36:14.663085  3802 net.cpp:157] Top shape: 16 512 48 48 (18874368)
I0421 13:36:14.663089  3802 net.cpp:165] Memory required for data: 7971276160
I0421 13:36:14.663091  3802 layer_factory.hpp:77] Creating layer conv4_3_norm_mbox_loc
I0421 13:36:14.663101  3802 net.cpp:100] Creating Layer conv4_3_norm_mbox_loc
I0421 13:36:14.663110  3802 net.cpp:434] conv4_3_norm_mbox_loc <- conv4_3_norm_conv4_3_norm_0_split_0
I0421 13:36:14.663116  3802 net.cpp:408] conv4_3_norm_mbox_loc -> conv4_3_norm_mbox_loc
I0421 13:36:14.688200  3802 net.cpp:150] Setting up conv4_3_norm_mbox_loc
I0421 13:36:14.688235  3802 net.cpp:157] Top shape: 16 288 48 48 (10616832)
I0421 13:36:14.688241  3802 net.cpp:165] Memory required for data: 8013743488
I0421 13:36:14.688249  3802 layer_factory.hpp:77] Creating layer conv4_3_norm_mbox_loc_perm
I0421 13:36:14.688261  3802 net.cpp:100] Creating Layer conv4_3_norm_mbox_loc_perm
I0421 13:36:14.688268  3802 net.cpp:434] conv4_3_norm_mbox_loc_perm <- conv4_3_norm_mbox_loc
I0421 13:36:14.688275  3802 net.cpp:408] conv4_3_norm_mbox_loc_perm -> conv4_3_norm_mbox_loc_perm
I0421 13:36:14.688400  3802 net.cpp:150] Setting up conv4_3_norm_mbox_loc_perm
I0421 13:36:14.688410  3802 net.cpp:157] Top shape: 16 48 48 288 (10616832)
I0421 13:36:14.688413  3802 net.cpp:165] Memory required for data: 8056210816
I0421 13:36:14.688417  3802 layer_factory.hpp:77] Creating layer conv4_3_norm_mbox_loc_flat
I0421 13:36:14.688423  3802 net.cpp:100] Creating Layer conv4_3_norm_mbox_loc_flat
I0421 13:36:14.688427  3802 net.cpp:434] conv4_3_norm_mbox_loc_flat <- conv4_3_norm_mbox_loc_perm
I0421 13:36:14.688434  3802 net.cpp:408] conv4_3_norm_mbox_loc_flat -> conv4_3_norm_mbox_loc_flat
I0421 13:36:14.688464  3802 net.cpp:150] Setting up conv4_3_norm_mbox_loc_flat
I0421 13:36:14.688474  3802 net.cpp:157] Top shape: 16 663552 (10616832)
I0421 13:36:14.688479  3802 net.cpp:165] Memory required for data: 8098678144
I0421 13:36:14.688496  3802 layer_factory.hpp:77] Creating layer conv4_3_norm_mbox_conf
I0421 13:36:14.688510  3802 net.cpp:100] Creating Layer conv4_3_norm_mbox_conf
I0421 13:36:14.688518  3802 net.cpp:434] conv4_3_norm_mbox_conf <- conv4_3_norm_conv4_3_norm_0_split_1
I0421 13:36:14.688524  3802 net.cpp:408] conv4_3_norm_mbox_conf -> conv4_3_norm_mbox_conf
I0421 13:36:14.693734  3802 net.cpp:150] Setting up conv4_3_norm_mbox_conf
I0421 13:36:14.693753  3802 net.cpp:157] Top shape: 16 48 48 48 (1769472)
I0421 13:36:14.693756  3802 net.cpp:165] Memory required for data: 8105756032
I0421 13:36:14.693763  3802 layer_factory.hpp:77] Creating layer conv4_3_norm_mbox_conf_perm
I0421 13:36:14.693776  3802 net.cpp:100] Creating Layer conv4_3_norm_mbox_conf_perm
I0421 13:36:14.693783  3802 net.cpp:434] conv4_3_norm_mbox_conf_perm <- conv4_3_norm_mbox_conf
I0421 13:36:14.693792  3802 net.cpp:408] conv4_3_norm_mbox_conf_perm -> conv4_3_norm_mbox_conf_perm
I0421 13:36:14.693920  3802 net.cpp:150] Setting up conv4_3_norm_mbox_conf_perm
I0421 13:36:14.693933  3802 net.cpp:157] Top shape: 16 48 48 48 (1769472)
I0421 13:36:14.693936  3802 net.cpp:165] Memory required for data: 8112833920
I0421 13:36:14.693940  3802 layer_factory.hpp:77] Creating layer conv4_3_norm_mbox_conf_flat
I0421 13:36:14.693946  3802 net.cpp:100] Creating Layer conv4_3_norm_mbox_conf_flat
I0421 13:36:14.693953  3802 net.cpp:434] conv4_3_norm_mbox_conf_flat <- conv4_3_norm_mbox_conf_perm
I0421 13:36:14.693958  3802 net.cpp:408] conv4_3_norm_mbox_conf_flat -> conv4_3_norm_mbox_conf_flat
I0421 13:36:14.693990  3802 net.cpp:150] Setting up conv4_3_norm_mbox_conf_flat
I0421 13:36:14.694000  3802 net.cpp:157] Top shape: 16 110592 (1769472)
I0421 13:36:14.694002  3802 net.cpp:165] Memory required for data: 8119911808
I0421 13:36:14.694006  3802 layer_factory.hpp:77] Creating layer conv4_3_norm_mbox_priorbox
I0421 13:36:14.694015  3802 net.cpp:100] Creating Layer conv4_3_norm_mbox_priorbox
I0421 13:36:14.694021  3802 net.cpp:434] conv4_3_norm_mbox_priorbox <- conv4_3_norm_conv4_3_norm_0_split_2
I0421 13:36:14.694027  3802 net.cpp:434] conv4_3_norm_mbox_priorbox <- data_data_0_split_2
I0421 13:36:14.694033  3802 net.cpp:408] conv4_3_norm_mbox_priorbox -> conv4_3_norm_mbox_priorbox
I0421 13:36:14.694068  3802 net.cpp:150] Setting up conv4_3_norm_mbox_priorbox
I0421 13:36:14.694077  3802 net.cpp:157] Top shape: 1 2 221184 (442368)
I0421 13:36:14.694082  3802 net.cpp:165] Memory required for data: 8121681280
I0421 13:36:14.694084  3802 layer_factory.hpp:77] Creating layer fc7_mbox_loc
I0421 13:36:14.694094  3802 net.cpp:100] Creating Layer fc7_mbox_loc
I0421 13:36:14.694100  3802 net.cpp:434] fc7_mbox_loc <- fc7_relu7_0_split_1
I0421 13:36:14.694108  3802 net.cpp:408] fc7_mbox_loc -> fc7_mbox_loc
I0421 13:36:14.743454  3802 net.cpp:150] Setting up fc7_mbox_loc
I0421 13:36:14.743489  3802 net.cpp:157] Top shape: 16 288 24 24 (2654208)
I0421 13:36:14.743494  3802 net.cpp:165] Memory required for data: 8132298112
I0421 13:36:14.743505  3802 layer_factory.hpp:77] Creating layer fc7_mbox_loc_perm
I0421 13:36:14.743518  3802 net.cpp:100] Creating Layer fc7_mbox_loc_perm
I0421 13:36:14.743525  3802 net.cpp:434] fc7_mbox_loc_perm <- fc7_mbox_loc
I0421 13:36:14.743535  3802 net.cpp:408] fc7_mbox_loc_perm -> fc7_mbox_loc_perm
I0421 13:36:14.743669  3802 net.cpp:150] Setting up fc7_mbox_loc_perm
I0421 13:36:14.743680  3802 net.cpp:157] Top shape: 16 24 24 288 (2654208)
I0421 13:36:14.743683  3802 net.cpp:165] Memory required for data: 8142914944
I0421 13:36:14.743687  3802 layer_factory.hpp:77] Creating layer fc7_mbox_loc_flat
I0421 13:36:14.743695  3802 net.cpp:100] Creating Layer fc7_mbox_loc_flat
I0421 13:36:14.743700  3802 net.cpp:434] fc7_mbox_loc_flat <- fc7_mbox_loc_perm
I0421 13:36:14.743707  3802 net.cpp:408] fc7_mbox_loc_flat -> fc7_mbox_loc_flat
I0421 13:36:14.743741  3802 net.cpp:150] Setting up fc7_mbox_loc_flat
I0421 13:36:14.743748  3802 net.cpp:157] Top shape: 16 165888 (2654208)
I0421 13:36:14.743752  3802 net.cpp:165] Memory required for data: 8153531776
I0421 13:36:14.743772  3802 layer_factory.hpp:77] Creating layer fc7_mbox_conf
I0421 13:36:14.743784  3802 net.cpp:100] Creating Layer fc7_mbox_conf
I0421 13:36:14.743791  3802 net.cpp:434] fc7_mbox_conf <- fc7_relu7_0_split_2
I0421 13:36:14.743799  3802 net.cpp:408] fc7_mbox_conf -> fc7_mbox_conf
I0421 13:36:14.753096  3802 net.cpp:150] Setting up fc7_mbox_conf
I0421 13:36:14.753113  3802 net.cpp:157] Top shape: 16 48 24 24 (442368)
I0421 13:36:14.753119  3802 net.cpp:165] Memory required for data: 8155301248
I0421 13:36:14.753127  3802 layer_factory.hpp:77] Creating layer fc7_mbox_conf_perm
I0421 13:36:14.753135  3802 net.cpp:100] Creating Layer fc7_mbox_conf_perm
I0421 13:36:14.753141  3802 net.cpp:434] fc7_mbox_conf_perm <- fc7_mbox_conf
I0421 13:36:14.753151  3802 net.cpp:408] fc7_mbox_conf_perm -> fc7_mbox_conf_perm
I0421 13:36:14.753281  3802 net.cpp:150] Setting up fc7_mbox_conf_perm
I0421 13:36:14.753290  3802 net.cpp:157] Top shape: 16 24 24 48 (442368)
I0421 13:36:14.753293  3802 net.cpp:165] Memory required for data: 8157070720
I0421 13:36:14.753298  3802 layer_factory.hpp:77] Creating layer fc7_mbox_conf_flat
I0421 13:36:14.753304  3802 net.cpp:100] Creating Layer fc7_mbox_conf_flat
I0421 13:36:14.753310  3802 net.cpp:434] fc7_mbox_conf_flat <- fc7_mbox_conf_perm
I0421 13:36:14.753319  3802 net.cpp:408] fc7_mbox_conf_flat -> fc7_mbox_conf_flat
I0421 13:36:14.753353  3802 net.cpp:150] Setting up fc7_mbox_conf_flat
I0421 13:36:14.753361  3802 net.cpp:157] Top shape: 16 27648 (442368)
I0421 13:36:14.753365  3802 net.cpp:165] Memory required for data: 8158840192
I0421 13:36:14.753368  3802 layer_factory.hpp:77] Creating layer fc7_mbox_priorbox
I0421 13:36:14.753376  3802 net.cpp:100] Creating Layer fc7_mbox_priorbox
I0421 13:36:14.753382  3802 net.cpp:434] fc7_mbox_priorbox <- fc7_relu7_0_split_3
I0421 13:36:14.753387  3802 net.cpp:434] fc7_mbox_priorbox <- data_data_0_split_3
I0421 13:36:14.753396  3802 net.cpp:408] fc7_mbox_priorbox -> fc7_mbox_priorbox
I0421 13:36:14.753432  3802 net.cpp:150] Setting up fc7_mbox_priorbox
I0421 13:36:14.753439  3802 net.cpp:157] Top shape: 1 2 55296 (110592)
I0421 13:36:14.753443  3802 net.cpp:165] Memory required for data: 8159282560
I0421 13:36:14.753446  3802 layer_factory.hpp:77] Creating layer conv6_2_mbox_loc
I0421 13:36:14.753456  3802 net.cpp:100] Creating Layer conv6_2_mbox_loc
I0421 13:36:14.753463  3802 net.cpp:434] conv6_2_mbox_loc <- conv6_2_conv6_2_relu_0_split_1
I0421 13:36:14.753471  3802 net.cpp:408] conv6_2_mbox_loc -> conv6_2_mbox_loc
I0421 13:36:14.778457  3802 net.cpp:150] Setting up conv6_2_mbox_loc
I0421 13:36:14.778482  3802 net.cpp:157] Top shape: 16 288 12 12 (663552)
I0421 13:36:14.778487  3802 net.cpp:165] Memory required for data: 8161936768
I0421 13:36:14.778496  3802 layer_factory.hpp:77] Creating layer conv6_2_mbox_loc_perm
I0421 13:36:14.778511  3802 net.cpp:100] Creating Layer conv6_2_mbox_loc_perm
I0421 13:36:14.778517  3802 net.cpp:434] conv6_2_mbox_loc_perm <- conv6_2_mbox_loc
I0421 13:36:14.778523  3802 net.cpp:408] conv6_2_mbox_loc_perm -> conv6_2_mbox_loc_perm
I0421 13:36:14.778658  3802 net.cpp:150] Setting up conv6_2_mbox_loc_perm
I0421 13:36:14.778668  3802 net.cpp:157] Top shape: 16 12 12 288 (663552)
I0421 13:36:14.778672  3802 net.cpp:165] Memory required for data: 8164590976
I0421 13:36:14.778676  3802 layer_factory.hpp:77] Creating layer conv6_2_mbox_loc_flat
I0421 13:36:14.778681  3802 net.cpp:100] Creating Layer conv6_2_mbox_loc_flat
I0421 13:36:14.778689  3802 net.cpp:434] conv6_2_mbox_loc_flat <- conv6_2_mbox_loc_perm
I0421 13:36:14.778695  3802 net.cpp:408] conv6_2_mbox_loc_flat -> conv6_2_mbox_loc_flat
I0421 13:36:14.778725  3802 net.cpp:150] Setting up conv6_2_mbox_loc_flat
I0421 13:36:14.778733  3802 net.cpp:157] Top shape: 16 41472 (663552)
I0421 13:36:14.778736  3802 net.cpp:165] Memory required for data: 8167245184
I0421 13:36:14.778739  3802 layer_factory.hpp:77] Creating layer conv6_2_mbox_conf
I0421 13:36:14.778754  3802 net.cpp:100] Creating Layer conv6_2_mbox_conf
I0421 13:36:14.778774  3802 net.cpp:434] conv6_2_mbox_conf <- conv6_2_conv6_2_relu_0_split_2
I0421 13:36:14.778782  3802 net.cpp:408] conv6_2_mbox_conf -> conv6_2_mbox_conf
I0421 13:36:14.784385  3802 net.cpp:150] Setting up conv6_2_mbox_conf
I0421 13:36:14.784404  3802 net.cpp:157] Top shape: 16 48 12 12 (110592)
I0421 13:36:14.784407  3802 net.cpp:165] Memory required for data: 8167687552
I0421 13:36:14.784415  3802 layer_factory.hpp:77] Creating layer conv6_2_mbox_conf_perm
I0421 13:36:14.784425  3802 net.cpp:100] Creating Layer conv6_2_mbox_conf_perm
I0421 13:36:14.784432  3802 net.cpp:434] conv6_2_mbox_conf_perm <- conv6_2_mbox_conf
I0421 13:36:14.784440  3802 net.cpp:408] conv6_2_mbox_conf_perm -> conv6_2_mbox_conf_perm
I0421 13:36:14.784569  3802 net.cpp:150] Setting up conv6_2_mbox_conf_perm
I0421 13:36:14.784577  3802 net.cpp:157] Top shape: 16 12 12 48 (110592)
I0421 13:36:14.784582  3802 net.cpp:165] Memory required for data: 8168129920
I0421 13:36:14.784587  3802 layer_factory.hpp:77] Creating layer conv6_2_mbox_conf_flat
I0421 13:36:14.784595  3802 net.cpp:100] Creating Layer conv6_2_mbox_conf_flat
I0421 13:36:14.784600  3802 net.cpp:434] conv6_2_mbox_conf_flat <- conv6_2_mbox_conf_perm
I0421 13:36:14.784610  3802 net.cpp:408] conv6_2_mbox_conf_flat -> conv6_2_mbox_conf_flat
I0421 13:36:14.784641  3802 net.cpp:150] Setting up conv6_2_mbox_conf_flat
I0421 13:36:14.784651  3802 net.cpp:157] Top shape: 16 6912 (110592)
I0421 13:36:14.784653  3802 net.cpp:165] Memory required for data: 8168572288
I0421 13:36:14.784657  3802 layer_factory.hpp:77] Creating layer conv6_2_mbox_priorbox
I0421 13:36:14.784663  3802 net.cpp:100] Creating Layer conv6_2_mbox_priorbox
I0421 13:36:14.784669  3802 net.cpp:434] conv6_2_mbox_priorbox <- conv6_2_conv6_2_relu_0_split_3
I0421 13:36:14.784675  3802 net.cpp:434] conv6_2_mbox_priorbox <- data_data_0_split_4
I0421 13:36:14.784682  3802 net.cpp:408] conv6_2_mbox_priorbox -> conv6_2_mbox_priorbox
I0421 13:36:14.784719  3802 net.cpp:150] Setting up conv6_2_mbox_priorbox
I0421 13:36:14.784729  3802 net.cpp:157] Top shape: 1 2 13824 (27648)
I0421 13:36:14.784731  3802 net.cpp:165] Memory required for data: 8168682880
I0421 13:36:14.784734  3802 layer_factory.hpp:77] Creating layer conv7_2_mbox_loc
I0421 13:36:14.784745  3802 net.cpp:100] Creating Layer conv7_2_mbox_loc
I0421 13:36:14.784751  3802 net.cpp:434] conv7_2_mbox_loc <- conv7_2_conv7_2_relu_0_split_1
I0421 13:36:14.784760  3802 net.cpp:408] conv7_2_mbox_loc -> conv7_2_mbox_loc
I0421 13:36:14.797827  3802 net.cpp:150] Setting up conv7_2_mbox_loc
I0421 13:36:14.797847  3802 net.cpp:157] Top shape: 16 288 6 6 (165888)
I0421 13:36:14.797850  3802 net.cpp:165] Memory required for data: 8169346432
I0421 13:36:14.797875  3802 layer_factory.hpp:77] Creating layer conv7_2_mbox_loc_perm
I0421 13:36:14.797885  3802 net.cpp:100] Creating Layer conv7_2_mbox_loc_perm
I0421 13:36:14.797890  3802 net.cpp:434] conv7_2_mbox_loc_perm <- conv7_2_mbox_loc
I0421 13:36:14.797897  3802 net.cpp:408] conv7_2_mbox_loc_perm -> conv7_2_mbox_loc_perm
I0421 13:36:14.798030  3802 net.cpp:150] Setting up conv7_2_mbox_loc_perm
I0421 13:36:14.798040  3802 net.cpp:157] Top shape: 16 6 6 288 (165888)
I0421 13:36:14.798044  3802 net.cpp:165] Memory required for data: 8170009984
I0421 13:36:14.798048  3802 layer_factory.hpp:77] Creating layer conv7_2_mbox_loc_flat
I0421 13:36:14.798054  3802 net.cpp:100] Creating Layer conv7_2_mbox_loc_flat
I0421 13:36:14.798058  3802 net.cpp:434] conv7_2_mbox_loc_flat <- conv7_2_mbox_loc_perm
I0421 13:36:14.798066  3802 net.cpp:408] conv7_2_mbox_loc_flat -> conv7_2_mbox_loc_flat
I0421 13:36:14.798099  3802 net.cpp:150] Setting up conv7_2_mbox_loc_flat
I0421 13:36:14.798108  3802 net.cpp:157] Top shape: 16 10368 (165888)
I0421 13:36:14.798111  3802 net.cpp:165] Memory required for data: 8170673536
I0421 13:36:14.798117  3802 layer_factory.hpp:77] Creating layer conv7_2_mbox_conf
I0421 13:36:14.798127  3802 net.cpp:100] Creating Layer conv7_2_mbox_conf
I0421 13:36:14.798131  3802 net.cpp:434] conv7_2_mbox_conf <- conv7_2_conv7_2_relu_0_split_2
I0421 13:36:14.798153  3802 net.cpp:408] conv7_2_mbox_conf -> conv7_2_mbox_conf
I0421 13:36:14.801698  3802 net.cpp:150] Setting up conv7_2_mbox_conf
I0421 13:36:14.801717  3802 net.cpp:157] Top shape: 16 48 6 6 (27648)
I0421 13:36:14.801720  3802 net.cpp:165] Memory required for data: 8170784128
I0421 13:36:14.801728  3802 layer_factory.hpp:77] Creating layer conv7_2_mbox_conf_perm
I0421 13:36:14.801738  3802 net.cpp:100] Creating Layer conv7_2_mbox_conf_perm
I0421 13:36:14.801744  3802 net.cpp:434] conv7_2_mbox_conf_perm <- conv7_2_mbox_conf
I0421 13:36:14.801753  3802 net.cpp:408] conv7_2_mbox_conf_perm -> conv7_2_mbox_conf_perm
I0421 13:36:14.801883  3802 net.cpp:150] Setting up conv7_2_mbox_conf_perm
I0421 13:36:14.801893  3802 net.cpp:157] Top shape: 16 6 6 48 (27648)
I0421 13:36:14.801897  3802 net.cpp:165] Memory required for data: 8170894720
I0421 13:36:14.801901  3802 layer_factory.hpp:77] Creating layer conv7_2_mbox_conf_flat
I0421 13:36:14.801908  3802 net.cpp:100] Creating Layer conv7_2_mbox_conf_flat
I0421 13:36:14.801913  3802 net.cpp:434] conv7_2_mbox_conf_flat <- conv7_2_mbox_conf_perm
I0421 13:36:14.801923  3802 net.cpp:408] conv7_2_mbox_conf_flat -> conv7_2_mbox_conf_flat
I0421 13:36:14.801954  3802 net.cpp:150] Setting up conv7_2_mbox_conf_flat
I0421 13:36:14.801961  3802 net.cpp:157] Top shape: 16 1728 (27648)
I0421 13:36:14.801965  3802 net.cpp:165] Memory required for data: 8171005312
I0421 13:36:14.801968  3802 layer_factory.hpp:77] Creating layer conv7_2_mbox_priorbox
I0421 13:36:14.801980  3802 net.cpp:100] Creating Layer conv7_2_mbox_priorbox
I0421 13:36:14.801986  3802 net.cpp:434] conv7_2_mbox_priorbox <- conv7_2_conv7_2_relu_0_split_3
I0421 13:36:14.801991  3802 net.cpp:434] conv7_2_mbox_priorbox <- data_data_0_split_5
I0421 13:36:14.802000  3802 net.cpp:408] conv7_2_mbox_priorbox -> conv7_2_mbox_priorbox
I0421 13:36:14.802034  3802 net.cpp:150] Setting up conv7_2_mbox_priorbox
I0421 13:36:14.802042  3802 net.cpp:157] Top shape: 1 2 3456 (6912)
I0421 13:36:14.802047  3802 net.cpp:165] Memory required for data: 8171032960
I0421 13:36:14.802049  3802 layer_factory.hpp:77] Creating layer conv8_2_mbox_loc
I0421 13:36:14.802062  3802 net.cpp:100] Creating Layer conv8_2_mbox_loc
I0421 13:36:14.802067  3802 net.cpp:434] conv8_2_mbox_loc <- conv8_2_conv8_2_relu_0_split_1
I0421 13:36:14.802074  3802 net.cpp:408] conv8_2_mbox_loc -> conv8_2_mbox_loc
I0421 13:36:14.815254  3802 net.cpp:150] Setting up conv8_2_mbox_loc
I0421 13:36:14.815274  3802 net.cpp:157] Top shape: 16 288 4 4 (73728)
I0421 13:36:14.815277  3802 net.cpp:165] Memory required for data: 8171327872
I0421 13:36:14.815286  3802 layer_factory.hpp:77] Creating layer conv8_2_mbox_loc_perm
I0421 13:36:14.815296  3802 net.cpp:100] Creating Layer conv8_2_mbox_loc_perm
I0421 13:36:14.815304  3802 net.cpp:434] conv8_2_mbox_loc_perm <- conv8_2_mbox_loc
I0421 13:36:14.815310  3802 net.cpp:408] conv8_2_mbox_loc_perm -> conv8_2_mbox_loc_perm
I0421 13:36:14.815440  3802 net.cpp:150] Setting up conv8_2_mbox_loc_perm
I0421 13:36:14.815450  3802 net.cpp:157] Top shape: 16 4 4 288 (73728)
I0421 13:36:14.815454  3802 net.cpp:165] Memory required for data: 8171622784
I0421 13:36:14.815459  3802 layer_factory.hpp:77] Creating layer conv8_2_mbox_loc_flat
I0421 13:36:14.815465  3802 net.cpp:100] Creating Layer conv8_2_mbox_loc_flat
I0421 13:36:14.815472  3802 net.cpp:434] conv8_2_mbox_loc_flat <- conv8_2_mbox_loc_perm
I0421 13:36:14.815479  3802 net.cpp:408] conv8_2_mbox_loc_flat -> conv8_2_mbox_loc_flat
I0421 13:36:14.815506  3802 net.cpp:150] Setting up conv8_2_mbox_loc_flat
I0421 13:36:14.815517  3802 net.cpp:157] Top shape: 16 4608 (73728)
I0421 13:36:14.815524  3802 net.cpp:165] Memory required for data: 8171917696
I0421 13:36:14.815531  3802 layer_factory.hpp:77] Creating layer conv8_2_mbox_conf
I0421 13:36:14.815546  3802 net.cpp:100] Creating Layer conv8_2_mbox_conf
I0421 13:36:14.815557  3802 net.cpp:434] conv8_2_mbox_conf <- conv8_2_conv8_2_relu_0_split_2
I0421 13:36:14.815570  3802 net.cpp:408] conv8_2_mbox_conf -> conv8_2_mbox_conf
I0421 13:36:14.819160  3802 net.cpp:150] Setting up conv8_2_mbox_conf
I0421 13:36:14.819180  3802 net.cpp:157] Top shape: 16 48 4 4 (12288)
I0421 13:36:14.819186  3802 net.cpp:165] Memory required for data: 8171966848
I0421 13:36:14.819197  3802 layer_factory.hpp:77] Creating layer conv8_2_mbox_conf_perm
I0421 13:36:14.819216  3802 net.cpp:100] Creating Layer conv8_2_mbox_conf_perm
I0421 13:36:14.819224  3802 net.cpp:434] conv8_2_mbox_conf_perm <- conv8_2_mbox_conf
I0421 13:36:14.819231  3802 net.cpp:408] conv8_2_mbox_conf_perm -> conv8_2_mbox_conf_perm
I0421 13:36:14.819367  3802 net.cpp:150] Setting up conv8_2_mbox_conf_perm
I0421 13:36:14.819376  3802 net.cpp:157] Top shape: 16 4 4 48 (12288)
I0421 13:36:14.819382  3802 net.cpp:165] Memory required for data: 8172016000
I0421 13:36:14.819387  3802 layer_factory.hpp:77] Creating layer conv8_2_mbox_conf_flat
I0421 13:36:14.819392  3802 net.cpp:100] Creating Layer conv8_2_mbox_conf_flat
I0421 13:36:14.819397  3802 net.cpp:434] conv8_2_mbox_conf_flat <- conv8_2_mbox_conf_perm
I0421 13:36:14.819404  3802 net.cpp:408] conv8_2_mbox_conf_flat -> conv8_2_mbox_conf_flat
I0421 13:36:14.819435  3802 net.cpp:150] Setting up conv8_2_mbox_conf_flat
I0421 13:36:14.819447  3802 net.cpp:157] Top shape: 16 768 (12288)
I0421 13:36:14.819449  3802 net.cpp:165] Memory required for data: 8172065152
I0421 13:36:14.819453  3802 layer_factory.hpp:77] Creating layer conv8_2_mbox_priorbox
I0421 13:36:14.819459  3802 net.cpp:100] Creating Layer conv8_2_mbox_priorbox
I0421 13:36:14.819463  3802 net.cpp:434] conv8_2_mbox_priorbox <- conv8_2_conv8_2_relu_0_split_3
I0421 13:36:14.819469  3802 net.cpp:434] conv8_2_mbox_priorbox <- data_data_0_split_6
I0421 13:36:14.819476  3802 net.cpp:408] conv8_2_mbox_priorbox -> conv8_2_mbox_priorbox
I0421 13:36:14.819510  3802 net.cpp:150] Setting up conv8_2_mbox_priorbox
I0421 13:36:14.819522  3802 net.cpp:157] Top shape: 1 2 1536 (3072)
I0421 13:36:14.819526  3802 net.cpp:165] Memory required for data: 8172077440
I0421 13:36:14.819530  3802 layer_factory.hpp:77] Creating layer conv9_2_mbox_loc
I0421 13:36:14.819540  3802 net.cpp:100] Creating Layer conv9_2_mbox_loc
I0421 13:36:14.819545  3802 net.cpp:434] conv9_2_mbox_loc <- conv9_2_conv9_2_relu_0_split_0
I0421 13:36:14.819551  3802 net.cpp:408] conv9_2_mbox_loc -> conv9_2_mbox_loc
I0421 13:36:14.832764  3802 net.cpp:150] Setting up conv9_2_mbox_loc
I0421 13:36:14.832782  3802 net.cpp:157] Top shape: 16 288 2 2 (18432)
I0421 13:36:14.832788  3802 net.cpp:165] Memory required for data: 8172151168
I0421 13:36:14.832795  3802 layer_factory.hpp:77] Creating layer conv9_2_mbox_loc_perm
I0421 13:36:14.832803  3802 net.cpp:100] Creating Layer conv9_2_mbox_loc_perm
I0421 13:36:14.832811  3802 net.cpp:434] conv9_2_mbox_loc_perm <- conv9_2_mbox_loc
I0421 13:36:14.832818  3802 net.cpp:408] conv9_2_mbox_loc_perm -> conv9_2_mbox_loc_perm
I0421 13:36:14.832948  3802 net.cpp:150] Setting up conv9_2_mbox_loc_perm
I0421 13:36:14.832958  3802 net.cpp:157] Top shape: 16 2 2 288 (18432)
I0421 13:36:14.832962  3802 net.cpp:165] Memory required for data: 8172224896
I0421 13:36:14.832967  3802 layer_factory.hpp:77] Creating layer conv9_2_mbox_loc_flat
I0421 13:36:14.832973  3802 net.cpp:100] Creating Layer conv9_2_mbox_loc_flat
I0421 13:36:14.832980  3802 net.cpp:434] conv9_2_mbox_loc_flat <- conv9_2_mbox_loc_perm
I0421 13:36:14.832988  3802 net.cpp:408] conv9_2_mbox_loc_flat -> conv9_2_mbox_loc_flat
I0421 13:36:14.833022  3802 net.cpp:150] Setting up conv9_2_mbox_loc_flat
I0421 13:36:14.833030  3802 net.cpp:157] Top shape: 16 1152 (18432)
I0421 13:36:14.833034  3802 net.cpp:165] Memory required for data: 8172298624
I0421 13:36:14.833037  3802 layer_factory.hpp:77] Creating layer conv9_2_mbox_conf
I0421 13:36:14.833048  3802 net.cpp:100] Creating Layer conv9_2_mbox_conf
I0421 13:36:14.833055  3802 net.cpp:434] conv9_2_mbox_conf <- conv9_2_conv9_2_relu_0_split_1
I0421 13:36:14.833065  3802 net.cpp:408] conv9_2_mbox_conf -> conv9_2_mbox_conf
I0421 13:36:14.836467  3802 net.cpp:150] Setting up conv9_2_mbox_conf
I0421 13:36:14.836485  3802 net.cpp:157] Top shape: 16 48 2 2 (3072)
I0421 13:36:14.836500  3802 net.cpp:165] Memory required for data: 8172310912
I0421 13:36:14.836508  3802 layer_factory.hpp:77] Creating layer conv9_2_mbox_conf_perm
I0421 13:36:14.836519  3802 net.cpp:100] Creating Layer conv9_2_mbox_conf_perm
I0421 13:36:14.836525  3802 net.cpp:434] conv9_2_mbox_conf_perm <- conv9_2_mbox_conf
I0421 13:36:14.836534  3802 net.cpp:408] conv9_2_mbox_conf_perm -> conv9_2_mbox_conf_perm
I0421 13:36:14.836668  3802 net.cpp:150] Setting up conv9_2_mbox_conf_perm
I0421 13:36:14.836678  3802 net.cpp:157] Top shape: 16 2 2 48 (3072)
I0421 13:36:14.836681  3802 net.cpp:165] Memory required for data: 8172323200
I0421 13:36:14.836685  3802 layer_factory.hpp:77] Creating layer conv9_2_mbox_conf_flat
I0421 13:36:14.836694  3802 net.cpp:100] Creating Layer conv9_2_mbox_conf_flat
I0421 13:36:14.836699  3802 net.cpp:434] conv9_2_mbox_conf_flat <- conv9_2_mbox_conf_perm
I0421 13:36:14.836707  3802 net.cpp:408] conv9_2_mbox_conf_flat -> conv9_2_mbox_conf_flat
I0421 13:36:14.836740  3802 net.cpp:150] Setting up conv9_2_mbox_conf_flat
I0421 13:36:14.836748  3802 net.cpp:157] Top shape: 16 192 (3072)
I0421 13:36:14.836753  3802 net.cpp:165] Memory required for data: 8172335488
I0421 13:36:14.836757  3802 layer_factory.hpp:77] Creating layer conv9_2_mbox_priorbox
I0421 13:36:14.836763  3802 net.cpp:100] Creating Layer conv9_2_mbox_priorbox
I0421 13:36:14.836769  3802 net.cpp:434] conv9_2_mbox_priorbox <- conv9_2_conv9_2_relu_0_split_2
I0421 13:36:14.836774  3802 net.cpp:434] conv9_2_mbox_priorbox <- data_data_0_split_7
I0421 13:36:14.836783  3802 net.cpp:408] conv9_2_mbox_priorbox -> conv9_2_mbox_priorbox
I0421 13:36:14.836819  3802 net.cpp:150] Setting up conv9_2_mbox_priorbox
I0421 13:36:14.836827  3802 net.cpp:157] Top shape: 1 2 384 (768)
I0421 13:36:14.836833  3802 net.cpp:165] Memory required for data: 8172338560
I0421 13:36:14.836835  3802 layer_factory.hpp:77] Creating layer mbox_loc
I0421 13:36:14.836844  3802 net.cpp:100] Creating Layer mbox_loc
I0421 13:36:14.836851  3802 net.cpp:434] mbox_loc <- conv3_3_norm_mbox_loc_flat
I0421 13:36:14.836859  3802 net.cpp:434] mbox_loc <- conv4_3_norm_mbox_loc_flat
I0421 13:36:14.836866  3802 net.cpp:434] mbox_loc <- fc7_mbox_loc_flat
I0421 13:36:14.836872  3802 net.cpp:434] mbox_loc <- conv6_2_mbox_loc_flat
I0421 13:36:14.836879  3802 net.cpp:434] mbox_loc <- conv7_2_mbox_loc_flat
I0421 13:36:14.836885  3802 net.cpp:434] mbox_loc <- conv8_2_mbox_loc_flat
I0421 13:36:14.836889  3802 net.cpp:434] mbox_loc <- conv9_2_mbox_loc_flat
I0421 13:36:14.836896  3802 net.cpp:408] mbox_loc -> mbox_loc
I0421 13:36:14.836941  3802 net.cpp:150] Setting up mbox_loc
I0421 13:36:14.836951  3802 net.cpp:157] Top shape: 16 3541248 (56659968)
I0421 13:36:14.836953  3802 net.cpp:165] Memory required for data: 8398978432
I0421 13:36:14.836957  3802 layer_factory.hpp:77] Creating layer mbox_conf
I0421 13:36:14.836966  3802 net.cpp:100] Creating Layer mbox_conf
I0421 13:36:14.836971  3802 net.cpp:434] mbox_conf <- conv3_3_norm_mbox_conf_flat
I0421 13:36:14.836977  3802 net.cpp:434] mbox_conf <- conv4_3_norm_mbox_conf_flat
I0421 13:36:14.836985  3802 net.cpp:434] mbox_conf <- fc7_mbox_conf_flat
I0421 13:36:14.836990  3802 net.cpp:434] mbox_conf <- conv6_2_mbox_conf_flat
I0421 13:36:14.836994  3802 net.cpp:434] mbox_conf <- conv7_2_mbox_conf_flat
I0421 13:36:14.837002  3802 net.cpp:434] mbox_conf <- conv8_2_mbox_conf_flat
I0421 13:36:14.837005  3802 net.cpp:434] mbox_conf <- conv9_2_mbox_conf_flat
I0421 13:36:14.837010  3802 net.cpp:408] mbox_conf -> mbox_conf
I0421 13:36:14.837047  3802 net.cpp:150] Setting up mbox_conf
I0421 13:36:14.837055  3802 net.cpp:157] Top shape: 16 590208 (9443328)
I0421 13:36:14.837059  3802 net.cpp:165] Memory required for data: 8436751744
I0421 13:36:14.837061  3802 layer_factory.hpp:77] Creating layer mbox_priorbox
I0421 13:36:14.837067  3802 net.cpp:100] Creating Layer mbox_priorbox
I0421 13:36:14.837074  3802 net.cpp:434] mbox_priorbox <- conv3_3_norm_mbox_priorbox
I0421 13:36:14.837080  3802 net.cpp:434] mbox_priorbox <- conv4_3_norm_mbox_priorbox
I0421 13:36:14.837093  3802 net.cpp:434] mbox_priorbox <- fc7_mbox_priorbox
I0421 13:36:14.837100  3802 net.cpp:434] mbox_priorbox <- conv6_2_mbox_priorbox
I0421 13:36:14.837105  3802 net.cpp:434] mbox_priorbox <- conv7_2_mbox_priorbox
I0421 13:36:14.837108  3802 net.cpp:434] mbox_priorbox <- conv8_2_mbox_priorbox
I0421 13:36:14.837112  3802 net.cpp:434] mbox_priorbox <- conv9_2_mbox_priorbox
I0421 13:36:14.837117  3802 net.cpp:408] mbox_priorbox -> mbox_priorbox
I0421 13:36:14.837152  3802 net.cpp:150] Setting up mbox_priorbox
I0421 13:36:14.837159  3802 net.cpp:157] Top shape: 1 2 1180416 (2360832)
I0421 13:36:14.837163  3802 net.cpp:165] Memory required for data: 8446195072
I0421 13:36:14.837167  3802 layer_factory.hpp:77] Creating layer mbox_loss
I0421 13:36:14.837179  3802 net.cpp:100] Creating Layer mbox_loss
I0421 13:36:14.837184  3802 net.cpp:434] mbox_loss <- mbox_loc
I0421 13:36:14.837189  3802 net.cpp:434] mbox_loss <- mbox_conf
I0421 13:36:14.837194  3802 net.cpp:434] mbox_loss <- mbox_priorbox
…
state {
  phase: TEST
}
layer {
  name: "data"
  type: "AnnotatedData"
  top: "data"
  top: "label"
  include {
    phase: TEST
  }
  transform_param {
    mean_value: 104
    mean_value: 117
    mean_value: 123
    force_color: true
    resize_param {
      prob: 1
      resize_mode: WARP
      height: 384
      width: 384
      interp_mode: LINEAR
    }
  }
  data_param {
    source: "./data/test_lmdb/"
    batch_size: 1
    backend: LMDB
  }
  annotated_data_param {
    batch_sampler {
    }
    label_map_file: "data/text/labelmap_voc.prototxt"
  }
}
layer {
  name: "conv1_1"
  type: "Convolution"
  bottom: "data"
  top: "conv1_1"
  param {
    lr_mult: 1
    decay_mult: 1
  }
  param {
    lr_mult: 2
    decay_mult: 0
  }
  convolution_param {
    num_output: 64
    pad: 1
    kernel_size: 3
    weight_filler {
      type: "xavier"
    }
    bias_filler {
      type: "constant"
      value: 0
    }
  }
}
layer {
  name: "relu1_1"
  type: "ReLU"
  bottom: "conv1_1"
  top: "conv1_1"
}
layer {
  name: "conv1_2"
  type: "Convolution"
  bottom: "conv1_1"
  top: "conv1_2"
  param {
    lr_mult: 1
    decay_mult: 1
  }
  param {
    lr_mult: 2
    decay_mult: 0
  }
  convolution_param {
    num_output: 64
    pad: 1
    kernel_size: 3
    weight_filler {
      type: "xavier"
    }
    bias_filler {
      type: "constant"
      value: 0
    }
  }
}
layer {
  name: "relu1_2"
  type: "ReLU"
  bottom: "conv1_2"
  top: "conv1_2"
}
layer {
  name: "pool1"
  type: "Pooling"
  bottom: "conv1_2"
  top: "pool1"
  pooling_param {
    pool: MAX
    kernel_size: 2
    stride: 2
  }
}
layer {
  name: "conv2_1"
  type: "Convolution"
  bottom: "pool1"
  top: "conv2_1"
  param {
    lr_mult: 1
    decay_mult: 1
  }
  param {
    lr_mult: 2
    decay_mult: 0
  }
  convolution_param {
    num_output: 128
    pad: 1
    kernel_size: 3
    weight_filler {
      type: "xavier"
    }
    bias_filler {
      type: "constant"
      value: 0
    }
  }
}
layer {
  name: "relu2_1"
  type: "ReLU"
  bottom: "conv2_1"
  top: "conv2_1"
}
layer {
  name: "conv2_2"
  type: "Convolution"
  bottom: "conv2_1"
  top: "conv2_2"
  param {
    lr_mult: 1
    decay_mult: 1
  }
  param {
    lr_mult: 2
    decay_mult: 0
  }
  convolution_param {
    num_output: 128
    pad: 1
    kernel_size: 3
    weight_filler {
      type: "xavier"
    }
    bias_filler {
      type: "constant"
      value: 0
    }
  }
}
layer {
  name: "relu2_2"
  type: "ReLU"
  bottom: "conv2_2"
  top: "conv2_2"
}
layer {
  name: "pool2"
  type: "Pooling"
  bottom: "conv2_2"
  top: "pool2"
  pooling_param {
    pool: MAX
    kernel_size: 2
    stride: 2
  }
}
layer {
  name: "conv3_1"
  type: "Convolution"
  bottom: "pool2"
  top: "conv3_1"
  param {
    lr_mult: 1
    decay_mult: 1
  }
  param {
    lr_mult: 2
    decay_mult: 0
  }
  convolution_param {
    num_output: 256
    pad: 1
    kernel_size: 3
    weight_filler {
      type: "xavier"
    }
    bias_filler {
      type: "constant"
      value: 0
    }
  }
}
layer {
  name: "relu3_1"
  type: "ReLU"
  bottom: "conv3_1"
  top: "conv3_1"
}
layer {
  name: "conv3_2"
  type: "Convolution"
  bottom: "conv3_1"
  top: "conv3_2"
  param {
    lr_mult: 1
    decay_mult: 1
  }
  param {
    lr_mult: 2
    decay_mult: 0
  }
  convolution_param {
    num_output: 256
    pad: 1
    kernel_size: 3
    weight_filler {
      type: "xavier"
    }
    bias_filler {
      type: "constant"
      value: 0
    }
  }
}
layer {
  name: "relu3_2"
  type: "ReLU"
  bottom: "conv3_2"
  top: "conv3_2"
}
layer {
  name: "conv3_3"
  type: "Convolution"
  bottom: "conv3_2"
  top: "conv3_3"
  param {
    lr_mult: 1
    decay_mult: 1
  }
  param {
    lr_mult: 2
    decay_mult: 0
  }
  convolution_param {
    num_output: 256
    pad: 1
    kernel_size: 3
    weight_filler {
      type: "xavier"
    }
    bias_filler {
      type: "constant"
      value: 0
    }
  }
}
layer {
  name: "relu3_3"
  type: "ReLU"
  bottom: "conv3_3"
  top: "conv3_3"
}
layer {
  name: "pool3"
  type: "Pooling"
  bottom: "conv3_3"
  top: "pool3"
  pooling_param {
    pool: MAX
    kernel_size: 2
    stride: 2
  }
}
layer {
  name: "conv4_1"
  type: "Convolution"
  bottom: "pool3"
  top: "conv4_1"
  param {
    lr_mult: 1
    decay_mult: 1
  }
  param {
    lr_mult: 2
    decay_mult: 0
  }
  convolution_param {
    num_output: 512
    pad: 1
    kernel_size: 3
    weight_filler {
      type: "xavier"
    }
    bias_filler {
      type: "constant"
      value: 0
    }
  }
}
layer {
  name: "relu4_1"
  type: "ReLU"
  bottom: "conv4_1"
  top: "conv4_1"
}
layer {
  name: "conv4_2"
  type: "Convolution"
  bottom: "conv4_1"
  top: "conv4_2"
  param {
    lr_mult: 1
    decay_mult: 1
  }
  param {
    lr_mult: 2
    decay_mult: 0
  }
  convolution_param {
    num_output: 512
    pad: 1
    kernel_size: 3
    weight_filler {
      type: "xavier"
    }
    bias_filler {
      type: "constant"
      value: 0
    }
  }
}
layer {
  name: "relu4_2"
  type: "ReLU"
  bottom: "conv4_2"
  top: "conv4_2"
}
layer {
  name: "conv4_3"
  type: "Convolution"
  bottom: "conv4_2"
  top: "conv4_3"
  param {
    lr_mult: 1
    decay_mult: 1
  }
  param {
    lr_mult: 2
    decay_mult: 0
  }
  convolution_param {
    num_output: 512
    pad: 1
    kernel_size: 3
    weight_filler {
      type: "xavier"
    }
    bias_filler {
      type: "constant"
      value: 0
    }
  }
}
layer {
  name: "relu4_3"
  type: "ReLU"
  bottom: "conv4_3"
  top: "conv4_3"
}
layer {
  name: "pool4"
  type: "Pooling"
  bottom: "conv4_3"
  top: "pool4"
  pooling_param {
    pool: MAX
    kernel_size: 2
    stride: 2
  }
}
layer {
  name: "conv5_1"
  type: "Convolution"
  bottom: "pool4"
  top: "conv5_1"
  param {
    lr_mult: 1
    decay_mult: 1
  }
  param {
    lr_mult: 2
    decay_mult: 0
  }
  convolution_param {
    num_output: 512
    pad: 1
    kernel_size: 3
    weight_filler {
      type: "xavier"
    }
    bias_filler {
      type: "constant"
      value: 0
    }
    dilation: 1
  }
}
layer {
  name: "relu5_1"
  type: "ReLU"
  bottom: "conv5_1"
  top: "conv5_1"
}
layer {
  name: "conv5_2"
  type: "Convolution"
  bottom: "conv5_1"
  top: "conv5_2"
  param {
    lr_mult: 1
    decay_mult: 1
  }
  param {
    lr_mult: 2
    decay_mult: 0
  }
  convolution_param {
    num_output: 512
    pad: 1
    kernel_size: 3
    weight_filler {
      type: "xavier"
    }
    bias_filler {
      type: "constant"
      value: 0
    }
    dilation: 1
  }
}
layer {
  name: "relu5_2"
  type: "ReLU"
  bottom: "conv5_2"
  top: "conv5_2"
}
layer {
  name: "conv5_3"
  type: "Convolution"
  bottom: "conv5_2"
  top: "conv5_3"
  param {
    lr_mult: 1
    decay_mult: 1
  }
  param {
    lr_mult: 2
    decay_mult: 0
  }
  convolution_param {
    num_output: 512
    pad: 1
    kernel_size: 3
    weight_filler {
      type: "xavier"
    }
    bias_filler {
      type: "constant"
      value: 0
    }
    dilation: 1
  }
}
layer {
  name: "relu5_3"
  type: "ReLU"
  bottom: "conv5_3"
  top: "conv5_3"
}
layer {
  name: "pool5"
  type: "Pooling"
  bottom: "conv5_3"
  top: "pool5"
  pooling_param {
    pool: MAX
    kernel_size: 3
    stride: 1
    pad: 1
  }
}
layer {
  name: "fc6"
  type: "Convolution"
  bottom: "pool5"
  top: "fc6"
  param {
    lr_mult: 1
    decay_mult: 1
  }
  param {
    lr_mult: 2
    decay_mult: 0
  }
  convolution_param {
    num_output: 1024
    pad: 6
    kernel_size: 3
    weight_filler {
      type: "xavier"
    }
    bias_filler {
      type: "constant"
      value: 0
    }
    dilation: 6
  }
}
layer {
  name: "relu6"
  type: "ReLU"
  bottom: "fc6"
  top: "fc6"
}
layer {
  name: "fc7"
  type: "Convolution"
  bottom: "fc6"
  top: "fc7"
  param {
    lr_mult: 1
    decay_mult: 1
  }
  param {
    lr_mult: 2
    decay_mult: 0
  }
  convolution_param {
    num_output: 1024
    kernel_size: 1
    weight_filler {
      type: "xavier"
    }
    bias_filler {
      type: "constant"
      value: 0
    }
  }
}
layer {
  name: "relu7"
  type: "ReLU"
  bottom: "fc7"
  top: "fc7"
}
layer {
  name: "conv6_1"
  type: "Convolution"
  bottom: "fc7"
  top: "conv6_1"
  param {
    lr_mult: 1
    decay_mult: 1
  }
  param {
    lr_mult: 2
    decay_mult: 0
  }
  convolution_param {
    num_output: 256
    pad: 0
    kernel_size: 1
    stride: 1
    weight_filler {
      type: "xavier"
    }
    bias_filler {
      type: "constant"
      value: 0
    }
  }
}
layer {
  name: "conv6_1_relu"
  type: "ReLU"
  bottom: "conv6_1"
  top: "conv6_1"
}
layer {
  name: "conv6_2"
  type: "Convolution"
  bottom: "conv6_1"
  top: "conv6_2"
  param {
    lr_mult: 1
    decay_mult: 1
  }
  param {
    lr_mult: 2
    decay_mult: 0
  }
  convolution_param {
    num_output: 512
    pad: 1
    kernel_size: 3
    stride: 2
    weight_filler {
      type: "xavier"
    }
    bias_filler {
      type: "constant"
      value: 0
    }
  }
}
layer {
  name: "conv6_2_relu"
  type: "ReLU"
  bottom: "conv6_2"
  top: "conv6_2"
}
layer {
  name: "conv7_1"
  type: "Convolution"
  bottom: "conv6_2"
  top: "conv7_1"
  param {
    lr_mult: 1
    decay_mult: 1
  }
  param {
    lr_mult: 2
    decay_mult: 0
  }
  convolution_param {
    num_output: 128
    pad: 0
    kernel_size: 1
    stride: 1
    weight_filler {
      type: "xavier"
    }
    bias_filler {
      type: "constant"
      value: 0
    }
  }
}
layer {
  name: "conv7_1_relu"
  type: "ReLU"
  bottom: "conv7_1"
  top: "conv7_1"
}
layer {
  name: "conv7_2"
  type: "Convolution"
  bottom: "conv7_1"
  top: "conv7_2"
  param {
    lr_mult: 1
    decay_mult: 1
  }
  param {
    lr_mult: 2
    decay_mult: 0
  }
  convolution_param {
    num_output: 256
    pad: 1
    kernel_size: 3
    stride: 2
    weight_filler {
      type: "xavier"
    }
    bias_filler {
      type: "constant"
      value: 0
    }
  }
}
layer {
  name: "conv7_2_relu"
  type: "ReLU"
  bottom: "conv7_2"
  top: "conv7_2"
}
layer {
  name: "conv8_1"
  type: "Convolution"
  bottom: "conv7_2"
  top: "conv8_1"
  param {
    lr_mult: 1
    decay_mult: 1
  }
  param {
    lr_mult: 2
    decay_mult: 0
  }
  convolution_param {
    num_output: 128
    pad: 0
    kernel_size: 1
    stride: 1
    weight_filler {
      type: "xavier"
    }
    bias_filler {
      type: "constant"
      value: 0
    }
  }
}
layer {
  name: "conv8_1_relu"
  type: "ReLU"
  bottom: "conv8_1"
  top: "conv8_1"
}
layer {
  name: "conv8_2"
  type: "Convolution"
  bottom: "conv8_1"
  top: "conv8_2"
  param {
    lr_mult: 1
    decay_mult: 1
  }
  param {
    lr_mult: 2
    decay_mult: 0
  }
  convolution_param {
    num_output: 256
    pad: 0
    kernel_size: 3
    stride: 1
    weight_filler {
      type: "xavier"
    }
    bias_filler {
      type: "constant"
      value: 0
    }
  }
}
layer {
  name: "conv8_2_relu"
  type: "ReLU"
  bottom: "conv8_2"
  top: "conv8_2"
}
layer {
  name: "conv9_1"
  type: "Convolution"
  bottom: "conv8_2"
  top: "conv9_1"
  param {
    lr_mult: 1
    decay_mult: 1
  }
  param {
    lr_mult: 2
    decay_mult: 0
  }
  convolution_param {
    num_output: 128
    pad: 0
    kernel_size: 1
    stride: 1
    weight_filler {
      type: "xavier"
    }
    bias_filler {
      type: "constant"
      value: 0
    }
  }
}
layer {
  name: "conv9_1_relu"
  type: "ReLU"
  bottom: "conv9_1"
  top: "conv9_1"
}
layer {
  name: "conv9_2"
  type: "Convolution"
  bottom: "conv9_1"
  top: "conv9_2"
  param {
    lr_mult: 1
    decay_mult: 1
  }
  param {
    lr_mult: 2
    decay_mult: 0
  }
  convolution_param {
    num_output: 256
    pad: 0
    kernel_size: 3
    stride: 1
    weight_filler {
      type: "xavier"
    }
    bias_filler {
      type: "constant"
      value: 0
    }
  }
}
layer {
  name: "conv9_2_relu"
  type: "ReLU"
  bottom: "conv9_2"
  top: "conv9_2"
}
layer {
  name: "conv3_3_norm"
  type: "Normalize"
  bottom: "conv3_3"
  top: "conv3_3_norm"
  norm_param {
    across_spatial: false
    scale_filler {
      type: "constant"
      value: 20
    }
    channel_shared: false
  }
}
layer {
  name: "conv3_3_norm_mbox_loc"
  type: "Convolution"
  bottom: "conv3_3_norm"
  top: "conv3_3_norm_mbox_loc"
  param {
    lr_mult: 1
    decay_mult: 1
  }
  param {
    lr_mult: 2
    decay_mult: 0
  }
  convolution_param {
    num_output: 288
    weight_filler {
      type: "xavier"
    }
    bias_filler {
      type: "constant"
      value: 0
    }
    pad_h: 1
    pad_w: 2
    kernel_h: 3
    kernel_w: 5
    stride_h: 1
    stride_w: 1
  }
}
layer {
  name: "conv3_3_norm_mbox_loc_perm"
  type: "Permute"
  bottom: "conv3_3_norm_mbox_loc"
  top: "conv3_3_norm_mbox_loc_perm"
  permute_param {
    order: 0
    order: 2
    order: 3
    order: 1
  }
}
layer {
  name: "conv3_3_norm_mbox_loc_flat"
  type: "Flatten"
  bottom: "conv3_3_norm_mbox_loc_perm"
  top: "conv3_3_norm_mbox_loc_flat"
  flatten_param {
    axis: 1
  }
}
layer {
  name: "conv3_3_norm_mbox_conf"
  type: "Convolution"
  bottom: "conv3_3_norm"
  top: "conv3_3_norm_mbox_conf"
  param {
    lr_mult: 1
    decay_mult: 1
  }
  param {
    lr_mult: 2
    decay_mult: 0
  }
  convolution_param {
    num_output: 48
    weight_filler {
      type: "xavier"
    }
    bias_filler {
      type: "constant"
      value: 0
    }
    pad_h: 1
    pad_w: 2
    kernel_h: 3
    kernel_w: 5
    stride_h: 1
    stride_w: 1
  }
}
layer {
  name: "conv3_3_norm_mbox_conf_perm"
  type: "Permute"
  bottom: "conv3_3_norm_mbox_conf"
  top: "conv3_3_norm_mbox_conf_perm"
  permute_param {
    order: 0
    order: 2
    order: 3
    order: 1
  }
}
layer {
  name: "conv3_3_norm_mbox_conf_flat"
  type: "Flatten"
  bottom: "conv3_3_norm_mbox_conf_perm"
  top: "conv3_3_norm_mbox_conf_flat"
  flatten_param {
    axis: 1
  }
}
layer {
  name: "conv3_3_norm_mbox_priorbox"
  type: "PriorBox"
  bottom: "conv3_3_norm"
  bottom: "data"
  top: "conv3_3_norm_mbox_priorbox"
  prior_box_param {
    min_size: 10
    max_size: 30
    aspect_ratio: 2
    aspect_ratio: 3
    aspect_ratio: 4
    aspect_ratio: 5
    aspect_ratio: 7
    flip: true
    clip: false
    variance: 0.1
    variance: 0.1
    variance: 0.2
    variance: 0.2
    step: 4
    offset: 0.5
    denser_prior_boxes: true
  }
}
layer {
  name: "conv4_3_norm"
  type: "Normalize"
  bottom: "conv4_3"
  top: "conv4_3_norm"
  norm_param {
    across_spatial: false
    scale_filler {
      type: "constant"
      value: 20
    }
    channel_shared: false
  }
}
layer {
  name: "conv4_3_norm_mbox_loc"
  type: "Convolution"
  bottom: "conv4_3_norm"
  top: "conv4_3_norm_mbox_loc"
  param {
    lr_mult: 1
    decay_mult: 1
  }
  param {
    lr_mult: 2
    decay_mult: 0
  }
  convolution_param {
    num_output: 288
    weight_filler {
      type: "xavier"
    }
    bias_filler {
      type: "constant"
      value: 0
    }
    pad_h: 1
    pad_w: 2
    kernel_h: 3
    kernel_w: 5
    stride_h: 1
    stride_w: 1
  }
}
layer {
  name: "conv4_3_norm_mbox_loc_perm"
  type: "Permute"
  bottom: "conv4_3_norm_mbox_loc"
  top: "conv4_3_norm_mbox_loc_perm"
  permute_param {
    order: 0
    order: 2
    order: 3
    order: 1
  }
}
layer {
  name: "conv4_3_norm_mbox_loc_flat"
  type: "Flatten"
  bottom: "conv4_3_norm_mbox_loc_perm"
  top: "conv4_3_norm_mbox_loc_flat"
  flatten_param {
    axis: 1
  }
}
layer {
  name: "conv4_3_norm_mbox_conf"
  type: "Convolution"
  bottom: "conv4_3_norm"
  top: "conv4_3_norm_mbox_conf"
  param {
    lr_mult: 1
    decay_mult: 1
  }
  param {
    lr_mult: 2
    decay_mult: 0
  }
  convolution_param {
    num_output: 48
    weight_filler {
      type: "xavier"
    }
    bias_filler {
      type: "constant"
      value: 0
    }
    pad_h: 1
    pad_w: 2
    kernel_h: 3
    kernel_w: 5
    stride_h: 1
    stride_w: 1
  }
}
layer {
  name: "conv4_3_norm_mbox_conf_perm"
  type: "Permute"
  bottom: "conv4_3_norm_mbox_conf"
  top: "conv4_3_norm_mbox_conf_perm"
  permute_param {
    order: 0
    order: 2
    order: 3
    order: 1
  }
}
layer {
  name: "conv4_3_norm_mbox_conf_flat"
  type: "Flatten"
  bottom: "conv4_3_norm_mbox_conf_perm"
  top: "conv4_3_norm_mbox_conf_flat"
  flatten_param {
    axis: 1
  }
}
layer {
  name: "conv4_3_norm_mbox_priorbox"
  type: "PriorBox"
  bottom: "conv4_3_norm"
  bottom: "data"
  top: "conv4_3_norm_mbox_priorbox"
  prior_box_param {
    min_size: 30
    max_size: 78
    aspect_ratio: 2
    aspect_ratio: 3
    aspect_ratio: 4
    aspect_ratio: 5
    aspect_ratio: 7
    flip: true
    clip: false
    variance: 0.1
    variance: 0.1
    variance: 0.2
    variance: 0.2
    step: 8
    offset: 0.5
    denser_prior_boxes: true
  }
}
layer {
  name: "fc7_mbox_loc"
  type: "Convolution"
  bottom: "fc7"
  top: "fc7_mbox_loc"
  param {
    lr_mult: 1
    decay_mult: 1
  }
  param {
    lr_mult: 2
    decay_mult: 0
  }
  convolution_param {
    num_output: 288
    weight_filler {
      type: "xavier"
    }
    bias_filler {
      type: "constant"
      value: 0
    }
    pad_h: 1
    pad_w: 2
    kernel_h: 3
    kernel_w: 5
    stride_h: 1
    stride_w: 1
  }
}
layer {
  name: "fc7_mbox_loc_perm"
  type: "Permute"
  bottom: "fc7_mbox_loc"
  top: "fc7_mbox_loc_perm"
  permute_param {
    order: 0
    order: 2
    order: 3
    order: 1
  }
}
layer {
  name: "fc7_mbox_loc_flat"
  type: "Flatten"
  bottom: "fc7_mbox_loc_perm"
  top: "fc7_mbox_loc_flat"
  flatten_param {
    axis: 1
  }
}
layer {
  name: "fc7_mbox_conf"
  type: "Convolution"
  bottom: "fc7"
  top: "fc7_mbox_conf"
  param {
    lr_mult: 1
    decay_mult: 1
  }
  param {
    lr_mult: 2
    decay_mult: 0
  }
  convolution_param {
    num_output: 48
    weight_filler {
      type: "xavier"
    }
    bias_filler {
      type: "constant"
      value: 0
    }
    pad_h: 1
    pad_w: 2
    kernel_h: 3
    kernel_w: 5
    stride_h: 1
    stride_w: 1
  }
}
layer {
  name: "fc7_mbox_conf_perm"
  type: "Permute"
  bottom: "fc7_mbox_conf"
  top: "fc7_mbox_conf_perm"
  permute_param {
    order: 0
    order: 2
    order: 3
    order: 1
  }
}
layer {
  name: "fc7_mbox_conf_flat"
  type: "Flatten"
  bottom: "fc7_mbox_conf_perm"
  top: "fc7_mbox_conf_flat"
  flatten_param {
    axis: 1
  }
}
layer {
  name: "fc7_mbox_priorbox"
  type: "PriorBox"
  bottom: "fc7"
  bottom: "data"
  top: "fc7_mbox_priorbox"
  prior_box_param {
    min_size: 78
    max_size: 126
    aspect_ratio: 2
    aspect_ratio: 3
    aspect_ratio: 4
    aspect_ratio: 5
    aspect_ratio: 7
    flip: true
    clip: false
    variance: 0.1
    variance: 0.1
    variance: 0.2
    variance: 0.2
    step: 16
    offset: 0.5
    denser_prior_boxes: true
  }
}
layer {
  name: "conv6_2_mbox_loc"
  type: "Convolution"
  bottom: "conv6_2"
  top: "conv6_2_mbox_loc"
  param {
    lr_mult: 1
    decay_mult: 1
  }
  param {
    lr_mult: 2
    decay_mult: 0
  }
  convolution_param {
    num_output: 288
    weight_filler {
      type: "xavier"
    }
    bias_filler {
      type: "constant"
      value: 0
    }
    pad_h: 1
    pad_w: 2
    kernel_h: 3
    kernel_w: 5
    stride_h: 1
    stride_w: 1
  }
}
layer {
  name: "conv6_2_mbox_loc_perm"
  type: "Permute"
  bottom: "conv6_2_mbox_loc"
  top: "conv6_2_mbox_loc_perm"
  permute_param {
    order: 0
    order: 2
    order: 3
    order: 1
  }
}
layer {
  name: "conv6_2_mbox_loc_flat"
  type: "Flatten"
  bottom: "conv6_2_mbox_loc_perm"
  top: "conv6_2_mbox_loc_flat"
  flatten_param {
    axis: 1
  }
}
layer {
  name: "conv6_2_mbox_conf"
  type: "Convolution"
  bottom: "conv6_2"
  top: "conv6_2_mbox_conf"
  param {
    lr_mult: 1
    decay_mult: 1
  }
  param {
    lr_mult: 2
    decay_mult: 0
  }
  convolution_param {
    num_output: 48
    weight_filler {
      type: "xavier"
    }
    bias_filler {
      type: "constant"
      value: 0
    }
    pad_h: 1
    pad_w: 2
    kernel_h: 3
    kernel_w: 5
    stride_h: 1
    stride_w: 1
  }
}
layer {
  name: "conv6_2_mbox_conf_perm"
  type: "Permute"
  bottom: "conv6_2_mbox_conf"
  top: "conv6_2_mbox_conf_perm"
  permute_param {
    order: 0
    order: 2
    order: 3
    order: 1
  }
}
layer {
  name: "conv6_2_mbox_conf_flat"
  type: "Flatten"
  bottom: "conv6_2_mbox_conf_perm"
  top: "conv6_2_mbox_conf_flat"
  flatten_param {
    axis: 1
  }
}
layer {
  name: "conv6_2_mbox_priorbox"
  type: "PriorBox"
  bottom: "conv6_2"
  bottom: "data"
  top: "conv6_2_mbox_priorbox"
  prior_box_param {
    min_size: 126
    max_size: 174
    aspect_ratio: 2
    aspect_ratio: 3
    aspect_ratio: 4
    aspect_ratio: 5
    aspect_ratio: 7
    flip: true
    clip: false
    variance: 0.1
    variance: 0.1
    variance: 0.2
    variance: 0.2
    step: 32
    offset: 0.5
    denser_prior_boxes: true
  }
}
layer {
  name: "conv7_2_mbox_loc"
  type: "Convolution"
  bottom: "conv7_2"
  top: "conv7_2_mbox_loc"
  param {
    lr_mult: 1
    decay_mult: 1
  }
  param {
    lr_mult: 2
    decay_mult: 0
  }
  convolution_param {
    num_output: 288
    weight_filler {
      type: "xavier"
    }
    bias_filler {
      type: "constant"
      value: 0
    }
    pad_h: 1
    pad_w: 2
    kernel_h: 3
    kernel_w: 5
    stride_h: 1
    stride_w: 1
  }
}
layer {
  name: "conv7_2_mbox_loc_perm"
  type: "Permute"
  bottom: "conv7_2_mbox_loc"
  top: "conv7_2_mbox_loc_perm"
  permute_param {
    order: 0
    order: 2
    order: 3
    order: 1
  }
}
layer {
  name: "conv7_2_mbox_loc_flat"
  type: "Flatten"
  bottom: "conv7_2_mbox_loc_perm"
  top: "conv7_2_mbox_loc_flat"
  flatten_param {
    axis: 1
  }
}
layer {
  name: "conv7_2_mbox_conf"
  type: "Convolution"
  bottom: "conv7_2"
  top: "conv7_2_mbox_conf"
  param {
    lr_mult: 1
    decay_mult: 1
  }
  param {
    lr_mult: 2
    decay_mult: 0
  }
  convolution_param {
    num_output: 48
    weight_filler {
      type: "xavier"
    }
    bias_filler {
      type: "constant"
      value: 0
    }
    pad_h: 1
    pad_w: 2
    kernel_h: 3
    kernel_w: 5
    stride_h: 1
    stride_w: 1
  }
}
layer {
  name: "conv7_2_mbox_conf_perm"
  type: "Permute"
  bottom: "conv7_2_mbox_conf"
  top: "conv7_2_mbox_conf_perm"
  permute_param {
    order: 0
    order: 2
    order: 3
    order: 1
  }
}
layer {
  name: "conv7_2_mbox_conf_flat"
  type: "Flatten"
  bottom: "conv7_2_mbox_conf_perm"
  top: "conv7_2_mbox_conf_flat"
  flatten_param {
    axis: 1
  }
}
layer {
  name: "conv7_2_mbox_priorbox"
  type: "PriorBox"
  bottom: "conv7_2"
  bottom: "data"
  top: "conv7_2_mbox_priorbox"
  prior_box_param {
    min_size: 174
    max_size: 222
    aspect_ratio: 2
    aspect_ratio: 3
    aspect_ratio: 4
    aspect_ratio: 5
    aspect_ratio: 7
    flip: true
    clip: false
    variance: 0.1
    variance: 0.1
    variance: 0.2
    variance: 0.2
    step: 64
    offset: 0.5
    denser_prior_boxes: true
  }
}
layer {
  name: "conv8_2_mbox_loc"
  type: "Convolution"
  bottom: "conv8_2"
  top: "conv8_2_mbox_loc"
  param {
    lr_mult: 1
    decay_mult: 1
  }
  param {
    lr_mult: 2
    decay_mult: 0
  }
  convolution_param {
    num_output: 288
    weight_filler {
      type: "xavier"
    }
    bias_filler {
      type: "constant"
      value: 0
    }
    pad_h: 1
    pad_w: 2
    kernel_h: 3
    kernel_w: 5
    stride_h: 1
    stride_w: 1
  }
}
layer {
  name: "conv8_2_mbox_loc_perm"
  type: "Permute"
  bottom: "conv8_2_mbox_loc"
  top: "conv8_2_mbox_loc_perm"
  permute_param {
    order: 0
    order: 2
    order: 3
    order: 1
  }
}
layer {
  name: "conv8_2_mbox_loc_flat"
  type: "Flatten"
  bottom: "conv8_2_mbox_loc_perm"
  top: "conv8_2_mbox_loc_flat"
  flatten_param {
    axis: 1
  }
}
layer {
  name: "conv8_2_mbox_conf"
  type: "Convolution"
  bottom: "conv8_2"
  top: "conv8_2_mbox_conf"
  param {
    lr_mult: 1
    decay_mult: 1
  }
  param {
    lr_mult: 2
    decay_mult: 0
  }
  convolution_param {
    num_output: 48
    weight_filler {
      type: "xavier"
    }
    bias_filler {
      type: "constant"
      value: 0
    }
    pad_h: 1
    pad_w: 2
    kernel_h: 3
    kernel_w: 5
    stride_h: 1
    stride_w: 1
  }
}
layer {
  name: "conv8_2_mbox_conf_perm"
  type: "Permute"
  bottom: "conv8_2_mbox_conf"
  top: "conv8_2_mbox_conf_perm"
  permute_param {
    order: 0
    order: 2
    order: 3
    order: 1
  }
}
layer {
  name: "conv8_2_mbox_conf_flat"
  type: "Flatten"
  bottom: "conv8_2_mbox_conf_perm"
  top: "conv8_2_mbox_conf_flat"
  flatten_param {
    axis: 1
  }
}
layer {
  name: "conv8_2_mbox_priorbox"
  type: "PriorBox"
  bottom: "conv8_2"
  bottom: "data"
  top: "conv8_2_mbox_priorbox"
  prior_box_param {
    min_size: 222
    max_size: 270
    aspect_ratio: 2
    aspect_ratio: 3
    aspect_ratio: 4
    aspect_ratio: 5
    aspect_ratio: 7
    flip: true
    clip: false
    variance: 0.1
    variance: 0.1
    variance: 0.2
    variance: 0.2
    step: 100
    offset: 0.5
    denser_prior_boxes: true
  }
}
layer {
  name: "conv9_2_mbox_loc"
  type: "Convolution"
  bottom: "conv9_2"
  top: "conv9_2_mbox_loc"
  param {
    lr_mult: 1
    decay_mult: 1
  }
  param {
    lr_mult: 2
    decay_mult: 0
  }
  convolution_param {
    num_output: 288
    weight_filler {
      type: "xavier"
    }
    bias_filler {
      type: "constant"
      value: 0
    }
    pad_h: 1
    pad_w: 2
    kernel_h: 3
    kernel_w: 5
    stride_h: 1
    stride_w: 1
  }
}
layer {
  name: "conv9_2_mbox_loc_perm"
  type: "Permute"
  bottom: "conv9_2_mbox_loc"
  top: "conv9_2_mbox_loc_perm"
  permute_param {
    order: 0
    order: 2
    order: 3
    order: 1
  }
}
layer {
  name: "conv9_2_mbox_loc_flat"
  type: "Flatten"
  bottom: "conv9_2_mbox_loc_perm"
  top: "conv9_2_mbox_loc_flat"
  flatten_param {
    axis: 1
  }
}
layer {
  name: "conv9_2_mbox_conf"
  type: "Convolution"
  bottom: "conv9_2"
  top: "conv9_2_mbox_conf"
  param {
    lr_mult: 1
    decay_mult: 1
  }
  param {
    lr_mult: 2
    decay_mult: 0
  }
  convolution_param {
    num_output: 48
    weight_filler {
      type: "xavier"
    }
    bias_filler {
      type: "constant"
      value: 0
    }
    pad_h: 1
    pad_w: 2
    kernel_h: 3
    kernel_w: 5
    stride_h: 1
    stride_w: 1
  }
}
layer {
  name: "conv9_2_mbox_conf_perm"
  type: "Permute"
  bottom: "conv9_2_mbox_conf"
  top: "conv9_2_mbox_conf_perm"
  permute_param {
    order: 0
    order: 2
    order: 3
    order: 1
  }
}
layer {
  name: "conv9_2_mbox_conf_flat"
  type: "Flatten"
  bottom: "conv9_2_mbox_conf_perm"
  top: "conv9_2_mbox_conf_flat"
  flatten_param {
    axis: 1
  }
}
layer {
  name: "conv9_2_mbox_priorbox"
  type: "PriorBox"
  bottom: "conv9_2"
  bottom: "data"
  top: "conv9_2_mbox_priorbox"
  prior_box_param {
    min_size: 270
    max_size: 318
    aspect_ratio: 2
    aspect_ratio: 3
    aspect_ratio: 4
    aspect_ratio: 5
    aspect_ratio: 7
    flip: true
    clip: false
    variance: 0.1
    variance: 0.1
    variance: 0.2
    variance: 0.2
    step: 300
    offset: 0.5
    denser_prior_boxes: true
  }
}
layer {
  name: "mbox_loc"
  type: "Concat"
  bottom: "conv3_3_norm_mbox_loc_flat"
  bottom: "conv4_3_norm_mbox_loc_flat"
  bottom: "fc7_mbox_loc_flat"
  bottom: "conv6_2_mbox_loc_flat"
  bottom: "conv7_2_mbox_loc_flat"
  bottom: "conv8_2_mbox_loc_flat"
  bottom: "conv9_2_mbox_loc_flat"
  top: "mbox_loc"
  concat_param {
    axis: 1
  }
}
layer {
  name: "mbox_conf"
  type: "Concat"
  bottom: "conv3_3_norm_mbox_conf_flat"
  bottom: "conv4_3_norm_mbox_conf_flat"
  bottom: "fc7_mbox_conf_flat"
  bottom: "conv6_2_mbox_conf_flat"
  bottom: "conv7_2_mbox_conf_flat"
  bottom: "conv8_2_mbox_conf_flat"
  bottom: "conv9_2_mbox_conf_flat"
  top: "mbox_conf"
  concat_param {
    axis: 1
  }
}
layer {
  name: "mbox_priorbox"
  type: "Concat"
  bottom: "conv3_3_norm_mbox_priorbox"
  bottom: "conv4_3_norm_mbox_priorbox"
  bottom: "fc7_mbox_priorbox"
  bottom: "conv6_2_mbox_priorbox"
  bottom: "conv7_2_mbox_priorbox"
  bottom: "conv8_2_mbox_priorbox"
  bottom: "conv9_2_mbox_priorbox"
  top: "mbox_priorbox"
  concat_param {
    axis: 2
  }
}
layer {
  name: "mbox_conf_reshape"
  type: "Reshape"
  bottom: "mbox_conf"
  top: "mbox_conf_reshape"
  reshape_param {
    shape {
      dim: 0
      dim: -1
      dim: 2
    }
  }
}
layer {
  name: "mbox_conf_softmax"
  type: "Softmax"
  bottom: "mbox_conf_reshape"
  top: "mbox_conf_softmax"
  softmax_param {
    axis: 2
  }
}
layer {
  name: "mbox_conf_flatten"
  type: "Flatten"
  bottom: "mbox_conf_softmax"
  top: "mbox_conf_flatten"
  flatten_param {
    axis: 1
  }
}
layer {
  name: "detection_out"
  type: "DetectionOutput"
  bottom: "mbox_loc"
  bottom: "mbox_conf_flatten"
  bottom: "mbox_priorbox"
  top: "detection_out"
  include {
    phase: TEST
  }
  detection_output_param {
    num_classes: 2
    share_location: true
    background_label_id: 0
    nms_param {
      nms_threshold: 0.45
      top_k: 400
    }
    save_output_param {
      output_directory: "/home/amax/data/text/results/text/text_polygon_precise_fix_order_384x384/Main"
      output_name_prefix: "comp4_det_test_"
      output_format: "VOC"
      label_map_file: "data/text/labelmap_voc.prototxt"
      num_test_image: 500
    }
    code_type: CENTER_SIZE
    keep_top_k: 200
    confidence_threshold: 0.01
    use_polygon: true
  }
}
layer {
  name: "detection_eval"
  type: "DetectionEvaluate"
  bottom: "detection_out"
  bottom: "label"
  top: "detection_eval"
  include {
    phase: TEST
  }
  detection_evaluate_param {
    num_classes: 2
    background_label_id: 0
    overlap_threshold: 0.5
    evaluate_difficult_gt: false
    use_polygon: true
  }
}
I0421 13:36:14.843163  3802 layer_factory.hpp:77] Creating layer data
I0421 13:36:14.843242  3802 net.cpp:100] Creating Layer data
I0421 13:36:14.843252  3802 net.cpp:408] data -> data
I0421 13:36:14.843266  3802 net.cpp:408] data -> label
I0421 13:36:14.844709  3832 db_lmdb.cpp:35] Opened lmdb ./data/test_lmdb/
I0421 13:36:14.853835  3802 annotated_data_layer.cpp:62] output data size: 1,3,384,384
I0421 13:36:14.859019  3802 net.cpp:150] Setting up data
I0421 13:36:14.859073  3802 net.cpp:157] Top shape: 1 3 384 384 (442368)
I0421 13:36:14.859084  3802 net.cpp:157] Top shape: 1 1 49 16 (784)
I0421 13:36:14.859088  3802 net.cpp:165] Memory required for data: 1772608
I0421 13:36:14.859093  3802 layer_factory.hpp:77] Creating layer data_data_0_split
I0421 13:36:14.859103  3802 net.cpp:100] Creating Layer data_data_0_split
I0421 13:36:14.859108  3802 net.cpp:434] data_data_0_split <- data
I0421 13:36:14.859114  3802 net.cpp:408] data_data_0_split -> data_data_0_split_0
I0421 13:36:14.859125  3802 net.cpp:408] data_data_0_split -> data_data_0_split_1
I0421 13:36:14.859134  3802 net.cpp:408] data_data_0_split -> data_data_0_split_2
I0421 13:36:14.859148  3802 net.cpp:408] data_data_0_split -> data_data_0_split_3
I0421 13:36:14.859159  3802 net.cpp:408] data_data_0_split -> data_data_0_split_4
I0421 13:36:14.859170  3802 net.cpp:408] data_data_0_split -> data_data_0_split_5
I0421 13:36:14.859181  3802 net.cpp:408] data_data_0_split -> data_data_0_split_6
I0421 13:36:14.859194  3802 net.cpp:408] data_data_0_split -> data_data_0_split_7
I0421 13:36:14.859377  3802 net.cpp:150] Setting up data_data_0_split
I0421 13:36:14.859392  3802 net.cpp:157] Top shape: 1 3 384 384 (442368)
I0421 13:36:14.859401  3802 net.cpp:157] Top shape: 1 3 384 384 (442368)
I0421 13:36:14.859411  3802 net.cpp:157] Top shape: 1 3 384 384 (442368)
I0421 13:36:14.859419  3802 net.cpp:157] Top shape: 1 3 384 384 (442368)
I0421 13:36:14.859427  3802 net.cpp:157] Top shape: 1 3 384 384 (442368)
I0421 13:36:14.859437  3802 net.cpp:157] Top shape: 1 3 384 384 (442368)
I0421 13:36:14.859447  3802 net.cpp:157] Top shape: 1 3 384 384 (442368)
I0421 13:36:14.859452  3802 net.cpp:157] Top shape: 1 3 384 384 (442368)
I0421 13:36:14.859457  3802 net.cpp:165] Memory required for data: 15928384
I0421 13:36:14.859462  3802 layer_factory.hpp:77] Creating layer conv1_1
I0421 13:36:14.859472  3802 net.cpp:100] Creating Layer conv1_1
I0421 13:36:14.859477  3802 net.cpp:434] conv1_1 <- data_data_0_split_0
I0421 13:36:14.859483  3802 net.cpp:408] conv1_1 -> conv1_1
I0421 13:36:14.862320  3802 net.cpp:150] Setting up conv1_1
I0421 13:36:14.862342  3802 net.cpp:157] Top shape: 1 64 384 384 (9437184)
I0421 13:36:14.862349  3802 net.cpp:165] Memory required for data: 53677120
I0421 13:36:14.862368  3802 layer_factory.hpp:77] Creating layer relu1_1
I0421 13:36:14.862382  3802 net.cpp:100] Creating Layer relu1_1
I0421 13:36:14.862390  3802 net.cpp:434] relu1_1 <- conv1_1
I0421 13:36:14.862397  3802 net.cpp:395] relu1_1 -> conv1_1 (in-place)
I0421 13:36:14.862651  3802 net.cpp:150] Setting up relu1_1
I0421 13:36:14.862666  3802 net.cpp:157] Top shape: 1 64 384 384 (9437184)
I0421 13:36:14.862673  3802 net.cpp:165] Memory required for data: 91425856
I0421 13:36:14.862680  3802 layer_factory.hpp:77] Creating layer conv1_2
I0421 13:36:14.862696  3802 net.cpp:100] Creating Layer conv1_2
I0421 13:36:14.862704  3802 net.cpp:434] conv1_2 <- conv1_1
I0421 13:36:14.862717  3802 net.cpp:408] conv1_2 -> conv1_2
I0421 13:36:14.866309  3802 net.cpp:150] Setting up conv1_2
I0421 13:36:14.866329  3802 net.cpp:157] Top shape: 1 64 384 384 (9437184)
I0421 13:36:14.866338  3802 net.cpp:165] Memory required for data: 129174592
I0421 13:36:14.866372  3802 layer_factory.hpp:77] Creating layer relu1_2
I0421 13:36:14.866382  3802 net.cpp:100] Creating Layer relu1_2
I0421 13:36:14.866392  3802 net.cpp:434] relu1_2 <- conv1_2
I0421 13:36:14.866402  3802 net.cpp:395] relu1_2 -> conv1_2 (in-place)
I0421 13:36:14.866870  3802 net.cpp:150] Setting up relu1_2
I0421 13:36:14.866894  3802 net.cpp:157] Top shape: 1 64 384 384 (9437184)
I0421 13:36:14.866900  3802 net.cpp:165] Memory required for data: 166923328
I0421 13:36:14.866906  3802 layer_factory.hpp:77] Creating layer pool1
I0421 13:36:14.866917  3802 net.cpp:100] Creating Layer pool1
I0421 13:36:14.866925  3802 net.cpp:434] pool1 <- conv1_2
I0421 13:36:14.866938  3802 net.cpp:408] pool1 -> pool1
I0421 13:36:14.867014  3802 net.cpp:150] Setting up pool1
I0421 13:36:14.867024  3802 net.cpp:157] Top shape: 1 64 192 192 (2359296)
I0421 13:36:14.867030  3802 net.cpp:165] Memory required for data: 176360512
I0421 13:36:14.867034  3802 layer_factory.hpp:77] Creating layer conv2_1
I0421 13:36:14.867043  3802 net.cpp:100] Creating Layer conv2_1
I0421 13:36:14.867048  3802 net.cpp:434] conv2_1 <- pool1
I0421 13:36:14.867055  3802 net.cpp:408] conv2_1 -> conv2_1
I0421 13:36:14.869870  3802 net.cpp:150] Setting up conv2_1
I0421 13:36:14.869891  3802 net.cpp:157] Top shape: 1 128 192 192 (4718592)
I0421 13:36:14.869897  3802 net.cpp:165] Memory required for data: 195234880
I0421 13:36:14.869913  3802 layer_factory.hpp:77] Creating layer relu2_1
I0421 13:36:14.869925  3802 net.cpp:100] Creating Layer relu2_1
I0421 13:36:14.869933  3802 net.cpp:434] relu2_1 <- conv2_1
I0421 13:36:14.869946  3802 net.cpp:395] relu2_1 -> conv2_1 (in-place)
I0421 13:36:14.870491  3802 net.cpp:150] Setting up relu2_1
I0421 13:36:14.870537  3802 net.cpp:157] Top shape: 1 128 192 192 (4718592)
I0421 13:36:14.870548  3802 net.cpp:165] Memory required for data: 214109248
I0421 13:36:14.870555  3802 layer_factory.hpp:77] Creating layer conv2_2
I0421 13:36:14.870570  3802 net.cpp:100] Creating Layer conv2_2
I0421 13:36:14.870596  3802 net.cpp:434] conv2_2 <- conv2_1
I0421 13:36:14.870622  3802 net.cpp:408] conv2_2 -> conv2_2
I0421 13:36:14.874718  3802 net.cpp:150] Setting up conv2_2
I0421 13:36:14.874735  3802 net.cpp:157] Top shape: 1 128 192 192 (4718592)
I0421 13:36:14.874740  3802 net.cpp:165] Memory required for data: 232983616
I0421 13:36:14.874747  3802 layer_factory.hpp:77] Creating layer relu2_2
I0421 13:36:14.874756  3802 net.cpp:100] Creating Layer relu2_2
I0421 13:36:14.874761  3802 net.cpp:434] relu2_2 <- conv2_2
I0421 13:36:14.874768  3802 net.cpp:395] relu2_2 -> conv2_2 (in-place)
I0421 13:36:14.875036  3802 net.cpp:150] Setting up relu2_2
I0421 13:36:14.875054  3802 net.cpp:157] Top shape: 1 128 192 192 (4718592)
I0421 13:36:14.875061  3802 net.cpp:165] Memory required for data: 251857984
I0421 13:36:14.875066  3802 layer_factory.hpp:77] Creating layer pool2
I0421 13:36:14.875077  3802 net.cpp:100] Creating Layer pool2
I0421 13:36:14.875084  3802 net.cpp:434] pool2 <- conv2_2
I0421 13:36:14.875097  3802 net.cpp:408] pool2 -> pool2
I0421 13:36:14.875175  3802 net.cpp:150] Setting up pool2
I0421 13:36:14.875190  3802 net.cpp:157] Top shape: 1 128 96 96 (1179648)
I0421 13:36:14.875197  3802 net.cpp:165] Memory required for data: 256576576
I0421 13:36:14.875203  3802 layer_factory.hpp:77] Creating layer conv3_1
I0421 13:36:14.875218  3802 net.cpp:100] Creating Layer conv3_1
I0421 13:36:14.875226  3802 net.cpp:434] conv3_1 <- pool2
I0421 13:36:14.875239  3802 net.cpp:408] conv3_1 -> conv3_1
I0421 13:36:14.880517  3802 net.cpp:150] Setting up conv3_1
I0421 13:36:14.880535  3802 net.cpp:157] Top shape: 1 256 96 96 (2359296)
I0421 13:36:14.880540  3802 net.cpp:165] Memory required for data: 266013760
I0421 13:36:14.880556  3802 layer_factory.hpp:77] Creating layer relu3_1
I0421 13:36:14.880591  3802 net.cpp:100] Creating Layer relu3_1
I0421 13:36:14.880614  3802 net.cpp:434] relu3_1 <- conv3_1
I0421 13:36:14.880638  3802 net.cpp:395] relu3_1 -> conv3_1 (in-place)
I0421 13:36:14.881126  3802 net.cpp:150] Setting up relu3_1
I0421 13:36:14.881158  3802 net.cpp:157] Top shape: 1 256 96 96 (2359296)
I0421 13:36:14.881165  3802 net.cpp:165] Memory required for data: 275450944
I0421 13:36:14.881170  3802 layer_factory.hpp:77] Creating layer conv3_2
I0421 13:36:14.881181  3802 net.cpp:100] Creating Layer conv3_2
I0421 13:36:14.881189  3802 net.cpp:434] conv3_2 <- conv3_1
I0421 13:36:14.881201  3802 net.cpp:408] conv3_2 -> conv3_2
I0421 13:36:14.890151  3802 net.cpp:150] Setting up conv3_2
I0421 13:36:14.890175  3802 net.cpp:157] Top shape: 1 256 96 96 (2359296)
I0421 13:36:14.890182  3802 net.cpp:165] Memory required for data: 284888128
I0421 13:36:14.890194  3802 layer_factory.hpp:77] Creating layer relu3_2
I0421 13:36:14.890210  3802 net.cpp:100] Creating Layer relu3_2
I0421 13:36:14.890218  3802 net.cpp:434] relu3_2 <- conv3_2
I0421 13:36:14.890225  3802 net.cpp:395] relu3_2 -> conv3_2 (in-place)
I0421 13:36:14.890503  3802 net.cpp:150] Setting up relu3_2
I0421 13:36:14.890521  3802 net.cpp:157] Top shape: 1 256 96 96 (2359296)
I0421 13:36:14.890527  3802 net.cpp:165] Memory required for data: 294325312
I0421 13:36:14.890530  3802 layer_factory.hpp:77] Creating layer conv3_3
I0421 13:36:14.890547  3802 net.cpp:100] Creating Layer conv3_3
I0421 13:36:14.890552  3802 net.cpp:434] conv3_3 <- conv3_2
I0421 13:36:14.890561  3802 net.cpp:408] conv3_3 -> conv3_3
I0421 13:36:14.899194  3802 net.cpp:150] Setting up conv3_3
I0421 13:36:14.899216  3802 net.cpp:157] Top shape: 1 256 96 96 (2359296)
I0421 13:36:14.899224  3802 net.cpp:165] Memory required for data: 303762496
I0421 13:36:14.899235  3802 layer_factory.hpp:77] Creating layer relu3_3
I0421 13:36:14.899241  3802 net.cpp:100] Creating Layer relu3_3
I0421 13:36:14.899246  3802 net.cpp:434] relu3_3 <- conv3_3
I0421 13:36:14.899255  3802 net.cpp:395] relu3_3 -> conv3_3 (in-place)
I0421 13:36:14.899508  3802 net.cpp:150] Setting up relu3_3
I0421 13:36:14.899523  3802 net.cpp:157] Top shape: 1 256 96 96 (2359296)
I0421 13:36:14.899530  3802 net.cpp:165] Memory required for data: 313199680
I0421 13:36:14.899536  3802 layer_factory.hpp:77] Creating layer conv3_3_relu3_3_0_split
I0421 13:36:14.899547  3802 net.cpp:100] Creating Layer conv3_3_relu3_3_0_split
I0421 13:36:14.899554  3802 net.cpp:434] conv3_3_relu3_3_0_split <- conv3_3
I0421 13:36:14.899566  3802 net.cpp:408] conv3_3_relu3_3_0_split -> conv3_3_relu3_3_0_split_0
I0421 13:36:14.899579  3802 net.cpp:408] conv3_3_relu3_3_0_split -> conv3_3_relu3_3_0_split_1
I0421 13:36:14.899660  3802 net.cpp:150] Setting up conv3_3_relu3_3_0_split
I0421 13:36:14.899675  3802 net.cpp:157] Top shape: 1 256 96 96 (2359296)
I0421 13:36:14.899685  3802 net.cpp:157] Top shape: 1 256 96 96 (2359296)
I0421 13:36:14.899693  3802 net.cpp:165] Memory required for data: 332074048
I0421 13:36:14.899698  3802 layer_factory.hpp:77] Creating layer pool3
I0421 13:36:14.899715  3802 net.cpp:100] Creating Layer pool3
I0421 13:36:14.899724  3802 net.cpp:434] pool3 <- conv3_3_relu3_3_0_split_0
I0421 13:36:14.899737  3802 net.cpp:408] pool3 -> pool3
I0421 13:36:14.899816  3802 net.cpp:150] Setting up pool3
I0421 13:36:14.899828  3802 net.cpp:157] Top shape: 1 256 48 48 (589824)
I0421 13:36:14.899837  3802 net.cpp:165] Memory required for data: 334433344
I0421 13:36:14.899842  3802 layer_factory.hpp:77] Creating layer conv4_1
I0421 13:36:14.899859  3802 net.cpp:100] Creating Layer conv4_1
I0421 13:36:14.899868  3802 net.cpp:434] conv4_1 <- pool3
I0421 13:36:14.899878  3802 net.cpp:408] conv4_1 -> conv4_1
I0421 13:36:14.915302  3802 net.cpp:150] Setting up conv4_1
I0421 13:36:14.915325  3802 net.cpp:157] Top shape: 1 512 48 48 (1179648)
I0421 13:36:14.915331  3802 net.cpp:165] Memory required for data: 339151936
I0421 13:36:14.915343  3802 layer_factory.hpp:77] Creating layer relu4_1
I0421 13:36:14.915359  3802 net.cpp:100] Creating Layer relu4_1
I0421 13:36:14.915364  3802 net.cpp:434] relu4_1 <- conv4_1
I0421 13:36:14.915371  3802 net.cpp:395] relu4_1 -> conv4_1 (in-place)
I0421 13:36:14.915843  3802 net.cpp:150] Setting up relu4_1
I0421 13:36:14.915875  3802 net.cpp:157] Top shape: 1 512 48 48 (1179648)
I0421 13:36:14.915880  3802 net.cpp:165] Memory required for data: 343870528
I0421 13:36:14.915884  3802 layer_factory.hpp:77] Creating layer conv4_2
I0421 13:36:14.915905  3802 net.cpp:100] Creating Layer conv4_2
I0421 13:36:14.915916  3802 net.cpp:434] conv4_2 <- conv4_1
I0421 13:36:14.915927  3802 net.cpp:408] conv4_2 -> conv4_2
I0421 13:36:14.944383  3802 net.cpp:150] Setting up conv4_2
I0421 13:36:14.944409  3802 net.cpp:157] Top shape: 1 512 48 48 (1179648)
I0421 13:36:14.944414  3802 net.cpp:165] Memory required for data: 348589120
I0421 13:36:14.944430  3802 layer_factory.hpp:77] Creating layer relu4_2
I0421 13:36:14.944439  3802 net.cpp:100] Creating Layer relu4_2
I0421 13:36:14.944445  3802 net.cpp:434] relu4_2 <- conv4_2
I0421 13:36:14.944453  3802 net.cpp:395] relu4_2 -> conv4_2 (in-place)
I0421 13:36:14.944674  3802 net.cpp:150] Setting up relu4_2
I0421 13:36:14.944686  3802 net.cpp:157] Top shape: 1 512 48 48 (1179648)
I0421 13:36:14.944690  3802 net.cpp:165] Memory required for data: 353307712
I0421 13:36:14.944694  3802 layer_factory.hpp:77] Creating layer conv4_3
I0421 13:36:14.944707  3802 net.cpp:100] Creating Layer conv4_3
I0421 13:36:14.944715  3802 net.cpp:434] conv4_3 <- conv4_2
I0421 13:36:14.944721  3802 net.cpp:408] conv4_3 -> conv4_3
I0421 13:36:14.971714  3802 net.cpp:150] Setting up conv4_3
I0421 13:36:14.971740  3802 net.cpp:157] Top shape: 1 512 48 48 (1179648)
I0421 13:36:14.971743  3802 net.cpp:165] Memory required for data: 358026304
I0421 13:36:14.971752  3802 layer_factory.hpp:77] Creating layer relu4_3
I0421 13:36:14.971761  3802 net.cpp:100] Creating Layer relu4_3
I0421 13:36:14.971767  3802 net.cpp:434] relu4_3 <- conv4_3
I0421 13:36:14.971776  3802 net.cpp:395] relu4_3 -> conv4_3 (in-place)
I0421 13:36:14.971990  3802 net.cpp:150] Setting up relu4_3
I0421 13:36:14.972003  3802 net.cpp:157] Top shape: 1 512 48 48 (1179648)
I0421 13:36:14.972007  3802 net.cpp:165] Memory required for data: 362744896
I0421 13:36:14.972012  3802 layer_factory.hpp:77] Creating layer conv4_3_relu4_3_0_split
I0421 13:36:14.972019  3802 net.cpp:100] Creating Layer conv4_3_relu4_3_0_split
I0421 13:36:14.972024  3802 net.cpp:434] conv4_3_relu4_3_0_split <- conv4_3
I0421 13:36:14.972030  3802 net.cpp:408] conv4_3_relu4_3_0_split -> conv4_3_relu4_3_0_split_0
I0421 13:36:14.972041  3802 net.cpp:408] conv4_3_relu4_3_0_split -> conv4_3_relu4_3_0_split_1
I0421 13:36:14.972103  3802 net.cpp:150] Setting up conv4_3_relu4_3_0_split
I0421 13:36:14.972113  3802 net.cpp:157] Top shape: 1 512 48 48 (1179648)
I0421 13:36:14.972117  3802 net.cpp:157] Top shape: 1 512 48 48 (1179648)
I0421 13:36:14.972121  3802 net.cpp:165] Memory required for data: 372182080
I0421 13:36:14.972124  3802 layer_factory.hpp:77] Creating layer pool4
I0421 13:36:14.972132  3802 net.cpp:100] Creating Layer pool4
I0421 13:36:14.972138  3802 net.cpp:434] pool4 <- conv4_3_relu4_3_0_split_0
I0421 13:36:14.972144  3802 net.cpp:408] pool4 -> pool4
I0421 13:36:14.972200  3802 net.cpp:150] Setting up pool4
I0421 13:36:14.972209  3802 net.cpp:157] Top shape: 1 512 24 24 (294912)
I0421 13:36:14.972213  3802 net.cpp:165] Memory required for data: 373361728
I0421 13:36:14.972216  3802 layer_factory.hpp:77] Creating layer conv5_1
I0421 13:36:14.972229  3802 net.cpp:100] Creating Layer conv5_1
I0421 13:36:14.972235  3802 net.cpp:434] conv5_1 <- pool4
I0421 13:36:14.972244  3802 net.cpp:408] conv5_1 -> conv5_1
I0421 13:36:14.998826  3802 net.cpp:150] Setting up conv5_1
I0421 13:36:14.998850  3802 net.cpp:157] Top shape: 1 512 24 24 (294912)
I0421 13:36:14.998855  3802 net.cpp:165] Memory required for data: 374541376
I0421 13:36:14.998864  3802 layer_factory.hpp:77] Creating layer relu5_1
I0421 13:36:14.998873  3802 net.cpp:100] Creating Layer relu5_1
I0421 13:36:14.998883  3802 net.cpp:434] relu5_1 <- conv5_1
I0421 13:36:14.998890  3802 net.cpp:395] relu5_1 -> conv5_1 (in-place)
I0421 13:36:14.999292  3802 net.cpp:150] Setting up relu5_1
I0421 13:36:14.999308  3802 net.cpp:157] Top shape: 1 512 24 24 (294912)
I0421 13:36:14.999330  3802 net.cpp:165] Memory required for data: 375721024
I0421 13:36:14.999334  3802 layer_factory.hpp:77] Creating layer conv5_2
I0421 13:36:14.999348  3802 net.cpp:100] Creating Layer conv5_2
I0421 13:36:14.999354  3802 net.cpp:434] conv5_2 <- conv5_1
I0421 13:36:14.999362  3802 net.cpp:408] conv5_2 -> conv5_2
I0421 13:36:15.026154  3802 net.cpp:150] Setting up conv5_2
I0421 13:36:15.026191  3802 net.cpp:157] Top shape: 1 512 24 24 (294912)
I0421 13:36:15.026201  3802 net.cpp:165] Memory required for data: 376900672
I0421 13:36:15.026211  3802 layer_factory.hpp:77] Creating layer relu5_2
I0421 13:36:15.026222  3802 net.cpp:100] Creating Layer relu5_2
I0421 13:36:15.026228  3802 net.cpp:434] relu5_2 <- conv5_2
I0421 13:36:15.026237  3802 net.cpp:395] relu5_2 -> conv5_2 (in-place)
I0421 13:36:15.026463  3802 net.cpp:150] Setting up relu5_2
I0421 13:36:15.026475  3802 net.cpp:157] Top shape: 1 512 24 24 (294912)
I0421 13:36:15.026479  3802 net.cpp:165] Memory required for data: 378080320
I0421 13:36:15.026484  3802 layer_factory.hpp:77] Creating layer conv5_3
I0421 13:36:15.026502  3802 net.cpp:100] Creating Layer conv5_3
I0421 13:36:15.026509  3802 net.cpp:434] conv5_3 <- conv5_2
I0421 13:36:15.026516  3802 net.cpp:408] conv5_3 -> conv5_3
I0421 13:36:15.053289  3802 net.cpp:150] Setting up conv5_3
I0421 13:36:15.053318  3802 net.cpp:157] Top shape: 1 512 24 24 (294912)
I0421 13:36:15.053323  3802 net.cpp:165] Memory required for data: 379259968
I0421 13:36:15.053330  3802 layer_factory.hpp:77] Creating layer relu5_3
I0421 13:36:15.053340  3802 net.cpp:100] Creating Layer relu5_3
I0421 13:36:15.053345  3802 net.cpp:434] relu5_3 <- conv5_3
I0421 13:36:15.053354  3802 net.cpp:395] relu5_3 -> conv5_3 (in-place)
I0421 13:36:15.053576  3802 net.cpp:150] Setting up relu5_3
I0421 13:36:15.053589  3802 net.cpp:157] Top shape: 1 512 24 24 (294912)
I0421 13:36:15.053593  3802 net.cpp:165] Memory required for data: 380439616
I0421 13:36:15.053597  3802 layer_factory.hpp:77] Creating layer pool5
I0421 13:36:15.053606  3802 net.cpp:100] Creating Layer pool5
I0421 13:36:15.053611  3802 net.cpp:434] pool5 <- conv5_3
I0421 13:36:15.053619  3802 net.cpp:408] pool5 -> pool5
I0421 13:36:15.053688  3802 net.cpp:150] Setting up pool5
I0421 13:36:15.053696  3802 net.cpp:157] Top shape: 1 512 24 24 (294912)
I0421 13:36:15.053700  3802 net.cpp:165] Memory required for data: 381619264
I0421 13:36:15.053706  3802 layer_factory.hpp:77] Creating layer fc6
I0421 13:36:15.053720  3802 net.cpp:100] Creating Layer fc6
I0421 13:36:15.053727  3802 net.cpp:434] fc6 <- pool5
I0421 13:36:15.053735  3802 net.cpp:408] fc6 -> fc6
I0421 13:36:15.105257  3802 net.cpp:150] Setting up fc6
I0421 13:36:15.105288  3802 net.cpp:157] Top shape: 1 1024 24 24 (589824)
I0421 13:36:15.105293  3802 net.cpp:165] Memory required for data: 383978560
I0421 13:36:15.105301  3802 layer_factory.hpp:77] Creating layer relu6
I0421 13:36:15.105311  3802 net.cpp:100] Creating Layer relu6
I0421 13:36:15.105317  3802 net.cpp:434] relu6 <- fc6
I0421 13:36:15.105327  3802 net.cpp:395] relu6 -> fc6 (in-place)
I0421 13:36:15.105913  3802 net.cpp:150] Setting up relu6
I0421 13:36:15.105929  3802 net.cpp:157] Top shape: 1 1024 24 24 (589824)
I0421 13:36:15.105933  3802 net.cpp:165] Memory required for data: 386337856
I0421 13:36:15.105937  3802 layer_factory.hpp:77] Creating layer fc7
I0421 13:36:15.105952  3802 net.cpp:100] Creating Layer fc7
I0421 13:36:15.105958  3802 net.cpp:434] fc7 <- fc6
I0421 13:36:15.105968  3802 net.cpp:408] fc7 -> fc7
I0421 13:36:15.118628  3802 net.cpp:150] Setting up fc7
I0421 13:36:15.118646  3802 net.cpp:157] Top shape: 1 1024 24 24 (589824)
I0421 13:36:15.118651  3802 net.cpp:165] Memory required for data: 388697152
I0421 13:36:15.118659  3802 layer_factory.hpp:77] Creating layer relu7
I0421 13:36:15.118667  3802 net.cpp:100] Creating Layer relu7
I0421 13:36:15.118674  3802 net.cpp:434] relu7 <- fc7
I0421 13:36:15.118680  3802 net.cpp:395] relu7 -> fc7 (in-place)
I0421 13:36:15.118896  3802 net.cpp:150] Setting up relu7
I0421 13:36:15.118927  3802 net.cpp:157] Top shape: 1 1024 24 24 (589824)
I0421 13:36:15.118930  3802 net.cpp:165] Memory required for data: 391056448
I0421 13:36:15.118934  3802 layer_factory.hpp:77] Creating layer fc7_relu7_0_split
I0421 13:36:15.118942  3802 net.cpp:100] Creating Layer fc7_relu7_0_split
I0421 13:36:15.118948  3802 net.cpp:434] fc7_relu7_0_split <- fc7
I0421 13:36:15.118962  3802 net.cpp:408] fc7_relu7_0_split -> fc7_relu7_0_split_0
I0421 13:36:15.118975  3802 net.cpp:408] fc7_relu7_0_split -> fc7_relu7_0_split_1
I0421 13:36:15.118988  3802 net.cpp:408] fc7_relu7_0_split -> fc7_relu7_0_split_2
I0421 13:36:15.118999  3802 net.cpp:408] fc7_relu7_0_split -> fc7_relu7_0_split_3
I0421 13:36:15.119102  3802 net.cpp:150] Setting up fc7_relu7_0_split
I0421 13:36:15.119112  3802 net.cpp:157] Top shape: 1 1024 24 24 (589824)
I0421 13:36:15.119117  3802 net.cpp:157] Top shape: 1 1024 24 24 (589824)
I0421 13:36:15.119122  3802 net.cpp:157] Top shape: 1 1024 24 24 (589824)
I0421 13:36:15.119127  3802 net.cpp:157] Top shape: 1 1024 24 24 (589824)
I0421 13:36:15.119129  3802 net.cpp:165] Memory required for data: 400493632
I0421 13:36:15.119133  3802 layer_factory.hpp:77] Creating layer conv6_1
I0421 13:36:15.119144  3802 net.cpp:100] Creating Layer conv6_1
I0421 13:36:15.119150  3802 net.cpp:434] conv6_1 <- fc7_relu7_0_split_0
I0421 13:36:15.119159  3802 net.cpp:408] conv6_1 -> conv6_1
I0421 13:36:15.123494  3802 net.cpp:150] Setting up conv6_1
I0421 13:36:15.123512  3802 net.cpp:157] Top shape: 1 256 24 24 (147456)
I0421 13:36:15.123517  3802 net.cpp:165] Memory required for data: 401083456
I0421 13:36:15.123524  3802 layer_factory.hpp:77] Creating layer conv6_1_relu
I0421 13:36:15.123530  3802 net.cpp:100] Creating Layer conv6_1_relu
I0421 13:36:15.123538  3802 net.cpp:434] conv6_1_relu <- conv6_1
I0421 13:36:15.123545  3802 net.cpp:395] conv6_1_relu -> conv6_1 (in-place)
I0421 13:36:15.123950  3802 net.cpp:150] Setting up conv6_1_relu
I0421 13:36:15.123966  3802 net.cpp:157] Top shape: 1 256 24 24 (147456)
I0421 13:36:15.123970  3802 net.cpp:165] Memory required for data: 401673280
I0421 13:36:15.123975  3802 layer_factory.hpp:77] Creating layer conv6_2
I0421 13:36:15.123986  3802 net.cpp:100] Creating Layer conv6_2
I0421 13:36:15.123993  3802 net.cpp:434] conv6_2 <- conv6_1
I0421 13:36:15.124002  3802 net.cpp:408] conv6_2 -> conv6_2
I0421 13:36:15.137913  3802 net.cpp:150] Setting up conv6_2
I0421 13:36:15.137933  3802 net.cpp:157] Top shape: 1 512 12 12 (73728)
I0421 13:36:15.137936  3802 net.cpp:165] Memory required for data: 401968192
I0421 13:36:15.137953  3802 layer_factory.hpp:77] Creating layer conv6_2_relu
I0421 13:36:15.137964  3802 net.cpp:100] Creating Layer conv6_2_relu
I0421 13:36:15.137970  3802 net.cpp:434] conv6_2_relu <- conv6_2
I0421 13:36:15.137981  3802 net.cpp:395] conv6_2_relu -> conv6_2 (in-place)
I0421 13:36:15.138614  3802 net.cpp:150] Setting up conv6_2_relu
I0421 13:36:15.138630  3802 net.cpp:157] Top shape: 1 512 12 12 (73728)
I0421 13:36:15.138634  3802 net.cpp:165] Memory required for data: 402263104
I0421 13:36:15.138638  3802 layer_factory.hpp:77] Creating layer conv6_2_conv6_2_relu_0_split
I0421 13:36:15.138646  3802 net.cpp:100] Creating Layer conv6_2_conv6_2_relu_0_split
I0421 13:36:15.138651  3802 net.cpp:434] conv6_2_conv6_2_relu_0_split <- conv6_2
I0421 13:36:15.138659  3802 net.cpp:408] conv6_2_conv6_2_relu_0_split -> conv6_2_conv6_2_relu_0_split_0
I0421 13:36:15.138674  3802 net.cpp:408] conv6_2_conv6_2_relu_0_split -> conv6_2_conv6_2_relu_0_split_1
I0421 13:36:15.138681  3802 net.cpp:408] conv6_2_conv6_2_relu_0_split -> conv6_2_conv6_2_relu_0_split_2
I0421 13:36:15.138690  3802 net.cpp:408] conv6_2_conv6_2_relu_0_split -> conv6_2_conv6_2_relu_0_split_3
I0421 13:36:15.138799  3802 net.cpp:150] Setting up conv6_2_conv6_2_relu_0_split
I0421 13:36:15.138809  3802 net.cpp:157] Top shape: 1 512 12 12 (73728)
I0421 13:36:15.138814  3802 net.cpp:157] Top shape: 1 512 12 12 (73728)
I0421 13:36:15.138818  3802 net.cpp:157] Top shape: 1 512 12 12 (73728)
I0421 13:36:15.138823  3802 net.cpp:157] Top shape: 1 512 12 12 (73728)
I0421 13:36:15.138839  3802 net.cpp:165] Memory required for data: 403442752
I0421 13:36:15.138844  3802 layer_factory.hpp:77] Creating layer conv7_1
I0421 13:36:15.138856  3802 net.cpp:100] Creating Layer conv7_1
I0421 13:36:15.138862  3802 net.cpp:434] conv7_1 <- conv6_2_conv6_2_relu_0_split_0
I0421 13:36:15.138870  3802 net.cpp:408] conv7_1 -> conv7_1
I0421 13:36:15.140874  3802 net.cpp:150] Setting up conv7_1
I0421 13:36:15.140892  3802 net.cpp:157] Top shape: 1 128 12 12 (18432)
I0421 13:36:15.140900  3802 net.cpp:165] Memory required for data: 403516480
I0421 13:36:15.140908  3802 layer_factory.hpp:77] Creating layer conv7_1_relu
I0421 13:36:15.140916  3802 net.cpp:100] Creating Layer conv7_1_relu
I0421 13:36:15.140923  3802 net.cpp:434] conv7_1_relu <- conv7_1
I0421 13:36:15.140929  3802 net.cpp:395] conv7_1_relu -> conv7_1 (in-place)
I0421 13:36:15.141135  3802 net.cpp:150] Setting up conv7_1_relu
I0421 13:36:15.141149  3802 net.cpp:157] Top shape: 1 128 12 12 (18432)
I0421 13:36:15.141153  3802 net.cpp:165] Memory required for data: 403590208
I0421 13:36:15.141157  3802 layer_factory.hpp:77] Creating layer conv7_2
I0421 13:36:15.141168  3802 net.cpp:100] Creating Layer conv7_2
I0421 13:36:15.141175  3802 net.cpp:434] conv7_2 <- conv7_1
I0421 13:36:15.141182  3802 net.cpp:408] conv7_2 -> conv7_2
I0421 13:36:15.145898  3802 net.cpp:150] Setting up conv7_2
I0421 13:36:15.145915  3802 net.cpp:157] Top shape: 1 256 6 6 (9216)
I0421 13:36:15.145920  3802 net.cpp:165] Memory required for data: 403627072
I0421 13:36:15.145926  3802 layer_factory.hpp:77] Creating layer conv7_2_relu
I0421 13:36:15.145933  3802 net.cpp:100] Creating Layer conv7_2_relu
I0421 13:36:15.145941  3802 net.cpp:434] conv7_2_relu <- conv7_2
I0421 13:36:15.145949  3802 net.cpp:395] conv7_2_relu -> conv7_2 (in-place)
I0421 13:36:15.146363  3802 net.cpp:150] Setting up conv7_2_relu
I0421 13:36:15.146378  3802 net.cpp:157] Top shape: 1 256 6 6 (9216)
I0421 13:36:15.146383  3802 net.cpp:165] Memory required for data: 403663936
I0421 13:36:15.146386  3802 layer_factory.hpp:77] Creating layer conv7_2_conv7_2_relu_0_split
I0421 13:36:15.146392  3802 net.cpp:100] Creating Layer conv7_2_conv7_2_relu_0_split
I0421 13:36:15.146399  3802 net.cpp:434] conv7_2_conv7_2_relu_0_split <- conv7_2
I0421 13:36:15.146407  3802 net.cpp:408] conv7_2_conv7_2_relu_0_split -> conv7_2_conv7_2_relu_0_split_0
I0421 13:36:15.146417  3802 net.cpp:408] conv7_2_conv7_2_relu_0_split -> conv7_2_conv7_2_relu_0_split_1
I0421 13:36:15.146425  3802 net.cpp:408] conv7_2_conv7_2_relu_0_split -> conv7_2_conv7_2_relu_0_split_2
I0421 13:36:15.146433  3802 net.cpp:408] conv7_2_conv7_2_relu_0_split -> conv7_2_conv7_2_relu_0_split_3
I0421 13:36:15.146543  3802 net.cpp:150] Setting up conv7_2_conv7_2_relu_0_split
I0421 13:36:15.146551  3802 net.cpp:157] Top shape: 1 256 6 6 (9216)
I0421 13:36:15.146556  3802 net.cpp:157] Top shape: 1 256 6 6 (9216)
I0421 13:36:15.146560  3802 net.cpp:157] Top shape: 1 256 6 6 (9216)
I0421 13:36:15.146564  3802 net.cpp:157] Top shape: 1 256 6 6 (9216)
I0421 13:36:15.146567  3802 net.cpp:165] Memory required for data: 403811392
I0421 13:36:15.146571  3802 layer_factory.hpp:77] Creating layer conv8_1
I0421 13:36:15.146584  3802 net.cpp:100] Creating Layer conv8_1
I0421 13:36:15.146590  3802 net.cpp:434] conv8_1 <- conv7_2_conv7_2_relu_0_split_0
I0421 13:36:15.146597  3802 net.cpp:408] conv8_1 -> conv8_1
I0421 13:36:15.148105  3802 net.cpp:150] Setting up conv8_1
I0421 13:36:15.148121  3802 net.cpp:157] Top shape: 1 128 6 6 (4608)
I0421 13:36:15.148125  3802 net.cpp:165] Memory required for data: 403829824
I0421 13:36:15.148133  3802 layer_factory.hpp:77] Creating layer conv8_1_relu
I0421 13:36:15.148144  3802 net.cpp:100] Creating Layer conv8_1_relu
I0421 13:36:15.148149  3802 net.cpp:434] conv8_1_relu <- conv8_1
I0421 13:36:15.148155  3802 net.cpp:395] conv8_1_relu -> conv8_1 (in-place)
I0421 13:36:15.148561  3802 net.cpp:150] Setting up conv8_1_relu
I0421 13:36:15.148577  3802 net.cpp:157] Top shape: 1 128 6 6 (4608)
I0421 13:36:15.148581  3802 net.cpp:165] Memory required for data: 403848256
I0421 13:36:15.148598  3802 layer_factory.hpp:77] Creating layer conv8_2
I0421 13:36:15.148612  3802 net.cpp:100] Creating Layer conv8_2
I0421 13:36:15.148617  3802 net.cpp:434] conv8_2 <- conv8_1
I0421 13:36:15.148627  3802 net.cpp:408] conv8_2 -> conv8_2
I0421 13:36:15.153355  3802 net.cpp:150] Setting up conv8_2
I0421 13:36:15.153373  3802 net.cpp:157] Top shape: 1 256 4 4 (4096)
I0421 13:36:15.153379  3802 net.cpp:165] Memory required for data: 403864640
I0421 13:36:15.153386  3802 layer_factory.hpp:77] Creating layer conv8_2_relu
I0421 13:36:15.153395  3802 net.cpp:100] Creating Layer conv8_2_relu
I0421 13:36:15.153403  3802 net.cpp:434] conv8_2_relu <- conv8_2
I0421 13:36:15.153409  3802 net.cpp:395] conv8_2_relu -> conv8_2 (in-place)
I0421 13:36:15.153616  3802 net.cpp:150] Setting up conv8_2_relu
I0421 13:36:15.153631  3802 net.cpp:157] Top shape: 1 256 4 4 (4096)
I0421 13:36:15.153635  3802 net.cpp:165] Memory required for data: 403881024
I0421 13:36:15.153640  3802 layer_factory.hpp:77] Creating layer conv8_2_conv8_2_relu_0_split
I0421 13:36:15.153645  3802 net.cpp:100] Creating Layer conv8_2_conv8_2_relu_0_split
I0421 13:36:15.153652  3802 net.cpp:434] conv8_2_conv8_2_relu_0_split <- conv8_2
I0421 13:36:15.153658  3802 net.cpp:408] conv8_2_conv8_2_relu_0_split -> conv8_2_conv8_2_relu_0_split_0
I0421 13:36:15.153671  3802 net.cpp:408] conv8_2_conv8_2_relu_0_split -> conv8_2_conv8_2_relu_0_split_1
I0421 13:36:15.153678  3802 net.cpp:408] conv8_2_conv8_2_relu_0_split -> conv8_2_conv8_2_relu_0_split_2
I0421 13:36:15.153687  3802 net.cpp:408] conv8_2_conv8_2_relu_0_split -> conv8_2_conv8_2_relu_0_split_3
I0421 13:36:15.153795  3802 net.cpp:150] Setting up conv8_2_conv8_2_relu_0_split
I0421 13:36:15.153803  3802 net.cpp:157] Top shape: 1 256 4 4 (4096)
I0421 13:36:15.153807  3802 net.cpp:157] Top shape: 1 256 4 4 (4096)
I0421 13:36:15.153811  3802 net.cpp:157] Top shape: 1 256 4 4 (4096)
I0421 13:36:15.153815  3802 net.cpp:157] Top shape: 1 256 4 4 (4096)
I0421 13:36:15.153820  3802 net.cpp:165] Memory required for data: 403946560
I0421 13:36:15.153822  3802 layer_factory.hpp:77] Creating layer conv9_1
I0421 13:36:15.153836  3802 net.cpp:100] Creating Layer conv9_1
I0421 13:36:15.153841  3802 net.cpp:434] conv9_1 <- conv8_2_conv8_2_relu_0_split_0
I0421 13:36:15.153848  3802 net.cpp:408] conv9_1 -> conv9_1
I0421 13:36:15.155555  3802 net.cpp:150] Setting up conv9_1
I0421 13:36:15.155570  3802 net.cpp:157] Top shape: 1 128 4 4 (2048)
I0421 13:36:15.155575  3802 net.cpp:165] Memory required for data: 403954752
I0421 13:36:15.155582  3802 layer_factory.hpp:77] Creating layer conv9_1_relu
I0421 13:36:15.155594  3802 net.cpp:100] Creating Layer conv9_1_relu
I0421 13:36:15.155601  3802 net.cpp:434] conv9_1_relu <- conv9_1
I0421 13:36:15.155608  3802 net.cpp:395] conv9_1_relu -> conv9_1 (in-place)
I0421 13:36:15.156013  3802 net.cpp:150] Setting up conv9_1_relu
I0421 13:36:15.156028  3802 net.cpp:157] Top shape: 1 128 4 4 (2048)
I0421 13:36:15.156033  3802 net.cpp:165] Memory required for data: 403962944
I0421 13:36:15.156036  3802 layer_factory.hpp:77] Creating layer conv9_2
I0421 13:36:15.156049  3802 net.cpp:100] Creating Layer conv9_2
I0421 13:36:15.156054  3802 net.cpp:434] conv9_2 <- conv9_1
I0421 13:36:15.156064  3802 net.cpp:408] conv9_2 -> conv9_2
I0421 13:36:15.160599  3802 net.cpp:150] Setting up conv9_2
I0421 13:36:15.160617  3802 net.cpp:157] Top shape: 1 256 2 2 (1024)
I0421 13:36:15.160621  3802 net.cpp:165] Memory required for data: 403967040
I0421 13:36:15.160629  3802 layer_factory.hpp:77] Creating layer conv9_2_relu
I0421 13:36:15.160637  3802 net.cpp:100] Creating Layer conv9_2_relu
I0421 13:36:15.160645  3802 net.cpp:434] conv9_2_relu <- conv9_2
I0421 13:36:15.160651  3802 net.cpp:395] conv9_2_relu -> conv9_2 (in-place)
I0421 13:36:15.161056  3802 net.cpp:150] Setting up conv9_2_relu
I0421 13:36:15.161074  3802 net.cpp:157] Top shape: 1 256 2 2 (1024)
I0421 13:36:15.161080  3802 net.cpp:165] Memory required for data: 403971136
I0421 13:36:15.161084  3802 layer_factory.hpp:77] Creating layer conv9_2_conv9_2_relu_0_split
I0421 13:36:15.161105  3802 net.cpp:100] Creating Layer conv9_2_conv9_2_relu_0_split
I0421 13:36:15.161113  3802 net.cpp:434] conv9_2_conv9_2_relu_0_split <- conv9_2
I0421 13:36:15.161119  3802 net.cpp:408] conv9_2_conv9_2_relu_0_split -> conv9_2_conv9_2_relu_0_split_0
I0421 13:36:15.161130  3802 net.cpp:408] conv9_2_conv9_2_relu_0_split -> conv9_2_conv9_2_relu_0_split_1
I0421 13:36:15.161139  3802 net.cpp:408] conv9_2_conv9_2_relu_0_split -> conv9_2_conv9_2_relu_0_split_2
I0421 13:36:15.161231  3802 net.cpp:150] Setting up conv9_2_conv9_2_relu_0_split
I0421 13:36:15.161240  3802 net.cpp:157] Top shape: 1 256 2 2 (1024)
I0421 13:36:15.161245  3802 net.cpp:157] Top shape: 1 256 2 2 (1024)
I0421 13:36:15.161249  3802 net.cpp:157] Top shape: 1 256 2 2 (1024)
I0421 13:36:15.161252  3802 net.cpp:165] Memory required for data: 403983424
I0421 13:36:15.161257  3802 layer_factory.hpp:77] Creating layer conv3_3_norm
I0421 13:36:15.161265  3802 net.cpp:100] Creating Layer conv3_3_norm
I0421 13:36:15.161272  3802 net.cpp:434] conv3_3_norm <- conv3_3_relu3_3_0_split_1
I0421 13:36:15.161278  3802 net.cpp:408] conv3_3_norm -> conv3_3_norm
I0421 13:36:15.161517  3802 net.cpp:150] Setting up conv3_3_norm
I0421 13:36:15.161528  3802 net.cpp:157] Top shape: 1 256 96 96 (2359296)
I0421 13:36:15.161532  3802 net.cpp:165] Memory required for data: 413420608
I0421 13:36:15.161540  3802 layer_factory.hpp:77] Creating layer conv3_3_norm_conv3_3_norm_0_split
I0421 13:36:15.161547  3802 net.cpp:100] Creating Layer conv3_3_norm_conv3_3_norm_0_split
I0421 13:36:15.161552  3802 net.cpp:434] conv3_3_norm_conv3_3_norm_0_split <- conv3_3_norm
I0421 13:36:15.161558  3802 net.cpp:408] conv3_3_norm_conv3_3_norm_0_split -> conv3_3_norm_conv3_3_norm_0_split_0
I0421 13:36:15.161566  3802 net.cpp:408] conv3_3_norm_conv3_3_norm_0_split -> conv3_3_norm_conv3_3_norm_0_split_1
I0421 13:36:15.161573  3802 net.cpp:408] conv3_3_norm_conv3_3_norm_0_split -> conv3_3_norm_conv3_3_norm_0_split_2
I0421 13:36:15.161653  3802 net.cpp:150] Setting up conv3_3_norm_conv3_3_norm_0_split
I0421 13:36:15.161662  3802 net.cpp:157] Top shape: 1 256 96 96 (2359296)
I0421 13:36:15.161666  3802 net.cpp:157] Top shape: 1 256 96 96 (2359296)
I0421 13:36:15.161671  3802 net.cpp:157] Top shape: 1 256 96 96 (2359296)
I0421 13:36:15.161679  3802 net.cpp:165] Memory required for data: 441732160
I0421 13:36:15.161682  3802 layer_factory.hpp:77] Creating layer conv3_3_norm_mbox_loc
I0421 13:36:15.161692  3802 net.cpp:100] Creating Layer conv3_3_norm_mbox_loc
I0421 13:36:15.161700  3802 net.cpp:434] conv3_3_norm_mbox_loc <- conv3_3_norm_conv3_3_norm_0_split_0
I0421 13:36:15.161707  3802 net.cpp:408] conv3_3_norm_mbox_loc -> conv3_3_norm_mbox_loc
I0421 13:36:15.175036  3802 net.cpp:150] Setting up conv3_3_norm_mbox_loc
I0421 13:36:15.175057  3802 net.cpp:157] Top shape: 1 288 96 96 (2654208)
I0421 13:36:15.175062  3802 net.cpp:165] Memory required for data: 452348992
I0421 13:36:15.175070  3802 layer_factory.hpp:77] Creating layer conv3_3_norm_mbox_loc_perm
I0421 13:36:15.175079  3802 net.cpp:100] Creating Layer conv3_3_norm_mbox_loc_perm
I0421 13:36:15.175087  3802 net.cpp:434] conv3_3_norm_mbox_loc_perm <- conv3_3_norm_mbox_loc
I0421 13:36:15.175096  3802 net.cpp:408] conv3_3_norm_mbox_loc_perm -> conv3_3_norm_mbox_loc_perm
I0421 13:36:15.175258  3802 net.cpp:150] Setting up conv3_3_norm_mbox_loc_perm
I0421 13:36:15.175269  3802 net.cpp:157] Top shape: 1 96 96 288 (2654208)
I0421 13:36:15.175274  3802 net.cpp:165] Memory required for data: 462965824
I0421 13:36:15.175278  3802 layer_factory.hpp:77] Creating layer conv3_3_norm_mbox_loc_flat
I0421 13:36:15.175294  3802 net.cpp:100] Creating Layer conv3_3_norm_mbox_loc_flat
I0421 13:36:15.175302  3802 net.cpp:434] conv3_3_norm_mbox_loc_flat <- conv3_3_norm_mbox_loc_perm
I0421 13:36:15.175307  3802 net.cpp:408] conv3_3_norm_mbox_loc_flat -> conv3_3_norm_mbox_loc_flat
I0421 13:36:15.175350  3802 net.cpp:150] Setting up conv3_3_norm_mbox_loc_flat
I0421 13:36:15.175359  3802 net.cpp:157] Top shape: 1 2654208 (2654208)
I0421 13:36:15.175376  3802 net.cpp:165] Memory required for data: 473582656
I0421 13:36:15.175381  3802 layer_factory.hpp:77] Creating layer conv3_3_norm_mbox_conf
I0421 13:36:15.175391  3802 net.cpp:100] Creating Layer conv3_3_norm_mbox_conf
I0421 13:36:15.175398  3802 net.cpp:434] conv3_3_norm_mbox_conf <- conv3_3_norm_conv3_3_norm_0_split_1
I0421 13:36:15.175407  3802 net.cpp:408] conv3_3_norm_mbox_conf -> conv3_3_norm_mbox_conf
I0421 13:36:15.179091  3802 net.cpp:150] Setting up conv3_3_norm_mbox_conf
I0421 13:36:15.179110  3802 net.cpp:157] Top shape: 1 48 96 96 (442368)
I0421 13:36:15.179114  3802 net.cpp:165] Memory required for data: 475352128
I0421 13:36:15.179121  3802 layer_factory.hpp:77] Creating layer conv3_3_norm_mbox_conf_perm
I0421 13:36:15.179131  3802 net.cpp:100] Creating Layer conv3_3_norm_mbox_conf_perm
I0421 13:36:15.179138  3802 net.cpp:434] conv3_3_norm_mbox_conf_perm <- conv3_3_norm_mbox_conf
I0421 13:36:15.179147  3802 net.cpp:408] conv3_3_norm_mbox_conf_perm -> conv3_3_norm_mbox_conf_perm
I0421 13:36:15.179311  3802 net.cpp:150] Setting up conv3_3_norm_mbox_conf_perm
I0421 13:36:15.179322  3802 net.cpp:157] Top shape: 1 96 96 48 (442368)
I0421 13:36:15.179325  3802 net.cpp:165] Memory required for data: 477121600
I0421 13:36:15.179328  3802 layer_factory.hpp:77] Creating layer conv3_3_norm_mbox_conf_flat
I0421 13:36:15.179334  3802 net.cpp:100] Creating Layer conv3_3_norm_mbox_conf_flat
I0421 13:36:15.179340  3802 net.cpp:434] conv3_3_norm_mbox_conf_flat <- conv3_3_norm_mbox_conf_perm
I0421 13:36:15.179348  3802 net.cpp:408] conv3_3_norm_mbox_conf_flat -> conv3_3_norm_mbox_conf_flat
I0421 13:36:15.179386  3802 net.cpp:150] Setting up conv3_3_norm_mbox_conf_flat
I0421 13:36:15.179395  3802 net.cpp:157] Top shape: 1 442368 (442368)
I0421 13:36:15.179399  3802 net.cpp:165] Memory required for data: 478891072
I0421 13:36:15.179402  3802 layer_factory.hpp:77] Creating layer conv3_3_norm_mbox_priorbox
I0421 13:36:15.179415  3802 net.cpp:100] Creating Layer conv3_3_norm_mbox_priorbox
I0421 13:36:15.179420  3802 net.cpp:434] conv3_3_norm_mbox_priorbox <- conv3_3_norm_conv3_3_norm_0_split_2
I0421 13:36:15.179426  3802 net.cpp:434] conv3_3_norm_mbox_priorbox <- data_data_0_split_1
I0421 13:36:15.179436  3802 net.cpp:408] conv3_3_norm_mbox_priorbox -> conv3_3_norm_mbox_priorbox
I0421 13:36:15.179477  3802 net.cpp:150] Setting up conv3_3_norm_mbox_priorbox
I0421 13:36:15.179486  3802 net.cpp:157] Top shape: 1 2 884736 (1769472)
I0421 13:36:15.179489  3802 net.cpp:165] Memory required for data: 485968960
I0421 13:36:15.179492  3802 layer_factory.hpp:77] Creating layer conv4_3_norm
I0421 13:36:15.179502  3802 net.cpp:100] Creating Layer conv4_3_norm
I0421 13:36:15.179507  3802 net.cpp:434] conv4_3_norm <- conv4_3_relu4_3_0_split_1
I0421 13:36:15.179514  3802 net.cpp:408] conv4_3_norm -> conv4_3_norm
I0421 13:36:15.179755  3802 net.cpp:150] Setting up conv4_3_norm
I0421 13:36:15.179764  3802 net.cpp:157] Top shape: 1 512 48 48 (1179648)
I0421 13:36:15.179769  3802 net.cpp:165] Memory required for data: 490687552
I0421 13:36:15.179774  3802 layer_factory.hpp:77] Creating layer conv4_3_norm_conv4_3_norm_0_split
I0421 13:36:15.179783  3802 net.cpp:100] Creating Layer conv4_3_norm_conv4_3_norm_0_split
I0421 13:36:15.179790  3802 net.cpp:434] conv4_3_norm_conv4_3_norm_0_split <- conv4_3_norm
I0421 13:36:15.179795  3802 net.cpp:408] conv4_3_norm_conv4_3_norm_0_split -> conv4_3_norm_conv4_3_norm_0_split_0
I0421 13:36:15.179802  3802 net.cpp:408] conv4_3_norm_conv4_3_norm_0_split -> conv4_3_norm_conv4_3_norm_0_split_1
I0421 13:36:15.179811  3802 net.cpp:408] conv4_3_norm_conv4_3_norm_0_split -> conv4_3_norm_conv4_3_norm_0_split_2
I0421 13:36:15.179884  3802 net.cpp:150] Setting up conv4_3_norm_conv4_3_norm_0_split
I0421 13:36:15.179894  3802 net.cpp:157] Top shape: 1 512 48 48 (1179648)
I0421 13:36:15.179898  3802 net.cpp:157] Top shape: 1 512 48 48 (1179648)
I0421 13:36:15.179903  3802 net.cpp:157] Top shape: 1 512 48 48 (1179648)
I0421 13:36:15.179906  3802 net.cpp:165] Memory required for data: 504843328
I0421 13:36:15.179921  3802 layer_factory.hpp:77] Creating layer conv4_3_norm_mbox_loc
I0421 13:36:15.179932  3802 net.cpp:100] Creating Layer conv4_3_norm_mbox_loc
I0421 13:36:15.179939  3802 net.cpp:434] conv4_3_norm_mbox_loc <- conv4_3_norm_conv4_3_norm_0_split_0
I0421 13:36:15.179946  3802 net.cpp:408] conv4_3_norm_mbox_loc -> conv4_3_norm_mbox_loc
I0421 13:36:15.205093  3802 net.cpp:150] Setting up conv4_3_norm_mbox_loc
I0421 13:36:15.205116  3802 net.cpp:157] Top shape: 1 288 48 48 (663552)
I0421 13:36:15.205121  3802 net.cpp:165] Memory required for data: 507497536
I0421 13:36:15.205129  3802 layer_factory.hpp:77] Creating layer conv4_3_norm_mbox_loc_perm
I0421 13:36:15.205137  3802 net.cpp:100] Creating Layer conv4_3_norm_mbox_loc_perm
I0421 13:36:15.205144  3802 net.cpp:434] conv4_3_norm_mbox_loc_perm <- conv4_3_norm_mbox_loc
I0421 13:36:15.205153  3802 net.cpp:408] conv4_3_norm_mbox_loc_perm -> conv4_3_norm_mbox_loc_perm
I0421 13:36:15.205319  3802 net.cpp:150] Setting up conv4_3_norm_mbox_loc_perm
I0421 13:36:15.205328  3802 net.cpp:157] Top shape: 1 48 48 288 (663552)
I0421 13:36:15.205332  3802 net.cpp:165] Memory required for data: 510151744
I0421 13:36:15.205337  3802 layer_factory.hpp:77] Creating layer conv4_3_norm_mbox_loc_flat
I0421 13:36:15.205346  3802 net.cpp:100] Creating Layer conv4_3_norm_mbox_loc_flat
I0421 13:36:15.205351  3802 net.cpp:434] conv4_3_norm_mbox_loc_flat <- conv4_3_norm_mbox_loc_perm
I0421 13:36:15.205358  3802 net.cpp:408] conv4_3_norm_mbox_loc_flat -> conv4_3_norm_mbox_loc_flat
I0421 13:36:15.205396  3802 net.cpp:150] Setting up conv4_3_norm_mbox_loc_flat
I0421 13:36:15.205404  3802 net.cpp:157] Top shape: 1 663552 (663552)
I0421 13:36:15.205409  3802 net.cpp:165] Memory required for data: 512805952
I0421 13:36:15.205411  3802 layer_factory.hpp:77] Creating layer conv4_3_norm_mbox_conf
I0421 13:36:15.205422  3802 net.cpp:100] Creating Layer conv4_3_norm_mbox_conf
I0421 13:36:15.205427  3802 net.cpp:434] conv4_3_norm_mbox_conf <- conv4_3_norm_conv4_3_norm_0_split_1
I0421 13:36:15.205437  3802 net.cpp:408] conv4_3_norm_mbox_conf -> conv4_3_norm_mbox_conf
I0421 13:36:15.211061  3802 net.cpp:150] Setting up conv4_3_norm_mbox_conf
I0421 13:36:15.211078  3802 net.cpp:157] Top shape: 1 48 48 48 (110592)
I0421 13:36:15.211083  3802 net.cpp:165] Memory required for data: 513248320
I0421 13:36:15.211091  3802 layer_factory.hpp:77] Creating layer conv4_3_norm_mbox_conf_perm
I0421 13:36:15.211099  3802 net.cpp:100] Creating Layer conv4_3_norm_mbox_conf_perm
I0421 13:36:15.211108  3802 net.cpp:434] conv4_3_norm_mbox_conf_perm <- conv4_3_norm_mbox_conf
I0421 13:36:15.211115  3802 net.cpp:408] conv4_3_norm_mbox_conf_perm -> conv4_3_norm_mbox_conf_perm
I0421 13:36:15.211282  3802 net.cpp:150] Setting up conv4_3_norm_mbox_conf_perm
I0421 13:36:15.211292  3802 net.cpp:157] Top shape: 1 48 48 48 (110592)
I0421 13:36:15.211295  3802 net.cpp:165] Memory required for data: 513690688
I0421 13:36:15.211299  3802 layer_factory.hpp:77] Creating layer conv4_3_norm_mbox_conf_flat
I0421 13:36:15.211307  3802 net.cpp:100] Creating Layer conv4_3_norm_mbox_conf_flat
I0421 13:36:15.211313  3802 net.cpp:434] conv4_3_norm_mbox_conf_flat <- conv4_3_norm_mbox_conf_perm
I0421 13:36:15.211321  3802 net.cpp:408] conv4_3_norm_mbox_conf_flat -> conv4_3_norm_mbox_conf_flat
I0421 13:36:15.211357  3802 net.cpp:150] Setting up conv4_3_norm_mbox_conf_flat
I0421 13:36:15.211366  3802 net.cpp:157] Top shape: 1 110592 (110592)
I0421 13:36:15.211370  3802 net.cpp:165] Memory required for data: 514133056
I0421 13:36:15.211374  3802 layer_factory.hpp:77] Creating layer conv4_3_norm_mbox_priorbox
I0421 13:36:15.211383  3802 net.cpp:100] Creating Layer conv4_3_norm_mbox_priorbox
I0421 13:36:15.211387  3802 net.cpp:434] conv4_3_norm_mbox_priorbox <- conv4_3_norm_conv4_3_norm_0_split_2
I0421 13:36:15.211393  3802 net.cpp:434] conv4_3_norm_mbox_priorbox <- data_data_0_split_2
I0421 13:36:15.211400  3802 net.cpp:408] conv4_3_norm_mbox_priorbox -> conv4_3_norm_mbox_priorbox
I0421 13:36:15.211441  3802 net.cpp:150] Setting up conv4_3_norm_mbox_priorbox
I0421 13:36:15.211463  3802 net.cpp:157] Top shape: 1 2 221184 (442368)
I0421 13:36:15.211467  3802 net.cpp:165] Memory required for data: 515902528
I0421 13:36:15.211472  3802 layer_factory.hpp:77] Creating layer fc7_mbox_loc
I0421 13:36:15.211483  3802 net.cpp:100] Creating Layer fc7_mbox_loc
I0421 13:36:15.211488  3802 net.cpp:434] fc7_mbox_loc <- fc7_relu7_0_split_1
I0421 13:36:15.211499  3802 net.cpp:408] fc7_mbox_loc -> fc7_mbox_loc
I0421 13:36:15.260898  3802 net.cpp:150] Setting up fc7_mbox_loc
I0421 13:36:15.260934  3802 net.cpp:157] Top shape: 1 288 24 24 (165888)
I0421 13:36:15.260939  3802 net.cpp:165] Memory required for data: 516566080
I0421 13:36:15.260948  3802 layer_factory.hpp:77] Creating layer fc7_mbox_loc_perm
I0421 13:36:15.260962  3802 net.cpp:100] Creating Layer fc7_mbox_loc_perm
I0421 13:36:15.260968  3802 net.cpp:434] fc7_mbox_loc_perm <- fc7_mbox_loc
I0421 13:36:15.260979  3802 net.cpp:408] fc7_mbox_loc_perm -> fc7_mbox_loc_perm
I0421 13:36:15.261153  3802 net.cpp:150] Setting up fc7_mbox_loc_perm
I0421 13:36:15.261163  3802 net.cpp:157] Top shape: 1 24 24 288 (165888)
I0421 13:36:15.261168  3802 net.cpp:165] Memory required for data: 517229632
I0421 13:36:15.261171  3802 layer_factory.hpp:77] Creating layer fc7_mbox_loc_flat
I0421 13:36:15.261179  3802 net.cpp:100] Creating Layer fc7_mbox_loc_flat
I0421 13:36:15.261185  3802 net.cpp:434] fc7_mbox_loc_flat <- fc7_mbox_loc_perm
I0421 13:36:15.261191  3802 net.cpp:408] fc7_mbox_loc_flat -> fc7_mbox_loc_flat
I0421 13:36:15.261232  3802 net.cpp:150] Setting up fc7_mbox_loc_flat
I0421 13:36:15.261241  3802 net.cpp:157] Top shape: 1 165888 (165888)
I0421 13:36:15.261245  3802 net.cpp:165] Memory required for data: 517893184
I0421 13:36:15.261248  3802 layer_factory.hpp:77] Creating layer fc7_mbox_conf
I0421 13:36:15.261260  3802 net.cpp:100] Creating Layer fc7_mbox_conf
I0421 13:36:15.261266  3802 net.cpp:434] fc7_mbox_conf <- fc7_relu7_0_split_2
I0421 13:36:15.261276  3802 net.cpp:408] fc7_mbox_conf -> fc7_mbox_conf
I0421 13:36:15.270774  3802 net.cpp:150] Setting up fc7_mbox_conf
I0421 13:36:15.270792  3802 net.cpp:157] Top shape: 1 48 24 24 (27648)
I0421 13:36:15.270795  3802 net.cpp:165] Memory required for data: 518003776
I0421 13:36:15.270804  3802 layer_factory.hpp:77] Creating layer fc7_mbox_conf_perm
I0421 13:36:15.270813  3802 net.cpp:100] Creating Layer fc7_mbox_conf_perm
I0421 13:36:15.270819  3802 net.cpp:434] fc7_mbox_conf_perm <- fc7_mbox_conf
I0421 13:36:15.270828  3802 net.cpp:408] fc7_mbox_conf_perm -> fc7_mbox_conf_perm
I0421 13:36:15.270994  3802 net.cpp:150] Setting up fc7_mbox_conf_perm
I0421 13:36:15.271008  3802 net.cpp:157] Top shape: 1 24 24 48 (27648)
I0421 13:36:15.271011  3802 net.cpp:165] Memory required for data: 518114368
I0421 13:36:15.271015  3802 layer_factory.hpp:77] Creating layer fc7_mbox_conf_flat
I0421 13:36:15.271021  3802 net.cpp:100] Creating Layer fc7_mbox_conf_flat
I0421 13:36:15.271028  3802 net.cpp:434] fc7_mbox_conf_flat <- fc7_mbox_conf_perm
I0421 13:36:15.271034  3802 net.cpp:408] fc7_mbox_conf_flat -> fc7_mbox_conf_flat
I0421 13:36:15.271073  3802 net.cpp:150] Setting up fc7_mbox_conf_flat
I0421 13:36:15.271082  3802 net.cpp:157] Top shape: 1 27648 (27648)
I0421 13:36:15.271085  3802 net.cpp:165] Memory required for data: 518224960
I0421 13:36:15.271090  3802 layer_factory.hpp:77] Creating layer fc7_mbox_priorbox
I0421 13:36:15.271098  3802 net.cpp:100] Creating Layer fc7_mbox_priorbox
I0421 13:36:15.271104  3802 net.cpp:434] fc7_mbox_priorbox <- fc7_relu7_0_split_3
I0421 13:36:15.271109  3802 net.cpp:434] fc7_mbox_priorbox <- data_data_0_split_3
I0421 13:36:15.271116  3802 net.cpp:408] fc7_mbox_priorbox -> fc7_mbox_priorbox
I0421 13:36:15.271162  3802 net.cpp:150] Setting up fc7_mbox_priorbox
I0421 13:36:15.271170  3802 net.cpp:157] Top shape: 1 2 55296 (110592)
I0421 13:36:15.271173  3802 net.cpp:165] Memory required for data: 518667328
I0421 13:36:15.271179  3802 layer_factory.hpp:77] Creating layer conv6_2_mbox_loc
I0421 13:36:15.271189  3802 net.cpp:100] Creating Layer conv6_2_mbox_loc
I0421 13:36:15.271211  3802 net.cpp:434] conv6_2_mbox_loc <- conv6_2_conv6_2_relu_0_split_1
I0421 13:36:15.271226  3802 net.cpp:408] conv6_2_mbox_loc -> conv6_2_mbox_loc
I0421 13:36:15.296581  3802 net.cpp:150] Setting up conv6_2_mbox_loc
I0421 13:36:15.296602  3802 net.cpp:157] Top shape: 1 288 12 12 (41472)
I0421 13:36:15.296605  3802 net.cpp:165] Memory required for data: 518833216
I0421 13:36:15.296613  3802 layer_factory.hpp:77] Creating layer conv6_2_mbox_loc_perm
I0421 13:36:15.296622  3802 net.cpp:100] Creating Layer conv6_2_mbox_loc_perm
I0421 13:36:15.296627  3802 net.cpp:434] conv6_2_mbox_loc_perm <- conv6_2_mbox_loc
I0421 13:36:15.296635  3802 net.cpp:408] conv6_2_mbox_loc_perm -> conv6_2_mbox_loc_perm
I0421 13:36:15.296811  3802 net.cpp:150] Setting up conv6_2_mbox_loc_perm
I0421 13:36:15.296821  3802 net.cpp:157] Top shape: 1 12 12 288 (41472)
I0421 13:36:15.296825  3802 net.cpp:165] Memory required for data: 518999104
I0421 13:36:15.296828  3802 layer_factory.hpp:77] Creating layer conv6_2_mbox_loc_flat
I0421 13:36:15.296835  3802 net.cpp:100] Creating Layer conv6_2_mbox_loc_flat
I0421 13:36:15.296841  3802 net.cpp:434] conv6_2_mbox_loc_flat <- conv6_2_mbox_loc_perm
I0421 13:36:15.296849  3802 net.cpp:408] conv6_2_mbox_loc_flat -> conv6_2_mbox_loc_flat
I0421 13:36:15.296888  3802 net.cpp:150] Setting up conv6_2_mbox_loc_flat
I0421 13:36:15.296897  3802 net.cpp:157] Top shape: 1 41472 (41472)
I0421 13:36:15.296900  3802 net.cpp:165] Memory required for data: 519164992
I0421 13:36:15.296905  3802 layer_factory.hpp:77] Creating layer conv6_2_mbox_conf
I0421 13:36:15.296916  3802 net.cpp:100] Creating Layer conv6_2_mbox_conf
I0421 13:36:15.296921  3802 net.cpp:434] conv6_2_mbox_conf <- conv6_2_conv6_2_relu_0_split_2
I0421 13:36:15.296928  3802 net.cpp:408] conv6_2_mbox_conf -> conv6_2_mbox_conf
I0421 13:36:15.302356  3802 net.cpp:150] Setting up conv6_2_mbox_conf
I0421 13:36:15.302376  3802 net.cpp:157] Top shape: 1 48 12 12 (6912)
I0421 13:36:15.302381  3802 net.cpp:165] Memory required for data: 519192640
I0421 13:36:15.302387  3802 layer_factory.hpp:77] Creating layer conv6_2_mbox_conf_perm
I0421 13:36:15.302397  3802 net.cpp:100] Creating Layer conv6_2_mbox_conf_perm
I0421 13:36:15.302402  3802 net.cpp:434] conv6_2_mbox_conf_perm <- conv6_2_mbox_conf
I0421 13:36:15.302412  3802 net.cpp:408] conv6_2_mbox_conf_perm -> conv6_2_mbox_conf_perm
I0421 13:36:15.302585  3802 net.cpp:150] Setting up conv6_2_mbox_conf_perm
I0421 13:36:15.302595  3802 net.cpp:157] Top shape: 1 12 12 48 (6912)
I0421 13:36:15.302599  3802 net.cpp:165] Memory required for data: 519220288
I0421 13:36:15.302603  3802 layer_factory.hpp:77] Creating layer conv6_2_mbox_conf_flat
I0421 13:36:15.302610  3802 net.cpp:100] Creating Layer conv6_2_mbox_conf_flat
I0421 13:36:15.302616  3802 net.cpp:434] conv6_2_mbox_conf_flat <- conv6_2_mbox_conf_perm
I0421 13:36:15.302623  3802 net.cpp:408] conv6_2_mbox_conf_flat -> conv6_2_mbox_conf_flat
I0421 13:36:15.302661  3802 net.cpp:150] Setting up conv6_2_mbox_conf_flat
I0421 13:36:15.302670  3802 net.cpp:157] Top shape: 1 6912 (6912)
I0421 13:36:15.302673  3802 net.cpp:165] Memory required for data: 519247936
I0421 13:36:15.302677  3802 layer_factory.hpp:77] Creating layer conv6_2_mbox_priorbox
I0421 13:36:15.302685  3802 net.cpp:100] Creating Layer conv6_2_mbox_priorbox
I0421 13:36:15.302691  3802 net.cpp:434] conv6_2_mbox_priorbox <- conv6_2_conv6_2_relu_0_split_3
I0421 13:36:15.302696  3802 net.cpp:434] conv6_2_mbox_priorbox <- data_data_0_split_4
I0421 13:36:15.302705  3802 net.cpp:408] conv6_2_mbox_priorbox -> conv6_2_mbox_priorbox
I0421 13:36:15.302750  3802 net.cpp:150] Setting up conv6_2_mbox_priorbox
I0421 13:36:15.302759  3802 net.cpp:157] Top shape: 1 2 13824 (27648)
I0421 13:36:15.302762  3802 net.cpp:165] Memory required for data: 519358528
I0421 13:36:15.302767  3802 layer_factory.hpp:77] Creating layer conv7_2_mbox_loc
I0421 13:36:15.302775  3802 net.cpp:100] Creating Layer conv7_2_mbox_loc
I0421 13:36:15.302783  3802 net.cpp:434] conv7_2_mbox_loc <- conv7_2_conv7_2_relu_0_split_1
I0421 13:36:15.302805  3802 net.cpp:408] conv7_2_mbox_loc -> conv7_2_mbox_loc
I0421 13:36:15.316238  3802 net.cpp:150] Setting up conv7_2_mbox_loc
I0421 13:36:15.316257  3802 net.cpp:157] Top shape: 1 288 6 6 (10368)
I0421 13:36:15.316262  3802 net.cpp:165] Memory required for data: 519400000
I0421 13:36:15.316285  3802 layer_factory.hpp:77] Creating layer conv7_2_mbox_loc_perm
I0421 13:36:15.316295  3802 net.cpp:100] Creating Layer conv7_2_mbox_loc_perm
I0421 13:36:15.316303  3802 net.cpp:434] conv7_2_mbox_loc_perm <- conv7_2_mbox_loc
I0421 13:36:15.316311  3802 net.cpp:408] conv7_2_mbox_loc_perm -> conv7_2_mbox_loc_perm
I0421 13:36:15.316488  3802 net.cpp:150] Setting up conv7_2_mbox_loc_perm
I0421 13:36:15.316499  3802 net.cpp:157] Top shape: 1 6 6 288 (10368)
I0421 13:36:15.316503  3802 net.cpp:165] Memory required for data: 519441472
I0421 13:36:15.316506  3802 layer_factory.hpp:77] Creating layer conv7_2_mbox_loc_flat
I0421 13:36:15.316514  3802 net.cpp:100] Creating Layer conv7_2_mbox_loc_flat
I0421 13:36:15.316519  3802 net.cpp:434] conv7_2_mbox_loc_flat <- conv7_2_mbox_loc_perm
I0421 13:36:15.316529  3802 net.cpp:408] conv7_2_mbox_loc_flat -> conv7_2_mbox_loc_flat
I0421 13:36:15.316571  3802 net.cpp:150] Setting up conv7_2_mbox_loc_flat
I0421 13:36:15.316579  3802 net.cpp:157] Top shape: 1 10368 (10368)
I0421 13:36:15.316583  3802 net.cpp:165] Memory required for data: 519482944
I0421 13:36:15.316586  3802 layer_factory.hpp:77] Creating layer conv7_2_mbox_conf
I0421 13:36:15.316598  3802 net.cpp:100] Creating Layer conv7_2_mbox_conf
I0421 13:36:15.316604  3802 net.cpp:434] conv7_2_mbox_conf <- conv7_2_conv7_2_relu_0_split_2
I0421 13:36:15.316610  3802 net.cpp:408] conv7_2_mbox_conf -> conv7_2_mbox_conf
I0421 13:36:15.320348  3802 net.cpp:150] Setting up conv7_2_mbox_conf
I0421 13:36:15.320366  3802 net.cpp:157] Top shape: 1 48 6 6 (1728)
I0421 13:36:15.320370  3802 net.cpp:165] Memory required for data: 519489856
I0421 13:36:15.320377  3802 layer_factory.hpp:77] Creating layer conv7_2_mbox_conf_perm
I0421 13:36:15.320391  3802 net.cpp:100] Creating Layer conv7_2_mbox_conf_perm
I0421 13:36:15.320399  3802 net.cpp:434] conv7_2_mbox_conf_perm <- conv7_2_mbox_conf
I0421 13:36:15.320406  3802 net.cpp:408] conv7_2_mbox_conf_perm -> conv7_2_mbox_conf_perm
I0421 13:36:15.320581  3802 net.cpp:150] Setting up conv7_2_mbox_conf_perm
I0421 13:36:15.320593  3802 net.cpp:157] Top shape: 1 6 6 48 (1728)
I0421 13:36:15.320600  3802 net.cpp:165] Memory required for data: 519496768
I0421 13:36:15.320602  3802 layer_factory.hpp:77] Creating layer conv7_2_mbox_conf_flat
I0421 13:36:15.320608  3802 net.cpp:100] Creating Layer conv7_2_mbox_conf_flat
I0421 13:36:15.320613  3802 net.cpp:434] conv7_2_mbox_conf_flat <- conv7_2_mbox_conf_perm
I0421 13:36:15.320621  3802 net.cpp:408] conv7_2_mbox_conf_flat -> conv7_2_mbox_conf_flat
I0421 13:36:15.320665  3802 net.cpp:150] Setting up conv7_2_mbox_conf_flat
I0421 13:36:15.320674  3802 net.cpp:157] Top shape: 1 1728 (1728)
I0421 13:36:15.320677  3802 net.cpp:165] Memory required for data: 519503680
I0421 13:36:15.320682  3802 layer_factory.hpp:77] Creating layer conv7_2_mbox_priorbox
I0421 13:36:15.320690  3802 net.cpp:100] Creating Layer conv7_2_mbox_priorbox
I0421 13:36:15.320696  3802 net.cpp:434] conv7_2_mbox_priorbox <- conv7_2_conv7_2_relu_0_split_3
I0421 13:36:15.320701  3802 net.cpp:434] conv7_2_mbox_priorbox <- data_data_0_split_5
I0421 13:36:15.320708  3802 net.cpp:408] conv7_2_mbox_priorbox -> conv7_2_mbox_priorbox
I0421 13:36:15.320751  3802 net.cpp:150] Setting up conv7_2_mbox_priorbox
I0421 13:36:15.320760  3802 net.cpp:157] Top shape: 1 2 3456 (6912)
I0421 13:36:15.320763  3802 net.cpp:165] Memory required for data: 519531328
I0421 13:36:15.320767  3802 layer_factory.hpp:77] Creating layer conv8_2_mbox_loc
I0421 13:36:15.320776  3802 net.cpp:100] Creating Layer conv8_2_mbox_loc
I0421 13:36:15.320783  3802 net.cpp:434] conv8_2_mbox_loc <- conv8_2_conv8_2_relu_0_split_1
I0421 13:36:15.320791  3802 net.cpp:408] conv8_2_mbox_loc -> conv8_2_mbox_loc
I0421 13:36:15.334180  3802 net.cpp:150] Setting up conv8_2_mbox_loc
I0421 13:36:15.334203  3802 net.cpp:157] Top shape: 1 288 4 4 (4608)
I0421 13:36:15.334208  3802 net.cpp:165] Memory required for data: 519549760
I0421 13:36:15.334215  3802 layer_factory.hpp:77] Creating layer conv8_2_mbox_loc_perm
I0421 13:36:15.334224  3802 net.cpp:100] Creating Layer conv8_2_mbox_loc_perm
I0421 13:36:15.334230  3802 net.cpp:434] conv8_2_mbox_loc_perm <- conv8_2_mbox_loc
I0421 13:36:15.334239  3802 net.cpp:408] conv8_2_mbox_loc_perm -> conv8_2_mbox_loc_perm
I0421 13:36:15.334412  3802 net.cpp:150] Setting up conv8_2_mbox_loc_perm
I0421 13:36:15.334422  3802 net.cpp:157] Top shape: 1 4 4 288 (4608)
I0421 13:36:15.334426  3802 net.cpp:165] Memory required for data: 519568192
I0421 13:36:15.334429  3802 layer_factory.hpp:77] Creating layer conv8_2_mbox_loc_flat
I0421 13:36:15.334435  3802 net.cpp:100] Creating Layer conv8_2_mbox_loc_flat
I0421 13:36:15.334440  3802 net.cpp:434] conv8_2_mbox_loc_flat <- conv8_2_mbox_loc_perm
I0421 13:36:15.334450  3802 net.cpp:408] conv8_2_mbox_loc_flat -> conv8_2_mbox_loc_flat
I0421 13:36:15.334492  3802 net.cpp:150] Setting up conv8_2_mbox_loc_flat
I0421 13:36:15.334503  3802 net.cpp:157] Top shape: 1 4608 (4608)
I0421 13:36:15.334508  3802 net.cpp:165] Memory required for data: 519586624
I0421 13:36:15.334511  3802 layer_factory.hpp:77] Creating layer conv8_2_mbox_conf
I0421 13:36:15.334522  3802 net.cpp:100] Creating Layer conv8_2_mbox_conf
I0421 13:36:15.334528  3802 net.cpp:434] conv8_2_mbox_conf <- conv8_2_conv8_2_relu_0_split_2
I0421 13:36:15.334534  3802 net.cpp:408] conv8_2_mbox_conf -> conv8_2_mbox_conf
I0421 13:36:15.338553  3802 net.cpp:150] Setting up conv8_2_mbox_conf
I0421 13:36:15.338572  3802 net.cpp:157] Top shape: 1 48 4 4 (768)
I0421 13:36:15.338577  3802 net.cpp:165] Memory required for data: 519589696
I0421 13:36:15.338583  3802 layer_factory.hpp:77] Creating layer conv8_2_mbox_conf_perm
I0421 13:36:15.338594  3802 net.cpp:100] Creating Layer conv8_2_mbox_conf_perm
I0421 13:36:15.338600  3802 net.cpp:434] conv8_2_mbox_conf_perm <- conv8_2_mbox_conf
I0421 13:36:15.338611  3802 net.cpp:408] conv8_2_mbox_conf_perm -> conv8_2_mbox_conf_perm
I0421 13:36:15.338785  3802 net.cpp:150] Setting up conv8_2_mbox_conf_perm
I0421 13:36:15.338798  3802 net.cpp:157] Top shape: 1 4 4 48 (768)
I0421 13:36:15.338801  3802 net.cpp:165] Memory required for data: 519592768
I0421 13:36:15.338805  3802 layer_factory.hpp:77] Creating layer conv8_2_mbox_conf_flat
I0421 13:36:15.338811  3802 net.cpp:100] Creating Layer conv8_2_mbox_conf_flat
I0421 13:36:15.338817  3802 net.cpp:434] conv8_2_mbox_conf_flat <- conv8_2_mbox_conf_perm
I0421 13:36:15.338824  3802 net.cpp:408] conv8_2_mbox_conf_flat -> conv8_2_mbox_conf_flat
I0421 13:36:15.338865  3802 net.cpp:150] Setting up conv8_2_mbox_conf_flat
I0421 13:36:15.338873  3802 net.cpp:157] Top shape: 1 768 (768)
I0421 13:36:15.338877  3802 net.cpp:165] Memory required for data: 519595840
I0421 13:36:15.338881  3802 layer_factory.hpp:77] Creating layer conv8_2_mbox_priorbox
I0421 13:36:15.338888  3802 net.cpp:100] Creating Layer conv8_2_mbox_priorbox
I0421 13:36:15.338893  3802 net.cpp:434] conv8_2_mbox_priorbox <- conv8_2_conv8_2_relu_0_split_3
I0421 13:36:15.338898  3802 net.cpp:434] conv8_2_mbox_priorbox <- data_data_0_split_6
I0421 13:36:15.338904  3802 net.cpp:408] conv8_2_mbox_priorbox -> conv8_2_mbox_priorbox
I0421 13:36:15.338948  3802 net.cpp:150] Setting up conv8_2_mbox_priorbox
I0421 13:36:15.338956  3802 net.cpp:157] Top shape: 1 2 1536 (3072)
I0421 13:36:15.338960  3802 net.cpp:165] Memory required for data: 519608128
I0421 13:36:15.338964  3802 layer_factory.hpp:77] Creating layer conv9_2_mbox_loc
I0421 13:36:15.338974  3802 net.cpp:100] Creating Layer conv9_2_mbox_loc
I0421 13:36:15.338980  3802 net.cpp:434] conv9_2_mbox_loc <- conv9_2_conv9_2_relu_0_split_0
I0421 13:36:15.338989  3802 net.cpp:408] conv9_2_mbox_loc -> conv9_2_mbox_loc
I0421 13:36:15.352193  3802 net.cpp:150] Setting up conv9_2_mbox_loc
I0421 13:36:15.352212  3802 net.cpp:157] Top shape: 1 288 2 2 (1152)
I0421 13:36:15.352228  3802 net.cpp:165] Memory required for data: 519612736
I0421 13:36:15.352236  3802 layer_factory.hpp:77] Creating layer conv9_2_mbox_loc_perm
I0421 13:36:15.352246  3802 net.cpp:100] Creating Layer conv9_2_mbox_loc_perm
I0421 13:36:15.352253  3802 net.cpp:434] conv9_2_mbox_loc_perm <- conv9_2_mbox_loc
I0421 13:36:15.352260  3802 net.cpp:408] conv9_2_mbox_loc_perm -> conv9_2_mbox_loc_perm
I0421 13:36:15.352435  3802 net.cpp:150] Setting up conv9_2_mbox_loc_perm
I0421 13:36:15.352447  3802 net.cpp:157] Top shape: 1 2 2 288 (1152)
I0421 13:36:15.352449  3802 net.cpp:165] Memory required for data: 519617344
I0421 13:36:15.352453  3802 layer_factory.hpp:77] Creating layer conv9_2_mbox_loc_flat
I0421 13:36:15.352459  3802 net.cpp:100] Creating Layer conv9_2_mbox_loc_flat
I0421 13:36:15.352463  3802 net.cpp:434] conv9_2_mbox_loc_flat <- conv9_2_mbox_loc_perm
I0421 13:36:15.352470  3802 net.cpp:408] conv9_2_mbox_loc_flat -> conv9_2_mbox_loc_flat
I0421 13:36:15.352511  3802 net.cpp:150] Setting up conv9_2_mbox_loc_flat
I0421 13:36:15.352519  3802 net.cpp:157] Top shape: 1 1152 (1152)
I0421 13:36:15.352524  3802 net.cpp:165] Memory required for data: 519621952
I0421 13:36:15.352530  3802 layer_factory.hpp:77] Creating layer conv9_2_mbox_conf
I0421 13:36:15.352541  3802 net.cpp:100] Creating Layer conv9_2_mbox_conf
I0421 13:36:15.352545  3802 net.cpp:434] conv9_2_mbox_conf <- conv9_2_conv9_2_relu_0_split_1
I0421 13:36:15.352552  3802 net.cpp:408] conv9_2_mbox_conf -> conv9_2_mbox_conf
I0421 13:36:15.356294  3802 net.cpp:150] Setting up conv9_2_mbox_conf
I0421 13:36:15.356312  3802 net.cpp:157] Top shape: 1 48 2 2 (192)
I0421 13:36:15.356317  3802 net.cpp:165] Memory required for data: 519622720
I0421 13:36:15.356323  3802 layer_factory.hpp:77] Creating layer conv9_2_mbox_conf_perm
I0421 13:36:15.356334  3802 net.cpp:100] Creating Layer conv9_2_mbox_conf_perm
I0421 13:36:15.356340  3802 net.cpp:434] conv9_2_mbox_conf_perm <- conv9_2_mbox_conf
I0421 13:36:15.356349  3802 net.cpp:408] conv9_2_mbox_conf_perm -> conv9_2_mbox_conf_perm
I0421 13:36:15.356528  3802 net.cpp:150] Setting up conv9_2_mbox_conf_perm
I0421 13:36:15.356540  3802 net.cpp:157] Top shape: 1 2 2 48 (192)
I0421 13:36:15.356546  3802 net.cpp:165] Memory required for data: 519623488
I0421 13:36:15.356552  3802 layer_factory.hpp:77] Creating layer conv9_2_mbox_conf_flat
I0421 13:36:15.356562  3802 net.cpp:100] Creating Layer conv9_2_mbox_conf_flat
I0421 13:36:15.356592  3802 net.cpp:434] conv9_2_mbox_conf_flat <- conv9_2_mbox_conf_perm
I0421 13:36:15.356608  3802 net.cpp:408] conv9_2_mbox_conf_flat -> conv9_2_mbox_conf_flat
I0421 13:36:15.356670  3802 net.cpp:150] Setting up conv9_2_mbox_conf_flat
I0421 13:36:15.356683  3802 net.cpp:157] Top shape: 1 192 (192)
I0421 13:36:15.356689  3802 net.cpp:165] Memory required for data: 519624256
I0421 13:36:15.356695  3802 layer_factory.hpp:77] Creating layer conv9_2_mbox_priorbox
I0421 13:36:15.356709  3802 net.cpp:100] Creating Layer conv9_2_mbox_priorbox
I0421 13:36:15.356716  3802 net.cpp:434] conv9_2_mbox_priorbox <- conv9_2_conv9_2_relu_0_split_2
I0421 13:36:15.356725  3802 net.cpp:434] conv9_2_mbox_priorbox <- data_data_0_split_7
I0421 13:36:15.356734  3802 net.cpp:408] conv9_2_mbox_priorbox -> conv9_2_mbox_priorbox
I0421 13:36:15.356782  3802 net.cpp:150] Setting up conv9_2_mbox_priorbox
I0421 13:36:15.356793  3802 net.cpp:157] Top shape: 1 2 384 (768)
I0421 13:36:15.356796  3802 net.cpp:165] Memory required for data: 519627328
I0421 13:36:15.356799  3802 layer_factory.hpp:77] Creating layer mbox_loc
I0421 13:36:15.356807  3802 net.cpp:100] Creating Layer mbox_loc
I0421 13:36:15.356815  3802 net.cpp:434] mbox_loc <- conv3_3_norm_mbox_loc_flat
I0421 13:36:15.356822  3802 net.cpp:434] mbox_loc <- conv4_3_norm_mbox_loc_flat
I0421 13:36:15.356829  3802 net.cpp:434] mbox_loc <- fc7_mbox_loc_flat
I0421 13:36:15.356835  3802 net.cpp:434] mbox_loc <- conv6_2_mbox_loc_flat
I0421 13:36:15.356839  3802 net.cpp:434] mbox_loc <- conv7_2_mbox_loc_flat
I0421 13:36:15.356844  3802 net.cpp:434] mbox_loc <- conv8_2_mbox_loc_flat
I0421 13:36:15.356861  3802 net.cpp:434] mbox_loc <- conv9_2_mbox_loc_flat
I0421 13:36:15.356871  3802 net.cpp:408] mbox_loc -> mbox_loc
I0421 13:36:15.356916  3802 net.cpp:150] Setting up mbox_loc
I0421 13:36:15.356925  3802 net.cpp:157] Top shape: 1 3541248 (3541248)
I0421 13:36:15.356930  3802 net.cpp:165] Memory required for data: 533792320
I0421 13:36:15.356932  3802 layer_factory.hpp:77] Creating layer mbox_conf
I0421 13:36:15.356940  3802 net.cpp:100] Creating Layer mbox_conf
I0421 13:36:15.356947  3802 net.cpp:434] mbox_conf <- conv3_3_norm_mbox_conf_flat
I0421 13:36:15.356952  3802 net.cpp:434] mbox_conf <- conv4_3_norm_mbox_conf_flat
I0421 13:36:15.356957  3802 net.cpp:434] mbox_conf <- fc7_mbox_conf_flat
I0421 13:36:15.356964  3802 net.cpp:434] mbox_conf <- conv6_2_mbox_conf_flat
I0421 13:36:15.356969  3802 net.cpp:434] mbox_conf <- conv7_2_mbox_conf_flat
I0421 13:36:15.356973  3802 net.cpp:434] mbox_conf <- conv8_2_mbox_conf_flat
I0421 13:36:15.356977  3802 net.cpp:434] mbox_conf <- conv9_2_mbox_conf_flat
I0421 13:36:15.356986  3802 net.cpp:408] mbox_conf -> mbox_conf
I0421 13:36:15.357028  3802 net.cpp:150] Setting up mbox_conf
I0421 13:36:15.357038  3802 net.cpp:157] Top shape: 1 590208 (590208)
I0421 13:36:15.357040  3802 net.cpp:165] Memory required for data: 536153152
I0421 13:36:15.357044  3802 layer_factory.hpp:77] Creating layer mbox_priorbox
I0421 13:36:15.357050  3802 net.cpp:100] Creating Layer mbox_priorbox
I0421 13:36:15.357056  3802 net.cpp:434] mbox_priorbox <- conv3_3_norm_mbox_priorbox
I0421 13:36:15.357062  3802 net.cpp:434] mbox_priorbox <- conv4_3_norm_mbox_priorbox
I0421 13:36:15.357066  3802 net.cpp:434] mbox_priorbox <- fc7_mbox_priorbox
I0421 13:36:15.357074  3802 net.cpp:434] mbox_priorbox <- conv6_2_mbox_priorbox
I0421 13:36:15.357077  3802 net.cpp:434] mbox_priorbox <- conv7_2_mbox_priorbox
I0421 13:36:15.357081  3802 net.cpp:434] mbox_priorbox <- conv8_2_mbox_priorbox
I0421 13:36:15.357085  3802 net.cpp:434] mbox_priorbox <- conv9_2_mbox_priorbox
I0421 13:36:15.357090  3802 net.cpp:408] mbox_priorbox -> mbox_priorbox
I0421 13:36:15.357129  3802 net.cpp:150] Setting up mbox_priorbox
I0421 13:36:15.357138  3802 net.cpp:157] Top shape: 1 2 1180416 (2360832)
I0421 13:36:15.357142  3802 net.cpp:165] Memory required for data: 545596480
I0421 13:36:15.357146  3802 layer_factory.hpp:77] Creating layer mbox_conf_reshape
I0421 13:36:15.357162  3802 net.cpp:100] Creating Layer mbox_conf_reshape
I0421 13:36:15.357167  3802 net.cpp:434] mbox_conf_reshape <- mbox_conf
I0421 13:36:15.357174  3802 net.cpp:408] mbox_conf_reshape -> mbox_conf_reshape
I0421 13:36:15.357228  3802 net.cpp:150] Setting up mbox_conf_reshape
I0421 13:36:15.357237  3802 net.cpp:157] Top shape: 1 295104 2 (590208)
I0421 13:36:15.357240  3802 net.cpp:165] Memory required for data: 547957312
I0421 13:36:15.357244  3802 layer_factory.hpp:77] Creating layer mbox_conf_softmax
I0421 13:36:15.357254  3802 net.cpp:100] Creating Layer mbox_conf_softmax
I0421 13:36:15.357259  3802 net.cpp:434] mbox_conf_softmax <- mbox_conf_reshape
I0421 13:36:15.357264  3802 net.cpp:408] mbox_conf_softmax -> mbox_conf_softmax
I0421 13:36:15.357787  3802 net.cpp:150] Setting up mbox_conf_softmax
I0421 13:36:15.357803  3802 net.cpp:157] Top shape: 1 295104 2 (590208)
I0421 13:36:15.357807  3802 net.cpp:165] Memory required for data: 550318144
I0421 13:36:15.357811  3802 layer_factory.hpp:77] Creating layer mbox_conf_flatten
I0421 13:36:15.357817  3802 net.cpp:100] Creating Layer mbox_conf_flatten
I0421 13:36:15.357825  3802 net.cpp:434] mbox_conf_flatten <- mbox_conf_softmax
I0421 13:36:15.357833  3802 net.cpp:408] mbox_conf_flatten -> mbox_conf_flatten
I0421 13:36:15.357877  3802 net.cpp:150] Setting up mbox_conf_flatten
I0421 13:36:15.357887  3802 net.cpp:157] Top shape: 1 590208 (590208)
I0421 13:36:15.357889  3802 net.cpp:165] Memory required for data: 552678976
I0421 13:36:15.357893  3802 layer_factory.hpp:77] Creating layer detection_out
I0421 13:36:15.357910  3802 net.cpp:100] Creating Layer detection_out
I0421 13:36:15.357926  3802 net.cpp:434] detection_out <- mbox_loc
I0421 13:36:15.357933  3802 net.cpp:434] detection_out <- mbox_conf_flatten
I0421 13:36:15.357936  3802 net.cpp:434] detection_out <- mbox_priorbox
I0421 13:36:15.357942  3802 net.cpp:408] detection_out -> detection_out
I0421 13:36:15.358443  3802 net.cpp:150] Setting up detection_out
I0421 13:36:15.358461  3802 net.cpp:157] Top shape: 1 1 1 15 (15)
I0421 13:36:15.358469  3802 net.cpp:165] Memory required for data: 552679036
I0421 13:36:15.358474  3802 layer_factory.hpp:77] Creating layer detection_eval
I0421 13:36:15.358489  3802 net.cpp:100] Creating Layer detection_eval
I0421 13:36:15.358500  3802 net.cpp:434] detection_eval <- detection_out
I0421 13:36:15.358508  3802 net.cpp:434] detection_eval <- label
I0421 13:36:15.358515  3802 net.cpp:408] detection_eval -> detection_eval
I0421 13:36:15.358595  3802 net.cpp:150] Setting up detection_eval
I0421 13:36:15.358608  3802 net.cpp:157] Top shape: 1 1 2 5 (10)
I0421 13:36:15.358613  3802 net.cpp:165] Memory required for data: 552679076
I0421 13:36:15.358619  3802 net.cpp:228] detection_eval does not need backward computation.
I0421 13:36:15.358626  3802 net.cpp:228] detection_out does not need backward computation.
I0421 13:36:15.358654  3802 net.cpp:228] mbox_conf_flatten does not need backward computation.
I0421 13:36:15.358661  3802 net.cpp:228] mbox_conf_softmax does not need backward computation.
…
