…
      sampler {
        min_scale: 0.3
        max_scale: 1
        min_aspect_ratio: 0.5
        max_aspect_ratio: 2
      }
      sample_constraint {
        min_object_coverage: 0.9
      }
      max_sample: 1
      max_trials: 50
    }
    batch_sampler {
      sampler {
        min_scale: 0.3
        max_scale: 1
        min_aspect_ratio: 0.5
        max_aspect_ratio: 2
      }
      sample_constraint {
        max_jaccard_overlap: 1
      }
      max_sample: 1
      max_trials: 50
    }
    label_map_file: "data/text/labelmap_voc.prototxt"
  }
}
layer {
  name: "conv1_1"
  type: "Convolution"
  bottom: "data"
  top: "conv1_1"
  param {
    lr_mult: 1
    decay_mult: 1
  }
  param {
    lr_mult: 2
    decay_mult: 0
  }
  convolution_param {
    num_output: 64
    pad: 1
    kernel_size: 3
    weight_filler {
      type: "xavier"
    }
    bias_filler {
      type: "constant"
      value: 0
    }
  }
}
layer {
  name: "relu1_1"
  type: "ReLU"
  bottom: "conv1_1"
  top: "conv1_1"
}
layer {
  name: "conv1_2"
  type: "Convolution"
  bottom: "conv1_1"
  top: "conv1_2"
  param {
    lr_mult: 1
    decay_mult: 1
  }
  param {
    lr_mult: 2
    decay_mult: 0
  }
  convolution_param {
    num_output: 64
    pad: 1
    kernel_size: 3
    weight_filler {
      type: "xavier"
    }
    bias_filler {
      type: "constant"
      value: 0
    }
  }
}
layer {
  name: "relu1_2"
  type: "ReLU"
  bottom: "conv1_2"
  top: "conv1_2"
}
layer {
  name: "pool1"
  type: "Pooling"
  bottom: "conv1_2"
  top: "pool1"
  pooling_param {
    pool: MAX
    kernel_size: 2
    stride: 2
  }
}
layer {
  name: "conv2_1"
  type: "Convolution"
  bottom: "pool1"
  top: "conv2_1"
  param {
    lr_mult: 1
    decay_mult: 1
  }
  param {
    lr_mult: 2
    decay_mult: 0
  }
  convolution_param {
    num_output: 128
    pad: 1
    kernel_size: 3
    weight_filler {
      type: "xavier"
    }
    bias_filler {
      type: "constant"
      value: 0
    }
  }
}
layer {
  name: "relu2_1"
  type: "ReLU"
  bottom: "conv2_1"
  top: "conv2_1"
}
layer {
  name: "conv2_2"
  type: "Convolution"
  bottom: "conv2_1"
  top: "conv2_2"
  param {
    lr_mult: 1
    decay_mult: 1
  }
  param {
    lr_mult: 2
    decay_mult: 0
  }
  convolution_param {
    num_output: 128
    pad: 1
    kernel_size: 3
    weight_filler {
      type: "xavier"
    }
    bias_filler {
      type: "constant"
      value: 0
    }
  }
}
layer {
  name: "relu2_2"
  type: "ReLU"
  bottom: "conv2_2"
  top: "conv2_2"
}
layer {
  name: "pool2"
  type: "Pooling"
  bottom: "conv2_2"
  top: "pool2"
  pooling_param {
    pool: MAX
    kernel_size: 2
    stride: 2
  }
}
layer {
  name: "conv3_1"
  type: "Convolution"
  bottom: "pool2"
  top: "conv3_1"
  param {
    lr_mult: 1
    decay_mult: 1
  }
  param {
    lr_mult: 2
    decay_mult: 0
  }
  convolution_param {
    num_output: 256
    pad: 1
    kernel_size: 3
    weight_filler {
      type: "xavier"
    }
    bias_filler {
      type: "constant"
      value: 0
    }
  }
}
layer {
  name: "relu3_1"
  type: "ReLU"
  bottom: "conv3_1"
  top: "conv3_1"
}
layer {
  name: "conv3_2"
  type: "Convolution"
  bottom: "conv3_1"
  top: "conv3_2"
  param {
    lr_mult: 1
    decay_mult: 1
  }
  param {
    lr_mult: 2
    decay_mult: 0
  }
  convolution_param {
    num_output: 256
    pad: 1
    kernel_size: 3
    weight_filler {
      type: "xavier"
    }
    bias_filler {
      type: "constant"
      value: 0
    }
  }
}
layer {
  name: "relu3_2"
  type: "ReLU"
  bottom: "conv3_2"
  top: "conv3_2"
}
layer {
  name: "conv3_3"
  type: "Convolution"
  bottom: "conv3_2"
  top: "conv3_3"
  param {
    lr_mult: 1
    decay_mult: 1
  }
  param {
    lr_mult: 2
    decay_mult: 0
  }
  convolution_param {
    num_output: 256
    pad: 1
    kernel_size: 3
    weight_filler {
      type: "xavier"
    }
    bias_filler {
      type: "constant"
      value: 0
    }
  }
}
layer {
  name: "relu3_3"
  type: "ReLU"
  bottom: "conv3_3"
  top: "conv3_3"
}
layer {
  name: "pool3"
  type: "Pooling"
  bottom: "conv3_3"
  top: "pool3"
  pooling_param {
    pool: MAX
    kernel_size: 2
    stride: 2
  }
}
layer {
  name: "conv4_1"
  type: "Convolution"
  bottom: "pool3"
  top: "conv4_1"
  param {
    lr_mult: 1
    decay_mult: 1
  }
  param {
    lr_mult: 2
    decay_mult: 0
  }
  convolution_param {
    num_output: 512
    pad: 1
    kernel_size: 3
    weight_filler {
      type: "xavier"
    }
    bias_filler {
      type: "constant"
      value: 0
    }
  }
}
layer {
  name: "relu4_1"
  type: "ReLU"
  bottom: "conv4_1"
  top: "conv4_1"
}
layer {
  name: "conv4_2"
  type: "Convolution"
  bottom: "conv4_1"
  top: "conv4_2"
  param {
    lr_mult: 1
    decay_mult: 1
  }
  param {
    lr_mult: 2
    decay_mult: 0
  }
  convolution_param {
    num_output: 512
    pad: 1
    kernel_size: 3
    weight_filler {
      type: "xavier"
    }
    bias_filler {
      type: "constant"
      value: 0
    }
  }
}
layer {
  name: "relu4_2"
  type: "ReLU"
  bottom: "conv4_2"
  top: "conv4_2"
}
layer {
  name: "conv4_3"
  type: "Convolution"
  bottom: "conv4_2"
  top: "conv4_3"
  param {
    lr_mult: 1
    decay_mult: 1
  }
  param {
    lr_mult: 2
    decay_mult: 0
  }
  convolution_param {
    num_output: 512
    pad: 1
    kernel_size: 3
    weight_filler {
      type: "xavier"
    }
    bias_filler {
      type: "constant"
      value: 0
    }
  }
}
layer {
  name: "relu4_3"
  type: "ReLU"
  bottom: "conv4_3"
  top: "conv4_3"
}
layer {
  name: "pool4"
  type: "Pooling"
  bottom: "conv4_3"
  top: "pool4"
  pooling_param {
    pool: MAX
    kernel_size: 2
    stride: 2
  }
}
layer {
  name: "conv5_1"
  type: "Convolution"
  bottom: "pool4"
  top: "conv5_1"
  param {
    lr_mult: 1
    decay_mult: 1
  }
  param {
    lr_mult: 2
    decay_mult: 0
  }
  convolution_param {
    num_output: 512
    pad: 1
    kernel_size: 3
    weight_filler {
      type: "xavier"
    }
    bias_filler {
      type: "constant"
      value: 0
    }
    dilation: 1
  }
}
layer {
  name: "relu5_1"
  type: "ReLU"
  bottom: "conv5_1"
  top: "conv5_1"
}
layer {
  name: "conv5_2"
  type: "Convolution"
  bottom: "conv5_1"
  top: "conv5_2"
  param {
    lr_mult: 1
    decay_mult: 1
  }
  param {
    lr_mult: 2
    decay_mult: 0
  }
  convolution_param {
    num_output: 512
    pad: 1
    kernel_size: 3
    weight_filler {
      type: "xavier"
    }
    bias_filler {
      type: "constant"
      value: 0
    }
    dilation: 1
  }
}
layer {
  name: "relu5_2"
  type: "ReLU"
  bottom: "conv5_2"
  top: "conv5_2"
}
layer {
  name: "conv5_3"
  type: "Convolution"
  bottom: "conv5_2"
  top: "conv5_3"
  param {
    lr_mult: 1
    decay_mult: 1
  }
  param {
    lr_mult: 2
    decay_mult: 0
  }
  convolution_param {
    num_output: 512
    pad: 1
    kernel_size: 3
    weight_filler {
      type: "xavier"
    }
    bias_filler {
      type: "constant"
      value: 0
    }
    dilation: 1
  }
}
layer {
  name: "relu5_3"
  type: "ReLU"
  bottom: "conv5_3"
  top: "conv5_3"
}
layer {
  name: "pool5"
  type: "Pooling"
  bottom: "conv5_3"
  top: "pool5"
  pooling_param {
    pool: MAX
    kernel_size: 3
    stride: 1
    pad: 1
  }
}
layer {
  name: "fc6"
  type: "Convolution"
  bottom: "pool5"
  top: "fc6"
  param {
    lr_mult: 1
    decay_mult: 1
  }
  param {
    lr_mult: 2
    decay_mult: 0
  }
  convolution_param {
    num_output: 1024
    pad: 6
    kernel_size: 3
    weight_filler {
      type: "xavier"
    }
    bias_filler {
      type: "constant"
      value: 0
    }
    dilation: 6
  }
}
layer {
  name: "relu6"
  type: "ReLU"
  bottom: "fc6"
  top: "fc6"
}
layer {
  name: "fc7"
  type: "Convolution"
  bottom: "fc6"
  top: "fc7"
  param {
    lr_mult: 1
    decay_mult: 1
  }
  param {
    lr_mult: 2
    decay_mult: 0
  }
  convolution_param {
    num_output: 1024
    kernel_size: 1
    weight_filler {
      type: "xavier"
    }
    bias_filler {
      type: "constant"
      value: 0
    }
  }
}
layer {
  name: "relu7"
  type: "ReLU"
  bottom: "fc7"
  top: "fc7"
}
layer {
  name: "conv6_1"
  type: "Convolution"
  bottom: "fc7"
  top: "conv6_1"
  param {
    lr_mult: 1
    decay_mult: 1
  }
  param {
    lr_mult: 2
    decay_mult: 0
  }
  convolution_param {
    num_output: 256
    pad: 0
    kernel_size: 1
    stride: 1
    weight_filler {
      type: "xavier"
    }
    bias_filler {
      type: "constant"
      value: 0
    }
  }
}
layer {
  name: "conv6_1_relu"
  type: "ReLU"
  bottom: "conv6_1"
  top: "conv6_1"
}
layer {
  name: "conv6_2"
  type: "Convolution"
  bottom: "conv6_1"
  top: "conv6_2"
  param {
    lr_mult: 1
    decay_mult: 1
  }
  param {
    lr_mult: 2
    decay_mult: 0
  }
  convolution_param {
    num_output: 512
    pad: 1
    kernel_size: 3
    stride: 2
    weight_filler {
      type: "xavier"
    }
    bias_filler {
      type: "constant"
      value: 0
    }
  }
}
layer {
  name: "conv6_2_relu"
  type: "ReLU"
  bottom: "conv6_2"
  top: "conv6_2"
}
layer {
  name: "conv7_1"
  type: "Convolution"
  bottom: "conv6_2"
  top: "conv7_1"
  param {
    lr_mult: 1
    decay_mult: 1
  }
  param {
    lr_mult: 2
    decay_mult: 0
  }
  convolution_param {
    num_output: 128
    pad: 0
    kernel_size: 1
    stride: 1
    weight_filler {
      type: "xavier"
    }
    bias_filler {
      type: "constant"
      value: 0
    }
  }
}
layer {
  name: "conv7_1_relu"
  type: "ReLU"
  bottom: "conv7_1"
  top: "conv7_1"
}
layer {
  name: "conv7_2"
  type: "Convolution"
  bottom: "conv7_1"
  top: "conv7_2"
  param {
    lr_mult: 1
    decay_mult: 1
  }
  param {
    lr_mult: 2
    decay_mult: 0
  }
  convolution_param {
    num_output: 256
    pad: 1
    kernel_size: 3
    stride: 2
    weight_filler {
      type: "xavier"
    }
    bias_filler {
      type: "constant"
      value: 0
    }
  }
}
layer {
  name: "conv7_2_relu"
  type: "ReLU"
  bottom: "conv7_2"
  top: "conv7_2"
}
layer {
  name: "conv8_1"
  type: "Convolution"
  bottom: "conv7_2"
  top: "conv8_1"
  param {
    lr_mult: 1
    decay_mult: 1
  }
  param {
    lr_mult: 2
    decay_mult: 0
  }
  convolution_param {
    num_output: 128
    pad: 0
    kernel_size: 1
    stride: 1
    weight_filler {
      type: "xavier"
    }
    bias_filler {
      type: "constant"
      value: 0
    }
  }
}
layer {
  name: "conv8_1_relu"
  type: "ReLU"
  bottom: "conv8_1"
  top: "conv8_1"
}
layer {
  name: "conv8_2"
  type: "Convolution"
  bottom: "conv8_1"
  top: "conv8_2"
  param {
    lr_mult: 1
    decay_mult: 1
  }
  param {
    lr_mult: 2
    decay_mult: 0
  }
  convolution_param {
    num_output: 256
    pad: 0
    kernel_size: 3
    stride: 1
    weight_filler {
      type: "xavier"
    }
    bias_filler {
      type: "constant"
      value: 0
    }
  }
}
layer {
  name: "conv8_2_relu"
  type: "ReLU"
  bottom: "conv8_2"
  top: "conv8_2"
}
layer {
  name: "conv9_1"
  type: "Convolution"
  bottom: "conv8_2"
  top: "conv9_1"
  param {
    lr_mult: 1
    decay_mult: 1
  }
  param {
    lr_mult: 2
    decay_mult: 0
  }
  convolution_param {
    num_output: 128
    pad: 0
    kernel_size: 1
    stride: 1
    weight_filler {
      type: "xavier"
    }
    bias_filler {
      type: "constant"
      value: 0
    }
  }
}
layer {
  name: "conv9_1_relu"
  type: "ReLU"
  bottom: "conv9_1"
  top: "conv9_1"
}
layer {
  name: "conv9_2"
  type: "Convolution"
  bottom: "conv9_1"
  top: "conv9_2"
  param {
    lr_mult: 1
    decay_mult: 1
  }
  param {
    lr_mult: 2
    decay_mult: 0
  }
  convolution_param {
    num_output: 256
    pad: 0
    kernel_size: 3
    stride: 1
    weight_filler {
      type: "xavier"
    }
    bias_filler {
      type: "constant"
      value: 0
    }
  }
}
layer {
  name: "conv9_2_relu"
  type: "ReLU"
  bottom: "conv9_2"
  top: "conv9_2"
}
layer {
  name: "conv3_3_norm"
  type: "Normalize"
  bottom: "conv3_3"
  top: "conv3_3_norm"
  norm_param {
    across_spatial: false
    scale_filler {
      type: "constant"
      value: 20
    }
    channel_shared: false
  }
}
layer {
  name: "conv3_3_norm_mbox_loc"
  type: "Convolution"
  bottom: "conv3_3_norm"
  top: "conv3_3_norm_mbox_loc"
  param {
    lr_mult: 1
    decay_mult: 1
  }
  param {
    lr_mult: 2
    decay_mult: 0
  }
  convolution_param {
    num_output: 288
    weight_filler {
      type: "xavier"
    }
    bias_filler {
      type: "constant"
      value: 0
    }
    pad_h: 1
    pad_w: 2
    kernel_h: 3
    kernel_w: 5
    stride_h: 1
    stride_w: 1
  }
}
layer {
  name: "conv3_3_norm_mbox_loc_perm"
  type: "Permute"
  bottom: "conv3_3_norm_mbox_loc"
  top: "conv3_3_norm_mbox_loc_perm"
  permute_param {
    order: 0
    order: 2
    order: 3
    order: 1
  }
}
layer {
  name: "conv3_3_norm_mbox_loc_flat"
  type: "Flatten"
  bottom: "conv3_3_norm_mbox_loc_perm"
  top: "conv3_3_norm_mbox_loc_flat"
  flatten_param {
    axis: 1
  }
}
layer {
  name: "conv3_3_norm_mbox_conf"
  type: "Convolution"
  bottom: "conv3_3_norm"
  top: "conv3_3_norm_mbox_conf"
  param {
    lr_mult: 1
    decay_mult: 1
  }
  param {
    lr_mult: 2
    decay_mult: 0
  }
  convolution_param {
    num_output: 48
    weight_filler {
      type: "xavier"
    }
    bias_filler {
      type: "constant"
      value: 0
    }
    pad_h: 1
    pad_w: 2
    kernel_h: 3
    kernel_w: 5
    stride_h: 1
    stride_w: 1
  }
}
layer {
  name: "conv3_3_norm_mbox_conf_perm"
  type: "Permute"
  bottom: "conv3_3_norm_mbox_conf"
  top: "conv3_3_norm_mbox_conf_perm"
  permute_param {
    order: 0
    order: 2
    order: 3
    order: 1
  }
}
layer {
  name: "conv3_3_norm_mbox_conf_flat"
  type: "Flatten"
  bottom: "conv3_3_norm_mbox_conf_perm"
  top: "conv3_3_norm_mbox_conf_flat"
  flatten_param {
    axis: 1
  }
}
layer {
  name: "conv3_3_norm_mbox_priorbox"
  type: "PriorBox"
  bottom: "conv3_3_norm"
  bottom: "data"
  top: "conv3_3_norm_mbox_priorbox"
  prior_box_param {
    min_size: 10
    max_size: 30
    aspect_ratio: 2
    aspect_ratio: 3
    aspect_ratio: 4
    aspect_ratio: 5
    aspect_ratio: 7
    flip: true
    clip: false
    variance: 0.1
    variance: 0.1
    variance: 0.2
    variance: 0.2
    step: 4
    offset: 0.5
    denser_prior_boxes: true
  }
}
layer {
  name: "conv4_3_norm"
  type: "Normalize"
  bottom: "conv4_3"
  top: "conv4_3_norm"
  norm_param {
    across_spatial: false
    scale_filler {
      type: "constant"
      value: 20
    }
    channel_shared: false
  }
}
layer {
  name: "conv4_3_norm_mbox_loc"
  type: "Convolution"
  bottom: "conv4_3_norm"
  top: "conv4_3_norm_mbox_loc"
  param {
    lr_mult: 1
    decay_mult: 1
  }
  param {
    lr_mult: 2
    decay_mult: 0
  }
  convolution_param {
    num_output: 288
    weight_filler {
      type: "xavier"
    }
    bias_filler {
      type: "constant"
      value: 0
    }
    pad_h: 1
    pad_w: 2
    kernel_h: 3
    kernel_w: 5
    stride_h: 1
    stride_w: 1
  }
}
layer {
  name: "conv4_3_norm_mbox_loc_perm"
  type: "Permute"
  bottom: "conv4_3_norm_mbox_loc"
  top: "conv4_3_norm_mbox_loc_perm"
  permute_param {
    order: 0
    order: 2
    order: 3
    order: 1
  }
}
layer {
  name: "conv4_3_norm_mbox_loc_flat"
  type: "Flatten"
  bottom: "conv4_3_norm_mbox_loc_perm"
  top: "conv4_3_norm_mbox_loc_flat"
  flatten_param {
    axis: 1
  }
}
layer {
  name: "conv4_3_norm_mbox_conf"
  type: "Convolution"
  bottom: "conv4_3_norm"
  top: "conv4_3_norm_mbox_conf"
  param {
    lr_mult: 1
    decay_mult: 1
  }
  param {
    lr_mult: 2
    decay_mult: 0
  }
  convolution_param {
    num_output: 48
    weight_filler {
      type: "xavier"
    }
    bias_filler {
      type: "constant"
      value: 0
    }
    pad_h: 1
    pad_w: 2
    kernel_h: 3
    kernel_w: 5
    stride_h: 1
    stride_w: 1
  }
}
layer {
  name: "conv4_3_norm_mbox_conf_perm"
  type: "Permute"
  bottom: "conv4_3_norm_mbox_conf"
  top: "conv4_3_norm_mbox_conf_perm"
  permute_param {
    order: 0
    order: 2
    order: 3
    order: 1
  }
}
layer {
  name: "conv4_3_norm_mbox_conf_flat"
  type: "Flatten"
  bottom: "conv4_3_norm_mbox_conf_perm"
  top: "conv4_3_norm_mbox_conf_flat"
  flatten_param {
    axis: 1
  }
}
layer {
  name: "conv4_3_norm_mbox_priorbox"
  type: "PriorBox"
  bottom: "conv4_3_norm"
  bottom: "data"
  top: "conv4_3_norm_mbox_priorbox"
  prior_box_param {
    min_size: 30
    max_size: 78
    aspect_ratio: 2
    aspect_ratio: 3
    aspect_ratio: 4
    aspect_ratio: 5
    aspect_ratio: 7
    flip: true
    clip: false
    variance: 0.1
    variance: 0.1
    variance: 0.2
    variance: 0.2
    step: 8
    offset: 0.5
    denser_prior_boxes: true
  }
}
layer {
  name: "fc7_mbox_loc"
  type: "Convolution"
  bottom: "fc7"
  top: "fc7_mbox_loc"
  param {
    lr_mult: 1
    decay_mult: 1
  }
  param {
    lr_mult: 2
    decay_mult: 0
  }
  convolution_param {
    num_output: 288
    weight_filler {
      type: "xavier"
    }
    bias_filler {
      type: "constant"
      value: 0
    }
    pad_h: 1
    pad_w: 2
    kernel_h: 3
    kernel_w: 5
    stride_h: 1
    stride_w: 1
  }
}
layer {
  name: "fc7_mbox_loc_perm"
  type: "Permute"
  bottom: "fc7_mbox_loc"
  top: "fc7_mbox_loc_perm"
  permute_param {
    order: 0
    order: 2
    order: 3
    order: 1
  }
}
layer {
  name: "fc7_mbox_loc_flat"
  type: "Flatten"
  bottom: "fc7_mbox_loc_perm"
  top: "fc7_mbox_loc_flat"
  flatten_param {
    axis: 1
  }
}
layer {
  name: "fc7_mbox_conf"
  type: "Convolution"
  bottom: "fc7"
  top: "fc7_mbox_conf"
  param {
    lr_mult: 1
    decay_mult: 1
  }
  param {
    lr_mult: 2
    decay_mult: 0
  }
  convolution_param {
    num_output: 48
    weight_filler {
      type: "xavier"
    }
    bias_filler {
      type: "constant"
      value: 0
    }
    pad_h: 1
    pad_w: 2
    kernel_h: 3
    kernel_w: 5
    stride_h: 1
    stride_w: 1
  }
}
layer {
  name: "fc7_mbox_conf_perm"
  type: "Permute"
  bottom: "fc7_mbox_conf"
  top: "fc7_mbox_conf_perm"
  permute_param {
    order: 0
    order: 2
    order: 3
    order: 1
  }
}
layer {
  name: "fc7_mbox_conf_flat"
  type: "Flatten"
  bottom: "fc7_mbox_conf_perm"
  top: "fc7_mbox_conf_flat"
  flatten_param {
    axis: 1
  }
}
layer {
  name: "fc7_mbox_priorbox"
  type: "PriorBox"
  bottom: "fc7"
  bottom: "data"
  top: "fc7_mbox_priorbox"
  prior_box_param {
    min_size: 78
    max_size: 126
    aspect_ratio: 2
    aspect_ratio: 3
    aspect_ratio: 4
    aspect_ratio: 5
    aspect_ratio: 7
    flip: true
    clip: false
    variance: 0.1
    variance: 0.1
    variance: 0.2
    variance: 0.2
    step: 16
    offset: 0.5
    denser_prior_boxes: true
  }
}
layer {
  name: "conv6_2_mbox_loc"
  type: "Convolution"
  bottom: "conv6_2"
  top: "conv6_2_mbox_loc"
  param {
    lr_mult: 1
    decay_mult: 1
  }
  param {
    lr_mult: 2
    decay_mult: 0
  }
  convolution_param {
    num_output: 288
    weight_filler {
      type: "xavier"
    }
    bias_filler {
      type: "constant"
      value: 0
    }
    pad_h: 1
    pad_w: 2
    kernel_h: 3
    kernel_w: 5
    stride_h: 1
    stride_w: 1
  }
}
layer {
  name: "conv6_2_mbox_loc_perm"
  type: "Permute"
  bottom: "conv6_2_mbox_loc"
  top: "conv6_2_mbox_loc_perm"
  permute_param {
    order: 0
    order: 2
    order: 3
    order: 1
  }
}
layer {
  name: "conv6_2_mbox_loc_flat"
  type: "Flatten"
  bottom: "conv6_2_mbox_loc_perm"
  top: "conv6_2_mbox_loc_flat"
  flatten_param {
    axis: 1
  }
}
layer {
  name: "conv6_2_mbox_conf"
  type: "Convolution"
  bottom: "conv6_2"
  top: "conv6_2_mbox_conf"
  param {
    lr_mult: 1
    decay_mult: 1
  }
  param {
    lr_mult: 2
    decay_mult: 0
  }
  convolution_param {
    num_output: 48
    weight_filler {
      type: "xavier"
    }
    bias_filler {
      type: "constant"
      value: 0
    }
    pad_h: 1
    pad_w: 2
    kernel_h: 3
    kernel_w: 5
    stride_h: 1
    stride_w: 1
  }
}
layer {
  name: "conv6_2_mbox_conf_perm"
  type: "Permute"
  bottom: "conv6_2_mbox_conf"
  top: "conv6_2_mbox_conf_perm"
  permute_param {
    order: 0
    order: 2
    order: 3
    order: 1
  }
}
layer {
  name: "conv6_2_mbox_conf_flat"
  type: "Flatten"
  bottom: "conv6_2_mbox_conf_perm"
  top: "conv6_2_mbox_conf_flat"
  flatten_param {
    axis: 1
  }
}
layer {
  name: "conv6_2_mbox_priorbox"
  type: "PriorBox"
  bottom: "conv6_2"
  bottom: "data"
  top: "conv6_2_mbox_priorbox"
  prior_box_param {
    min_size: 126
    max_size: 174
    aspect_ratio: 2
    aspect_ratio: 3
    aspect_ratio: 4
    aspect_ratio: 5
    aspect_ratio: 7
    flip: true
    clip: false
    variance: 0.1
    variance: 0.1
    variance: 0.2
    variance: 0.2
    step: 32
    offset: 0.5
    denser_prior_boxes: true
  }
}
layer {
  name: "conv7_2_mbox_loc"
  type: "Convolution"
  bottom: "conv7_2"
  top: "conv7_2_mbox_loc"
  param {
    lr_mult: 1
    decay_mult: 1
  }
  param {
    lr_mult: 2
    decay_mult: 0
  }
  convolution_param {
    num_output: 288
    weight_filler {
      type: "xavier"
    }
    bias_filler {
      type: "constant"
      value: 0
    }
    pad_h: 1
    pad_w: 2
    kernel_h: 3
    kernel_w: 5
    stride_h: 1
    stride_w: 1
  }
}
layer {
  name: "conv7_2_mbox_loc_perm"
  type: "Permute"
  bottom: "conv7_2_mbox_loc"
  top: "conv7_2_mbox_loc_perm"
  permute_param {
    order: 0
    order: 2
    order: 3
    order: 1
  }
}
layer {
  name: "conv7_2_mbox_loc_flat"
  type: "Flatten"
  bottom: "conv7_2_mbox_loc_perm"
  top: "conv7_2_mbox_loc_flat"
  flatten_param {
    axis: 1
  }
}
layer {
  name: "conv7_2_mbox_conf"
  type: "Convolution"
  bottom: "conv7_2"
  top: "conv7_2_mbox_conf"
  param {
    lr_mult: 1
    decay_mult: 1
  }
  param {
    lr_mult: 2
    decay_mult: 0
  }
  convolution_param {
    num_output: 48
    weight_filler {
      type: "xavier"
    }
    bias_filler {
      type: "constant"
      value: 0
    }
    pad_h: 1
    pad_w: 2
    kernel_h: 3
    kernel_w: 5
    stride_h: 1
    stride_w: 1
  }
}
layer {
  name: "conv7_2_mbox_conf_perm"
  type: "Permute"
  bottom: "conv7_2_mbox_conf"
  top: "conv7_2_mbox_conf_perm"
  permute_param {
    order: 0
    order: 2
    order: 3
    order: 1
  }
}
layer {
  name: "conv7_2_mbox_conf_flat"
  type: "Flatten"
  bottom: "conv7_2_mbox_conf_perm"
  top: "conv7_2_mbox_conf_flat"
  flatten_param {
    axis: 1
  }
}
layer {
  name: "conv7_2_mbox_priorbox"
  type: "PriorBox"
  bottom: "conv7_2"
  bottom: "data"
  top: "conv7_2_mbox_priorbox"
  prior_box_param {
    min_size: 174
    max_size: 222
    aspect_ratio: 2
    aspect_ratio: 3
    aspect_ratio: 4
    aspect_ratio: 5
    aspect_ratio: 7
    flip: true
    clip: false
    variance: 0.1
    variance: 0.1
    variance: 0.2
    variance: 0.2
    step: 64
    offset: 0.5
    denser_prior_boxes: true
  }
}
layer {
  name: "conv8_2_mbox_loc"
  type: "Convolution"
  bottom: "conv8_2"
  top: "conv8_2_mbox_loc"
  param {
    lr_mult: 1
    decay_mult: 1
  }
  param {
    lr_mult: 2
    decay_mult: 0
  }
  convolution_param {
    num_output: 288
    weight_filler {
      type: "xavier"
    }
    bias_filler {
      type: "constant"
      value: 0
    }
    pad_h: 1
    pad_w: 2
    kernel_h: 3
    kernel_w: 5
    stride_h: 1
    stride_w: 1
  }
}
layer {
  name: "conv8_2_mbox_loc_perm"
  type: "Permute"
  bottom: "conv8_2_mbox_loc"
  top: "conv8_2_mbox_loc_perm"
  permute_param {
    order: 0
    order: 2
    order: 3
    order: 1
  }
}
layer {
  name: "conv8_2_mbox_loc_flat"
  type: "Flatten"
  bottom: "conv8_2_mbox_loc_perm"
  top: "conv8_2_mbox_loc_flat"
  flatten_param {
    axis: 1
  }
}
layer {
  name: "conv8_2_mbox_conf"
  type: "Convolution"
  bottom: "conv8_2"
  top: "conv8_2_mbox_conf"
  param {
    lr_mult: 1
    decay_mult: 1
  }
  param {
    lr_mult: 2
    decay_mult: 0
  }
  convolution_param {
    num_output: 48
    weight_filler {
      type: "xavier"
    }
    bias_filler {
      type: "constant"
      value: 0
    }
    pad_h: 1
    pad_w: 2
    kernel_h: 3
    kernel_w: 5
    stride_h: 1
    stride_w: 1
  }
}
layer {
  name: "conv8_2_mbox_conf_perm"
  type: "Permute"
  bottom: "conv8_2_mbox_conf"
  top: "conv8_2_mbox_conf_perm"
  permute_param {
    order: 0
    order: 2
    order: 3
    order: 1
  }
}
layer {
  name: "conv8_2_mbox_conf_flat"
  type: "Flatten"
  bottom: "conv8_2_mbox_conf_perm"
  top: "conv8_2_mbox_conf_flat"
  flatten_param {
    axis: 1
  }
}
layer {
  name: "conv8_2_mbox_priorbox"
  type: "PriorBox"
  bottom: "conv8_2"
  bottom: "data"
  top: "conv8_2_mbox_priorbox"
  prior_box_param {
    min_size: 222
    max_size: 270
    aspect_ratio: 2
    aspect_ratio: 3
    aspect_ratio: 4
    aspect_ratio: 5
    aspect_ratio: 7
    flip: true
    clip: false
    variance: 0.1
    variance: 0.1
    variance: 0.2
    variance: 0.2
    step: 100
    offset: 0.5
    denser_prior_boxes: true
  }
}
layer {
  name: "conv9_2_mbox_loc"
  type: "Convolution"
  bottom: "conv9_2"
  top: "conv9_2_mbox_loc"
  param {
    lr_mult: 1
    decay_mult: 1
  }
  param {
    lr_mult: 2
    decay_mult: 0
  }
  convolution_param {
    num_output: 288
    weight_filler {
      type: "xavier"
    }
    bias_filler {
      type: "constant"
      value: 0
    }
    pad_h: 1
    pad_w: 2
    kernel_h: 3
    kernel_w: 5
    stride_h: 1
    stride_w: 1
  }
}
layer {
  name: "conv9_2_mbox_loc_perm"
  type: "Permute"
  bottom: "conv9_2_mbox_loc"
  top: "conv9_2_mbox_loc_perm"
  permute_param {
    order: 0
    order: 2
    order: 3
    order: 1
  }
}
layer {
  name: "conv9_2_mbox_loc_flat"
  type: "Flatten"
  bottom: "conv9_2_mbox_loc_perm"
  top: "conv9_2_mbox_loc_flat"
  flatten_param {
    axis: 1
  }
}
layer {
  name: "conv9_2_mbox_conf"
  type: "Convolution"
  bottom: "conv9_2"
  top: "conv9_2_mbox_conf"
  param {
    lr_mult: 1
    decay_mult: 1
  }
  param {
    lr_mult: 2
    decay_mult: 0
  }
  convolution_param {
    num_output: 48
    weight_filler {
      type: "xavier"
    }
    bias_filler {
      type: "constant"
      value: 0
    }
    pad_h: 1
    pad_w: 2
    kernel_h: 3
    kernel_w: 5
    stride_h: 1
    stride_w: 1
  }
}
layer {
  name: "conv9_2_mbox_conf_perm"
  type: "Permute"
  bottom: "conv9_2_mbox_conf"
  top: "conv9_2_mbox_conf_perm"
  permute_param {
    order: 0
    order: 2
    order: 3
    order: 1
  }
}
layer {
  name: "conv9_2_mbox_conf_flat"
  type: "Flatten"
  bottom: "conv9_2_mbox_conf_perm"
  top: "conv9_2_mbox_conf_flat"
  flatten_param {
    axis: 1
  }
}
layer {
  name: "conv9_2_mbox_priorbox"
  type: "PriorBox"
  bottom: "conv9_2"
  bottom: "data"
  top: "conv9_2_mbox_priorbox"
  prior_box_param {
    min_size: 270
    max_size: 318
    aspect_ratio: 2
    aspect_ratio: 3
    aspect_ratio: 4
    aspect_ratio: 5
    aspect_ratio: 7
    flip: true
    clip: false
    variance: 0.1
    variance: 0.1
    variance: 0.2
    variance: 0.2
    step: 300
    offset: 0.5
    denser_prior_boxes: true
  }
}
layer {
  name: "mbox_loc"
  type: "Concat"
  bottom: "conv3_3_norm_mbox_loc_flat"
  bottom: "conv4_3_norm_mbox_loc_flat"
  bottom: "fc7_mbox_loc_flat"
  bottom: "conv6_2_mbox_loc_flat"
  bottom: "conv7_2_mbox_loc_flat"
  bottom: "conv8_2_mbox_loc_flat"
  bottom: "conv9_2_mbox_loc_flat"
  top: "mbox_loc"
  concat_param {
    axis: 1
  }
}
layer {
  name: "mbox_conf"
  type: "Concat"
  bottom: "conv3_3_norm_mbox_conf_flat"
  bottom: "conv4_3_norm_mbox_conf_flat"
  bottom: "fc7_mbox_conf_flat"
  bottom: "conv6_2_mbox_conf_flat"
  bottom: "conv7_2_mbox_conf_flat"
  bottom: "conv8_2_mbox_conf_flat"
  bottom: "conv9_2_mbox_conf_flat"
  top: "mbox_conf"
  concat_param {
    axis: 1
  }
}
layer {
  name: "mbox_priorbox"
  type: "Concat"
  bottom: "conv3_3_norm_mbox_priorbox"
  bottom: "conv4_3_norm_mbox_priorbox"
  bottom: "fc7_mbox_priorbox"
  bottom: "conv6_2_mbox_priorbox"
  bottom: "conv7_2_mbox_priorbox"
  bottom: "conv8_2_mbox_priorbox"
  bottom: "conv9_2_mbox_priorbox"
  top: "mbox_priorbox"
  concat_param {
    axis: 2
  }
}
layer {
  nam
I0428 23:26:47.778115 31705 layer_factory.hpp:77] Creating layer data
I0428 23:26:47.778615 31705 net.cpp:100] Creating Layer data
I0428 23:26:47.778642 31705 net.cpp:408] data -> data
I0428 23:26:47.778712 31705 net.cpp:408] data -> label
I0428 23:26:47.779911 31712 db_lmdb.cpp:35] Opened lmdb ./data/train_lmdb/
I0428 23:26:47.806998 31705 annotated_data_layer.cpp:62] output data size: 16,3,384,384
I0428 23:26:47.863127 31705 net.cpp:150] Setting up data
I0428 23:26:47.863174 31705 net.cpp:157] Top shape: 16 3 384 384 (7077888)
I0428 23:26:47.863184 31705 net.cpp:157] Top shape: 1 1 22 16 (352)
I0428 23:26:47.863189 31705 net.cpp:165] Memory required for data: 28312960
I0428 23:26:47.863205 31705 layer_factory.hpp:77] Creating layer data_data_0_split
I0428 23:26:47.863240 31705 net.cpp:100] Creating Layer data_data_0_split
I0428 23:26:47.863252 31705 net.cpp:434] data_data_0_split <- data
I0428 23:26:47.863278 31705 net.cpp:408] data_data_0_split -> data_data_0_split_0
I0428 23:26:47.863299 31705 net.cpp:408] data_data_0_split -> data_data_0_split_1
I0428 23:26:47.863314 31705 net.cpp:408] data_data_0_split -> data_data_0_split_2
I0428 23:26:47.863330 31705 net.cpp:408] data_data_0_split -> data_data_0_split_3
I0428 23:26:47.863337 31705 net.cpp:408] data_data_0_split -> data_data_0_split_4
I0428 23:26:47.863345 31705 net.cpp:408] data_data_0_split -> data_data_0_split_5
I0428 23:26:47.863351 31705 net.cpp:408] data_data_0_split -> data_data_0_split_6
I0428 23:26:47.863358 31705 net.cpp:408] data_data_0_split -> data_data_0_split_7
I0428 23:26:47.863478 31705 net.cpp:150] Setting up data_data_0_split
I0428 23:26:47.863492 31705 net.cpp:157] Top shape: 16 3 384 384 (7077888)
I0428 23:26:47.863543 31705 net.cpp:157] Top shape: 16 3 384 384 (7077888)
I0428 23:26:47.863551 31705 net.cpp:157] Top shape: 16 3 384 384 (7077888)
I0428 23:26:47.863556 31705 net.cpp:157] Top shape: 16 3 384 384 (7077888)
I0428 23:26:47.863560 31705 net.cpp:157] Top shape: 16 3 384 384 (7077888)
I0428 23:26:47.863566 31705 net.cpp:157] Top shape: 16 3 384 384 (7077888)
I0428 23:26:47.863570 31705 net.cpp:157] Top shape: 16 3 384 384 (7077888)
I0428 23:26:47.863574 31705 net.cpp:157] Top shape: 16 3 384 384 (7077888)
I0428 23:26:47.863579 31705 net.cpp:165] Memory required for data: 254805376
I0428 23:26:47.863582 31705 layer_factory.hpp:77] Creating layer conv1_1
I0428 23:26:47.863603 31705 net.cpp:100] Creating Layer conv1_1
I0428 23:26:47.863611 31705 net.cpp:434] conv1_1 <- data_data_0_split_0
I0428 23:26:47.863623 31705 net.cpp:408] conv1_1 -> conv1_1
I0428 23:26:48.209265 31705 net.cpp:150] Setting up conv1_1
I0428 23:26:48.209313 31705 net.cpp:157] Top shape: 16 64 384 384 (150994944)
I0428 23:26:48.209321 31705 net.cpp:165] Memory required for data: 858785152
I0428 23:26:48.209349 31705 layer_factory.hpp:77] Creating layer relu1_1
I0428 23:26:48.209365 31705 net.cpp:100] Creating Layer relu1_1
I0428 23:26:48.209373 31705 net.cpp:434] relu1_1 <- conv1_1
I0428 23:26:48.209383 31705 net.cpp:395] relu1_1 -> conv1_1 (in-place)
I0428 23:26:48.209805 31705 net.cpp:150] Setting up relu1_1
I0428 23:26:48.209825 31705 net.cpp:157] Top shape: 16 64 384 384 (150994944)
I0428 23:26:48.209832 31705 net.cpp:165] Memory required for data: 1462764928
I0428 23:26:48.209837 31705 layer_factory.hpp:77] Creating layer conv1_2
I0428 23:26:48.209856 31705 net.cpp:100] Creating Layer conv1_2
I0428 23:26:48.209862 31705 net.cpp:434] conv1_2 <- conv1_1
I0428 23:26:48.209869 31705 net.cpp:408] conv1_2 -> conv1_2
I0428 23:26:48.213045 31705 net.cpp:150] Setting up conv1_2
I0428 23:26:48.213068 31705 net.cpp:157] Top shape: 16 64 384 384 (150994944)
I0428 23:26:48.213074 31705 net.cpp:165] Memory required for data: 2066744704
I0428 23:26:48.213088 31705 layer_factory.hpp:77] Creating layer relu1_2
I0428 23:26:48.213096 31705 net.cpp:100] Creating Layer relu1_2
I0428 23:26:48.213101 31705 net.cpp:434] relu1_2 <- conv1_2
I0428 23:26:48.213109 31705 net.cpp:395] relu1_2 -> conv1_2 (in-place)
I0428 23:26:48.213311 31705 net.cpp:150] Setting up relu1_2
I0428 23:26:48.213328 31705 net.cpp:157] Top shape: 16 64 384 384 (150994944)
I0428 23:26:48.213337 31705 net.cpp:165] Memory required for data: 2670724480
I0428 23:26:48.213342 31705 layer_factory.hpp:77] Creating layer pool1
I0428 23:26:48.213353 31705 net.cpp:100] Creating Layer pool1
I0428 23:26:48.213359 31705 net.cpp:434] pool1 <- conv1_2
I0428 23:26:48.213369 31705 net.cpp:408] pool1 -> pool1
I0428 23:26:48.213449 31705 net.cpp:150] Setting up pool1
I0428 23:26:48.213461 31705 net.cpp:157] Top shape: 16 64 192 192 (37748736)
I0428 23:26:48.213470 31705 net.cpp:165] Memory required for data: 2821719424
I0428 23:26:48.213476 31705 layer_factory.hpp:77] Creating layer conv2_1
I0428 23:26:48.213492 31705 net.cpp:100] Creating Layer conv2_1
I0428 23:26:48.213500 31705 net.cpp:434] conv2_1 <- pool1
I0428 23:26:48.213510 31705 net.cpp:408] conv2_1 -> conv2_1
I0428 23:26:48.215724 31705 net.cpp:150] Setting up conv2_1
I0428 23:26:48.215742 31705 net.cpp:157] Top shape: 16 128 192 192 (75497472)
I0428 23:26:48.215746 31705 net.cpp:165] Memory required for data: 3123709312
I0428 23:26:48.215761 31705 layer_factory.hpp:77] Creating layer relu2_1
I0428 23:26:48.215775 31705 net.cpp:100] Creating Layer relu2_1
I0428 23:26:48.215782 31705 net.cpp:434] relu2_1 <- conv2_1
I0428 23:26:48.215791 31705 net.cpp:395] relu2_1 -> conv2_1 (in-place)
I0428 23:26:48.216015 31705 net.cpp:150] Setting up relu2_1
I0428 23:26:48.216027 31705 net.cpp:157] Top shape: 16 128 192 192 (75497472)
I0428 23:26:48.216032 31705 net.cpp:165] Memory required for data: 3425699200
I0428 23:26:48.216035 31705 layer_factory.hpp:77] Creating layer conv2_2
I0428 23:26:48.216049 31705 net.cpp:100] Creating Layer conv2_2
I0428 23:26:48.216084 31705 net.cpp:434] conv2_2 <- conv2_1
I0428 23:26:48.216099 31705 net.cpp:408] conv2_2 -> conv2_2
I0428 23:26:48.219770 31705 net.cpp:150] Setting up conv2_2
I0428 23:26:48.219789 31705 net.cpp:157] Top shape: 16 128 192 192 (75497472)
I0428 23:26:48.219796 31705 net.cpp:165] Memory required for data: 3727689088
I0428 23:26:48.219812 31705 layer_factory.hpp:77] Creating layer relu2_2
I0428 23:26:48.219825 31705 net.cpp:100] Creating Layer relu2_2
I0428 23:26:48.219833 31705 net.cpp:434] relu2_2 <- conv2_2
I0428 23:26:48.219844 31705 net.cpp:395] relu2_2 -> conv2_2 (in-place)
I0428 23:26:48.220268 31705 net.cpp:150] Setting up relu2_2
I0428 23:26:48.220288 31705 net.cpp:157] Top shape: 16 128 192 192 (75497472)
I0428 23:26:48.220294 31705 net.cpp:165] Memory required for data: 4029678976
I0428 23:26:48.220302 31705 layer_factory.hpp:77] Creating layer pool2
I0428 23:26:48.220314 31705 net.cpp:100] Creating Layer pool2
I0428 23:26:48.220319 31705 net.cpp:434] pool2 <- conv2_2
I0428 23:26:48.220329 31705 net.cpp:408] pool2 -> pool2
I0428 23:26:48.220392 31705 net.cpp:150] Setting up pool2
I0428 23:26:48.220407 31705 net.cpp:157] Top shape: 16 128 96 96 (18874368)
I0428 23:26:48.220413 31705 net.cpp:165] Memory required for data: 4105176448
I0428 23:26:48.220419 31705 layer_factory.hpp:77] Creating layer conv3_1
I0428 23:26:48.220439 31705 net.cpp:100] Creating Layer conv3_1
I0428 23:26:48.220448 31705 net.cpp:434] conv3_1 <- pool2
I0428 23:26:48.220458 31705 net.cpp:408] conv3_1 -> conv3_1
I0428 23:26:48.226207 31705 net.cpp:150] Setting up conv3_1
I0428 23:26:48.226225 31705 net.cpp:157] Top shape: 16 256 96 96 (37748736)
I0428 23:26:48.226229 31705 net.cpp:165] Memory required for data: 4256171392
I0428 23:26:48.226240 31705 layer_factory.hpp:77] Creating layer relu3_1
I0428 23:26:48.226250 31705 net.cpp:100] Creating Layer relu3_1
I0428 23:26:48.226254 31705 net.cpp:434] relu3_1 <- conv3_1
I0428 23:26:48.226263 31705 net.cpp:395] relu3_1 -> conv3_1 (in-place)
I0428 23:26:48.226529 31705 net.cpp:150] Setting up relu3_1
I0428 23:26:48.226547 31705 net.cpp:157] Top shape: 16 256 96 96 (37748736)
I0428 23:26:48.226554 31705 net.cpp:165] Memory required for data: 4407166336
I0428 23:26:48.226560 31705 layer_factory.hpp:77] Creating layer conv3_2
I0428 23:26:48.226581 31705 net.cpp:100] Creating Layer conv3_2
I0428 23:26:48.226588 31705 net.cpp:434] conv3_2 <- conv3_1
I0428 23:26:48.226596 31705 net.cpp:408] conv3_2 -> conv3_2
I0428 23:26:48.234928 31705 net.cpp:150] Setting up conv3_2
I0428 23:26:48.234946 31705 net.cpp:157] Top shape: 16 256 96 96 (37748736)
I0428 23:26:48.234951 31705 net.cpp:165] Memory required for data: 4558161280
I0428 23:26:48.234957 31705 layer_factory.hpp:77] Creating layer relu3_2
I0428 23:26:48.234966 31705 net.cpp:100] Creating Layer relu3_2
I0428 23:26:48.234972 31705 net.cpp:434] relu3_2 <- conv3_2
I0428 23:26:48.234978 31705 net.cpp:395] relu3_2 -> conv3_2 (in-place)
I0428 23:26:48.235199 31705 net.cpp:150] Setting up relu3_2
I0428 23:26:48.235216 31705 net.cpp:157] Top shape: 16 256 96 96 (37748736)
I0428 23:26:48.235224 31705 net.cpp:165] Memory required for data: 4709156224
I0428 23:26:48.235230 31705 layer_factory.hpp:77] Creating layer conv3_3
I0428 23:26:48.235252 31705 net.cpp:100] Creating Layer conv3_3
I0428 23:26:48.235260 31705 net.cpp:434] conv3_3 <- conv3_2
I0428 23:26:48.235272 31705 net.cpp:408] conv3_3 -> conv3_3
I0428 23:26:48.243563 31705 net.cpp:150] Setting up conv3_3
I0428 23:26:48.243582 31705 net.cpp:157] Top shape: 16 256 96 96 (37748736)
I0428 23:26:48.243588 31705 net.cpp:165] Memory required for data: 4860151168
I0428 23:26:48.243598 31705 layer_factory.hpp:77] Creating layer relu3_3
I0428 23:26:48.243611 31705 net.cpp:100] Creating Layer relu3_3
I0428 23:26:48.243620 31705 net.cpp:434] relu3_3 <- conv3_3
I0428 23:26:48.243629 31705 net.cpp:395] relu3_3 -> conv3_3 (in-place)
I0428 23:26:48.244052 31705 net.cpp:150] Setting up relu3_3
I0428 23:26:48.244071 31705 net.cpp:157] Top shape: 16 256 96 96 (37748736)
I0428 23:26:48.244079 31705 net.cpp:165] Memory required for data: 5011146112
I0428 23:26:48.244107 31705 layer_factory.hpp:77] Creating layer conv3_3_relu3_3_0_split
I0428 23:26:48.244125 31705 net.cpp:100] Creating Layer conv3_3_relu3_3_0_split
I0428 23:26:48.244134 31705 net.cpp:434] conv3_3_relu3_3_0_split <- conv3_3
I0428 23:26:48.244144 31705 net.cpp:408] conv3_3_relu3_3_0_split -> conv3_3_relu3_3_0_split_0
I0428 23:26:48.244158 31705 net.cpp:408] conv3_3_relu3_3_0_split -> conv3_3_relu3_3_0_split_1
I0428 23:26:48.244221 31705 net.cpp:150] Setting up conv3_3_relu3_3_0_split
I0428 23:26:48.244235 31705 net.cpp:157] Top shape: 16 256 96 96 (37748736)
I0428 23:26:48.244244 31705 net.cpp:157] Top shape: 16 256 96 96 (37748736)
I0428 23:26:48.244251 31705 net.cpp:165] Memory required for data: 5313136000
I0428 23:26:48.244256 31705 layer_factory.hpp:77] Creating layer pool3
I0428 23:26:48.244268 31705 net.cpp:100] Creating Layer pool3
I0428 23:26:48.244277 31705 net.cpp:434] pool3 <- conv3_3_relu3_3_0_split_0
I0428 23:26:48.244285 31705 net.cpp:408] pool3 -> pool3
I0428 23:26:48.244340 31705 net.cpp:150] Setting up pool3
I0428 23:26:48.244349 31705 net.cpp:157] Top shape: 16 256 48 48 (9437184)
I0428 23:26:48.244352 31705 net.cpp:165] Memory required for data: 5350884736
I0428 23:26:48.244356 31705 layer_factory.hpp:77] Creating layer conv4_1
I0428 23:26:48.244367 31705 net.cpp:100] Creating Layer conv4_1
I0428 23:26:48.244374 31705 net.cpp:434] conv4_1 <- pool3
I0428 23:26:48.244381 31705 net.cpp:408] conv4_1 -> conv4_1
I0428 23:26:48.259012 31705 net.cpp:150] Setting up conv4_1
I0428 23:26:48.259034 31705 net.cpp:157] Top shape: 16 512 48 48 (18874368)
I0428 23:26:48.259040 31705 net.cpp:165] Memory required for data: 5426382208
I0428 23:26:48.259052 31705 layer_factory.hpp:77] Creating layer relu4_1
I0428 23:26:48.259066 31705 net.cpp:100] Creating Layer relu4_1
I0428 23:26:48.259074 31705 net.cpp:434] relu4_1 <- conv4_1
I0428 23:26:48.259084 31705 net.cpp:395] relu4_1 -> conv4_1 (in-place)
I0428 23:26:48.259336 31705 net.cpp:150] Setting up relu4_1
I0428 23:26:48.259352 31705 net.cpp:157] Top shape: 16 512 48 48 (18874368)
I0428 23:26:48.259358 31705 net.cpp:165] Memory required for data: 5501879680
I0428 23:26:48.259366 31705 layer_factory.hpp:77] Creating layer conv4_2
I0428 23:26:48.259388 31705 net.cpp:100] Creating Layer conv4_2
I0428 23:26:48.259402 31705 net.cpp:434] conv4_2 <- conv4_1
I0428 23:26:48.259413 31705 net.cpp:408] conv4_2 -> conv4_2
I0428 23:26:48.274818 31713 blocking_queue.cpp:50] Waiting for data
I0428 23:26:48.288671 31705 net.cpp:150] Setting up conv4_2
I0428 23:26:48.288758 31705 net.cpp:157] Top shape: 16 512 48 48 (18874368)
I0428 23:26:48.288769 31705 net.cpp:165] Memory required for data: 5577377152
I0428 23:26:48.288789 31705 layer_factory.hpp:77] Creating layer relu4_2
I0428 23:26:48.288822 31705 net.cpp:100] Creating Layer relu4_2
I0428 23:26:48.288849 31705 net.cpp:434] relu4_2 <- conv4_2
I0428 23:26:48.288878 31705 net.cpp:395] relu4_2 -> conv4_2 (in-place)
I0428 23:26:48.289111 31705 net.cpp:150] Setting up relu4_2
I0428 23:26:48.289149 31705 net.cpp:157] Top shape: 16 512 48 48 (18874368)
I0428 23:26:48.289170 31705 net.cpp:165] Memory required for data: 5652874624
I0428 23:26:48.289191 31705 layer_factory.hpp:77] Creating layer conv4_3
I0428 23:26:48.289229 31705 net.cpp:100] Creating Layer conv4_3
I0428 23:26:48.289238 31705 net.cpp:434] conv4_3 <- conv4_2
I0428 23:26:48.289247 31705 net.cpp:408] conv4_3 -> conv4_3
I0428 23:26:48.317801 31705 net.cpp:150] Setting up conv4_3
I0428 23:26:48.317876 31705 net.cpp:157] Top shape: 16 512 48 48 (18874368)
I0428 23:26:48.317903 31705 net.cpp:165] Memory required for data: 5728372096
I0428 23:26:48.317931 31705 layer_factory.hpp:77] Creating layer relu4_3
I0428 23:26:48.317960 31705 net.cpp:100] Creating Layer relu4_3
I0428 23:26:48.317970 31705 net.cpp:434] relu4_3 <- conv4_3
I0428 23:26:48.317981 31705 net.cpp:395] relu4_3 -> conv4_3 (in-place)
I0428 23:26:48.318429 31705 net.cpp:150] Setting up relu4_3
I0428 23:26:48.318445 31705 net.cpp:157] Top shape: 16 512 48 48 (18874368)
I0428 23:26:48.318471 31705 net.cpp:165] Memory required for data: 5803869568
I0428 23:26:48.318476 31705 layer_factory.hpp:77] Creating layer conv4_3_relu4_3_0_split
I0428 23:26:48.318488 31705 net.cpp:100] Creating Layer conv4_3_relu4_3_0_split
I0428 23:26:48.318495 31705 net.cpp:434] conv4_3_relu4_3_0_split <- conv4_3
I0428 23:26:48.318506 31705 net.cpp:408] conv4_3_relu4_3_0_split -> conv4_3_relu4_3_0_split_0
I0428 23:26:48.318514 31705 net.cpp:408] conv4_3_relu4_3_0_split -> conv4_3_relu4_3_0_split_1
I0428 23:26:48.318565 31705 net.cpp:150] Setting up conv4_3_relu4_3_0_split
I0428 23:26:48.318576 31705 net.cpp:157] Top shape: 16 512 48 48 (18874368)
I0428 23:26:48.318583 31705 net.cpp:157] Top shape: 16 512 48 48 (18874368)
I0428 23:26:48.318589 31705 net.cpp:165] Memory required for data: 5954864512
I0428 23:26:48.318617 31705 layer_factory.hpp:77] Creating layer pool4
I0428 23:26:48.318647 31705 net.cpp:100] Creating Layer pool4
I0428 23:26:48.318672 31705 net.cpp:434] pool4 <- conv4_3_relu4_3_0_split_0
I0428 23:26:48.318698 31705 net.cpp:408] pool4 -> pool4
I0428 23:26:48.318768 31705 net.cpp:150] Setting up pool4
I0428 23:26:48.318801 31705 net.cpp:157] Top shape: 16 512 24 24 (4718592)
I0428 23:26:48.318821 31705 net.cpp:165] Memory required for data: 5973738880
I0428 23:26:48.318840 31705 layer_factory.hpp:77] Creating layer conv5_1
I0428 23:26:48.318876 31705 net.cpp:100] Creating Layer conv5_1
I0428 23:26:48.318884 31705 net.cpp:434] conv5_1 <- pool4
I0428 23:26:48.318893 31705 net.cpp:408] conv5_1 -> conv5_1
I0428 23:26:48.347542 31705 net.cpp:150] Setting up conv5_1
I0428 23:26:48.347626 31705 net.cpp:157] Top shape: 16 512 24 24 (4718592)
I0428 23:26:48.347653 31705 net.cpp:165] Memory required for data: 5992613248
I0428 23:26:48.347672 31705 layer_factory.hpp:77] Creating layer relu5_1
I0428 23:26:48.347692 31705 net.cpp:100] Creating Layer relu5_1
I0428 23:26:48.347700 31705 net.cpp:434] relu5_1 <- conv5_1
I0428 23:26:48.347709 31705 net.cpp:395] relu5_1 -> conv5_1 (in-place)
I0428 23:26:48.347942 31705 net.cpp:150] Setting up relu5_1
I0428 23:26:48.347956 31705 net.cpp:157] Top shape: 16 512 24 24 (4718592)
I0428 23:26:48.347962 31705 net.cpp:165] Memory required for data: 6011487616
I0428 23:26:48.347966 31705 layer_factory.hpp:77] Creating layer conv5_2
I0428 23:26:48.347982 31705 net.cpp:100] Creating Layer conv5_2
I0428 23:26:48.347990 31705 net.cpp:434] conv5_2 <- conv5_1
I0428 23:26:48.348002 31705 net.cpp:408] conv5_2 -> conv5_2
I0428 23:26:48.376587 31705 net.cpp:150] Setting up conv5_2
I0428 23:26:48.376621 31705 net.cpp:157] Top shape: 16 512 24 24 (4718592)
I0428 23:26:48.376628 31705 net.cpp:165] Memory required for data: 6030361984
I0428 23:26:48.376643 31705 layer_factory.hpp:77] Creating layer relu5_2
I0428 23:26:48.376660 31705 net.cpp:100] Creating Layer relu5_2
I0428 23:26:48.376694 31705 net.cpp:434] relu5_2 <- conv5_2
I0428 23:26:48.376726 31705 net.cpp:395] relu5_2 -> conv5_2 (in-place)
I0428 23:26:48.376967 31705 net.cpp:150] Setting up relu5_2
I0428 23:26:48.376981 31705 net.cpp:157] Top shape: 16 512 24 24 (4718592)
I0428 23:26:48.376986 31705 net.cpp:165] Memory required for data: 6049236352
I0428 23:26:48.376991 31705 layer_factory.hpp:77] Creating layer conv5_3
I0428 23:26:48.377014 31705 net.cpp:100] Creating Layer conv5_3
I0428 23:26:48.377022 31705 net.cpp:434] conv5_3 <- conv5_2
I0428 23:26:48.377029 31705 net.cpp:408] conv5_3 -> conv5_3
I0428 23:26:48.407729 31705 net.cpp:150] Setting up conv5_3
I0428 23:26:48.407778 31705 net.cpp:157] Top shape: 16 512 24 24 (4718592)
I0428 23:26:48.407784 31705 net.cpp:165] Memory required for data: 6068110720
I0428 23:26:48.407814 31705 layer_factory.hpp:77] Creating layer relu5_3
I0428 23:26:48.407861 31705 net.cpp:100] Creating Layer relu5_3
I0428 23:26:48.407899 31705 net.cpp:434] relu5_3 <- conv5_3
I0428 23:26:48.407922 31705 net.cpp:395] relu5_3 -> conv5_3 (in-place)
I0428 23:26:48.408311 31705 net.cpp:150] Setting up relu5_3
I0428 23:26:48.408329 31705 net.cpp:157] Top shape: 16 512 24 24 (4718592)
I0428 23:26:48.408336 31705 net.cpp:165] Memory required for data: 6086985088
I0428 23:26:48.408391 31705 layer_factory.hpp:77] Creating layer pool5
I0428 23:26:48.408407 31705 net.cpp:100] Creating Layer pool5
I0428 23:26:48.408427 31705 net.cpp:434] pool5 <- conv5_3
I0428 23:26:48.408463 31705 net.cpp:408] pool5 -> pool5
I0428 23:26:48.408535 31705 net.cpp:150] Setting up pool5
I0428 23:26:48.408548 31705 net.cpp:157] Top shape: 16 512 24 24 (4718592)
I0428 23:26:48.408555 31705 net.cpp:165] Memory required for data: 6105859456
I0428 23:26:48.408561 31705 layer_factory.hpp:77] Creating layer fc6
I0428 23:26:48.408596 31705 net.cpp:100] Creating Layer fc6
I0428 23:26:48.408607 31705 net.cpp:434] fc6 <- pool5
I0428 23:26:48.408620 31705 net.cpp:408] fc6 -> fc6
I0428 23:26:48.460129 31705 net.cpp:150] Setting up fc6
I0428 23:26:48.460170 31705 net.cpp:157] Top shape: 16 1024 24 24 (9437184)
I0428 23:26:48.460177 31705 net.cpp:165] Memory required for data: 6143608192
I0428 23:26:48.460201 31705 layer_factory.hpp:77] Creating layer relu6
I0428 23:26:48.460222 31705 net.cpp:100] Creating Layer relu6
I0428 23:26:48.460232 31705 net.cpp:434] relu6 <- fc6
I0428 23:26:48.460253 31705 net.cpp:395] relu6 -> fc6 (in-place)
I0428 23:26:48.460536 31705 net.cpp:150] Setting up relu6
I0428 23:26:48.460551 31705 net.cpp:157] Top shape: 16 1024 24 24 (9437184)
I0428 23:26:48.460558 31705 net.cpp:165] Memory required for data: 6181356928
I0428 23:26:48.460566 31705 layer_factory.hpp:77] Creating layer fc7
I0428 23:26:48.460592 31705 net.cpp:100] Creating Layer fc7
I0428 23:26:48.460602 31705 net.cpp:434] fc7 <- fc6
I0428 23:26:48.460614 31705 net.cpp:408] fc7 -> fc7
I0428 23:26:48.473407 31705 net.cpp:150] Setting up fc7
I0428 23:26:48.473428 31705 net.cpp:157] Top shape: 16 1024 24 24 (9437184)
I0428 23:26:48.473435 31705 net.cpp:165] Memory required for data: 6219105664
I0428 23:26:48.473448 31705 layer_factory.hpp:77] Creating layer relu7
I0428 23:26:48.473469 31705 net.cpp:100] Creating Layer relu7
I0428 23:26:48.473487 31705 net.cpp:434] relu7 <- fc7
I0428 23:26:48.473505 31705 net.cpp:395] relu7 -> fc7 (in-place)
I0428 23:26:48.473906 31705 net.cpp:150] Setting up relu7
I0428 23:26:48.473925 31705 net.cpp:157] Top shape: 16 1024 24 24 (9437184)
I0428 23:26:48.473932 31705 net.cpp:165] Memory required for data: 6256854400
I0428 23:26:48.473947 31705 layer_factory.hpp:77] Creating layer fc7_relu7_0_split
I0428 23:26:48.473965 31705 net.cpp:100] Creating Layer fc7_relu7_0_split
I0428 23:26:48.473975 31705 net.cpp:434] fc7_relu7_0_split <- fc7
I0428 23:26:48.473987 31705 net.cpp:408] fc7_relu7_0_split -> fc7_relu7_0_split_0
I0428 23:26:48.474000 31705 net.cpp:408] fc7_relu7_0_split -> fc7_relu7_0_split_1
I0428 23:26:48.474020 31705 net.cpp:408] fc7_relu7_0_split -> fc7_relu7_0_split_2
I0428 23:26:48.474035 31705 net.cpp:408] fc7_relu7_0_split -> fc7_relu7_0_split_3
I0428 23:26:48.474123 31705 net.cpp:150] Setting up fc7_relu7_0_split
I0428 23:26:48.474136 31705 net.cpp:157] Top shape: 16 1024 24 24 (9437184)
I0428 23:26:48.474145 31705 net.cpp:157] Top shape: 16 1024 24 24 (9437184)
I0428 23:26:48.474153 31705 net.cpp:157] Top shape: 16 1024 24 24 (9437184)
I0428 23:26:48.474161 31705 net.cpp:157] Top shape: 16 1024 24 24 (9437184)
I0428 23:26:48.474167 31705 net.cpp:165] Memory required for data: 6407849344
I0428 23:26:48.474174 31705 layer_factory.hpp:77] Creating layer conv6_1
I0428 23:26:48.474192 31705 net.cpp:100] Creating Layer conv6_1
I0428 23:26:48.474208 31705 net.cpp:434] conv6_1 <- fc7_relu7_0_split_0
I0428 23:26:48.474222 31705 net.cpp:408] conv6_1 -> conv6_1
I0428 23:26:48.478241 31705 net.cpp:150] Setting up conv6_1
I0428 23:26:48.478260 31705 net.cpp:157] Top shape: 16 256 24 24 (2359296)
I0428 23:26:48.478267 31705 net.cpp:165] Memory required for data: 6417286528
I0428 23:26:48.478279 31705 layer_factory.hpp:77] Creating layer conv6_1_relu
I0428 23:26:48.478289 31705 net.cpp:100] Creating Layer conv6_1_relu
I0428 23:26:48.478297 31705 net.cpp:434] conv6_1_relu <- conv6_1
I0428 23:26:48.478320 31705 net.cpp:395] conv6_1_relu -> conv6_1 (in-place)
I0428 23:26:48.478726 31705 net.cpp:150] Setting up conv6_1_relu
I0428 23:26:48.478744 31705 net.cpp:157] Top shape: 16 256 24 24 (2359296)
I0428 23:26:48.478749 31705 net.cpp:165] Memory required for data: 6426723712
I0428 23:26:48.478756 31705 layer_factory.hpp:77] Creating layer conv6_2
I0428 23:26:48.478785 31705 net.cpp:100] Creating Layer conv6_2
I0428 23:26:48.478796 31705 net.cpp:434] conv6_2 <- conv6_1
I0428 23:26:48.478814 31705 net.cpp:408] conv6_2 -> conv6_2
I0428 23:26:48.492679 31705 net.cpp:150] Setting up conv6_2
I0428 23:26:48.492702 31705 net.cpp:157] Top shape: 16 512 12 12 (1179648)
I0428 23:26:48.492708 31705 net.cpp:165] Memory required for data: 6431442304
I0428 23:26:48.492748 31705 layer_factory.hpp:77] Creating layer conv6_2_relu
I0428 23:26:48.492761 31705 net.cpp:100] Creating Layer conv6_2_relu
I0428 23:26:48.492770 31705 net.cpp:434] conv6_2_relu <- conv6_2
I0428 23:26:48.492784 31705 net.cpp:395] conv6_2_relu -> conv6_2 (in-place)
I0428 23:26:48.493003 31705 net.cpp:150] Setting up conv6_2_relu
I0428 23:26:48.493018 31705 net.cpp:157] Top shape: 16 512 12 12 (1179648)
I0428 23:26:48.493026 31705 net.cpp:165] Memory required for data: 6436160896
I0428 23:26:48.493031 31705 layer_factory.hpp:77] Creating layer conv6_2_conv6_2_relu_0_split
I0428 23:26:48.493044 31705 net.cpp:100] Creating Layer conv6_2_conv6_2_relu_0_split
I0428 23:26:48.493052 31705 net.cpp:434] conv6_2_conv6_2_relu_0_split <- conv6_2
I0428 23:26:48.493062 31705 net.cpp:408] conv6_2_conv6_2_relu_0_split -> conv6_2_conv6_2_relu_0_split_0
I0428 23:26:48.493075 31705 net.cpp:408] conv6_2_conv6_2_relu_0_split -> conv6_2_conv6_2_relu_0_split_1
I0428 23:26:48.493095 31705 net.cpp:408] conv6_2_conv6_2_relu_0_split -> conv6_2_conv6_2_relu_0_split_2
I0428 23:26:48.493108 31705 net.cpp:408] conv6_2_conv6_2_relu_0_split -> conv6_2_conv6_2_relu_0_split_3
I0428 23:26:48.493201 31705 net.cpp:150] Setting up conv6_2_conv6_2_relu_0_split
I0428 23:26:48.493212 31705 net.cpp:157] Top shape: 16 512 12 12 (1179648)
I0428 23:26:48.493221 31705 net.cpp:157] Top shape: 16 512 12 12 (1179648)
I0428 23:26:48.493228 31705 net.cpp:157] Top shape: 16 512 12 12 (1179648)
I0428 23:26:48.493237 31705 net.cpp:157] Top shape: 16 512 12 12 (1179648)
I0428 23:26:48.493242 31705 net.cpp:165] Memory required for data: 6455035264
I0428 23:26:48.493248 31705 layer_factory.hpp:77] Creating layer conv7_1
I0428 23:26:48.493273 31705 net.cpp:100] Creating Layer conv7_1
I0428 23:26:48.493283 31705 net.cpp:434] conv7_1 <- conv6_2_conv6_2_relu_0_split_0
I0428 23:26:48.493299 31705 net.cpp:408] conv7_1 -> conv7_1
I0428 23:26:48.495329 31705 net.cpp:150] Setting up conv7_1
I0428 23:26:48.495348 31705 net.cpp:157] Top shape: 16 128 12 12 (294912)
I0428 23:26:48.495357 31705 net.cpp:165] Memory required for data: 6456214912
I0428 23:26:48.495376 31705 layer_factory.hpp:77] Creating layer conv7_1_relu
I0428 23:26:48.495404 31705 net.cpp:100] Creating Layer conv7_1_relu
I0428 23:26:48.495421 31705 net.cpp:434] conv7_1_relu <- conv7_1
I0428 23:26:48.495434 31705 net.cpp:395] conv7_1_relu -> conv7_1 (in-place)
I0428 23:26:48.495826 31705 net.cpp:150] Setting up conv7_1_relu
I0428 23:26:48.495842 31705 net.cpp:157] Top shape: 16 128 12 12 (294912)
I0428 23:26:48.495848 31705 net.cpp:165] Memory required for data: 6457394560
I0428 23:26:48.495856 31705 layer_factory.hpp:77] Creating layer conv7_2
I0428 23:26:48.495882 31705 net.cpp:100] Creating Layer conv7_2
I0428 23:26:48.495893 31705 net.cpp:434] conv7_2 <- conv7_1
I0428 23:26:48.495905 31705 net.cpp:408] conv7_2 -> conv7_2
I0428 23:26:48.500357 31705 net.cpp:150] Setting up conv7_2
I0428 23:26:48.500376 31705 net.cpp:157] Top shape: 16 256 6 6 (147456)
I0428 23:26:48.500385 31705 net.cpp:165] Memory required for data: 6457984384
I0428 23:26:48.500396 31705 layer_factory.hpp:77] Creating layer conv7_2_relu
I0428 23:26:48.500416 31705 net.cpp:100] Creating Layer conv7_2_relu
I0428 23:26:48.500434 31705 net.cpp:434] conv7_2_relu <- conv7_2
I0428 23:26:48.500447 31705 net.cpp:395] conv7_2_relu -> conv7_2 (in-place)
I0428 23:26:48.500855 31705 net.cpp:150] Setting up conv7_2_relu
I0428 23:26:48.500872 31705 net.cpp:157] Top shape: 16 256 6 6 (147456)
I0428 23:26:48.500880 31705 net.cpp:165] Memory required for data: 6458574208
I0428 23:26:48.500893 31705 layer_factory.hpp:77] Creating layer conv7_2_conv7_2_relu_0_split
I0428 23:26:48.500905 31705 net.cpp:100] Creating Layer conv7_2_conv7_2_relu_0_split
I0428 23:26:48.500912 31705 net.cpp:434] conv7_2_conv7_2_relu_0_split <- conv7_2
I0428 23:26:48.500926 31705 net.cpp:408] conv7_2_conv7_2_relu_0_split -> conv7_2_conv7_2_relu_0_split_0
I0428 23:26:48.500946 31705 net.cpp:408] conv7_2_conv7_2_relu_0_split -> conv7_2_conv7_2_relu_0_split_1
I0428 23:26:48.500962 31705 net.cpp:408] conv7_2_conv7_2_relu_0_split -> conv7_2_conv7_2_relu_0_split_2
I0428 23:26:48.500977 31705 net.cpp:408] conv7_2_conv7_2_relu_0_split -> conv7_2_conv7_2_relu_0_split_3
I0428 23:26:48.501067 31705 net.cpp:150] Setting up conv7_2_conv7_2_relu_0_split
I0428 23:26:48.501081 31705 net.cpp:157] Top shape: 16 256 6 6 (147456)
I0428 23:26:48.501091 31705 net.cpp:157] Top shape: 16 256 6 6 (147456)
I0428 23:26:48.501098 31705 net.cpp:157] Top shape: 16 256 6 6 (147456)
I0428 23:26:48.501106 31705 net.cpp:157] Top shape: 16 256 6 6 (147456)
I0428 23:26:48.501112 31705 net.cpp:165] Memory required for data: 6460933504
I0428 23:26:48.501119 31705 layer_factory.hpp:77] Creating layer conv8_1
I0428 23:26:48.501135 31705 net.cpp:100] Creating Layer conv8_1
I0428 23:26:48.501144 31705 net.cpp:434] conv8_1 <- conv7_2_conv7_2_relu_0_split_0
I0428 23:26:48.501168 31705 net.cpp:408] conv8_1 -> conv8_1
I0428 23:26:48.502714 31705 net.cpp:150] Setting up conv8_1
I0428 23:26:48.502732 31705 net.cpp:157] Top shape: 16 128 6 6 (73728)
I0428 23:26:48.502739 31705 net.cpp:165] Memory required for data: 6461228416
I0428 23:26:48.502751 31705 layer_factory.hpp:77] Creating layer conv8_1_relu
I0428 23:26:48.502763 31705 net.cpp:100] Creating Layer conv8_1_relu
I0428 23:26:48.502770 31705 net.cpp:434] conv8_1_relu <- conv8_1
I0428 23:26:48.502780 31705 net.cpp:395] conv8_1_relu -> conv8_1 (in-place)
I0428 23:26:48.502985 31705 net.cpp:150] Setting up conv8_1_relu
I0428 23:26:48.503000 31705 net.cpp:157] Top shape: 16 128 6 6 (73728)
I0428 23:26:48.503005 31705 net.cpp:165] Memory required for data: 6461523328
I0428 23:26:48.503020 31705 layer_factory.hpp:77] Creating layer conv8_2
I0428 23:26:48.503042 31705 net.cpp:100] Creating Layer conv8_2
I0428 23:26:48.503052 31705 net.cpp:434] conv8_2 <- conv8_1
I0428 23:26:48.503067 31705 net.cpp:408] conv8_2 -> conv8_2
I0428 23:26:48.507660 31705 net.cpp:150] Setting up conv8_2
I0428 23:26:48.507678 31705 net.cpp:157] Top shape: 16 256 4 4 (65536)
I0428 23:26:48.507686 31705 net.cpp:165] Memory required for data: 6461785472
I0428 23:26:48.507697 31705 layer_factory.hpp:77] Creating layer conv8_2_relu
I0428 23:26:48.507711 31705 net.cpp:100] Creating Layer conv8_2_relu
I0428 23:26:48.507719 31705 net.cpp:434] conv8_2_relu <- conv8_2
I0428 23:26:48.507730 31705 net.cpp:395] conv8_2_relu -> conv8_2 (in-place)
I0428 23:26:48.508122 31705 net.cpp:150] Setting up conv8_2_relu
I0428 23:26:48.508139 31705 net.cpp:157] Top shape: 16 256 4 4 (65536)
I0428 23:26:48.508146 31705 net.cpp:165] Memory required for data: 6462047616
I0428 23:26:48.508152 31705 layer_factory.hpp:77] Creating layer conv8_2_conv8_2_relu_0_split
I0428 23:26:48.508167 31705 net.cpp:100] Creating Layer conv8_2_conv8_2_relu_0_split
I0428 23:26:48.508174 31705 net.cpp:434] conv8_2_conv8_2_relu_0_split <- conv8_2
I0428 23:26:48.508186 31705 net.cpp:408] conv8_2_conv8_2_relu_0_split -> conv8_2_conv8_2_relu_0_split_0
I0428 23:26:48.508208 31705 net.cpp:408] conv8_2_conv8_2_relu_0_split -> conv8_2_conv8_2_relu_0_split_1
I0428 23:26:48.508224 31705 net.cpp:408] conv8_2_conv8_2_relu_0_split -> conv8_2_conv8_2_relu_0_split_2
I0428 23:26:48.508240 31705 net.cpp:408] conv8_2_conv8_2_relu_0_split -> conv8_2_conv8_2_relu_0_split_3
I0428 23:26:48.508332 31705 net.cpp:150] Setting up conv8_2_conv8_2_relu_0_split
I0428 23:26:48.508344 31705 net.cpp:157] Top shape: 16 256 4 4 (65536)
I0428 23:26:48.508368 31705 net.cpp:157] Top shape: 16 256 4 4 (65536)
I0428 23:26:48.508379 31705 net.cpp:157] Top shape: 16 256 4 4 (65536)
I0428 23:26:48.508388 31705 net.cpp:157] Top shape: 16 256 4 4 (65536)
I0428 23:26:48.508394 31705 net.cpp:165] Memory required for data: 6463096192
I0428 23:26:48.508400 31705 layer_factory.hpp:77] Creating layer conv9_1
I0428 23:26:48.508424 31705 net.cpp:100] Creating Layer conv9_1
I0428 23:26:48.508433 31705 net.cpp:434] conv9_1 <- conv8_2_conv8_2_relu_0_split_0
I0428 23:26:48.508448 31705 net.cpp:408] conv9_1 -> conv9_1
I0428 23:26:48.509836 31705 net.cpp:150] Setting up conv9_1
I0428 23:26:48.509855 31705 net.cpp:157] Top shape: 16 128 4 4 (32768)
I0428 23:26:48.509861 31705 net.cpp:165] Memory required for data: 6463227264
I0428 23:26:48.509879 31705 layer_factory.hpp:77] Creating layer conv9_1_relu
I0428 23:26:48.509892 31705 net.cpp:100] Creating Layer conv9_1_relu
I0428 23:26:48.509901 31705 net.cpp:434] conv9_1_relu <- conv9_1
I0428 23:26:48.509915 31705 net.cpp:395] conv9_1_relu -> conv9_1 (in-place)
I0428 23:26:48.510299 31705 net.cpp:150] Setting up conv9_1_relu
I0428 23:26:48.510316 31705 net.cpp:157] Top shape: 16 128 4 4 (32768)
I0428 23:26:48.510324 31705 net.cpp:165] Memory required for data: 6463358336
I0428 23:26:48.510330 31705 layer_factory.hpp:77] Creating layer conv9_2
I0428 23:26:48.510349 31705 net.cpp:100] Creating Layer conv9_2
I0428 23:26:48.510360 31705 net.cpp:434] conv9_2 <- conv9_1
I0428 23:26:48.510376 31705 net.cpp:408] conv9_2 -> conv9_2
I0428 23:26:48.515147 31705 net.cpp:150] Setting up conv9_2
I0428 23:26:48.515166 31705 net.cpp:157] Top shape: 16 256 2 2 (16384)
I0428 23:26:48.515174 31705 net.cpp:165] Memory required for data: 6463423872
I0428 23:26:48.515185 31705 layer_factory.hpp:77] Creating layer conv9_2_relu
I0428 23:26:48.515200 31705 net.cpp:100] Creating Layer conv9_2_relu
I0428 23:26:48.515219 31705 net.cpp:434] conv9_2_relu <- conv9_2
I0428 23:26:48.515230 31705 net.cpp:395] conv9_2_relu -> conv9_2 (in-place)
I0428 23:26:48.515439 31705 net.cpp:150] Setting up conv9_2_relu
I0428 23:26:48.515455 31705 net.cpp:157] Top shape: 16 256 2 2 (16384)
I0428 23:26:48.515460 31705 net.cpp:165] Memory required for data: 6463489408
I0428 23:26:48.515475 31705 layer_factory.hpp:77] Creating layer conv9_2_conv9_2_relu_0_split
I0428 23:26:48.515491 31705 net.cpp:100] Creating Layer conv9_2_conv9_2_relu_0_split
I0428 23:26:48.515501 31705 net.cpp:434] conv9_2_conv9_2_relu_0_split <- conv9_2
I0428 23:26:48.515512 31705 net.cpp:408] conv9_2_conv9_2_relu_0_split -> conv9_2_conv9_2_relu_0_split_0
I0428 23:26:48.515527 31705 net.cpp:408] conv9_2_conv9_2_relu_0_split -> conv9_2_conv9_2_relu_0_split_1
I0428 23:26:48.515542 31705 net.cpp:408] conv9_2_conv9_2_relu_0_split -> conv9_2_conv9_2_relu_0_split_2
I0428 23:26:48.515621 31705 net.cpp:150] Setting up conv9_2_conv9_2_relu_0_split
I0428 23:26:48.515633 31705 net.cpp:157] Top shape: 16 256 2 2 (16384)
I0428 23:26:48.515641 31705 net.cpp:157] Top shape: 16 256 2 2 (16384)
I0428 23:26:48.515650 31705 net.cpp:157] Top shape: 16 256 2 2 (16384)
I0428 23:26:48.515655 31705 net.cpp:165] Memory required for data: 6463686016
I0428 23:26:48.515661 31705 layer_factory.hpp:77] Creating layer conv3_3_norm
I0428 23:26:48.515684 31705 net.cpp:100] Creating Layer conv3_3_norm
I0428 23:26:48.515693 31705 net.cpp:434] conv3_3_norm <- conv3_3_relu3_3_0_split_1
I0428 23:26:48.515704 31705 net.cpp:408] conv3_3_norm -> conv3_3_norm
I0428 23:26:48.515899 31705 net.cpp:150] Setting up conv3_3_norm
I0428 23:26:48.515913 31705 net.cpp:157] Top shape: 16 256 96 96 (37748736)
I0428 23:26:48.515918 31705 net.cpp:165] Memory required for data: 6614680960
I0428 23:26:48.515928 31705 layer_factory.hpp:77] Creating layer conv3_3_norm_conv3_3_norm_0_split
I0428 23:26:48.515936 31705 net.cpp:100] Creating Layer conv3_3_norm_conv3_3_norm_0_split
I0428 23:26:48.515944 31705 net.cpp:434] conv3_3_norm_conv3_3_norm_0_split <- conv3_3_norm
I0428 23:26:48.515959 31705 net.cpp:408] conv3_3_norm_conv3_3_norm_0_split -> conv3_3_norm_conv3_3_norm_0_split_0
I0428 23:26:48.515985 31705 net.cpp:408] conv3_3_norm_conv3_3_norm_0_split -> conv3_3_norm_conv3_3_norm_0_split_1
I0428 23:26:48.515998 31705 net.cpp:408] conv3_3_norm_conv3_3_norm_0_split -> conv3_3_norm_conv3_3_norm_0_split_2
I0428 23:26:48.516072 31705 net.cpp:150] Setting up conv3_3_norm_conv3_3_norm_0_split
I0428 23:26:48.516085 31705 net.cpp:157] Top shape: 16 256 96 96 (37748736)
I0428 23:26:48.516093 31705 net.cpp:157] Top shape: 16 256 96 96 (37748736)
I0428 23:26:48.516103 31705 net.cpp:157] Top shape: 16 256 96 96 (37748736)
I0428 23:26:48.516111 31705 net.cpp:165] Memory required for data: 7067665792
I0428 23:26:48.516119 31705 layer_factory.hpp:77] Creating layer conv3_3_norm_mbox_loc
I0428 23:26:48.516141 31705 net.cpp:100] Creating Layer conv3_3_norm_mbox_loc
I0428 23:26:48.516151 31705 net.cpp:434] conv3_3_norm_mbox_loc <- conv3_3_norm_conv3_3_norm_0_split_0
I0428 23:26:48.516163 31705 net.cpp:408] conv3_3_norm_mbox_loc -> conv3_3_norm_mbox_loc
I0428 23:26:48.529284 31705 net.cpp:150] Setting up conv3_3_norm_mbox_loc
I0428 23:26:48.529304 31705 net.cpp:157] Top shape: 16 288 96 96 (42467328)
I0428 23:26:48.529312 31705 net.cpp:165] Memory required for data: 7237535104
I0428 23:26:48.529325 31705 layer_factory.hpp:77] Creating layer conv3_3_norm_mbox_loc_perm
I0428 23:26:48.529356 31705 net.cpp:100] Creating Layer conv3_3_norm_mbox_loc_perm
I0428 23:26:48.529368 31705 net.cpp:434] conv3_3_norm_mbox_loc_perm <- conv3_3_norm_mbox_loc
I0428 23:26:48.529383 31705 net.cpp:408] conv3_3_norm_mbox_loc_perm -> conv3_3_norm_mbox_loc_perm
I0428 23:26:48.529530 31705 net.cpp:150] Setting up conv3_3_norm_mbox_loc_perm
I0428 23:26:48.529542 31705 net.cpp:157] Top shape: 16 96 96 288 (42467328)
I0428 23:26:48.529548 31705 net.cpp:165] Memory required for data: 7407404416
I0428 23:26:48.529556 31705 layer_factory.hpp:77] Creating layer conv3_3_norm_mbox_loc_flat
I0428 23:26:48.529605 31705 net.cpp:100] Creating Layer conv3_3_norm_mbox_loc_flat
I0428 23:26:48.529615 31705 net.cpp:434] conv3_3_norm_mbox_loc_flat <- conv3_3_norm_mbox_loc_perm
I0428 23:26:48.529628 31705 net.cpp:408] conv3_3_norm_mbox_loc_flat -> conv3_3_norm_mbox_loc_flat
I0428 23:26:48.529672 31705 net.cpp:150] Setting up conv3_3_norm_mbox_loc_flat
I0428 23:26:48.529685 31705 net.cpp:157] Top shape: 16 2654208 (42467328)
I0428 23:26:48.529691 31705 net.cpp:165] Memory required for data: 7577273728
I0428 23:26:48.529698 31705 layer_factory.hpp:77] Creating layer conv3_3_norm_mbox_conf
I0428 23:26:48.529713 31705 net.cpp:100] Creating Layer conv3_3_norm_mbox_conf
I0428 23:26:48.529723 31705 net.cpp:434] conv3_3_norm_mbox_conf <- conv3_3_norm_conv3_3_norm_0_split_1
I0428 23:26:48.529737 31705 net.cpp:408] conv3_3_norm_mbox_conf -> conv3_3_norm_mbox_conf
I0428 23:26:48.533298 31705 net.cpp:150] Setting up conv3_3_norm_mbox_conf
I0428 23:26:48.533316 31705 net.cpp:157] Top shape: 16 48 96 96 (7077888)
I0428 23:26:48.533324 31705 net.cpp:165] Memory required for data: 7605585280
I0428 23:26:48.533342 31705 layer_factory.hpp:77] Creating layer conv3_3_norm_mbox_conf_perm
I0428 23:26:48.533370 31705 net.cpp:100] Creating Layer conv3_3_norm_mbox_conf_perm
I0428 23:26:48.533382 31705 net.cpp:434] conv3_3_norm_mbox_conf_perm <- conv3_3_norm_mbox_conf
I0428 23:26:48.533393 31705 net.cpp:408] conv3_3_norm_mbox_conf_perm -> conv3_3_norm_mbox_conf_perm
I0428 23:26:48.533530 31705 net.cpp:150] Setting up conv3_3_norm_mbox_conf_perm
I0428 23:26:48.533543 31705 net.cpp:157] Top shape: 16 96 96 48 (7077888)
I0428 23:26:48.533550 31705 net.cpp:165] Memory required for data: 7633896832
I0428 23:26:48.533556 31705 layer_factory.hpp:77] Creating layer conv3_3_norm_mbox_conf_flat
I0428 23:26:48.533565 31705 net.cpp:100] Creating Layer conv3_3_norm_mbox_conf_flat
I0428 23:26:48.533573 31705 net.cpp:434] conv3_3_norm_mbox_conf_flat <- conv3_3_norm_mbox_conf_perm
I0428 23:26:48.533586 31705 net.cpp:408] conv3_3_norm_mbox_conf_flat -> conv3_3_norm_mbox_conf_flat
I0428 23:26:48.533633 31705 net.cpp:150] Setting up conv3_3_norm_mbox_conf_flat
I0428 23:26:48.533660 31705 net.cpp:157] Top shape: 16 442368 (7077888)
I0428 23:26:48.533668 31705 net.cpp:165] Memory required for data: 7662208384
I0428 23:26:48.533675 31705 layer_factory.hpp:77] Creating layer conv3_3_norm_mbox_priorbox
I0428 23:26:48.533687 31705 net.cpp:100] Creating Layer conv3_3_norm_mbox_priorbox
I0428 23:26:48.533695 31705 net.cpp:434] conv3_3_norm_mbox_priorbox <- conv3_3_norm_conv3_3_norm_0_split_2
I0428 23:26:48.533705 31705 net.cpp:434] conv3_3_norm_mbox_priorbox <- data_data_0_split_1
I0428 23:26:48.533720 31705 net.cpp:408] conv3_3_norm_mbox_priorbox -> conv3_3_norm_mbox_priorbox
I0428 23:26:48.533767 31705 net.cpp:150] Setting up conv3_3_norm_mbox_priorbox
I0428 23:26:48.533782 31705 net.cpp:157] Top shape: 1 2 884736 (1769472)
I0428 23:26:48.533788 31705 net.cpp:165] Memory required for data: 7669286272
I0428 23:26:48.533795 31705 layer_factory.hpp:77] Creating layer conv4_3_norm
I0428 23:26:48.533823 31705 net.cpp:100] Creating Layer conv4_3_norm
I0428 23:26:48.533831 31705 net.cpp:434] conv4_3_norm <- conv4_3_relu4_3_0_split_1
I0428 23:26:48.533844 31705 net.cpp:408] conv4_3_norm -> conv4_3_norm
I0428 23:26:48.534044 31705 net.cpp:150] Setting up conv4_3_norm
I0428 23:26:48.534057 31705 net.cpp:157] Top shape: 16 512 48 48 (18874368)
I0428 23:26:48.534063 31705 net.cpp:165] Memory required for data: 7744783744
I0428 23:26:48.534073 31705 layer_factory.hpp:77] Creating layer conv4_3_norm_conv4_3_norm_0_split
I0428 23:26:48.534083 31705 net.cpp:100] Creating Layer conv4_3_norm_conv4_3_norm_0_split
I0428 23:26:48.534090 31705 net.cpp:434] conv4_3_norm_conv4_3_norm_0_split <- conv4_3_norm
I0428 23:26:48.534101 31705 net.cpp:408] conv4_3_norm_conv4_3_norm_0_split -> conv4_3_norm_conv4_3_norm_0_split_0
I0428 23:26:48.534116 31705 net.cpp:408] conv4_3_norm_conv4_3_norm_0_split -> conv4_3_norm_conv4_3_norm_0_split_1
I0428 23:26:48.534132 31705 net.cpp:408] conv4_3_norm_conv4_3_norm_0_split -> conv4_3_norm_conv4_3_norm_0_split_2
I0428 23:26:48.534205 31705 net.cpp:150] Setting up conv4_3_norm_conv4_3_norm_0_split
I0428 23:26:48.534217 31705 net.cpp:157] Top shape: 16 512 48 48 (18874368)
I0428 23:26:48.534225 31705 net.cpp:157] Top shape: 16 512 48 48 (18874368)
I0428 23:26:48.534235 31705 net.cpp:157] Top shape: 16 512 48 48 (18874368)
I0428 23:26:48.534240 31705 net.cpp:165] Memory required for data: 7971276160
I0428 23:26:48.534246 31705 layer_factory.hpp:77] Creating layer conv4_3_norm_mbox_loc
I0428 23:26:48.534260 31705 net.cpp:100] Creating Layer conv4_3_norm_mbox_loc
I0428 23:26:48.534267 31705 net.cpp:434] conv4_3_norm_mbox_loc <- conv4_3_norm_conv4_3_norm_0_split_0
I0428 23:26:48.534281 31705 net.cpp:408] conv4_3_norm_mbox_loc -> conv4_3_norm_mbox_loc
I0428 23:26:48.559232 31705 net.cpp:150] Setting up conv4_3_norm_mbox_loc
I0428 23:26:48.559267 31705 net.cpp:157] Top shape: 16 288 48 48 (10616832)
I0428 23:26:48.559275 31705 net.cpp:165] Memory required for data: 8013743488
I0428 23:26:48.559288 31705 layer_factory.hpp:77] Creating layer conv4_3_norm_mbox_loc_perm
I0428 23:26:48.559317 31705 net.cpp:100] Creating Layer conv4_3_norm_mbox_loc_perm
I0428 23:26:48.559337 31705 net.cpp:434] conv4_3_norm_mbox_loc_perm <- conv4_3_norm_mbox_loc
I0428 23:26:48.559351 31705 net.cpp:408] conv4_3_norm_mbox_loc_perm -> conv4_3_norm_mbox_loc_perm
I0428 23:26:48.559502 31705 net.cpp:150] Setting up conv4_3_norm_mbox_loc_perm
I0428 23:26:48.559515 31705 net.cpp:157] Top shape: 16 48 48 288 (10616832)
I0428 23:26:48.559521 31705 net.cpp:165] Memory required for data: 8056210816
I0428 23:26:48.559536 31705 layer_factory.hpp:77] Creating layer conv4_3_norm_mbox_loc_flat
I0428 23:26:48.559558 31705 net.cpp:100] Creating Layer conv4_3_norm_mbox_loc_flat
I0428 23:26:48.559573 31705 net.cpp:434] conv4_3_norm_mbox_loc_flat <- conv4_3_norm_mbox_loc_perm
I0428 23:26:48.559584 31705 net.cpp:408] conv4_3_norm_mbox_loc_flat -> conv4_3_norm_mbox_loc_flat
I0428 23:26:48.559630 31705 net.cpp:150] Setting up conv4_3_norm_mbox_loc_flat
I0428 23:26:48.559644 31705 net.cpp:157] Top shape: 16 663552 (10616832)
I0428 23:26:48.559651 31705 net.cpp:165] Memory required for data: 8098678144
I0428 23:26:48.559675 31705 layer_factory.hpp:77] Creating layer conv4_3_norm_mbox_conf
I0428 23:26:48.559705 31705 net.cpp:100] Creating Layer conv4_3_norm_mbox_conf
I0428 23:26:48.559715 31705 net.cpp:434] conv4_3_norm_mbox_conf <- conv4_3_norm_conv4_3_norm_0_split_1
I0428 23:26:48.559726 31705 net.cpp:408] conv4_3_norm_mbox_conf -> conv4_3_norm_mbox_conf
I0428 23:26:48.564931 31705 net.cpp:150] Setting up conv4_3_norm_mbox_conf
I0428 23:26:48.564950 31705 net.cpp:157] Top shape: 16 48 48 48 (1769472)
I0428 23:26:48.564957 31705 net.cpp:165] Memory required for data: 8105756032
I0428 23:26:48.564968 31705 layer_factory.hpp:77] Creating layer conv4_3_norm_mbox_conf_perm
I0428 23:26:48.564990 31705 net.cpp:100] Creating Layer conv4_3_norm_mbox_conf_perm
I0428 23:26:48.565001 31705 net.cpp:434] conv4_3_norm_mbox_conf_perm <- conv4_3_norm_mbox_conf
I0428 23:26:48.565016 31705 net.cpp:408] conv4_3_norm_mbox_conf_perm -> conv4_3_norm_mbox_conf_perm
I0428 23:26:48.565168 31705 net.cpp:150] Setting up conv4_3_norm_mbox_conf_perm
I0428 23:26:48.565181 31705 net.cpp:157] Top shape: 16 48 48 48 (1769472)
I0428 23:26:48.565187 31705 net.cpp:165] Memory required for data: 8112833920
I0428 23:26:48.565194 31705 layer_factory.hpp:77] Creating layer conv4_3_norm_mbox_conf_flat
I0428 23:26:48.565210 31705 net.cpp:100] Creating Layer conv4_3_norm_mbox_conf_flat
I0428 23:26:48.565227 31705 net.cpp:434] conv4_3_norm_mbox_conf_flat <- conv4_3_norm_mbox_conf_perm
I0428 23:26:48.565240 31705 net.cpp:408] conv4_3_norm_mbox_conf_flat -> conv4_3_norm_mbox_conf_flat
I0428 23:26:48.565282 31705 net.cpp:150] Setting up conv4_3_norm_mbox_conf_flat
I0428 23:26:48.565294 31705 net.cpp:157] Top shape: 16 110592 (1769472)
I0428 23:26:48.565300 31705 net.cpp:165] Memory required for data: 8119911808
I0428 23:26:48.565307 31705 layer_factory.hpp:77] Creating layer conv4_3_norm_mbox_priorbox
I0428 23:26:48.565321 31705 net.cpp:100] Creating Layer conv4_3_norm_mbox_priorbox
I0428 23:26:48.565330 31705 net.cpp:434] conv4_3_norm_mbox_priorbox <- conv4_3_norm_conv4_3_norm_0_split_2
I0428 23:26:48.565341 31705 net.cpp:434] conv4_3_norm_mbox_priorbox <- data_data_0_split_2
I0428 23:26:48.565356 31705 net.cpp:408] conv4_3_norm_mbox_priorbox -> conv4_3_norm_mbox_priorbox
I0428 23:26:48.565402 31705 net.cpp:150] Setting up conv4_3_norm_mbox_priorbox
I0428 23:26:48.565413 31705 net.cpp:157] Top shape: 1 2 221184 (442368)
I0428 23:26:48.565419 31705 net.cpp:165] Memory required for data: 8121681280
I0428 23:26:48.565425 31705 layer_factory.hpp:77] Creating layer fc7_mbox_loc
I0428 23:26:48.565450 31705 net.cpp:100] Creating Layer fc7_mbox_loc
I0428 23:26:48.565460 31705 net.cpp:434] fc7_mbox_loc <- fc7_relu7_0_split_1
I0428 23:26:48.565472 31705 net.cpp:408] fc7_mbox_loc -> fc7_mbox_loc
I0428 23:26:48.617594 31705 net.cpp:150] Setting up fc7_mbox_loc
I0428 23:26:48.617679 31705 net.cpp:157] Top shape: 16 288 24 24 (2654208)
I0428 23:26:48.617689 31705 net.cpp:165] Memory required for data: 8132298112
I0428 23:26:48.617700 31705 layer_factory.hpp:77] Creating layer fc7_mbox_loc_perm
I0428 23:26:48.617715 31705 net.cpp:100] Creating Layer fc7_mbox_loc_perm
I0428 23:26:48.617724 31705 net.cpp:434] fc7_mbox_loc_perm <- fc7_mbox_loc
I0428 23:26:48.617736 31705 net.cpp:408] fc7_mbox_loc_perm -> fc7_mbox_loc_perm
I0428 23:26:48.617909 31705 net.cpp:150] Setting up fc7_mbox_loc_perm
I0428 23:26:48.617921 31705 net.cpp:157] Top shape: 16 24 24 288 (2654208)
I0428 23:26:48.617926 31705 net.cpp:165] Memory required for data: 8142914944
I0428 23:26:48.617931 31705 layer_factory.hpp:77] Creating layer fc7_mbox_loc_flat
I0428 23:26:48.617940 31705 net.cpp:100] Creating Layer fc7_mbox_loc_flat
I0428 23:26:48.617946 31705 net.cpp:434] fc7_mbox_loc_flat <- fc7_mbox_loc_perm
I0428 23:26:48.617959 31705 net.cpp:408] fc7_mbox_loc_flat -> fc7_mbox_loc_flat
I0428 23:26:48.618002 31705 net.cpp:150] Setting up fc7_mbox_loc_flat
I0428 23:26:48.618014 31705 net.cpp:157] Top shape: 16 165888 (2654208)
I0428 23:26:48.618022 31705 net.cpp:165] Memory required for data: 8153531776
I0428 23:26:48.618055 31705 layer_factory.hpp:77] Creating layer fc7_mbox_conf
I0428 23:26:48.618077 31705 net.cpp:100] Creating Layer fc7_mbox_conf
I0428 23:26:48.618083 31705 net.cpp:434] fc7_mbox_conf <- fc7_relu7_0_split_2
I0428 23:26:48.618093 31705 net.cpp:408] fc7_mbox_conf -> fc7_mbox_conf
I0428 23:26:48.628360 31705 net.cpp:150] Setting up fc7_mbox_conf
I0428 23:26:48.628410 31705 net.cpp:157] Top shape: 16 48 24 24 (442368)
I0428 23:26:48.628420 31705 net.cpp:165] Memory required for data: 8155301248
I0428 23:26:48.628428 31705 layer_factory.hpp:77] Creating layer fc7_mbox_conf_perm
I0428 23:26:48.628440 31705 net.cpp:100] Creating Layer fc7_mbox_conf_perm
I0428 23:26:48.628446 31705 net.cpp:434] fc7_mbox_conf_perm <- fc7_mbox_conf
I0428 23:26:48.628455 31705 net.cpp:408] fc7_mbox_conf_perm -> fc7_mbox_conf_perm
I0428 23:26:48.628623 31705 net.cpp:150] Setting up fc7_mbox_conf_perm
I0428 23:26:48.628634 31705 net.cpp:157] Top shape: 16 24 24 48 (442368)
I0428 23:26:48.628640 31705 net.cpp:165] Memory required for data: 8157070720
I0428 23:26:48.628645 31705 layer_factory.hpp:77] Creating layer fc7_mbox_conf_flat
I0428 23:26:48.628651 31705 net.cpp:100] Creating Layer fc7_mbox_conf_flat
I0428 23:26:48.628655 31705 net.cpp:434] fc7_mbox_conf_flat <- fc7_mbox_conf_perm
I0428 23:26:48.628664 31705 net.cpp:408] fc7_mbox_conf_flat -> fc7_mbox_conf_flat
I0428 23:26:48.628706 31705 net.cpp:150] Setting up fc7_mbox_conf_flat
I0428 23:26:48.628720 31705 net.cpp:157] Top shape: 16 27648 (442368)
I0428 23:26:48.628729 31705 net.cpp:165] Memory required for data: 8158840192
I0428 23:26:48.628738 31705 layer_factory.hpp:77] Creating layer fc7_mbox_priorbox
I0428 23:26:48.628754 31705 net.cpp:100] Creating Layer fc7_mbox_priorbox
I0428 23:26:48.628763 31705 net.cpp:434] fc7_mbox_priorbox <- fc7_relu7_0_split_3
I0428 23:26:48.628774 31705 net.cpp:434] fc7_mbox_priorbox <- data_data_0_split_3
I0428 23:26:48.628787 31705 net.cpp:408] fc7_mbox_priorbox -> fc7_mbox_priorbox
I0428 23:26:48.628835 31705 net.cpp:150] Setting up fc7_mbox_priorbox
I0428 23:26:48.628845 31705 net.cpp:157] Top shape: 1 2 55296 (110592)
I0428 23:26:48.628849 31705 net.cpp:165] Memory required for data: 8159282560
I0428 23:26:48.628854 31705 layer_factory.hpp:77] Creating layer conv6_2_mbox_loc
I0428 23:26:48.628870 31705 net.cpp:100] Creating Layer conv6_2_mbox_loc
I0428 23:26:48.628880 31705 net.cpp:434] conv6_2_mbox_loc <- conv6_2_conv6_2_relu_0_split_1
I0428 23:26:48.628895 31705 net.cpp:408] conv6_2_mbox_loc -> conv6_2_mbox_loc
I0428 23:26:48.656083 31705 net.cpp:150] Setting up conv6_2_mbox_loc
I0428 23:26:48.656147 31705 net.cpp:157] Top shape: 16 288 12 12 (663552)
I0428 23:26:48.656154 31705 net.cpp:165] Memory required for data: 8161936768
I0428 23:26:48.656163 31705 layer_factory.hpp:77] Creating layer conv6_2_mbox_loc_perm
I0428 23:26:48.656173 31705 net.cpp:100] Creating Layer conv6_2_mbox_loc_perm
I0428 23:26:48.656180 31705 net.cpp:434] conv6_2_mbox_loc_perm <- conv6_2_mbox_loc
I0428 23:26:48.656191 31705 net.cpp:408] conv6_2_mbox_loc_perm -> conv6_2_mbox_loc_perm
I0428 23:26:48.656368 31705 net.cpp:150] Setting up conv6_2_mbox_loc_perm
I0428 23:26:48.656384 31705 net.cpp:157] Top shape: 16 12 12 288 (663552)
I0428 23:26:48.656392 31705 net.cpp:165] Memory required for data: 8164590976
I0428 23:26:48.656402 31705 layer_factory.hpp:77] Creating layer conv6_2_mbox_loc_flat
I0428 23:26:48.656415 31705 net.cpp:100] Creating Layer conv6_2_mbox_loc_flat
I0428 23:26:48.656424 31705 net.cpp:434] conv6_2_mbox_loc_flat <- conv6_2_mbox_loc_perm
I0428 23:26:48.656436 31705 net.cpp:408] conv6_2_mbox_loc_flat -> conv6_2_mbox_loc_flat
I0428 23:26:48.656483 31705 net.cpp:150] Setting up conv6_2_mbox_loc_flat
I0428 23:26:48.656497 31705 net.cpp:157] Top shape: 16 41472 (663552)
I0428 23:26:48.656502 31705 net.cpp:165] Memory required for data: 8167245184
I0428 23:26:48.656508 31705 layer_factory.hpp:77] Creating layer conv6_2_mbox_conf
I0428 23:26:48.656524 31705 net.cpp:100] Creating Layer conv6_2_mbox_conf
I0428 23:26:48.656555 31705 net.cpp:434] conv6_2_mbox_conf <- conv6_2_conv6_2_relu_0_split_2
I0428 23:26:48.656569 31705 net.cpp:408] conv6_2_mbox_conf -> conv6_2_mbox_conf
I0428 23:26:48.662829 31705 net.cpp:150] Setting up conv6_2_mbox_conf
I0428 23:26:48.662878 31705 net.cpp:157] Top shape: 16 48 12 12 (110592)
I0428 23:26:48.662889 31705 net.cpp:165] Memory required for data: 8167687552
I0428 23:26:48.662897 31705 layer_factory.hpp:77] Creating layer conv6_2_mbox_conf_perm
I0428 23:26:48.662910 31705 net.cpp:100] Creating Layer conv6_2_mbox_conf_perm
I0428 23:26:48.662917 31705 net.cpp:434] conv6_2_mbox_conf_perm <- conv6_2_mbox_conf
I0428 23:26:48.662926 31705 net.cpp:408] conv6_2_mbox_conf_perm -> conv6_2_mbox_conf_perm
I0428 23:26:48.663097 31705 net.cpp:150] Setting up conv6_2_mbox_conf_perm
I0428 23:26:48.663113 31705 net.cpp:157] Top shape: 16 12 12 48 (110592)
I0428 23:26:48.663120 31705 net.cpp:165] Memory required for data: 8168129920
I0428 23:26:48.663126 31705 layer_factory.hpp:77] Creating layer conv6_2_mbox_conf_flat
I0428 23:26:48.663136 31705 net.cpp:100] Creating Layer conv6_2_mbox_conf_flat
I0428 23:26:48.663143 31705 net.cpp:434] conv6_2_mbox_conf_flat <- conv6_2_mbox_conf_perm
I0428 23:26:48.663156 31705 net.cpp:408] conv6_2_mbox_conf_flat -> conv6_2_mbox_conf_flat
I0428 23:26:48.663197 31705 net.cpp:150] Setting up conv6_2_mbox_conf_flat
I0428 23:26:48.663210 31705 net.cpp:157] Top shape: 16 6912 (110592)
I0428 23:26:48.663215 31705 net.cpp:165] Memory required for data: 8168572288
I0428 23:26:48.663221 31705 layer_factory.hpp:77] Creating layer conv6_2_mbox_priorbox
I0428 23:26:48.663233 31705 net.cpp:100] Creating Layer conv6_2_mbox_priorbox
I0428 23:26:48.663241 31705 net.cpp:434] conv6_2_mbox_priorbox <- conv6_2_conv6_2_relu_0_split_3
I0428 23:26:48.663252 31705 net.cpp:434] conv6_2_mbox_priorbox <- data_data_0_split_4
I0428 23:26:48.663264 31705 net.cpp:408] conv6_2_mbox_priorbox -> conv6_2_mbox_priorbox
I0428 23:26:48.663311 31705 net.cpp:150] Setting up conv6_2_mbox_priorbox
I0428 23:26:48.663323 31705 net.cpp:157] Top shape: 1 2 13824 (27648)
I0428 23:26:48.663331 31705 net.cpp:165] Memory required for data: 8168682880
I0428 23:26:48.663341 31705 layer_factory.hpp:77] Creating layer conv7_2_mbox_loc
I0428 23:26:48.663357 31705 net.cpp:100] Creating Layer conv7_2_mbox_loc
I0428 23:26:48.663367 31705 net.cpp:434] conv7_2_mbox_loc <- conv7_2_conv7_2_relu_0_split_1
I0428 23:26:48.663383 31705 net.cpp:408] conv7_2_mbox_loc -> conv7_2_mbox_loc
I0428 23:26:48.677595 31705 net.cpp:150] Setting up conv7_2_mbox_loc
I0428 23:26:48.677613 31705 net.cpp:157] Top shape: 16 288 6 6 (165888)
I0428 23:26:48.677618 31705 net.cpp:165] Memory required for data: 8169346432
I0428 23:26:48.677645 31705 layer_factory.hpp:77] Creating layer conv7_2_mbox_loc_perm
I0428 23:26:48.677654 31705 net.cpp:100] Creating Layer conv7_2_mbox_loc_perm
I0428 23:26:48.677660 31705 net.cpp:434] conv7_2_mbox_loc_perm <- conv7_2_mbox_loc
I0428 23:26:48.677670 31705 net.cpp:408] conv7_2_mbox_loc_perm -> conv7_2_mbox_loc_perm
I0428 23:26:48.677800 31705 net.cpp:150] Setting up conv7_2_mbox_loc_perm
I0428 23:26:48.677809 31705 net.cpp:157] Top shape: 16 6 6 288 (165888)
I0428 23:26:48.677814 31705 net.cpp:165] Memory required for data: 8170009984
I0428 23:26:48.677819 31705 layer_factory.hpp:77] Creating layer conv7_2_mbox_loc_flat
I0428 23:26:48.677829 31705 net.cpp:100] Creating Layer conv7_2_mbox_loc_flat
I0428 23:26:48.677834 31705 net.cpp:434] conv7_2_mbox_loc_flat <- conv7_2_mbox_loc_perm
I0428 23:26:48.677842 31705 net.cpp:408] conv7_2_mbox_loc_flat -> conv7_2_mbox_loc_flat
I0428 23:26:48.677873 31705 net.cpp:150] Setting up conv7_2_mbox_loc_flat
I0428 23:26:48.677881 31705 net.cpp:157] Top shape: 16 10368 (165888)
I0428 23:26:48.677886 31705 net.cpp:165] Memory required for data: 8170673536
I0428 23:26:48.677889 31705 layer_factory.hpp:77] Creating layer conv7_2_mbox_conf
I0428 23:26:48.677901 31705 net.cpp:100] Creating Layer conv7_2_mbox_conf
I0428 23:26:48.677906 31705 net.cpp:434] conv7_2_mbox_conf <- conv7_2_conv7_2_relu_0_split_2
I0428 23:26:48.677930 31705 net.cpp:408] conv7_2_mbox_conf -> conv7_2_mbox_conf
I0428 23:26:48.681485 31705 net.cpp:150] Setting up conv7_2_mbox_conf
I0428 23:26:48.681502 31705 net.cpp:157] Top shape: 16 48 6 6 (27648)
I0428 23:26:48.681506 31705 net.cpp:165] Memory required for data: 8170784128
I0428 23:26:48.681514 31705 layer_factory.hpp:77] Creating layer conv7_2_mbox_conf_perm
I0428 23:26:48.681525 31705 net.cpp:100] Creating Layer conv7_2_mbox_conf_perm
I0428 23:26:48.681531 31705 net.cpp:434] conv7_2_mbox_conf_perm <- conv7_2_mbox_conf
I0428 23:26:48.681538 31705 net.cpp:408] conv7_2_mbox_conf_perm -> conv7_2_mbox_conf_perm
I0428 23:26:48.681671 31705 net.cpp:150] Setting up conv7_2_mbox_conf_perm
I0428 23:26:48.681681 31705 net.cpp:157] Top shape: 16 6 6 48 (27648)
I0428 23:26:48.681685 31705 net.cpp:165] Memory required for data: 8170894720
I0428 23:26:48.681689 31705 layer_factory.hpp:77] Creating layer conv7_2_mbox_conf_flat
I0428 23:26:48.681696 31705 net.cpp:100] Creating Layer conv7_2_mbox_conf_flat
I0428 23:26:48.681702 31705 net.cpp:434] conv7_2_mbox_conf_flat <- conv7_2_mbox_conf_perm
I0428 23:26:48.681710 31705 net.cpp:408] conv7_2_mbox_conf_flat -> conv7_2_mbox_conf_flat
I0428 23:26:48.681743 31705 net.cpp:150] Setting up conv7_2_mbox_conf_flat
I0428 23:26:48.681751 31705 net.cpp:157] Top shape: 16 1728 (27648)
I0428 23:26:48.681756 31705 net.cpp:165] Memory required for data: 8171005312
I0428 23:26:48.681759 31705 layer_factory.hpp:77] Creating layer conv7_2_mbox_priorbox
I0428 23:26:48.681767 31705 net.cpp:100] Creating Layer conv7_2_mbox_priorbox
I0428 23:26:48.681772 31705 net.cpp:434] conv7_2_mbox_priorbox <- conv7_2_conv7_2_relu_0_split_3
I0428 23:26:48.681778 31705 net.cpp:434] conv7_2_mbox_priorbox <- data_data_0_split_5
I0428 23:26:48.681787 31705 net.cpp:408] conv7_2_mbox_priorbox -> conv7_2_mbox_priorbox
I0428 23:26:48.681823 31705 net.cpp:150] Setting up conv7_2_mbox_priorbox
I0428 23:26:48.681830 31705 net.cpp:157] Top shape: 1 2 3456 (6912)
I0428 23:26:48.681834 31705 net.cpp:165] Memory required for data: 8171032960
I0428 23:26:48.681838 31705 layer_factory.hpp:77] Creating layer conv8_2_mbox_loc
I0428 23:26:48.681852 31705 net.cpp:100] Creating Layer conv8_2_mbox_loc
I0428 23:26:48.681859 31705 net.cpp:434] conv8_2_mbox_loc <- conv8_2_conv8_2_relu_0_split_1
I0428 23:26:48.681869 31705 net.cpp:408] conv8_2_mbox_loc -> conv8_2_mbox_loc
I0428 23:26:48.695140 31705 net.cpp:150] Setting up conv8_2_mbox_loc
I0428 23:26:48.695160 31705 net.cpp:157] Top shape: 16 288 4 4 (73728)
I0428 23:26:48.695164 31705 net.cpp:165] Memory required for data: 8171327872
I0428 23:26:48.695171 31705 layer_factory.hpp:77] Creating layer conv8_2_mbox_loc_perm
I0428 23:26:48.695183 31705 net.cpp:100] Creating Layer conv8_2_mbox_loc_perm
I0428 23:26:48.695188 31705 net.cpp:434] conv8_2_mbox_loc_perm <- conv8_2_mbox_loc
I0428 23:26:48.695194 31705 net.cpp:408] conv8_2_mbox_loc_perm -> conv8_2_mbox_loc_perm
I0428 23:26:48.695329 31705 net.cpp:150] Setting up conv8_2_mbox_loc_perm
I0428 23:26:48.695338 31705 net.cpp:157] Top shape: 16 4 4 288 (73728)
I0428 23:26:48.695343 31705 net.cpp:165] Memory required for data: 8171622784
I0428 23:26:48.695348 31705 layer_factory.hpp:77] Creating layer conv8_2_mbox_loc_flat
I0428 23:26:48.695355 31705 net.cpp:100] Creating Layer conv8_2_mbox_loc_flat
I0428 23:26:48.695359 31705 net.cpp:434] conv8_2_mbox_loc_flat <- conv8_2_mbox_loc_perm
I0428 23:26:48.695366 31705 net.cpp:408] conv8_2_mbox_loc_flat -> conv8_2_mbox_loc_flat
I0428 23:26:48.695401 31705 net.cpp:150] Setting up conv8_2_mbox_loc_flat
I0428 23:26:48.695410 31705 net.cpp:157] Top shape: 16 4608 (73728)
I0428 23:26:48.695412 31705 net.cpp:165] Memory required for data: 8171917696
I0428 23:26:48.695415 31705 layer_factory.hpp:77] Creating layer conv8_2_mbox_conf
I0428 23:26:48.695425 31705 net.cpp:100] Creating Layer conv8_2_mbox_conf
I0428 23:26:48.695431 31705 net.cpp:434] conv8_2_mbox_conf <- conv8_2_conv8_2_relu_0_split_2
I0428 23:26:48.695439 31705 net.cpp:408] conv8_2_mbox_conf -> conv8_2_mbox_conf
I0428 23:26:48.699028 31705 net.cpp:150] Setting up conv8_2_mbox_conf
I0428 23:26:48.699046 31705 net.cpp:157] Top shape: 16 48 4 4 (12288)
I0428 23:26:48.699050 31705 net.cpp:165] Memory required for data: 8171966848
I0428 23:26:48.699057 31705 layer_factory.hpp:77] Creating layer conv8_2_mbox_conf_perm
I0428 23:26:48.699069 31705 net.cpp:100] Creating Layer conv8_2_mbox_conf_perm
I0428 23:26:48.699076 31705 net.cpp:434] conv8_2_mbox_conf_perm <- conv8_2_mbox_conf
I0428 23:26:48.699084 31705 net.cpp:408] conv8_2_mbox_conf_perm -> conv8_2_mbox_conf_perm
I0428 23:26:48.699215 31705 net.cpp:150] Setting up conv8_2_mbox_conf_perm
I0428 23:26:48.699224 31705 net.cpp:157] Top shape: 16 4 4 48 (12288)
I0428 23:26:48.699228 31705 net.cpp:165] Memory required for data: 8172016000
I0428 23:26:48.699231 31705 layer_factory.hpp:77] Creating layer conv8_2_mbox_conf_flat
I0428 23:26:48.699241 31705 net.cpp:100] Creating Layer conv8_2_mbox_conf_flat
I0428 23:26:48.699249 31705 net.cpp:434] conv8_2_mbox_conf_flat <- conv8_2_mbox_conf_perm
I0428 23:26:48.699254 31705 net.cpp:408] conv8_2_mbox_conf_flat -> conv8_2_mbox_conf_flat
I0428 23:26:48.699285 31705 net.cpp:150] Setting up conv8_2_mbox_conf_flat
I0428 23:26:48.699295 31705 net.cpp:157] Top shape: 16 768 (12288)
I0428 23:26:48.699301 31705 net.cpp:165] Memory required for data: 8172065152
I0428 23:26:48.699303 31705 layer_factory.hpp:77] Creating layer conv8_2_mbox_priorbox
I0428 23:26:48.699311 31705 net.cpp:100] Creating Layer conv8_2_mbox_priorbox
I0428 23:26:48.699316 31705 net.cpp:434] conv8_2_mbox_priorbox <- conv8_2_conv8_2_relu_0_split_3
I0428 23:26:48.699321 31705 net.cpp:434] conv8_2_mbox_priorbox <- data_data_0_split_6
I0428 23:26:48.699332 31705 net.cpp:408] conv8_2_mbox_priorbox -> conv8_2_mbox_priorbox
I0428 23:26:48.699367 31705 net.cpp:150] Setting up conv8_2_mbox_priorbox
I0428 23:26:48.699373 31705 net.cpp:157] Top shape: 1 2 1536 (3072)
I0428 23:26:48.699376 31705 net.cpp:165] Memory required for data: 8172077440
I0428 23:26:48.699380 31705 layer_factory.hpp:77] Creating layer conv9_2_mbox_loc
I0428 23:26:48.699394 31705 net.cpp:100] Creating Layer conv9_2_mbox_loc
I0428 23:26:48.699400 31705 net.cpp:434] conv9_2_mbox_loc <- conv9_2_conv9_2_relu_0_split_0
I0428 23:26:48.699409 31705 net.cpp:408] conv9_2_mbox_loc -> conv9_2_mbox_loc
I0428 23:26:48.712657 31705 net.cpp:150] Setting up conv9_2_mbox_loc
I0428 23:26:48.712677 31705 net.cpp:157] Top shape: 16 288 2 2 (18432)
I0428 23:26:48.712684 31705 net.cpp:165] Memory required for data: 8172151168
I0428 23:26:48.712697 31705 layer_factory.hpp:77] Creating layer conv9_2_mbox_loc_perm
I0428 23:26:48.712733 31705 net.cpp:100] Creating Layer conv9_2_mbox_loc_perm
I0428 23:26:48.712760 31705 net.cpp:434] conv9_2_mbox_loc_perm <- conv9_2_mbox_loc
I0428 23:26:48.712787 31705 net.cpp:408] conv9_2_mbox_loc_perm -> conv9_2_mbox_loc_perm
I0428 23:26:48.712982 31705 net.cpp:150] Setting up conv9_2_mbox_loc_perm
I0428 23:26:48.712999 31705 net.cpp:157] Top shape: 16 2 2 288 (18432)
I0428 23:26:48.713007 31705 net.cpp:165] Memory required for data: 8172224896
I0428 23:26:48.713016 31705 layer_factory.hpp:77] Creating layer conv9_2_mbox_loc_flat
I0428 23:26:48.713027 31705 net.cpp:100] Creating Layer conv9_2_mbox_loc_flat
I0428 23:26:48.713035 31705 net.cpp:434] conv9_2_mbox_loc_flat <- conv9_2_mbox_loc_perm
I0428 23:26:48.713045 31705 net.cpp:408] conv9_2_mbox_loc_flat -> conv9_2_mbox_loc_flat
I0428 23:26:48.713091 31705 net.cpp:150] Setting up conv9_2_mbox_loc_flat
I0428 23:26:48.713104 31705 net.cpp:157] Top shape: 16 1152 (18432)
I0428 23:26:48.713110 31705 net.cpp:165] Memory required for data: 8172298624
I0428 23:26:48.713117 31705 layer_factory.hpp:77] Creating layer conv9_2_mbox_conf
I0428 23:26:48.713136 31705 net.cpp:100] Creating Layer conv9_2_mbox_conf
I0428 23:26:48.713145 31705 net.cpp:434] conv9_2_mbox_conf <- conv9_2_conv9_2_relu_0_split_1
I0428 23:26:48.713160 31705 net.cpp:408] conv9_2_mbox_conf -> conv9_2_mbox_conf
I0428 23:26:48.718636 31705 net.cpp:150] Setting up conv9_2_mbox_conf
I0428 23:26:48.718701 31705 net.cpp:157] Top shape: 16 48 2 2 (3072)
I0428 23:26:48.718740 31705 net.cpp:165] Memory required for data: 8172310912
I0428 23:26:48.718765 31705 layer_factory.hpp:77] Creating layer conv9_2_mbox_conf_perm
I0428 23:26:48.718791 31705 net.cpp:100] Creating Layer conv9_2_mbox_conf_perm
I0428 23:26:48.718806 31705 net.cpp:434] conv9_2_mbox_conf_perm <- conv9_2_mbox_conf
I0428 23:26:48.718825 31705 net.cpp:408] conv9_2_mbox_conf_perm -> conv9_2_mbox_conf_perm
I0428 23:26:48.719060 31705 net.cpp:150] Setting up conv9_2_mbox_conf_perm
I0428 23:26:48.719076 31705 net.cpp:157] Top shape: 16 2 2 48 (3072)
I0428 23:26:48.719085 31705 net.cpp:165] Memory required for data: 8172323200
I0428 23:26:48.719094 31705 layer_factory.hpp:77] Creating layer conv9_2_mbox_conf_flat
I0428 23:26:48.719108 31705 net.cpp:100] Creating Layer conv9_2_mbox_conf_flat
I0428 23:26:48.719117 31705 net.cpp:434] conv9_2_mbox_conf_flat <- conv9_2_mbox_conf_perm
I0428 23:26:48.719128 31705 net.cpp:408] conv9_2_mbox_conf_flat -> conv9_2_mbox_conf_flat
I0428 23:26:48.719182 31705 net.cpp:150] Setting up conv9_2_mbox_conf_flat
I0428 23:26:48.719195 31705 net.cpp:157] Top shape: 16 192 (3072)
I0428 23:26:48.719202 31705 net.cpp:165] Memory required for data: 8172335488
I0428 23:26:48.719208 31705 layer_factory.hpp:77] Creating layer conv9_2_mbox_priorbox
I0428 23:26:48.719233 31705 net.cpp:100] Creating Layer conv9_2_mbox_priorbox
I0428 23:26:48.719244 31705 net.cpp:434] conv9_2_mbox_priorbox <- conv9_2_conv9_2_relu_0_split_2
I0428 23:26:48.719255 31705 net.cpp:434] conv9_2_mbox_priorbox <- data_data_0_split_7
I0428 23:26:48.719269 31705 net.cpp:408] conv9_2_mbox_priorbox -> conv9_2_mbox_priorbox
I0428 23:26:48.719331 31705 net.cpp:150] Setting up conv9_2_mbox_priorbox
I0428 23:26:48.719347 31705 net.cpp:157] Top shape: 1 2 384 (768)
I0428 23:26:48.719352 31705 net.cpp:165] Memory required for data: 8172338560
I0428 23:26:48.719358 31705 layer_factory.hpp:77] Creating layer mbox_loc
I0428 23:26:48.719384 31705 net.cpp:100] Creating Layer mbox_loc
I0428 23:26:48.719396 31705 net.cpp:434] mbox_loc <- conv3_3_norm_mbox_loc_flat
I0428 23:26:48.719408 31705 net.cpp:434] mbox_loc <- conv4_3_norm_mbox_loc_flat
I0428 23:26:48.719419 31705 net.cpp:434] mbox_loc <- fc7_mbox_loc_flat
I0428 23:26:48.719430 31705 net.cpp:434] mbox_loc <- conv6_2_mbox_loc_flat
I0428 23:26:48.719442 31705 net.cpp:434] mbox_loc <- conv7_2_mbox_loc_flat
I0428 23:26:48.719454 31705 net.cpp:434] mbox_loc <- conv8_2_mbox_loc_flat
I0428 23:26:48.719465 31705 net.cpp:434] mbox_loc <- conv9_2_mbox_loc_flat
I0428 23:26:48.719476 31705 net.cpp:408] mbox_loc -> mbox_loc
I0428 23:26:48.719564 31705 net.cpp:150] Setting up mbox_loc
I0428 23:26:48.719578 31705 net.cpp:157] Top shape: 16 3541248 (56659968)
I0428 23:26:48.719585 31705 net.cpp:165] Memory required for data: 8398978432
I0428 23:26:48.719591 31705 layer_factory.hpp:77] Creating layer mbox_conf
I0428 23:26:48.719610 31705 net.cpp:100] Creating Layer mbox_conf
I0428 23:26:48.719620 31705 net.cpp:434] mbox_conf <- conv3_3_norm_mbox_conf_flat
I0428 23:26:48.719631 31705 net.cpp:434] mbox_conf <- conv4_3_norm_mbox_conf_flat
I0428 23:26:48.719640 31705 net.cpp:434] mbox_conf <- fc7_mbox_conf_flat
I0428 23:26:48.719648 31705 net.cpp:434] mbox_conf <- conv6_2_mbox_conf_flat
I0428 23:26:48.719660 31705 net.cpp:434] mbox_conf <- conv7_2_mbox_conf_flat
I0428 23:26:48.719671 31705 net.cpp:434] mbox_conf <- conv8_2_mbox_conf_flat
I0428 23:26:48.719677 31705 net.cpp:434] mbox_conf <- conv9_2_mbox_conf_flat
I0428 23:26:48.719687 31705 net.cpp:408] mbox_conf -> mbox_conf
I0428 23:26:48.719741 31705 net.cpp:150] Setting up mbox_conf
I0428 23:26:48.719754 31705 net.cpp:157] Top shape: 16 590208 (9443328)
I0428 23:26:48.719763 31705 net.cpp:165] Memory required for data: 8436751744
I0428 23:26:48.719769 31705 layer_factory.hpp:77] Creating layer mbox_priorbox
I0428 23:26:48.719781 31705 net.cpp:100] Creating Layer mbox_priorbox
I0428 23:26:48.719791 31705 net.cpp:434] mbox_priorbox <- conv3_3_norm_mbox_priorbox
I0428 23:26:48.719801 31705 net.cpp:434] mbox_priorbox <- conv4_3_norm_mbox_priorbox
I0428 23:26:48.719822 31705 net.cpp:434] mbox_priorbox <- fc7_mbox_priorbox
I0428 23:26:48.719832 31705 net.cpp:434] mbox_priorbox <- conv6_2_mbox_priorbox
I0428 23:26:48.719841 31705 net.cpp:434] mbox_priorbox <- conv7_2_mbox_priorbox
I0428 23:26:48.719846 31705 net.cpp:434] mbox_priorbox <- conv8_2_mbox_priorbox
I0428 23:26:48.719854 31705 net.cpp:434] mbox_priorbox <- conv9_2_mbox_priorbox
I0428 23:26:48.719863 31705 net.cpp:408] mbox_priorbox -> mbox_priorbox
I0428 23:26:48.719920 31705 net.cpp:150] Setting up mbox_priorbox
I0428 23:26:48.719933 31705 net.cpp:157] Top shape: 1 2 1180416 (2360832)
I0428 23:26:48.719941 31705 net.cpp:165] Memory required for data: 8446195072
I0428 23:26:48.719947 31705 layer_factory.hpp:77] Creating layer mbox_loss
I0428 23:26:48.719969 31705 net.cpp:100] Creating Layer mbox_loss
I0428 23:26:48.719977 31705 net.cpp:434] mbox_loss <- mbox_loc
I0428 23:26:48.719987 31705 net.cpp:434] mbox_loss <- mbox_conf
I0428 23:26:48.719995 31705 net.cpp:434] mbox_loss <- mbox_priorbox
…
state {
  phase: TEST
}
layer {
  name: "data"
  type: "AnnotatedData"
  top: "data"
  top: "label"
  include {
    phase: TEST
  }
  transform_param {
    mean_value: 104
    mean_value: 117
    mean_value: 123
    force_color: true
    resize_param {
      prob: 1
      resize_mode: WARP
      height: 384
      width: 384
      interp_mode: LINEAR
    }
  }
  data_param {
    source: "./data/test_lmdb/"
    batch_size: 1
    backend: LMDB
  }
  annotated_data_param {
    batch_sampler {
    }
    label_map_file: "data/text/labelmap_voc.prototxt"
  }
}
layer {
  name: "conv1_1"
  type: "Convolution"
  bottom: "data"
  top: "conv1_1"
  param {
    lr_mult: 1
    decay_mult: 1
  }
  param {
    lr_mult: 2
    decay_mult: 0
  }
  convolution_param {
    num_output: 64
    pad: 1
    kernel_size: 3
    weight_filler {
      type: "xavier"
    }
    bias_filler {
      type: "constant"
      value: 0
    }
  }
}
layer {
  name: "relu1_1"
  type: "ReLU"
  bottom: "conv1_1"
  top: "conv1_1"
}
layer {
  name: "conv1_2"
  type: "Convolution"
  bottom: "conv1_1"
  top: "conv1_2"
  param {
    lr_mult: 1
    decay_mult: 1
  }
  param {
    lr_mult: 2
    decay_mult: 0
  }
  convolution_param {
    num_output: 64
    pad: 1
    kernel_size: 3
    weight_filler {
      type: "xavier"
    }
    bias_filler {
      type: "constant"
      value: 0
    }
  }
}
layer {
  name: "relu1_2"
  type: "ReLU"
  bottom: "conv1_2"
  top: "conv1_2"
}
layer {
  name: "pool1"
  type: "Pooling"
  bottom: "conv1_2"
  top: "pool1"
  pooling_param {
    pool: MAX
    kernel_size: 2
    stride: 2
  }
}
layer {
  name: "conv2_1"
  type: "Convolution"
  bottom: "pool1"
  top: "conv2_1"
  param {
    lr_mult: 1
    decay_mult: 1
  }
  param {
    lr_mult: 2
    decay_mult: 0
  }
  convolution_param {
    num_output: 128
    pad: 1
    kernel_size: 3
    weight_filler {
      type: "xavier"
    }
    bias_filler {
      type: "constant"
      value: 0
    }
  }
}
layer {
  name: "relu2_1"
  type: "ReLU"
  bottom: "conv2_1"
  top: "conv2_1"
}
layer {
  name: "conv2_2"
  type: "Convolution"
  bottom: "conv2_1"
  top: "conv2_2"
  param {
    lr_mult: 1
    decay_mult: 1
  }
  param {
    lr_mult: 2
    decay_mult: 0
  }
  convolution_param {
    num_output: 128
    pad: 1
    kernel_size: 3
    weight_filler {
      type: "xavier"
    }
    bias_filler {
      type: "constant"
      value: 0
    }
  }
}
layer {
  name: "relu2_2"
  type: "ReLU"
  bottom: "conv2_2"
  top: "conv2_2"
}
layer {
  name: "pool2"
  type: "Pooling"
  bottom: "conv2_2"
  top: "pool2"
  pooling_param {
    pool: MAX
    kernel_size: 2
    stride: 2
  }
}
layer {
  name: "conv3_1"
  type: "Convolution"
  bottom: "pool2"
  top: "conv3_1"
  param {
    lr_mult: 1
    decay_mult: 1
  }
  param {
    lr_mult: 2
    decay_mult: 0
  }
  convolution_param {
    num_output: 256
    pad: 1
    kernel_size: 3
    weight_filler {
      type: "xavier"
    }
    bias_filler {
      type: "constant"
      value: 0
    }
  }
}
layer {
  name: "relu3_1"
  type: "ReLU"
  bottom: "conv3_1"
  top: "conv3_1"
}
layer {
  name: "conv3_2"
  type: "Convolution"
  bottom: "conv3_1"
  top: "conv3_2"
  param {
    lr_mult: 1
    decay_mult: 1
  }
  param {
    lr_mult: 2
    decay_mult: 0
  }
  convolution_param {
    num_output: 256
    pad: 1
    kernel_size: 3
    weight_filler {
      type: "xavier"
    }
    bias_filler {
      type: "constant"
      value: 0
    }
  }
}
layer {
  name: "relu3_2"
  type: "ReLU"
  bottom: "conv3_2"
  top: "conv3_2"
}
layer {
  name: "conv3_3"
  type: "Convolution"
  bottom: "conv3_2"
  top: "conv3_3"
  param {
    lr_mult: 1
    decay_mult: 1
  }
  param {
    lr_mult: 2
    decay_mult: 0
  }
  convolution_param {
    num_output: 256
    pad: 1
    kernel_size: 3
    weight_filler {
      type: "xavier"
    }
    bias_filler {
      type: "constant"
      value: 0
    }
  }
}
layer {
  name: "relu3_3"
  type: "ReLU"
  bottom: "conv3_3"
  top: "conv3_3"
}
layer {
  name: "pool3"
  type: "Pooling"
  bottom: "conv3_3"
  top: "pool3"
  pooling_param {
    pool: MAX
    kernel_size: 2
    stride: 2
  }
}
layer {
  name: "conv4_1"
  type: "Convolution"
  bottom: "pool3"
  top: "conv4_1"
  param {
    lr_mult: 1
    decay_mult: 1
  }
  param {
    lr_mult: 2
    decay_mult: 0
  }
  convolution_param {
    num_output: 512
    pad: 1
    kernel_size: 3
    weight_filler {
      type: "xavier"
    }
    bias_filler {
      type: "constant"
      value: 0
    }
  }
}
layer {
  name: "relu4_1"
  type: "ReLU"
  bottom: "conv4_1"
  top: "conv4_1"
}
layer {
  name: "conv4_2"
  type: "Convolution"
  bottom: "conv4_1"
  top: "conv4_2"
  param {
    lr_mult: 1
    decay_mult: 1
  }
  param {
    lr_mult: 2
    decay_mult: 0
  }
  convolution_param {
    num_output: 512
    pad: 1
    kernel_size: 3
    weight_filler {
      type: "xavier"
    }
    bias_filler {
      type: "constant"
      value: 0
    }
  }
}
layer {
  name: "relu4_2"
  type: "ReLU"
  bottom: "conv4_2"
  top: "conv4_2"
}
layer {
  name: "conv4_3"
  type: "Convolution"
  bottom: "conv4_2"
  top: "conv4_3"
  param {
    lr_mult: 1
    decay_mult: 1
  }
  param {
    lr_mult: 2
    decay_mult: 0
  }
  convolution_param {
    num_output: 512
    pad: 1
    kernel_size: 3
    weight_filler {
      type: "xavier"
    }
    bias_filler {
      type: "constant"
      value: 0
    }
  }
}
layer {
  name: "relu4_3"
  type: "ReLU"
  bottom: "conv4_3"
  top: "conv4_3"
}
layer {
  name: "pool4"
  type: "Pooling"
  bottom: "conv4_3"
  top: "pool4"
  pooling_param {
    pool: MAX
    kernel_size: 2
    stride: 2
  }
}
layer {
  name: "conv5_1"
  type: "Convolution"
  bottom: "pool4"
  top: "conv5_1"
  param {
    lr_mult: 1
    decay_mult: 1
  }
  param {
    lr_mult: 2
    decay_mult: 0
  }
  convolution_param {
    num_output: 512
    pad: 1
    kernel_size: 3
    weight_filler {
      type: "xavier"
    }
    bias_filler {
      type: "constant"
      value: 0
    }
    dilation: 1
  }
}
layer {
  name: "relu5_1"
  type: "ReLU"
  bottom: "conv5_1"
  top: "conv5_1"
}
layer {
  name: "conv5_2"
  type: "Convolution"
  bottom: "conv5_1"
  top: "conv5_2"
  param {
    lr_mult: 1
    decay_mult: 1
  }
  param {
    lr_mult: 2
    decay_mult: 0
  }
  convolution_param {
    num_output: 512
    pad: 1
    kernel_size: 3
    weight_filler {
      type: "xavier"
    }
    bias_filler {
      type: "constant"
      value: 0
    }
    dilation: 1
  }
}
layer {
  name: "relu5_2"
  type: "ReLU"
  bottom: "conv5_2"
  top: "conv5_2"
}
layer {
  name: "conv5_3"
  type: "Convolution"
  bottom: "conv5_2"
  top: "conv5_3"
  param {
    lr_mult: 1
    decay_mult: 1
  }
  param {
    lr_mult: 2
    decay_mult: 0
  }
  convolution_param {
    num_output: 512
    pad: 1
    kernel_size: 3
    weight_filler {
      type: "xavier"
    }
    bias_filler {
      type: "constant"
      value: 0
    }
    dilation: 1
  }
}
layer {
  name: "relu5_3"
  type: "ReLU"
  bottom: "conv5_3"
  top: "conv5_3"
}
layer {
  name: "pool5"
  type: "Pooling"
  bottom: "conv5_3"
  top: "pool5"
  pooling_param {
    pool: MAX
    kernel_size: 3
    stride: 1
    pad: 1
  }
}
layer {
  name: "fc6"
  type: "Convolution"
  bottom: "pool5"
  top: "fc6"
  param {
    lr_mult: 1
    decay_mult: 1
  }
  param {
    lr_mult: 2
    decay_mult: 0
  }
  convolution_param {
    num_output: 1024
    pad: 6
    kernel_size: 3
    weight_filler {
      type: "xavier"
    }
    bias_filler {
      type: "constant"
      value: 0
    }
    dilation: 6
  }
}
layer {
  name: "relu6"
  type: "ReLU"
  bottom: "fc6"
  top: "fc6"
}
layer {
  name: "fc7"
  type: "Convolution"
  bottom: "fc6"
  top: "fc7"
  param {
    lr_mult: 1
    decay_mult: 1
  }
  param {
    lr_mult: 2
    decay_mult: 0
  }
  convolution_param {
    num_output: 1024
    kernel_size: 1
    weight_filler {
      type: "xavier"
    }
    bias_filler {
      type: "constant"
      value: 0
    }
  }
}
layer {
  name: "relu7"
  type: "ReLU"
  bottom: "fc7"
  top: "fc7"
}
layer {
  name: "conv6_1"
  type: "Convolution"
  bottom: "fc7"
  top: "conv6_1"
  param {
    lr_mult: 1
    decay_mult: 1
  }
  param {
    lr_mult: 2
    decay_mult: 0
  }
  convolution_param {
    num_output: 256
    pad: 0
    kernel_size: 1
    stride: 1
    weight_filler {
      type: "xavier"
    }
    bias_filler {
      type: "constant"
      value: 0
    }
  }
}
layer {
  name: "conv6_1_relu"
  type: "ReLU"
  bottom: "conv6_1"
  top: "conv6_1"
}
layer {
  name: "conv6_2"
  type: "Convolution"
  bottom: "conv6_1"
  top: "conv6_2"
  param {
    lr_mult: 1
    decay_mult: 1
  }
  param {
    lr_mult: 2
    decay_mult: 0
  }
  convolution_param {
    num_output: 512
    pad: 1
    kernel_size: 3
    stride: 2
    weight_filler {
      type: "xavier"
    }
    bias_filler {
      type: "constant"
      value: 0
    }
  }
}
layer {
  name: "conv6_2_relu"
  type: "ReLU"
  bottom: "conv6_2"
  top: "conv6_2"
}
layer {
  name: "conv7_1"
  type: "Convolution"
  bottom: "conv6_2"
  top: "conv7_1"
  param {
    lr_mult: 1
    decay_mult: 1
  }
  param {
    lr_mult: 2
    decay_mult: 0
  }
  convolution_param {
    num_output: 128
    pad: 0
    kernel_size: 1
    stride: 1
    weight_filler {
      type: "xavier"
    }
    bias_filler {
      type: "constant"
      value: 0
    }
  }
}
layer {
  name: "conv7_1_relu"
  type: "ReLU"
  bottom: "conv7_1"
  top: "conv7_1"
}
layer {
  name: "conv7_2"
  type: "Convolution"
  bottom: "conv7_1"
  top: "conv7_2"
  param {
    lr_mult: 1
    decay_mult: 1
  }
  param {
    lr_mult: 2
    decay_mult: 0
  }
  convolution_param {
    num_output: 256
    pad: 1
    kernel_size: 3
    stride: 2
    weight_filler {
      type: "xavier"
    }
    bias_filler {
      type: "constant"
      value: 0
    }
  }
}
layer {
  name: "conv7_2_relu"
  type: "ReLU"
  bottom: "conv7_2"
  top: "conv7_2"
}
layer {
  name: "conv8_1"
  type: "Convolution"
  bottom: "conv7_2"
  top: "conv8_1"
  param {
    lr_mult: 1
    decay_mult: 1
  }
  param {
    lr_mult: 2
    decay_mult: 0
  }
  convolution_param {
    num_output: 128
    pad: 0
    kernel_size: 1
    stride: 1
    weight_filler {
      type: "xavier"
    }
    bias_filler {
      type: "constant"
      value: 0
    }
  }
}
layer {
  name: "conv8_1_relu"
  type: "ReLU"
  bottom: "conv8_1"
  top: "conv8_1"
}
layer {
  name: "conv8_2"
  type: "Convolution"
  bottom: "conv8_1"
  top: "conv8_2"
  param {
    lr_mult: 1
    decay_mult: 1
  }
  param {
    lr_mult: 2
    decay_mult: 0
  }
  convolution_param {
    num_output: 256
    pad: 0
    kernel_size: 3
    stride: 1
    weight_filler {
      type: "xavier"
    }
    bias_filler {
      type: "constant"
      value: 0
    }
  }
}
layer {
  name: "conv8_2_relu"
  type: "ReLU"
  bottom: "conv8_2"
  top: "conv8_2"
}
layer {
  name: "conv9_1"
  type: "Convolution"
  bottom: "conv8_2"
  top: "conv9_1"
  param {
    lr_mult: 1
    decay_mult: 1
  }
  param {
    lr_mult: 2
    decay_mult: 0
  }
  convolution_param {
    num_output: 128
    pad: 0
    kernel_size: 1
    stride: 1
    weight_filler {
      type: "xavier"
    }
    bias_filler {
      type: "constant"
      value: 0
    }
  }
}
layer {
  name: "conv9_1_relu"
  type: "ReLU"
  bottom: "conv9_1"
  top: "conv9_1"
}
layer {
  name: "conv9_2"
  type: "Convolution"
  bottom: "conv9_1"
  top: "conv9_2"
  param {
    lr_mult: 1
    decay_mult: 1
  }
  param {
    lr_mult: 2
    decay_mult: 0
  }
  convolution_param {
    num_output: 256
    pad: 0
    kernel_size: 3
    stride: 1
    weight_filler {
      type: "xavier"
    }
    bias_filler {
      type: "constant"
      value: 0
    }
  }
}
layer {
  name: "conv9_2_relu"
  type: "ReLU"
  bottom: "conv9_2"
  top: "conv9_2"
}
layer {
  name: "conv3_3_norm"
  type: "Normalize"
  bottom: "conv3_3"
  top: "conv3_3_norm"
  norm_param {
    across_spatial: false
    scale_filler {
      type: "constant"
      value: 20
    }
    channel_shared: false
  }
}
layer {
  name: "conv3_3_norm_mbox_loc"
  type: "Convolution"
  bottom: "conv3_3_norm"
  top: "conv3_3_norm_mbox_loc"
  param {
    lr_mult: 1
    decay_mult: 1
  }
  param {
    lr_mult: 2
    decay_mult: 0
  }
  convolution_param {
    num_output: 288
    weight_filler {
      type: "xavier"
    }
    bias_filler {
      type: "constant"
      value: 0
    }
    pad_h: 1
    pad_w: 2
    kernel_h: 3
    kernel_w: 5
    stride_h: 1
    stride_w: 1
  }
}
layer {
  name: "conv3_3_norm_mbox_loc_perm"
  type: "Permute"
  bottom: "conv3_3_norm_mbox_loc"
  top: "conv3_3_norm_mbox_loc_perm"
  permute_param {
    order: 0
    order: 2
    order: 3
    order: 1
  }
}
layer {
  name: "conv3_3_norm_mbox_loc_flat"
  type: "Flatten"
  bottom: "conv3_3_norm_mbox_loc_perm"
  top: "conv3_3_norm_mbox_loc_flat"
  flatten_param {
    axis: 1
  }
}
layer {
  name: "conv3_3_norm_mbox_conf"
  type: "Convolution"
  bottom: "conv3_3_norm"
  top: "conv3_3_norm_mbox_conf"
  param {
    lr_mult: 1
    decay_mult: 1
  }
  param {
    lr_mult: 2
    decay_mult: 0
  }
  convolution_param {
    num_output: 48
    weight_filler {
      type: "xavier"
    }
    bias_filler {
      type: "constant"
      value: 0
    }
    pad_h: 1
    pad_w: 2
    kernel_h: 3
    kernel_w: 5
    stride_h: 1
    stride_w: 1
  }
}
layer {
  name: "conv3_3_norm_mbox_conf_perm"
  type: "Permute"
  bottom: "conv3_3_norm_mbox_conf"
  top: "conv3_3_norm_mbox_conf_perm"
  permute_param {
    order: 0
    order: 2
    order: 3
    order: 1
  }
}
layer {
  name: "conv3_3_norm_mbox_conf_flat"
  type: "Flatten"
  bottom: "conv3_3_norm_mbox_conf_perm"
  top: "conv3_3_norm_mbox_conf_flat"
  flatten_param {
    axis: 1
  }
}
layer {
  name: "conv3_3_norm_mbox_priorbox"
  type: "PriorBox"
  bottom: "conv3_3_norm"
  bottom: "data"
  top: "conv3_3_norm_mbox_priorbox"
  prior_box_param {
    min_size: 10
    max_size: 30
    aspect_ratio: 2
    aspect_ratio: 3
    aspect_ratio: 4
    aspect_ratio: 5
    aspect_ratio: 7
    flip: true
    clip: false
    variance: 0.1
    variance: 0.1
    variance: 0.2
    variance: 0.2
    step: 4
    offset: 0.5
    denser_prior_boxes: true
  }
}
layer {
  name: "conv4_3_norm"
  type: "Normalize"
  bottom: "conv4_3"
  top: "conv4_3_norm"
  norm_param {
    across_spatial: false
    scale_filler {
      type: "constant"
      value: 20
    }
    channel_shared: false
  }
}
layer {
  name: "conv4_3_norm_mbox_loc"
  type: "Convolution"
  bottom: "conv4_3_norm"
  top: "conv4_3_norm_mbox_loc"
  param {
    lr_mult: 1
    decay_mult: 1
  }
  param {
    lr_mult: 2
    decay_mult: 0
  }
  convolution_param {
    num_output: 288
    weight_filler {
      type: "xavier"
    }
    bias_filler {
      type: "constant"
      value: 0
    }
    pad_h: 1
    pad_w: 2
    kernel_h: 3
    kernel_w: 5
    stride_h: 1
    stride_w: 1
  }
}
layer {
  name: "conv4_3_norm_mbox_loc_perm"
  type: "Permute"
  bottom: "conv4_3_norm_mbox_loc"
  top: "conv4_3_norm_mbox_loc_perm"
  permute_param {
    order: 0
    order: 2
    order: 3
    order: 1
  }
}
layer {
  name: "conv4_3_norm_mbox_loc_flat"
  type: "Flatten"
  bottom: "conv4_3_norm_mbox_loc_perm"
  top: "conv4_3_norm_mbox_loc_flat"
  flatten_param {
    axis: 1
  }
}
layer {
  name: "conv4_3_norm_mbox_conf"
  type: "Convolution"
  bottom: "conv4_3_norm"
  top: "conv4_3_norm_mbox_conf"
  param {
    lr_mult: 1
    decay_mult: 1
  }
  param {
    lr_mult: 2
    decay_mult: 0
  }
  convolution_param {
    num_output: 48
    weight_filler {
      type: "xavier"
    }
    bias_filler {
      type: "constant"
      value: 0
    }
    pad_h: 1
    pad_w: 2
    kernel_h: 3
    kernel_w: 5
    stride_h: 1
    stride_w: 1
  }
}
layer {
  name: "conv4_3_norm_mbox_conf_perm"
  type: "Permute"
  bottom: "conv4_3_norm_mbox_conf"
  top: "conv4_3_norm_mbox_conf_perm"
  permute_param {
    order: 0
    order: 2
    order: 3
    order: 1
  }
}
layer {
  name: "conv4_3_norm_mbox_conf_flat"
  type: "Flatten"
  bottom: "conv4_3_norm_mbox_conf_perm"
  top: "conv4_3_norm_mbox_conf_flat"
  flatten_param {
    axis: 1
  }
}
layer {
  name: "conv4_3_norm_mbox_priorbox"
  type: "PriorBox"
  bottom: "conv4_3_norm"
  bottom: "data"
  top: "conv4_3_norm_mbox_priorbox"
  prior_box_param {
    min_size: 30
    max_size: 78
    aspect_ratio: 2
    aspect_ratio: 3
    aspect_ratio: 4
    aspect_ratio: 5
    aspect_ratio: 7
    flip: true
    clip: false
    variance: 0.1
    variance: 0.1
    variance: 0.2
    variance: 0.2
    step: 8
    offset: 0.5
    denser_prior_boxes: true
  }
}
layer {
  name: "fc7_mbox_loc"
  type: "Convolution"
  bottom: "fc7"
  top: "fc7_mbox_loc"
  param {
    lr_mult: 1
    decay_mult: 1
  }
  param {
    lr_mult: 2
    decay_mult: 0
  }
  convolution_param {
    num_output: 288
    weight_filler {
      type: "xavier"
    }
    bias_filler {
      type: "constant"
      value: 0
    }
    pad_h: 1
    pad_w: 2
    kernel_h: 3
    kernel_w: 5
    stride_h: 1
    stride_w: 1
  }
}
layer {
  name: "fc7_mbox_loc_perm"
  type: "Permute"
  bottom: "fc7_mbox_loc"
  top: "fc7_mbox_loc_perm"
  permute_param {
    order: 0
    order: 2
    order: 3
    order: 1
  }
}
layer {
  name: "fc7_mbox_loc_flat"
  type: "Flatten"
  bottom: "fc7_mbox_loc_perm"
  top: "fc7_mbox_loc_flat"
  flatten_param {
    axis: 1
  }
}
layer {
  name: "fc7_mbox_conf"
  type: "Convolution"
  bottom: "fc7"
  top: "fc7_mbox_conf"
  param {
    lr_mult: 1
    decay_mult: 1
  }
  param {
    lr_mult: 2
    decay_mult: 0
  }
  convolution_param {
    num_output: 48
    weight_filler {
      type: "xavier"
    }
    bias_filler {
      type: "constant"
      value: 0
    }
    pad_h: 1
    pad_w: 2
    kernel_h: 3
    kernel_w: 5
    stride_h: 1
    stride_w: 1
  }
}
layer {
  name: "fc7_mbox_conf_perm"
  type: "Permute"
  bottom: "fc7_mbox_conf"
  top: "fc7_mbox_conf_perm"
  permute_param {
    order: 0
    order: 2
    order: 3
    order: 1
  }
}
layer {
  name: "fc7_mbox_conf_flat"
  type: "Flatten"
  bottom: "fc7_mbox_conf_perm"
  top: "fc7_mbox_conf_flat"
  flatten_param {
    axis: 1
  }
}
layer {
  name: "fc7_mbox_priorbox"
  type: "PriorBox"
  bottom: "fc7"
  bottom: "data"
  top: "fc7_mbox_priorbox"
  prior_box_param {
    min_size: 78
    max_size: 126
    aspect_ratio: 2
    aspect_ratio: 3
    aspect_ratio: 4
    aspect_ratio: 5
    aspect_ratio: 7
    flip: true
    clip: false
    variance: 0.1
    variance: 0.1
    variance: 0.2
    variance: 0.2
    step: 16
    offset: 0.5
    denser_prior_boxes: true
  }
}
layer {
  name: "conv6_2_mbox_loc"
  type: "Convolution"
  bottom: "conv6_2"
  top: "conv6_2_mbox_loc"
  param {
    lr_mult: 1
    decay_mult: 1
  }
  param {
    lr_mult: 2
    decay_mult: 0
  }
  convolution_param {
    num_output: 288
    weight_filler {
      type: "xavier"
    }
    bias_filler {
      type: "constant"
      value: 0
    }
    pad_h: 1
    pad_w: 2
    kernel_h: 3
    kernel_w: 5
    stride_h: 1
    stride_w: 1
  }
}
layer {
  name: "conv6_2_mbox_loc_perm"
  type: "Permute"
  bottom: "conv6_2_mbox_loc"
  top: "conv6_2_mbox_loc_perm"
  permute_param {
    order: 0
    order: 2
    order: 3
    order: 1
  }
}
layer {
  name: "conv6_2_mbox_loc_flat"
  type: "Flatten"
  bottom: "conv6_2_mbox_loc_perm"
  top: "conv6_2_mbox_loc_flat"
  flatten_param {
    axis: 1
  }
}
layer {
  name: "conv6_2_mbox_conf"
  type: "Convolution"
  bottom: "conv6_2"
  top: "conv6_2_mbox_conf"
  param {
    lr_mult: 1
    decay_mult: 1
  }
  param {
    lr_mult: 2
    decay_mult: 0
  }
  convolution_param {
    num_output: 48
    weight_filler {
      type: "xavier"
    }
    bias_filler {
      type: "constant"
      value: 0
    }
    pad_h: 1
    pad_w: 2
    kernel_h: 3
    kernel_w: 5
    stride_h: 1
    stride_w: 1
  }
}
layer {
  name: "conv6_2_mbox_conf_perm"
  type: "Permute"
  bottom: "conv6_2_mbox_conf"
  top: "conv6_2_mbox_conf_perm"
  permute_param {
    order: 0
    order: 2
    order: 3
    order: 1
  }
}
layer {
  name: "conv6_2_mbox_conf_flat"
  type: "Flatten"
  bottom: "conv6_2_mbox_conf_perm"
  top: "conv6_2_mbox_conf_flat"
  flatten_param {
    axis: 1
  }
}
layer {
  name: "conv6_2_mbox_priorbox"
  type: "PriorBox"
  bottom: "conv6_2"
  bottom: "data"
  top: "conv6_2_mbox_priorbox"
  prior_box_param {
    min_size: 126
    max_size: 174
    aspect_ratio: 2
    aspect_ratio: 3
    aspect_ratio: 4
    aspect_ratio: 5
    aspect_ratio: 7
    flip: true
    clip: false
    variance: 0.1
    variance: 0.1
    variance: 0.2
    variance: 0.2
    step: 32
    offset: 0.5
    denser_prior_boxes: true
  }
}
layer {
  name: "conv7_2_mbox_loc"
  type: "Convolution"
  bottom: "conv7_2"
  top: "conv7_2_mbox_loc"
  param {
    lr_mult: 1
    decay_mult: 1
  }
  param {
    lr_mult: 2
    decay_mult: 0
  }
  convolution_param {
    num_output: 288
    weight_filler {
      type: "xavier"
    }
    bias_filler {
      type: "constant"
      value: 0
    }
    pad_h: 1
    pad_w: 2
    kernel_h: 3
    kernel_w: 5
    stride_h: 1
    stride_w: 1
  }
}
layer {
  name: "conv7_2_mbox_loc_perm"
  type: "Permute"
  bottom: "conv7_2_mbox_loc"
  top: "conv7_2_mbox_loc_perm"
  permute_param {
    order: 0
    order: 2
    order: 3
    order: 1
  }
}
layer {
  name: "conv7_2_mbox_loc_flat"
  type: "Flatten"
  bottom: "conv7_2_mbox_loc_perm"
  top: "conv7_2_mbox_loc_flat"
  flatten_param {
    axis: 1
  }
}
layer {
  name: "conv7_2_mbox_conf"
  type: "Convolution"
  bottom: "conv7_2"
  top: "conv7_2_mbox_conf"
  param {
    lr_mult: 1
    decay_mult: 1
  }
  param {
    lr_mult: 2
    decay_mult: 0
  }
  convolution_param {
    num_output: 48
    weight_filler {
      type: "xavier"
    }
    bias_filler {
      type: "constant"
      value: 0
    }
    pad_h: 1
    pad_w: 2
    kernel_h: 3
    kernel_w: 5
    stride_h: 1
    stride_w: 1
  }
}
layer {
  name: "conv7_2_mbox_conf_perm"
  type: "Permute"
  bottom: "conv7_2_mbox_conf"
  top: "conv7_2_mbox_conf_perm"
  permute_param {
    order: 0
    order: 2
    order: 3
    order: 1
  }
}
layer {
  name: "conv7_2_mbox_conf_flat"
  type: "Flatten"
  bottom: "conv7_2_mbox_conf_perm"
  top: "conv7_2_mbox_conf_flat"
  flatten_param {
    axis: 1
  }
}
layer {
  name: "conv7_2_mbox_priorbox"
  type: "PriorBox"
  bottom: "conv7_2"
  bottom: "data"
  top: "conv7_2_mbox_priorbox"
  prior_box_param {
    min_size: 174
    max_size: 222
    aspect_ratio: 2
    aspect_ratio: 3
    aspect_ratio: 4
    aspect_ratio: 5
    aspect_ratio: 7
    flip: true
    clip: false
    variance: 0.1
    variance: 0.1
    variance: 0.2
    variance: 0.2
    step: 64
    offset: 0.5
    denser_prior_boxes: true
  }
}
layer {
  name: "conv8_2_mbox_loc"
  type: "Convolution"
  bottom: "conv8_2"
  top: "conv8_2_mbox_loc"
  param {
    lr_mult: 1
    decay_mult: 1
  }
  param {
    lr_mult: 2
    decay_mult: 0
  }
  convolution_param {
    num_output: 288
    weight_filler {
      type: "xavier"
    }
    bias_filler {
      type: "constant"
      value: 0
    }
    pad_h: 1
    pad_w: 2
    kernel_h: 3
    kernel_w: 5
    stride_h: 1
    stride_w: 1
  }
}
layer {
  name: "conv8_2_mbox_loc_perm"
  type: "Permute"
  bottom: "conv8_2_mbox_loc"
  top: "conv8_2_mbox_loc_perm"
  permute_param {
    order: 0
    order: 2
    order: 3
    order: 1
  }
}
layer {
  name: "conv8_2_mbox_loc_flat"
  type: "Flatten"
  bottom: "conv8_2_mbox_loc_perm"
  top: "conv8_2_mbox_loc_flat"
  flatten_param {
    axis: 1
  }
}
layer {
  name: "conv8_2_mbox_conf"
  type: "Convolution"
  bottom: "conv8_2"
  top: "conv8_2_mbox_conf"
  param {
    lr_mult: 1
    decay_mult: 1
  }
  param {
    lr_mult: 2
    decay_mult: 0
  }
  convolution_param {
    num_output: 48
    weight_filler {
      type: "xavier"
    }
    bias_filler {
      type: "constant"
      value: 0
    }
    pad_h: 1
    pad_w: 2
    kernel_h: 3
    kernel_w: 5
    stride_h: 1
    stride_w: 1
  }
}
layer {
  name: "conv8_2_mbox_conf_perm"
  type: "Permute"
  bottom: "conv8_2_mbox_conf"
  top: "conv8_2_mbox_conf_perm"
  permute_param {
    order: 0
    order: 2
    order: 3
    order: 1
  }
}
layer {
  name: "conv8_2_mbox_conf_flat"
  type: "Flatten"
  bottom: "conv8_2_mbox_conf_perm"
  top: "conv8_2_mbox_conf_flat"
  flatten_param {
    axis: 1
  }
}
layer {
  name: "conv8_2_mbox_priorbox"
  type: "PriorBox"
  bottom: "conv8_2"
  bottom: "data"
  top: "conv8_2_mbox_priorbox"
  prior_box_param {
    min_size: 222
    max_size: 270
    aspect_ratio: 2
    aspect_ratio: 3
    aspect_ratio: 4
    aspect_ratio: 5
    aspect_ratio: 7
    flip: true
    clip: false
    variance: 0.1
    variance: 0.1
    variance: 0.2
    variance: 0.2
    step: 100
    offset: 0.5
    denser_prior_boxes: true
  }
}
layer {
  name: "conv9_2_mbox_loc"
  type: "Convolution"
  bottom: "conv9_2"
  top: "conv9_2_mbox_loc"
  param {
    lr_mult: 1
    decay_mult: 1
  }
  param {
    lr_mult: 2
    decay_mult: 0
  }
  convolution_param {
    num_output: 288
    weight_filler {
      type: "xavier"
    }
    bias_filler {
      type: "constant"
      value: 0
    }
    pad_h: 1
    pad_w: 2
    kernel_h: 3
    kernel_w: 5
    stride_h: 1
    stride_w: 1
  }
}
layer {
  name: "conv9_2_mbox_loc_perm"
  type: "Permute"
  bottom: "conv9_2_mbox_loc"
  top: "conv9_2_mbox_loc_perm"
  permute_param {
    order: 0
    order: 2
    order: 3
    order: 1
  }
}
layer {
  name: "conv9_2_mbox_loc_flat"
  type: "Flatten"
  bottom: "conv9_2_mbox_loc_perm"
  top: "conv9_2_mbox_loc_flat"
  flatten_param {
    axis: 1
  }
}
layer {
  name: "conv9_2_mbox_conf"
  type: "Convolution"
  bottom: "conv9_2"
  top: "conv9_2_mbox_conf"
  param {
    lr_mult: 1
    decay_mult: 1
  }
  param {
    lr_mult: 2
    decay_mult: 0
  }
  convolution_param {
    num_output: 48
    weight_filler {
      type: "xavier"
    }
    bias_filler {
      type: "constant"
      value: 0
    }
    pad_h: 1
    pad_w: 2
    kernel_h: 3
    kernel_w: 5
    stride_h: 1
    stride_w: 1
  }
}
layer {
  name: "conv9_2_mbox_conf_perm"
  type: "Permute"
  bottom: "conv9_2_mbox_conf"
  top: "conv9_2_mbox_conf_perm"
  permute_param {
    order: 0
    order: 2
    order: 3
    order: 1
  }
}
layer {
  name: "conv9_2_mbox_conf_flat"
  type: "Flatten"
  bottom: "conv9_2_mbox_conf_perm"
  top: "conv9_2_mbox_conf_flat"
  flatten_param {
    axis: 1
  }
}
layer {
  name: "conv9_2_mbox_priorbox"
  type: "PriorBox"
  bottom: "conv9_2"
  bottom: "data"
  top: "conv9_2_mbox_priorbox"
  prior_box_param {
    min_size: 270
    max_size: 318
    aspect_ratio: 2
    aspect_ratio: 3
    aspect_ratio: 4
    aspect_ratio: 5
    aspect_ratio: 7
    flip: true
    clip: false
    variance: 0.1
    variance: 0.1
    variance: 0.2
    variance: 0.2
    step: 300
    offset: 0.5
    denser_prior_boxes: true
  }
}
layer {
  name: "mbox_loc"
  type: "Concat"
  bottom: "conv3_3_norm_mbox_loc_flat"
  bottom: "conv4_3_norm_mbox_loc_flat"
  bottom: "fc7_mbox_loc_flat"
  bottom: "conv6_2_mbox_loc_flat"
  bottom: "conv7_2_mbox_loc_flat"
  bottom: "conv8_2_mbox_loc_flat"
  bottom: "conv9_2_mbox_loc_flat"
  top: "mbox_loc"
  concat_param {
    axis: 1
  }
}
layer {
  name: "mbox_conf"
  type: "Concat"
  bottom: "conv3_3_norm_mbox_conf_flat"
  bottom: "conv4_3_norm_mbox_conf_flat"
  bottom: "fc7_mbox_conf_flat"
  bottom: "conv6_2_mbox_conf_flat"
  bottom: "conv7_2_mbox_conf_flat"
  bottom: "conv8_2_mbox_conf_flat"
  bottom: "conv9_2_mbox_conf_flat"
  top: "mbox_conf"
  concat_param {
    axis: 1
  }
}
layer {
  name: "mbox_priorbox"
  type: "Concat"
  bottom: "conv3_3_norm_mbox_priorbox"
  bottom: "conv4_3_norm_mbox_priorbox"
  bottom: "fc7_mbox_priorbox"
  bottom: "conv6_2_mbox_priorbox"
  bottom: "conv7_2_mbox_priorbox"
  bottom: "conv8_2_mbox_priorbox"
  bottom: "conv9_2_mbox_priorbox"
  top: "mbox_priorbox"
  concat_param {
    axis: 2
  }
}
layer {
  name: "mbox_conf_reshape"
  type: "Reshape"
  bottom: "mbox_conf"
  top: "mbox_conf_reshape"
  reshape_param {
    shape {
      dim: 0
      dim: -1
      dim: 2
    }
  }
}
layer {
  name: "mbox_conf_softmax"
  type: "Softmax"
  bottom: "mbox_conf_reshape"
  top: "mbox_conf_softmax"
  softmax_param {
    axis: 2
  }
}
layer {
  name: "mbox_conf_flatten"
  type: "Flatten"
  bottom: "mbox_conf_softmax"
  top: "mbox_conf_flatten"
  flatten_param {
    axis: 1
  }
}
layer {
  name: "detection_out"
  type: "DetectionOutput"
  bottom: "mbox_loc"
  bottom: "mbox_conf_flatten"
  bottom: "mbox_priorbox"
  top: "detection_out"
  include {
    phase: TEST
  }
  detection_output_param {
    num_classes: 2
    share_location: true
    background_label_id: 0
    nms_param {
      nms_threshold: 0.45
      top_k: 400
    }
    save_output_param {
      output_directory: "/home/amax/data/text/results/text/text_polygon_precise_fix_order_384x384/Main"
      output_name_prefix: "comp4_det_test_"
      output_format: "VOC"
      label_map_file: "data/text/labelmap_voc.prototxt"
      num_test_image: 500
    }
    code_type: CENTER_SIZE
    keep_top_k: 200
    confidence_threshold: 0.01
    use_polygon: true
  }
}
layer {
  name: "detection_eval"
  type: "DetectionEvaluate"
  bottom: "detection_out"
  bottom: "label"
  top: "detection_eval"
  include {
    phase: TEST
  }
  detection_evaluate_param {
    num_classes: 2
    background_label_id: 0
    overlap_threshold: 0.5
    evaluate_difficult_gt: false
    use_polygon: true
  }
}
I0428 23:26:48.729591 31705 layer_factory.hpp:77] Creating layer data
I0428 23:26:48.730113 31705 net.cpp:100] Creating Layer data
I0428 23:26:48.730142 31705 net.cpp:408] data -> data
I0428 23:26:48.730202 31705 net.cpp:408] data -> label
I0428 23:26:48.731266 31730 db_lmdb.cpp:35] Opened lmdb ./data/test_lmdb/
I0428 23:26:48.741914 31705 annotated_data_layer.cpp:62] output data size: 1,3,384,384
I0428 23:26:48.747306 31705 net.cpp:150] Setting up data
I0428 23:26:48.747361 31705 net.cpp:157] Top shape: 1 3 384 384 (442368)
I0428 23:26:48.747376 31705 net.cpp:157] Top shape: 1 1 49 16 (784)
I0428 23:26:48.747382 31705 net.cpp:165] Memory required for data: 1772608
I0428 23:26:48.747395 31705 layer_factory.hpp:77] Creating layer data_data_0_split
I0428 23:26:48.747412 31705 net.cpp:100] Creating Layer data_data_0_split
I0428 23:26:48.747424 31705 net.cpp:434] data_data_0_split <- data
I0428 23:26:48.747436 31705 net.cpp:408] data_data_0_split -> data_data_0_split_0
I0428 23:26:48.747452 31705 net.cpp:408] data_data_0_split -> data_data_0_split_1
I0428 23:26:48.747467 31705 net.cpp:408] data_data_0_split -> data_data_0_split_2
I0428 23:26:48.747480 31705 net.cpp:408] data_data_0_split -> data_data_0_split_3
I0428 23:26:48.747493 31705 net.cpp:408] data_data_0_split -> data_data_0_split_4
I0428 23:26:48.747505 31705 net.cpp:408] data_data_0_split -> data_data_0_split_5
I0428 23:26:48.747517 31705 net.cpp:408] data_data_0_split -> data_data_0_split_6
I0428 23:26:48.747529 31705 net.cpp:408] data_data_0_split -> data_data_0_split_7
I0428 23:26:48.747777 31705 net.cpp:150] Setting up data_data_0_split
I0428 23:26:48.747797 31705 net.cpp:157] Top shape: 1 3 384 384 (442368)
I0428 23:26:48.747809 31705 net.cpp:157] Top shape: 1 3 384 384 (442368)
I0428 23:26:48.747820 31705 net.cpp:157] Top shape: 1 3 384 384 (442368)
I0428 23:26:48.747828 31705 net.cpp:157] Top shape: 1 3 384 384 (442368)
I0428 23:26:48.747835 31705 net.cpp:157] Top shape: 1 3 384 384 (442368)
I0428 23:26:48.747843 31705 net.cpp:157] Top shape: 1 3 384 384 (442368)
I0428 23:26:48.747855 31705 net.cpp:157] Top shape: 1 3 384 384 (442368)
I0428 23:26:48.747865 31705 net.cpp:157] Top shape: 1 3 384 384 (442368)
I0428 23:26:48.747872 31705 net.cpp:165] Memory required for data: 15928384
I0428 23:26:48.747881 31705 layer_factory.hpp:77] Creating layer conv1_1
I0428 23:26:48.747901 31705 net.cpp:100] Creating Layer conv1_1
I0428 23:26:48.747911 31705 net.cpp:434] conv1_1 <- data_data_0_split_0
I0428 23:26:48.747925 31705 net.cpp:408] conv1_1 -> conv1_1
I0428 23:26:48.751139 31705 net.cpp:150] Setting up conv1_1
I0428 23:26:48.751188 31705 net.cpp:157] Top shape: 1 64 384 384 (9437184)
I0428 23:26:48.751200 31705 net.cpp:165] Memory required for data: 53677120
I0428 23:26:48.751219 31705 layer_factory.hpp:77] Creating layer relu1_1
I0428 23:26:48.751231 31705 net.cpp:100] Creating Layer relu1_1
I0428 23:26:48.751240 31705 net.cpp:434] relu1_1 <- conv1_1
I0428 23:26:48.751253 31705 net.cpp:395] relu1_1 -> conv1_1 (in-place)
I0428 23:26:48.751562 31705 net.cpp:150] Setting up relu1_1
I0428 23:26:48.751582 31705 net.cpp:157] Top shape: 1 64 384 384 (9437184)
I0428 23:26:48.751591 31705 net.cpp:165] Memory required for data: 91425856
I0428 23:26:48.751600 31705 layer_factory.hpp:77] Creating layer conv1_2
I0428 23:26:48.751616 31705 net.cpp:100] Creating Layer conv1_2
I0428 23:26:48.751623 31705 net.cpp:434] conv1_2 <- conv1_1
I0428 23:26:48.751636 31705 net.cpp:408] conv1_2 -> conv1_2
I0428 23:26:48.755749 31705 net.cpp:150] Setting up conv1_2
I0428 23:26:48.755800 31705 net.cpp:157] Top shape: 1 64 384 384 (9437184)
I0428 23:26:48.755836 31705 net.cpp:165] Memory required for data: 129174592
I0428 23:26:48.755873 31705 layer_factory.hpp:77] Creating layer relu1_2
I0428 23:26:48.755887 31705 net.cpp:100] Creating Layer relu1_2
I0428 23:26:48.755894 31705 net.cpp:434] relu1_2 <- conv1_2
I0428 23:26:48.755906 31705 net.cpp:395] relu1_2 -> conv1_2 (in-place)
I0428 23:26:48.756451 31705 net.cpp:150] Setting up relu1_2
I0428 23:26:48.756471 31705 net.cpp:157] Top shape: 1 64 384 384 (9437184)
I0428 23:26:48.756479 31705 net.cpp:165] Memory required for data: 166923328
I0428 23:26:48.756486 31705 layer_factory.hpp:77] Creating layer pool1
I0428 23:26:48.756500 31705 net.cpp:100] Creating Layer pool1
I0428 23:26:48.756507 31705 net.cpp:434] pool1 <- conv1_2
I0428 23:26:48.756518 31705 net.cpp:408] pool1 -> pool1
I0428 23:26:48.756613 31705 net.cpp:150] Setting up pool1
I0428 23:26:48.756629 31705 net.cpp:157] Top shape: 1 64 192 192 (2359296)
I0428 23:26:48.756639 31705 net.cpp:165] Memory required for data: 176360512
I0428 23:26:48.756646 31705 layer_factory.hpp:77] Creating layer conv2_1
I0428 23:26:48.756664 31705 net.cpp:100] Creating Layer conv2_1
I0428 23:26:48.756673 31705 net.cpp:434] conv2_1 <- pool1
I0428 23:26:48.756685 31705 net.cpp:408] conv2_1 -> conv2_1
I0428 23:26:48.760138 31705 net.cpp:150] Setting up conv2_1
I0428 23:26:48.760160 31705 net.cpp:157] Top shape: 1 128 192 192 (4718592)
I0428 23:26:48.760169 31705 net.cpp:165] Memory required for data: 195234880
I0428 23:26:48.760212 31705 layer_factory.hpp:77] Creating layer relu2_1
I0428 23:26:48.760246 31705 net.cpp:100] Creating Layer relu2_1
I0428 23:26:48.760269 31705 net.cpp:434] relu2_1 <- conv2_1
I0428 23:26:48.760283 31705 net.cpp:395] relu2_1 -> conv2_1 (in-place)
I0428 23:26:48.760589 31705 net.cpp:150] Setting up relu2_1
I0428 23:26:48.760608 31705 net.cpp:157] Top shape: 1 128 192 192 (4718592)
I0428 23:26:48.760617 31705 net.cpp:165] Memory required for data: 214109248
I0428 23:26:48.760625 31705 layer_factory.hpp:77] Creating layer conv2_2
I0428 23:26:48.760641 31705 net.cpp:100] Creating Layer conv2_2
I0428 23:26:48.760651 31705 net.cpp:434] conv2_2 <- conv2_1
I0428 23:26:48.760661 31705 net.cpp:408] conv2_2 -> conv2_2
I0428 23:26:48.765172 31705 net.cpp:150] Setting up conv2_2
I0428 23:26:48.765221 31705 net.cpp:157] Top shape: 1 128 192 192 (4718592)
I0428 23:26:48.765233 31705 net.cpp:165] Memory required for data: 232983616
I0428 23:26:48.765245 31705 layer_factory.hpp:77] Creating layer relu2_2
I0428 23:26:48.765257 31705 net.cpp:100] Creating Layer relu2_2
I0428 23:26:48.765266 31705 net.cpp:434] relu2_2 <- conv2_2
I0428 23:26:48.765281 31705 net.cpp:395] relu2_2 -> conv2_2 (in-place)
I0428 23:26:48.765589 31705 net.cpp:150] Setting up relu2_2
I0428 23:26:48.765609 31705 net.cpp:157] Top shape: 1 128 192 192 (4718592)
I0428 23:26:48.765617 31705 net.cpp:165] Memory required for data: 251857984
I0428 23:26:48.765627 31705 layer_factory.hpp:77] Creating layer pool2
I0428 23:26:48.765637 31705 net.cpp:100] Creating Layer pool2
I0428 23:26:48.765647 31705 net.cpp:434] pool2 <- conv2_2
I0428 23:26:48.765656 31705 net.cpp:408] pool2 -> pool2
I0428 23:26:48.765751 31705 net.cpp:150] Setting up pool2
I0428 23:26:48.765767 31705 net.cpp:157] Top shape: 1 128 96 96 (1179648)
I0428 23:26:48.765775 31705 net.cpp:165] Memory required for data: 256576576
I0428 23:26:48.765784 31705 layer_factory.hpp:77] Creating layer conv3_1
I0428 23:26:48.765801 31705 net.cpp:100] Creating Layer conv3_1
I0428 23:26:48.765811 31705 net.cpp:434] conv3_1 <- pool2
I0428 23:26:48.765825 31705 net.cpp:408] conv3_1 -> conv3_1
I0428 23:26:48.771698 31705 net.cpp:150] Setting up conv3_1
I0428 23:26:48.771747 31705 net.cpp:157] Top shape: 1 256 96 96 (2359296)
I0428 23:26:48.771777 31705 net.cpp:165] Memory required for data: 266013760
I0428 23:26:48.771800 31705 layer_factory.hpp:77] Creating layer relu3_1
I0428 23:26:48.771813 31705 net.cpp:100] Creating Layer relu3_1
I0428 23:26:48.771821 31705 net.cpp:434] relu3_1 <- conv3_1
I0428 23:26:48.771833 31705 net.cpp:395] relu3_1 -> conv3_1 (in-place)
I0428 23:26:48.772366 31705 net.cpp:150] Setting up relu3_1
I0428 23:26:48.772400 31705 net.cpp:157] Top shape: 1 256 96 96 (2359296)
I0428 23:26:48.772409 31705 net.cpp:165] Memory required for data: 275450944
I0428 23:26:48.772418 31705 layer_factory.hpp:77] Creating layer conv3_2
I0428 23:26:48.772433 31705 net.cpp:100] Creating Layer conv3_2
I0428 23:26:48.772442 31705 net.cpp:434] conv3_2 <- conv3_1
I0428 23:26:48.772459 31705 net.cpp:408] conv3_2 -> conv3_2
I0428 23:26:48.782480 31705 net.cpp:150] Setting up conv3_2
I0428 23:26:48.782532 31705 net.cpp:157] Top shape: 1 256 96 96 (2359296)
I0428 23:26:48.782547 31705 net.cpp:165] Memory required for data: 284888128
I0428 23:26:48.782562 31705 layer_factory.hpp:77] Creating layer relu3_2
I0428 23:26:48.782577 31705 net.cpp:100] Creating Layer relu3_2
I0428 23:26:48.782584 31705 net.cpp:434] relu3_2 <- conv3_2
I0428 23:26:48.782615 31705 net.cpp:395] relu3_2 -> conv3_2 (in-place)
I0428 23:26:48.782955 31705 net.cpp:150] Setting up relu3_2
I0428 23:26:48.782994 31705 net.cpp:157] Top shape: 1 256 96 96 (2359296)
I0428 23:26:48.783018 31705 net.cpp:165] Memory required for data: 294325312
I0428 23:26:48.783041 31705 layer_factory.hpp:77] Creating layer conv3_3
I0428 23:26:48.783064 31705 net.cpp:100] Creating Layer conv3_3
I0428 23:26:48.783074 31705 net.cpp:434] conv3_3 <- conv3_2
I0428 23:26:48.783090 31705 net.cpp:408] conv3_3 -> conv3_3
I0428 23:26:48.792701 31705 net.cpp:150] Setting up conv3_3
I0428 23:26:48.792752 31705 net.cpp:157] Top shape: 1 256 96 96 (2359296)
I0428 23:26:48.792779 31705 net.cpp:165] Memory required for data: 303762496
I0428 23:26:48.792806 31705 layer_factory.hpp:77] Creating layer relu3_3
I0428 23:26:48.792822 31705 net.cpp:100] Creating Layer relu3_3
I0428 23:26:48.792831 31705 net.cpp:434] relu3_3 <- conv3_3
I0428 23:26:48.792842 31705 net.cpp:395] relu3_3 -> conv3_3 (in-place)
I0428 23:26:48.793157 31705 net.cpp:150] Setting up relu3_3
I0428 23:26:48.793175 31705 net.cpp:157] Top shape: 1 256 96 96 (2359296)
I0428 23:26:48.793181 31705 net.cpp:165] Memory required for data: 313199680
I0428 23:26:48.793190 31705 layer_factory.hpp:77] Creating layer conv3_3_relu3_3_0_split
I0428 23:26:48.793201 31705 net.cpp:100] Creating Layer conv3_3_relu3_3_0_split
I0428 23:26:48.793210 31705 net.cpp:434] conv3_3_relu3_3_0_split <- conv3_3
I0428 23:26:48.793220 31705 net.cpp:408] conv3_3_relu3_3_0_split -> conv3_3_relu3_3_0_split_0
I0428 23:26:48.793237 31705 net.cpp:408] conv3_3_relu3_3_0_split -> conv3_3_relu3_3_0_split_1
I0428 23:26:48.793336 31705 net.cpp:150] Setting up conv3_3_relu3_3_0_split
I0428 23:26:48.793354 31705 net.cpp:157] Top shape: 1 256 96 96 (2359296)
I0428 23:26:48.793365 31705 net.cpp:157] Top shape: 1 256 96 96 (2359296)
I0428 23:26:48.793371 31705 net.cpp:165] Memory required for data: 332074048
I0428 23:26:48.793377 31705 layer_factory.hpp:77] Creating layer pool3
I0428 23:26:48.793388 31705 net.cpp:100] Creating Layer pool3
I0428 23:26:48.793396 31705 net.cpp:434] pool3 <- conv3_3_relu3_3_0_split_0
I0428 23:26:48.793409 31705 net.cpp:408] pool3 -> pool3
I0428 23:26:48.793505 31705 net.cpp:150] Setting up pool3
I0428 23:26:48.793520 31705 net.cpp:157] Top shape: 1 256 48 48 (589824)
I0428 23:26:48.793529 31705 net.cpp:165] Memory required for data: 334433344
I0428 23:26:48.793539 31705 layer_factory.hpp:77] Creating layer conv4_1
I0428 23:26:48.793558 31705 net.cpp:100] Creating Layer conv4_1
I0428 23:26:48.793567 31705 net.cpp:434] conv4_1 <- pool3
I0428 23:26:48.793579 31705 net.cpp:408] conv4_1 -> conv4_1
I0428 23:26:48.810562 31705 net.cpp:150] Setting up conv4_1
I0428 23:26:48.810623 31705 net.cpp:157] Top shape: 1 512 48 48 (1179648)
I0428 23:26:48.810650 31705 net.cpp:165] Memory required for data: 339151936
I0428 23:26:48.810678 31705 layer_factory.hpp:77] Creating layer relu4_1
I0428 23:26:48.810696 31705 net.cpp:100] Creating Layer relu4_1
I0428 23:26:48.810705 31705 net.cpp:434] relu4_1 <- conv4_1
I0428 23:26:48.810719 31705 net.cpp:395] relu4_1 -> conv4_1 (in-place)
I0428 23:26:48.811280 31705 net.cpp:150] Setting up relu4_1
I0428 23:26:48.811305 31705 net.cpp:157] Top shape: 1 512 48 48 (1179648)
I0428 23:26:48.811333 31705 net.cpp:165] Memory required for data: 343870528
I0428 23:26:48.811343 31705 layer_factory.hpp:77] Creating layer conv4_2
I0428 23:26:48.811362 31705 net.cpp:100] Creating Layer conv4_2
I0428 23:26:48.811372 31705 net.cpp:434] conv4_2 <- conv4_1
I0428 23:26:48.811385 31705 net.cpp:408] conv4_2 -> conv4_2
I0428 23:26:48.843226 31705 net.cpp:150] Setting up conv4_2
I0428 23:26:48.843266 31705 net.cpp:157] Top shape: 1 512 48 48 (1179648)
I0428 23:26:48.843273 31705 net.cpp:165] Memory required for data: 348589120
I0428 23:26:48.843302 31705 layer_factory.hpp:77] Creating layer relu4_2
I0428 23:26:48.843350 31705 net.cpp:100] Creating Layer relu4_2
I0428 23:26:48.843379 31705 net.cpp:434] relu4_2 <- conv4_2
I0428 23:26:48.843407 31705 net.cpp:395] relu4_2 -> conv4_2 (in-place)
I0428 23:26:48.843732 31705 net.cpp:150] Setting up relu4_2
I0428 23:26:48.843753 31705 net.cpp:157] Top shape: 1 512 48 48 (1179648)
I0428 23:26:48.843762 31705 net.cpp:165] Memory required for data: 353307712
I0428 23:26:48.843770 31705 layer_factory.hpp:77] Creating layer conv4_3
I0428 23:26:48.843791 31705 net.cpp:100] Creating Layer conv4_3
I0428 23:26:48.843801 31705 net.cpp:434] conv4_3 <- conv4_2
I0428 23:26:48.843813 31705 net.cpp:408] conv4_3 -> conv4_3
I0428 23:26:48.875960 31705 net.cpp:150] Setting up conv4_3
I0428 23:26:48.876044 31705 net.cpp:157] Top shape: 1 512 48 48 (1179648)
I0428 23:26:48.876070 31705 net.cpp:165] Memory required for data: 358026304
I0428 23:26:48.876090 31705 layer_factory.hpp:77] Creating layer relu4_3
I0428 23:26:48.876108 31705 net.cpp:100] Creating Layer relu4_3
I0428 23:26:48.876122 31705 net.cpp:434] relu4_3 <- conv4_3
I0428 23:26:48.876140 31705 net.cpp:395] relu4_3 -> conv4_3 (in-place)
I0428 23:26:48.876494 31705 net.cpp:150] Setting up relu4_3
I0428 23:26:48.876515 31705 net.cpp:157] Top shape: 1 512 48 48 (1179648)
I0428 23:26:48.876525 31705 net.cpp:165] Memory required for data: 362744896
I0428 23:26:48.876555 31705 layer_factory.hpp:77] Creating layer conv4_3_relu4_3_0_split
I0428 23:26:48.876585 31705 net.cpp:100] Creating Layer conv4_3_relu4_3_0_split
I0428 23:26:48.876608 31705 net.cpp:434] conv4_3_relu4_3_0_split <- conv4_3
I0428 23:26:48.876636 31705 net.cpp:408] conv4_3_relu4_3_0_split -> conv4_3_relu4_3_0_split_0
I0428 23:26:48.876657 31705 net.cpp:408] conv4_3_relu4_3_0_split -> conv4_3_relu4_3_0_split_1
I0428 23:26:48.876760 31705 net.cpp:150] Setting up conv4_3_relu4_3_0_split
I0428 23:26:48.876796 31705 net.cpp:157] Top shape: 1 512 48 48 (1179648)
I0428 23:26:48.876821 31705 net.cpp:157] Top shape: 1 512 48 48 (1179648)
I0428 23:26:48.876842 31705 net.cpp:165] Memory required for data: 372182080
I0428 23:26:48.876852 31705 layer_factory.hpp:77] Creating layer pool4
I0428 23:26:48.876866 31705 net.cpp:100] Creating Layer pool4
I0428 23:26:48.876875 31705 net.cpp:434] pool4 <- conv4_3_relu4_3_0_split_0
I0428 23:26:48.876886 31705 net.cpp:408] pool4 -> pool4
I0428 23:26:48.876991 31705 net.cpp:150] Setting up pool4
I0428 23:26:48.877025 31705 net.cpp:157] Top shape: 1 512 24 24 (294912)
I0428 23:26:48.877048 31705 net.cpp:165] Memory required for data: 373361728
I0428 23:26:48.877058 31705 layer_factory.hpp:77] Creating layer conv5_1
I0428 23:26:48.877079 31705 net.cpp:100] Creating Layer conv5_1
I0428 23:26:48.877089 31705 net.cpp:434] conv5_1 <- pool4
I0428 23:26:48.877102 31705 net.cpp:408] conv5_1 -> conv5_1
I0428 23:26:48.907121 31705 net.cpp:150] Setting up conv5_1
I0428 23:26:48.907153 31705 net.cpp:157] Top shape: 1 512 24 24 (294912)
I0428 23:26:48.907160 31705 net.cpp:165] Memory required for data: 374541376
I0428 23:26:48.907172 31705 layer_factory.hpp:77] Creating layer relu5_1
I0428 23:26:48.907188 31705 net.cpp:100] Creating Layer relu5_1
I0428 23:26:48.907222 31705 net.cpp:434] relu5_1 <- conv5_1
I0428 23:26:48.907253 31705 net.cpp:395] relu5_1 -> conv5_1 (in-place)
I0428 23:26:48.907714 31705 net.cpp:150] Setting up relu5_1
I0428 23:26:48.907734 31705 net.cpp:157] Top shape: 1 512 24 24 (294912)
I0428 23:26:48.907764 31705 net.cpp:165] Memory required for data: 375721024
I0428 23:26:48.907773 31705 layer_factory.hpp:77] Creating layer conv5_2
I0428 23:26:48.907788 31705 net.cpp:100] Creating Layer conv5_2
I0428 23:26:48.907795 31705 net.cpp:434] conv5_2 <- conv5_1
I0428 23:26:48.907809 31705 net.cpp:408] conv5_2 -> conv5_2
I0428 23:26:48.934566 31705 net.cpp:150] Setting up conv5_2
I0428 23:26:48.934594 31705 net.cpp:157] Top shape: 1 512 24 24 (294912)
I0428 23:26:48.934599 31705 net.cpp:165] Memory required for data: 376900672
I0428 23:26:48.934608 31705 layer_factory.hpp:77] Creating layer relu5_2
I0428 23:26:48.934618 31705 net.cpp:100] Creating Layer relu5_2
I0428 23:26:48.934626 31705 net.cpp:434] relu5_2 <- conv5_2
I0428 23:26:48.934635 31705 net.cpp:395] relu5_2 -> conv5_2 (in-place)
I0428 23:26:48.934851 31705 net.cpp:150] Setting up relu5_2
I0428 23:26:48.934864 31705 net.cpp:157] Top shape: 1 512 24 24 (294912)
I0428 23:26:48.934866 31705 net.cpp:165] Memory required for data: 378080320
I0428 23:26:48.934870 31705 layer_factory.hpp:77] Creating layer conv5_3
I0428 23:26:48.934890 31705 net.cpp:100] Creating Layer conv5_3
I0428 23:26:48.934897 31705 net.cpp:434] conv5_3 <- conv5_2
I0428 23:26:48.934906 31705 net.cpp:408] conv5_3 -> conv5_3
I0428 23:26:48.961588 31705 net.cpp:150] Setting up conv5_3
I0428 23:26:48.961616 31705 net.cpp:157] Top shape: 1 512 24 24 (294912)
I0428 23:26:48.961622 31705 net.cpp:165] Memory required for data: 379259968
I0428 23:26:48.961637 31705 layer_factory.hpp:77] Creating layer relu5_3
I0428 23:26:48.961650 31705 net.cpp:100] Creating Layer relu5_3
I0428 23:26:48.961680 31705 net.cpp:434] relu5_3 <- conv5_3
I0428 23:26:48.961695 31705 net.cpp:395] relu5_3 -> conv5_3 (in-place)
I0428 23:26:48.961920 31705 net.cpp:150] Setting up relu5_3
I0428 23:26:48.961935 31705 net.cpp:157] Top shape: 1 512 24 24 (294912)
I0428 23:26:48.961941 31705 net.cpp:165] Memory required for data: 380439616
I0428 23:26:48.961948 31705 layer_factory.hpp:77] Creating layer pool5
I0428 23:26:48.961978 31705 net.cpp:100] Creating Layer pool5
I0428 23:26:48.961987 31705 net.cpp:434] pool5 <- conv5_3
I0428 23:26:48.961999 31705 net.cpp:408] pool5 -> pool5
I0428 23:26:48.962080 31705 net.cpp:150] Setting up pool5
I0428 23:26:48.962091 31705 net.cpp:157] Top shape: 1 512 24 24 (294912)
I0428 23:26:48.962098 31705 net.cpp:165] Memory required for data: 381619264
I0428 23:26:48.962121 31705 layer_factory.hpp:77] Creating layer fc6
I0428 23:26:48.962143 31705 net.cpp:100] Creating Layer fc6
I0428 23:26:48.962153 31705 net.cpp:434] fc6 <- pool5
I0428 23:26:48.962168 31705 net.cpp:408] fc6 -> fc6
I0428 23:26:49.013866 31705 net.cpp:150] Setting up fc6
I0428 23:26:49.013911 31705 net.cpp:157] Top shape: 1 1024 24 24 (589824)
I0428 23:26:49.013917 31705 net.cpp:165] Memory required for data: 383978560
I0428 23:26:49.013931 31705 layer_factory.hpp:77] Creating layer relu6
I0428 23:26:49.013949 31705 net.cpp:100] Creating Layer relu6
I0428 23:26:49.013985 31705 net.cpp:434] relu6 <- fc6
I0428 23:26:49.014019 31705 net.cpp:395] relu6 -> fc6 (in-place)
I0428 23:26:49.014614 31705 net.cpp:150] Setting up relu6
I0428 23:26:49.014633 31705 net.cpp:157] Top shape: 1 1024 24 24 (589824)
I0428 23:26:49.014641 31705 net.cpp:165] Memory required for data: 386337856
I0428 23:26:49.014647 31705 layer_factory.hpp:77] Creating layer fc7
I0428 23:26:49.014694 31705 net.cpp:100] Creating Layer fc7
I0428 23:26:49.014713 31705 net.cpp:434] fc7 <- fc6
I0428 23:26:49.014724 31705 net.cpp:408] fc7 -> fc7
I0428 23:26:49.027998 31705 net.cpp:150] Setting up fc7
I0428 23:26:49.028019 31705 net.cpp:157] Top shape: 1 1024 24 24 (589824)
I0428 23:26:49.028026 31705 net.cpp:165] Memory required for data: 388697152
I0428 23:26:49.028040 31705 layer_factory.hpp:77] Creating layer relu7
I0428 23:26:49.028070 31705 net.cpp:100] Creating Layer relu7
I0428 23:26:49.028080 31705 net.cpp:434] relu7 <- fc7
I0428 23:26:49.028090 31705 net.cpp:395] relu7 -> fc7 (in-place)
I0428 23:26:49.028348 31705 net.cpp:150] Setting up relu7
I0428 23:26:49.028384 31705 net.cpp:157] Top shape: 1 1024 24 24 (589824)
I0428 23:26:49.028393 31705 net.cpp:165] Memory required for data: 391056448
I0428 23:26:49.028419 31705 layer_factory.hpp:77] Creating layer fc7_relu7_0_split
I0428 23:26:49.028431 31705 net.cpp:100] Creating Layer fc7_relu7_0_split
I0428 23:26:49.028442 31705 net.cpp:434] fc7_relu7_0_split <- fc7
I0428 23:26:49.028458 31705 net.cpp:408] fc7_relu7_0_split -> fc7_relu7_0_split_0
I0428 23:26:49.028468 31705 net.cpp:408] fc7_relu7_0_split -> fc7_relu7_0_split_1
I0428 23:26:49.028479 31705 net.cpp:408] fc7_relu7_0_split -> fc7_relu7_0_split_2
I0428 23:26:49.028493 31705 net.cpp:408] fc7_relu7_0_split -> fc7_relu7_0_split_3
I0428 23:26:49.028614 31705 net.cpp:150] Setting up fc7_relu7_0_split
I0428 23:26:49.028626 31705 net.cpp:157] Top shape: 1 1024 24 24 (589824)
I0428 23:26:49.028635 31705 net.cpp:157] Top shape: 1 1024 24 24 (589824)
I0428 23:26:49.028657 31705 net.cpp:157] Top shape: 1 1024 24 24 (589824)
I0428 23:26:49.028666 31705 net.cpp:157] Top shape: 1 1024 24 24 (589824)
I0428 23:26:49.028672 31705 net.cpp:165] Memory required for data: 400493632
I0428 23:26:49.028692 31705 layer_factory.hpp:77] Creating layer conv6_1
I0428 23:26:49.028712 31705 net.cpp:100] Creating Layer conv6_1
I0428 23:26:49.028722 31705 net.cpp:434] conv6_1 <- fc7_relu7_0_split_0
I0428 23:26:49.028748 31705 net.cpp:408] conv6_1 -> conv6_1
I0428 23:26:49.033136 31705 net.cpp:150] Setting up conv6_1
I0428 23:26:49.033156 31705 net.cpp:157] Top shape: 1 256 24 24 (147456)
I0428 23:26:49.033164 31705 net.cpp:165] Memory required for data: 401083456
I0428 23:26:49.033176 31705 layer_factory.hpp:77] Creating layer conv6_1_relu
I0428 23:26:49.033206 31705 net.cpp:100] Creating Layer conv6_1_relu
I0428 23:26:49.033215 31705 net.cpp:434] conv6_1_relu <- conv6_1
I0428 23:26:49.033223 31705 net.cpp:395] conv6_1_relu -> conv6_1 (in-place)
I0428 23:26:49.033627 31705 net.cpp:150] Setting up conv6_1_relu
I0428 23:26:49.033643 31705 net.cpp:157] Top shape: 1 256 24 24 (147456)
I0428 23:26:49.033646 31705 net.cpp:165] Memory required for data: 401673280
I0428 23:26:49.033653 31705 layer_factory.hpp:77] Creating layer conv6_2
I0428 23:26:49.033665 31705 net.cpp:100] Creating Layer conv6_2
I0428 23:26:49.033670 31705 net.cpp:434] conv6_2 <- conv6_1
I0428 23:26:49.033679 31705 net.cpp:408] conv6_2 -> conv6_2
I0428 23:26:49.047567 31705 net.cpp:150] Setting up conv6_2
I0428 23:26:49.047590 31705 net.cpp:157] Top shape: 1 512 12 12 (73728)
I0428 23:26:49.047596 31705 net.cpp:165] Memory required for data: 401968192
I0428 23:26:49.047622 31705 layer_factory.hpp:77] Creating layer conv6_2_relu
I0428 23:26:49.047639 31705 net.cpp:100] Creating Layer conv6_2_relu
I0428 23:26:49.047667 31705 net.cpp:434] conv6_2_relu <- conv6_2
I0428 23:26:49.047679 31705 net.cpp:395] conv6_2_relu -> conv6_2 (in-place)
I0428 23:26:49.048300 31705 net.cpp:150] Setting up conv6_2_relu
I0428 23:26:49.048316 31705 net.cpp:157] Top shape: 1 512 12 12 (73728)
I0428 23:26:49.048323 31705 net.cpp:165] Memory required for data: 402263104
I0428 23:26:49.048331 31705 layer_factory.hpp:77] Creating layer conv6_2_conv6_2_relu_0_split
I0428 23:26:49.048343 31705 net.cpp:100] Creating Layer conv6_2_conv6_2_relu_0_split
I0428 23:26:49.048352 31705 net.cpp:434] conv6_2_conv6_2_relu_0_split <- conv6_2
I0428 23:26:49.048368 31705 net.cpp:408] conv6_2_conv6_2_relu_0_split -> conv6_2_conv6_2_relu_0_split_0
I0428 23:26:49.048383 31705 net.cpp:408] conv6_2_conv6_2_relu_0_split -> conv6_2_conv6_2_relu_0_split_1
I0428 23:26:49.048396 31705 net.cpp:408] conv6_2_conv6_2_relu_0_split -> conv6_2_conv6_2_relu_0_split_2
I0428 23:26:49.048409 31705 net.cpp:408] conv6_2_conv6_2_relu_0_split -> conv6_2_conv6_2_relu_0_split_3
I0428 23:26:49.048527 31705 net.cpp:150] Setting up conv6_2_conv6_2_relu_0_split
I0428 23:26:49.048539 31705 net.cpp:157] Top shape: 1 512 12 12 (73728)
I0428 23:26:49.048547 31705 net.cpp:157] Top shape: 1 512 12 12 (73728)
I0428 23:26:49.048557 31705 net.cpp:157] Top shape: 1 512 12 12 (73728)
I0428 23:26:49.048566 31705 net.cpp:157] Top shape: 1 512 12 12 (73728)
I0428 23:26:49.048589 31705 net.cpp:165] Memory required for data: 403442752
I0428 23:26:49.048599 31705 layer_factory.hpp:77] Creating layer conv7_1
I0428 23:26:49.048619 31705 net.cpp:100] Creating Layer conv7_1
I0428 23:26:49.048627 31705 net.cpp:434] conv7_1 <- conv6_2_conv6_2_relu_0_split_0
I0428 23:26:49.048645 31705 net.cpp:408] conv7_1 -> conv7_1
I0428 23:26:49.050673 31705 net.cpp:150] Setting up conv7_1
I0428 23:26:49.050691 31705 net.cpp:157] Top shape: 1 128 12 12 (18432)
I0428 23:26:49.050698 31705 net.cpp:165] Memory required for data: 403516480
I0428 23:26:49.050709 31705 layer_factory.hpp:77] Creating layer conv7_1_relu
I0428 23:26:49.050725 31705 net.cpp:100] Creating Layer conv7_1_relu
I0428 23:26:49.050734 31705 net.cpp:434] conv7_1_relu <- conv7_1
I0428 23:26:49.050750 31705 net.cpp:395] conv7_1_relu -> conv7_1 (in-place)
I0428 23:26:49.050966 31705 net.cpp:150] Setting up conv7_1_relu
I0428 23:26:49.050981 31705 net.cpp:157] Top shape: 1 128 12 12 (18432)
I0428 23:26:49.050987 31705 net.cpp:165] Memory required for data: 403590208
I0428 23:26:49.051012 31705 layer_factory.hpp:77] Creating layer conv7_2
I0428 23:26:49.051031 31705 net.cpp:100] Creating Layer conv7_2
I0428 23:26:49.051039 31705 net.cpp:434] conv7_2 <- conv7_1
I0428 23:26:49.051059 31705 net.cpp:408] conv7_2 -> conv7_2
I0428 23:26:49.055766 31705 net.cpp:150] Setting up conv7_2
I0428 23:26:49.055786 31705 net.cpp:157] Top shape: 1 256 6 6 (9216)
I0428 23:26:49.055794 31705 net.cpp:165] Memory required for data: 403627072
I0428 23:26:49.055805 31705 layer_factory.hpp:77] Creating layer conv7_2_relu
I0428 23:26:49.055820 31705 net.cpp:100] Creating Layer conv7_2_relu
I0428 23:26:49.055830 31705 net.cpp:434] conv7_2_relu <- conv7_2
I0428 23:26:49.055845 31705 net.cpp:395] conv7_2_relu -> conv7_2 (in-place)
I0428 23:26:49.056258 31705 net.cpp:150] Setting up conv7_2_relu
I0428 23:26:49.056275 31705 net.cpp:157] Top shape: 1 256 6 6 (9216)
I0428 23:26:49.056282 31705 net.cpp:165] Memory required for data: 403663936
I0428 23:26:49.056289 31705 layer_factory.hpp:77] Creating layer conv7_2_conv7_2_relu_0_split
I0428 23:26:49.056304 31705 net.cpp:100] Creating Layer conv7_2_conv7_2_relu_0_split
I0428 23:26:49.056313 31705 net.cpp:434] conv7_2_conv7_2_relu_0_split <- conv7_2
I0428 23:26:49.056324 31705 net.cpp:408] conv7_2_conv7_2_relu_0_split -> conv7_2_conv7_2_relu_0_split_0
I0428 23:26:49.056339 31705 net.cpp:408] conv7_2_conv7_2_relu_0_split -> conv7_2_conv7_2_relu_0_split_1
I0428 23:26:49.056354 31705 net.cpp:408] conv7_2_conv7_2_relu_0_split -> conv7_2_conv7_2_relu_0_split_2
I0428 23:26:49.056366 31705 net.cpp:408] conv7_2_conv7_2_relu_0_split -> conv7_2_conv7_2_relu_0_split_3
I0428 23:26:49.056483 31705 net.cpp:150] Setting up conv7_2_conv7_2_relu_0_split
I0428 23:26:49.056496 31705 net.cpp:157] Top shape: 1 256 6 6 (9216)
I0428 23:26:49.056504 31705 net.cpp:157] Top shape: 1 256 6 6 (9216)
I0428 23:26:49.056514 31705 net.cpp:157] Top shape: 1 256 6 6 (9216)
I0428 23:26:49.056524 31705 net.cpp:157] Top shape: 1 256 6 6 (9216)
I0428 23:26:49.056531 31705 net.cpp:165] Memory required for data: 403811392
I0428 23:26:49.056537 31705 layer_factory.hpp:77] Creating layer conv8_1
I0428 23:26:49.056555 31705 net.cpp:100] Creating Layer conv8_1
I0428 23:26:49.056563 31705 net.cpp:434] conv8_1 <- conv7_2_conv7_2_relu_0_split_0
I0428 23:26:49.056581 31705 net.cpp:408] conv8_1 -> conv8_1
I0428 23:26:49.058151 31705 net.cpp:150] Setting up conv8_1
I0428 23:26:49.058169 31705 net.cpp:157] Top shape: 1 128 6 6 (4608)
I0428 23:26:49.058176 31705 net.cpp:165] Memory required for data: 403829824
I0428 23:26:49.058187 31705 layer_factory.hpp:77] Creating layer conv8_1_relu
I0428 23:26:49.058205 31705 net.cpp:100] Creating Layer conv8_1_relu
I0428 23:26:49.058215 31705 net.cpp:434] conv8_1_relu <- conv8_1
I0428 23:26:49.058230 31705 net.cpp:395] conv8_1_relu -> conv8_1 (in-place)
I0428 23:26:49.058651 31705 net.cpp:150] Setting up conv8_1_relu
I0428 23:26:49.058668 31705 net.cpp:157] Top shape: 1 128 6 6 (4608)
I0428 23:26:49.058676 31705 net.cpp:165] Memory required for data: 403848256
I0428 23:26:49.058697 31705 layer_factory.hpp:77] Creating layer conv8_2
I0428 23:26:49.058718 31705 net.cpp:100] Creating Layer conv8_2
I0428 23:26:49.058727 31705 net.cpp:434] conv8_2 <- conv8_1
I0428 23:26:49.058743 31705 net.cpp:408] conv8_2 -> conv8_2
I0428 23:26:49.063457 31705 net.cpp:150] Setting up conv8_2
I0428 23:26:49.063474 31705 net.cpp:157] Top shape: 1 256 4 4 (4096)
I0428 23:26:49.063478 31705 net.cpp:165] Memory required for data: 403864640
I0428 23:26:49.063485 31705 layer_factory.hpp:77] Creating layer conv8_2_relu
I0428 23:26:49.063493 31705 net.cpp:100] Creating Layer conv8_2_relu
I0428 23:26:49.063500 31705 net.cpp:434] conv8_2_relu <- conv8_2
I0428 23:26:49.063513 31705 net.cpp:395] conv8_2_relu -> conv8_2 (in-place)
I0428 23:26:49.063724 31705 net.cpp:150] Setting up conv8_2_relu
I0428 23:26:49.063736 31705 net.cpp:157] Top shape: 1 256 4 4 (4096)
I0428 23:26:49.063740 31705 net.cpp:165] Memory required for data: 403881024
I0428 23:26:49.063743 31705 layer_factory.hpp:77] Creating layer conv8_2_conv8_2_relu_0_split
I0428 23:26:49.063750 31705 net.cpp:100] Creating Layer conv8_2_conv8_2_relu_0_split
I0428 23:26:49.063755 31705 net.cpp:434] conv8_2_conv8_2_relu_0_split <- conv8_2
I0428 23:26:49.063763 31705 net.cpp:408] conv8_2_conv8_2_relu_0_split -> conv8_2_conv8_2_relu_0_split_0
I0428 23:26:49.063771 31705 net.cpp:408] conv8_2_conv8_2_relu_0_split -> conv8_2_conv8_2_relu_0_split_1
I0428 23:26:49.063779 31705 net.cpp:408] conv8_2_conv8_2_relu_0_split -> conv8_2_conv8_2_relu_0_split_2
I0428 23:26:49.063786 31705 net.cpp:408] conv8_2_conv8_2_relu_0_split -> conv8_2_conv8_2_relu_0_split_3
I0428 23:26:49.063886 31705 net.cpp:150] Setting up conv8_2_conv8_2_relu_0_split
I0428 23:26:49.063897 31705 net.cpp:157] Top shape: 1 256 4 4 (4096)
I0428 23:26:49.063902 31705 net.cpp:157] Top shape: 1 256 4 4 (4096)
I0428 23:26:49.063905 31705 net.cpp:157] Top shape: 1 256 4 4 (4096)
I0428 23:26:49.063910 31705 net.cpp:157] Top shape: 1 256 4 4 (4096)
I0428 23:26:49.063913 31705 net.cpp:165] Memory required for data: 403946560
I0428 23:26:49.063916 31705 layer_factory.hpp:77] Creating layer conv9_1
I0428 23:26:49.063927 31705 net.cpp:100] Creating Layer conv9_1
I0428 23:26:49.063933 31705 net.cpp:434] conv9_1 <- conv8_2_conv8_2_relu_0_split_0
I0428 23:26:49.063942 31705 net.cpp:408] conv9_1 -> conv9_1
I0428 23:26:49.065629 31705 net.cpp:150] Setting up conv9_1
I0428 23:26:49.065645 31705 net.cpp:157] Top shape: 1 128 4 4 (2048)
I0428 23:26:49.065649 31705 net.cpp:165] Memory required for data: 403954752
I0428 23:26:49.065656 31705 layer_factory.hpp:77] Creating layer conv9_1_relu
I0428 23:26:49.065662 31705 net.cpp:100] Creating Layer conv9_1_relu
I0428 23:26:49.065670 31705 net.cpp:434] conv9_1_relu <- conv9_1
I0428 23:26:49.065677 31705 net.cpp:395] conv9_1_relu -> conv9_1 (in-place)
I0428 23:26:49.066082 31705 net.cpp:150] Setting up conv9_1_relu
I0428 23:26:49.066097 31705 net.cpp:157] Top shape: 1 128 4 4 (2048)
I0428 23:26:49.066103 31705 net.cpp:165] Memory required for data: 403962944
I0428 23:26:49.066107 31705 layer_factory.hpp:77] Creating layer conv9_2
I0428 23:26:49.066118 31705 net.cpp:100] Creating Layer conv9_2
I0428 23:26:49.066124 31705 net.cpp:434] conv9_2 <- conv9_1
I0428 23:26:49.066135 31705 net.cpp:408] conv9_2 -> conv9_2
I0428 23:26:49.070682 31705 net.cpp:150] Setting up conv9_2
I0428 23:26:49.070700 31705 net.cpp:157] Top shape: 1 256 2 2 (1024)
I0428 23:26:49.070708 31705 net.cpp:165] Memory required for data: 403967040
I0428 23:26:49.070719 31705 layer_factory.hpp:77] Creating layer conv9_2_relu
I0428 23:26:49.070749 31705 net.cpp:100] Creating Layer conv9_2_relu
I0428 23:26:49.070757 31705 net.cpp:434] conv9_2_relu <- conv9_2
I0428 23:26:49.070766 31705 net.cpp:395] conv9_2_relu -> conv9_2 (in-place)
I0428 23:26:49.071177 31705 net.cpp:150] Setting up conv9_2_relu
I0428 23:26:49.071192 31705 net.cpp:157] Top shape: 1 256 2 2 (1024)
I0428 23:26:49.071197 31705 net.cpp:165] Memory required for data: 403971136
I0428 23:26:49.071202 31705 layer_factory.hpp:77] Creating layer conv9_2_conv9_2_relu_0_split
I0428 23:26:49.071221 31705 net.cpp:100] Creating Layer conv9_2_conv9_2_relu_0_split
I0428 23:26:49.071229 31705 net.cpp:434] conv9_2_conv9_2_relu_0_split <- conv9_2
I0428 23:26:49.071238 31705 net.cpp:408] conv9_2_conv9_2_relu_0_split -> conv9_2_conv9_2_relu_0_split_0
I0428 23:26:49.071246 31705 net.cpp:408] conv9_2_conv9_2_relu_0_split -> conv9_2_conv9_2_relu_0_split_1
I0428 23:26:49.071252 31705 net.cpp:408] conv9_2_conv9_2_relu_0_split -> conv9_2_conv9_2_relu_0_split_2
I0428 23:26:49.071338 31705 net.cpp:150] Setting up conv9_2_conv9_2_relu_0_split
I0428 23:26:49.071346 31705 net.cpp:157] Top shape: 1 256 2 2 (1024)
I0428 23:26:49.071353 31705 net.cpp:157] Top shape: 1 256 2 2 (1024)
I0428 23:26:49.071357 31705 net.cpp:157] Top shape: 1 256 2 2 (1024)
I0428 23:26:49.071360 31705 net.cpp:165] Memory required for data: 403983424
I0428 23:26:49.071364 31705 layer_factory.hpp:77] Creating layer conv3_3_norm
I0428 23:26:49.071375 31705 net.cpp:100] Creating Layer conv3_3_norm
I0428 23:26:49.071380 31705 net.cpp:434] conv3_3_norm <- conv3_3_relu3_3_0_split_1
I0428 23:26:49.071391 31705 net.cpp:408] conv3_3_norm -> conv3_3_norm
I0428 23:26:49.071632 31705 net.cpp:150] Setting up conv3_3_norm
I0428 23:26:49.071642 31705 net.cpp:157] Top shape: 1 256 96 96 (2359296)
I0428 23:26:49.071646 31705 net.cpp:165] Memory required for data: 413420608
I0428 23:26:49.071652 31705 layer_factory.hpp:77] Creating layer conv3_3_norm_conv3_3_norm_0_split
I0428 23:26:49.071660 31705 net.cpp:100] Creating Layer conv3_3_norm_conv3_3_norm_0_split
I0428 23:26:49.071665 31705 net.cpp:434] conv3_3_norm_conv3_3_norm_0_split <- conv3_3_norm
I0428 23:26:49.071671 31705 net.cpp:408] conv3_3_norm_conv3_3_norm_0_split -> conv3_3_norm_conv3_3_norm_0_split_0
I0428 23:26:49.071679 31705 net.cpp:408] conv3_3_norm_conv3_3_norm_0_split -> conv3_3_norm_conv3_3_norm_0_split_1
I0428 23:26:49.071686 31705 net.cpp:408] conv3_3_norm_conv3_3_norm_0_split -> conv3_3_norm_conv3_3_norm_0_split_2
I0428 23:26:49.071768 31705 net.cpp:150] Setting up conv3_3_norm_conv3_3_norm_0_split
I0428 23:26:49.071779 31705 net.cpp:157] Top shape: 1 256 96 96 (2359296)
I0428 23:26:49.071785 31705 net.cpp:157] Top shape: 1 256 96 96 (2359296)
I0428 23:26:49.071790 31705 net.cpp:157] Top shape: 1 256 96 96 (2359296)
I0428 23:26:49.071795 31705 net.cpp:165] Memory required for data: 441732160
I0428 23:26:49.071799 31705 layer_factory.hpp:77] Creating layer conv3_3_norm_mbox_loc
I0428 23:26:49.071808 31705 net.cpp:100] Creating Layer conv3_3_norm_mbox_loc
I0428 23:26:49.071815 31705 net.cpp:434] conv3_3_norm_mbox_loc <- conv3_3_norm_conv3_3_norm_0_split_0
I0428 23:26:49.071822 31705 net.cpp:408] conv3_3_norm_mbox_loc -> conv3_3_norm_mbox_loc
I0428 23:26:49.085114 31705 net.cpp:150] Setting up conv3_3_norm_mbox_loc
I0428 23:26:49.085134 31705 net.cpp:157] Top shape: 1 288 96 96 (2654208)
I0428 23:26:49.085141 31705 net.cpp:165] Memory required for data: 452348992
I0428 23:26:49.085153 31705 layer_factory.hpp:77] Creating layer conv3_3_norm_mbox_loc_perm
I0428 23:26:49.085170 31705 net.cpp:100] Creating Layer conv3_3_norm_mbox_loc_perm
I0428 23:26:49.085178 31705 net.cpp:434] conv3_3_norm_mbox_loc_perm <- conv3_3_norm_mbox_loc
I0428 23:26:49.085187 31705 net.cpp:408] conv3_3_norm_mbox_loc_perm -> conv3_3_norm_mbox_loc_perm
I0428 23:26:49.085355 31705 net.cpp:150] Setting up conv3_3_norm_mbox_loc_perm
I0428 23:26:49.085364 31705 net.cpp:157] Top shape: 1 96 96 288 (2654208)
I0428 23:26:49.085371 31705 net.cpp:165] Memory required for data: 462965824
I0428 23:26:49.085374 31705 layer_factory.hpp:77] Creating layer conv3_3_norm_mbox_loc_flat
I0428 23:26:49.085392 31705 net.cpp:100] Creating Layer conv3_3_norm_mbox_loc_flat
I0428 23:26:49.085399 31705 net.cpp:434] conv3_3_norm_mbox_loc_flat <- conv3_3_norm_mbox_loc_perm
I0428 23:26:49.085409 31705 net.cpp:408] conv3_3_norm_mbox_loc_flat -> conv3_3_norm_mbox_loc_flat
I0428 23:26:49.085482 31705 net.cpp:150] Setting up conv3_3_norm_mbox_loc_flat
I0428 23:26:49.085496 31705 net.cpp:157] Top shape: 1 2654208 (2654208)
I0428 23:26:49.085520 31705 net.cpp:165] Memory required for data: 473582656
I0428 23:26:49.085531 31705 layer_factory.hpp:77] Creating layer conv3_3_norm_mbox_conf
I0428 23:26:49.085551 31705 net.cpp:100] Creating Layer conv3_3_norm_mbox_conf
I0428 23:26:49.085561 31705 net.cpp:434] conv3_3_norm_mbox_conf <- conv3_3_norm_conv3_3_norm_0_split_1
I0428 23:26:49.085577 31705 net.cpp:408] conv3_3_norm_mbox_conf -> conv3_3_norm_mbox_conf
I0428 23:26:49.089275 31705 net.cpp:150] Setting up conv3_3_norm_mbox_conf
I0428 23:26:49.089293 31705 net.cpp:157] Top shape: 1 48 96 96 (442368)
I0428 23:26:49.089300 31705 net.cpp:165] Memory required for data: 475352128
I0428 23:26:49.089311 31705 layer_factory.hpp:77] Creating layer conv3_3_norm_mbox_conf_perm
I0428 23:26:49.089329 31705 net.cpp:100] Creating Layer conv3_3_norm_mbox_conf_perm
I0428 23:26:49.089335 31705 net.cpp:434] conv3_3_norm_mbox_conf_perm <- conv3_3_norm_mbox_conf
I0428 23:26:49.089344 31705 net.cpp:408] conv3_3_norm_mbox_conf_perm -> conv3_3_norm_mbox_conf_perm
I0428 23:26:49.089509 31705 net.cpp:150] Setting up conv3_3_norm_mbox_conf_perm
I0428 23:26:49.089519 31705 net.cpp:157] Top shape: 1 96 96 48 (442368)
I0428 23:26:49.089522 31705 net.cpp:165] Memory required for data: 477121600
I0428 23:26:49.089527 31705 layer_factory.hpp:77] Creating layer conv3_3_norm_mbox_conf_flat
I0428 23:26:49.089534 31705 net.cpp:100] Creating Layer conv3_3_norm_mbox_conf_flat
I0428 23:26:49.089537 31705 net.cpp:434] conv3_3_norm_mbox_conf_flat <- conv3_3_norm_mbox_conf_perm
I0428 23:26:49.089545 31705 net.cpp:408] conv3_3_norm_mbox_conf_flat -> conv3_3_norm_mbox_conf_flat
I0428 23:26:49.089584 31705 net.cpp:150] Setting up conv3_3_norm_mbox_conf_flat
I0428 23:26:49.089592 31705 net.cpp:157] Top shape: 1 442368 (442368)
I0428 23:26:49.089596 31705 net.cpp:165] Memory required for data: 478891072
I0428 23:26:49.089599 31705 layer_factory.hpp:77] Creating layer conv3_3_norm_mbox_priorbox
I0428 23:26:49.089610 31705 net.cpp:100] Creating Layer conv3_3_norm_mbox_priorbox
I0428 23:26:49.089615 31705 net.cpp:434] conv3_3_norm_mbox_priorbox <- conv3_3_norm_conv3_3_norm_0_split_2
I0428 23:26:49.089622 31705 net.cpp:434] conv3_3_norm_mbox_priorbox <- data_data_0_split_1
I0428 23:26:49.089630 31705 net.cpp:408] conv3_3_norm_mbox_priorbox -> conv3_3_norm_mbox_priorbox
I0428 23:26:49.089676 31705 net.cpp:150] Setting up conv3_3_norm_mbox_priorbox
I0428 23:26:49.089684 31705 net.cpp:157] Top shape: 1 2 884736 (1769472)
I0428 23:26:49.089687 31705 net.cpp:165] Memory required for data: 485968960
I0428 23:26:49.089691 31705 layer_factory.hpp:77] Creating layer conv4_3_norm
I0428 23:26:49.089700 31705 net.cpp:100] Creating Layer conv4_3_norm
I0428 23:26:49.089706 31705 net.cpp:434] conv4_3_norm <- conv4_3_relu4_3_0_split_1
I0428 23:26:49.089715 31705 net.cpp:408] conv4_3_norm -> conv4_3_norm
I0428 23:26:49.089965 31705 net.cpp:150] Setting up conv4_3_norm
I0428 23:26:49.089975 31705 net.cpp:157] Top shape: 1 512 48 48 (1179648)
I0428 23:26:49.089982 31705 net.cpp:165] Memory required for data: 490687552
I0428 23:26:49.089987 31705 layer_factory.hpp:77] Creating layer conv4_3_norm_conv4_3_norm_0_split
I0428 23:26:49.089993 31705 net.cpp:100] Creating Layer conv4_3_norm_conv4_3_norm_0_split
I0428 23:26:49.089998 31705 net.cpp:434] conv4_3_norm_conv4_3_norm_0_split <- conv4_3_norm
I0428 23:26:49.090004 31705 net.cpp:408] conv4_3_norm_conv4_3_norm_0_split -> conv4_3_norm_conv4_3_norm_0_split_0
I0428 23:26:49.090016 31705 net.cpp:408] conv4_3_norm_conv4_3_norm_0_split -> conv4_3_norm_conv4_3_norm_0_split_1
I0428 23:26:49.090023 31705 net.cpp:408] conv4_3_norm_conv4_3_norm_0_split -> conv4_3_norm_conv4_3_norm_0_split_2
I0428 23:26:49.090096 31705 net.cpp:150] Setting up conv4_3_norm_conv4_3_norm_0_split
I0428 23:26:49.090106 31705 net.cpp:157] Top shape: 1 512 48 48 (1179648)
I0428 23:26:49.090109 31705 net.cpp:157] Top shape: 1 512 48 48 (1179648)
I0428 23:26:49.090114 31705 net.cpp:157] Top shape: 1 512 48 48 (1179648)
I0428 23:26:49.090118 31705 net.cpp:165] Memory required for data: 504843328
I0428 23:26:49.090133 31705 layer_factory.hpp:77] Creating layer conv4_3_norm_mbox_loc
I0428 23:26:49.090144 31705 net.cpp:100] Creating Layer conv4_3_norm_mbox_loc
I0428 23:26:49.090152 31705 net.cpp:434] conv4_3_norm_mbox_loc <- conv4_3_norm_conv4_3_norm_0_split_0
I0428 23:26:49.090160 31705 net.cpp:408] conv4_3_norm_mbox_loc -> conv4_3_norm_mbox_loc
I0428 23:26:49.115403 31705 net.cpp:150] Setting up conv4_3_norm_mbox_loc
I0428 23:26:49.115437 31705 net.cpp:157] Top shape: 1 288 48 48 (663552)
I0428 23:26:49.115442 31705 net.cpp:165] Memory required for data: 507497536
I0428 23:26:49.115450 31705 layer_factory.hpp:77] Creating layer conv4_3_norm_mbox_loc_perm
I0428 23:26:49.115463 31705 net.cpp:100] Creating Layer conv4_3_norm_mbox_loc_perm
I0428 23:26:49.115470 31705 net.cpp:434] conv4_3_norm_mbox_loc_perm <- conv4_3_norm_mbox_loc
I0428 23:26:49.115480 31705 net.cpp:408] conv4_3_norm_mbox_loc_perm -> conv4_3_norm_mbox_loc_perm
I0428 23:26:49.115645 31705 net.cpp:150] Setting up conv4_3_norm_mbox_loc_perm
I0428 23:26:49.115656 31705 net.cpp:157] Top shape: 1 48 48 288 (663552)
I0428 23:26:49.115661 31705 net.cpp:165] Memory required for data: 510151744
I0428 23:26:49.115664 31705 layer_factory.hpp:77] Creating layer conv4_3_norm_mbox_loc_flat
I0428 23:26:49.115671 31705 net.cpp:100] Creating Layer conv4_3_norm_mbox_loc_flat
I0428 23:26:49.115679 31705 net.cpp:434] conv4_3_norm_mbox_loc_flat <- conv4_3_norm_mbox_loc_perm
I0428 23:26:49.115684 31705 net.cpp:408] conv4_3_norm_mbox_loc_flat -> conv4_3_norm_mbox_loc_flat
I0428 23:26:49.115725 31705 net.cpp:150] Setting up conv4_3_norm_mbox_loc_flat
I0428 23:26:49.115733 31705 net.cpp:157] Top shape: 1 663552 (663552)
I0428 23:26:49.115736 31705 net.cpp:165] Memory required for data: 512805952
I0428 23:26:49.115741 31705 layer_factory.hpp:77] Creating layer conv4_3_norm_mbox_conf
I0428 23:26:49.115752 31705 net.cpp:100] Creating Layer conv4_3_norm_mbox_conf
I0428 23:26:49.115758 31705 net.cpp:434] conv4_3_norm_mbox_conf <- conv4_3_norm_conv4_3_norm_0_split_1
I0428 23:26:49.115768 31705 net.cpp:408] conv4_3_norm_mbox_conf -> conv4_3_norm_mbox_conf
I0428 23:26:49.121392 31705 net.cpp:150] Setting up conv4_3_norm_mbox_conf
I0428 23:26:49.121408 31705 net.cpp:157] Top shape: 1 48 48 48 (110592)
I0428 23:26:49.121412 31705 net.cpp:165] Memory required for data: 513248320
I0428 23:26:49.121420 31705 layer_factory.hpp:77] Creating layer conv4_3_norm_mbox_conf_perm
I0428 23:26:49.121428 31705 net.cpp:100] Creating Layer conv4_3_norm_mbox_conf_perm
I0428 23:26:49.121435 31705 net.cpp:434] conv4_3_norm_mbox_conf_perm <- conv4_3_norm_mbox_conf
I0428 23:26:49.121443 31705 net.cpp:408] conv4_3_norm_mbox_conf_perm -> conv4_3_norm_mbox_conf_perm
I0428 23:26:49.121608 31705 net.cpp:150] Setting up conv4_3_norm_mbox_conf_perm
I0428 23:26:49.121618 31705 net.cpp:157] Top shape: 1 48 48 48 (110592)
I0428 23:26:49.121623 31705 net.cpp:165] Memory required for data: 513690688
I0428 23:26:49.121626 31705 layer_factory.hpp:77] Creating layer conv4_3_norm_mbox_conf_flat
I0428 23:26:49.121632 31705 net.cpp:100] Creating Layer conv4_3_norm_mbox_conf_flat
I0428 23:26:49.121639 31705 net.cpp:434] conv4_3_norm_mbox_conf_flat <- conv4_3_norm_mbox_conf_perm
I0428 23:26:49.121645 31705 net.cpp:408] conv4_3_norm_mbox_conf_flat -> conv4_3_norm_mbox_conf_flat
I0428 23:26:49.121683 31705 net.cpp:150] Setting up conv4_3_norm_mbox_conf_flat
I0428 23:26:49.121693 31705 net.cpp:157] Top shape: 1 110592 (110592)
I0428 23:26:49.121698 31705 net.cpp:165] Memory required for data: 514133056
I0428 23:26:49.121701 31705 layer_factory.hpp:77] Creating layer conv4_3_norm_mbox_priorbox
I0428 23:26:49.121711 31705 net.cpp:100] Creating Layer conv4_3_norm_mbox_priorbox
I0428 23:26:49.121716 31705 net.cpp:434] conv4_3_norm_mbox_priorbox <- conv4_3_norm_conv4_3_norm_0_split_2
I0428 23:26:49.121723 31705 net.cpp:434] conv4_3_norm_mbox_priorbox <- data_data_0_split_2
I0428 23:26:49.121731 31705 net.cpp:408] conv4_3_norm_mbox_priorbox -> conv4_3_norm_mbox_priorbox
I0428 23:26:49.121773 31705 net.cpp:150] Setting up conv4_3_norm_mbox_priorbox
I0428 23:26:49.121798 31705 net.cpp:157] Top shape: 1 2 221184 (442368)
I0428 23:26:49.121803 31705 net.cpp:165] Memory required for data: 515902528
I0428 23:26:49.121806 31705 layer_factory.hpp:77] Creating layer fc7_mbox_loc
I0428 23:26:49.121815 31705 net.cpp:100] Creating Layer fc7_mbox_loc
I0428 23:26:49.121821 31705 net.cpp:434] fc7_mbox_loc <- fc7_relu7_0_split_1
I0428 23:26:49.121830 31705 net.cpp:408] fc7_mbox_loc -> fc7_mbox_loc
I0428 23:26:49.171388 31705 net.cpp:150] Setting up fc7_mbox_loc
I0428 23:26:49.171430 31705 net.cpp:157] Top shape: 1 288 24 24 (165888)
I0428 23:26:49.171434 31705 net.cpp:165] Memory required for data: 516566080
I0428 23:26:49.171445 31705 layer_factory.hpp:77] Creating layer fc7_mbox_loc_perm
I0428 23:26:49.171461 31705 net.cpp:100] Creating Layer fc7_mbox_loc_perm
I0428 23:26:49.171468 31705 net.cpp:434] fc7_mbox_loc_perm <- fc7_mbox_loc
I0428 23:26:49.171480 31705 net.cpp:408] fc7_mbox_loc_perm -> fc7_mbox_loc_perm
I0428 23:26:49.171655 31705 net.cpp:150] Setting up fc7_mbox_loc_perm
I0428 23:26:49.171665 31705 net.cpp:157] Top shape: 1 24 24 288 (165888)
I0428 23:26:49.171669 31705 net.cpp:165] Memory required for data: 517229632
I0428 23:26:49.171674 31705 layer_factory.hpp:77] Creating layer fc7_mbox_loc_flat
I0428 23:26:49.171682 31705 net.cpp:100] Creating Layer fc7_mbox_loc_flat
I0428 23:26:49.171689 31705 net.cpp:434] fc7_mbox_loc_flat <- fc7_mbox_loc_perm
I0428 23:26:49.171694 31705 net.cpp:408] fc7_mbox_loc_flat -> fc7_mbox_loc_flat
I0428 23:26:49.171733 31705 net.cpp:150] Setting up fc7_mbox_loc_flat
I0428 23:26:49.171742 31705 net.cpp:157] Top shape: 1 165888 (165888)
I0428 23:26:49.171749 31705 net.cpp:165] Memory required for data: 517893184
I0428 23:26:49.171753 31705 layer_factory.hpp:77] Creating layer fc7_mbox_conf
I0428 23:26:49.171766 31705 net.cpp:100] Creating Layer fc7_mbox_conf
I0428 23:26:49.171774 31705 net.cpp:434] fc7_mbox_conf <- fc7_relu7_0_split_2
I0428 23:26:49.171783 31705 net.cpp:408] fc7_mbox_conf -> fc7_mbox_conf
I0428 23:26:49.181334 31705 net.cpp:150] Setting up fc7_mbox_conf
I0428 23:26:49.181351 31705 net.cpp:157] Top shape: 1 48 24 24 (27648)
I0428 23:26:49.181355 31705 net.cpp:165] Memory required for data: 518003776
I0428 23:26:49.181362 31705 layer_factory.hpp:77] Creating layer fc7_mbox_conf_perm
I0428 23:26:49.181370 31705 net.cpp:100] Creating Layer fc7_mbox_conf_perm
I0428 23:26:49.181377 31705 net.cpp:434] fc7_mbox_conf_perm <- fc7_mbox_conf
I0428 23:26:49.181386 31705 net.cpp:408] fc7_mbox_conf_perm -> fc7_mbox_conf_perm
I0428 23:26:49.181561 31705 net.cpp:150] Setting up fc7_mbox_conf_perm
I0428 23:26:49.181571 31705 net.cpp:157] Top shape: 1 24 24 48 (27648)
I0428 23:26:49.181576 31705 net.cpp:165] Memory required for data: 518114368
I0428 23:26:49.181579 31705 layer_factory.hpp:77] Creating layer fc7_mbox_conf_flat
I0428 23:26:49.181587 31705 net.cpp:100] Creating Layer fc7_mbox_conf_flat
I0428 23:26:49.181591 31705 net.cpp:434] fc7_mbox_conf_flat <- fc7_mbox_conf_perm
I0428 23:26:49.181598 31705 net.cpp:408] fc7_mbox_conf_flat -> fc7_mbox_conf_flat
I0428 23:26:49.181635 31705 net.cpp:150] Setting up fc7_mbox_conf_flat
I0428 23:26:49.181644 31705 net.cpp:157] Top shape: 1 27648 (27648)
I0428 23:26:49.181648 31705 net.cpp:165] Memory required for data: 518224960
I0428 23:26:49.181651 31705 layer_factory.hpp:77] Creating layer fc7_mbox_priorbox
I0428 23:26:49.181660 31705 net.cpp:100] Creating Layer fc7_mbox_priorbox
I0428 23:26:49.181665 31705 net.cpp:434] fc7_mbox_priorbox <- fc7_relu7_0_split_3
I0428 23:26:49.181670 31705 net.cpp:434] fc7_mbox_priorbox <- data_data_0_split_3
I0428 23:26:49.181679 31705 net.cpp:408] fc7_mbox_priorbox -> fc7_mbox_priorbox
I0428 23:26:49.181721 31705 net.cpp:150] Setting up fc7_mbox_priorbox
I0428 23:26:49.181730 31705 net.cpp:157] Top shape: 1 2 55296 (110592)
I0428 23:26:49.181732 31705 net.cpp:165] Memory required for data: 518667328
I0428 23:26:49.181736 31705 layer_factory.hpp:77] Creating layer conv6_2_mbox_loc
I0428 23:26:49.181751 31705 net.cpp:100] Creating Layer conv6_2_mbox_loc
I0428 23:26:49.181779 31705 net.cpp:434] conv6_2_mbox_loc <- conv6_2_conv6_2_relu_0_split_1
I0428 23:26:49.181789 31705 net.cpp:408] conv6_2_mbox_loc -> conv6_2_mbox_loc
I0428 23:26:49.207311 31705 net.cpp:150] Setting up conv6_2_mbox_loc
I0428 23:26:49.207346 31705 net.cpp:157] Top shape: 1 288 12 12 (41472)
I0428 23:26:49.207352 31705 net.cpp:165] Memory required for data: 518833216
I0428 23:26:49.207366 31705 layer_factory.hpp:77] Creating layer conv6_2_mbox_loc_perm
I0428 23:26:49.207382 31705 net.cpp:100] Creating Layer conv6_2_mbox_loc_perm
I0428 23:26:49.207396 31705 net.cpp:434] conv6_2_mbox_loc_perm <- conv6_2_mbox_loc
I0428 23:26:49.207408 31705 net.cpp:408] conv6_2_mbox_loc_perm -> conv6_2_mbox_loc_perm
I0428 23:26:49.207592 31705 net.cpp:150] Setting up conv6_2_mbox_loc_perm
I0428 23:26:49.207604 31705 net.cpp:157] Top shape: 1 12 12 288 (41472)
I0428 23:26:49.207610 31705 net.cpp:165] Memory required for data: 518999104
I0428 23:26:49.207617 31705 layer_factory.hpp:77] Creating layer conv6_2_mbox_loc_flat
I0428 23:26:49.207651 31705 net.cpp:100] Creating Layer conv6_2_mbox_loc_flat
I0428 23:26:49.207679 31705 net.cpp:434] conv6_2_mbox_loc_flat <- conv6_2_mbox_loc_perm
I0428 23:26:49.207710 31705 net.cpp:408] conv6_2_mbox_loc_flat -> conv6_2_mbox_loc_flat
I0428 23:26:49.207784 31705 net.cpp:150] Setting up conv6_2_mbox_loc_flat
I0428 23:26:49.207801 31705 net.cpp:157] Top shape: 1 41472 (41472)
I0428 23:26:49.207808 31705 net.cpp:165] Memory required for data: 519164992
I0428 23:26:49.207814 31705 layer_factory.hpp:77] Creating layer conv6_2_mbox_conf
I0428 23:26:49.207852 31705 net.cpp:100] Creating Layer conv6_2_mbox_conf
I0428 23:26:49.207881 31705 net.cpp:434] conv6_2_mbox_conf <- conv6_2_conv6_2_relu_0_split_2
I0428 23:26:49.207911 31705 net.cpp:408] conv6_2_mbox_conf -> conv6_2_mbox_conf
I0428 23:26:49.213378 31705 net.cpp:150] Setting up conv6_2_mbox_conf
I0428 23:26:49.213398 31705 net.cpp:157] Top shape: 1 48 12 12 (6912)
I0428 23:26:49.213405 31705 net.cpp:165] Memory required for data: 519192640
I0428 23:26:49.213418 31705 layer_factory.hpp:77] Creating layer conv6_2_mbox_conf_perm
I0428 23:26:49.213431 31705 net.cpp:100] Creating Layer conv6_2_mbox_conf_perm
I0428 23:26:49.213443 31705 net.cpp:434] conv6_2_mbox_conf_perm <- conv6_2_mbox_conf
I0428 23:26:49.213450 31705 net.cpp:408] conv6_2_mbox_conf_perm -> conv6_2_mbox_conf_perm
I0428 23:26:49.213624 31705 net.cpp:150] Setting up conv6_2_mbox_conf_perm
I0428 23:26:49.213634 31705 net.cpp:157] Top shape: 1 12 12 48 (6912)
I0428 23:26:49.213636 31705 net.cpp:165] Memory required for data: 519220288
I0428 23:26:49.213640 31705 layer_factory.hpp:77] Creating layer conv6_2_mbox_conf_flat
I0428 23:26:49.213650 31705 net.cpp:100] Creating Layer conv6_2_mbox_conf_flat
I0428 23:26:49.213659 31705 net.cpp:434] conv6_2_mbox_conf_flat <- conv6_2_mbox_conf_perm
I0428 23:26:49.213668 31705 net.cpp:408] conv6_2_mbox_conf_flat -> conv6_2_mbox_conf_flat
I0428 23:26:49.213738 31705 net.cpp:150] Setting up conv6_2_mbox_conf_flat
I0428 23:26:49.213749 31705 net.cpp:157] Top shape: 1 6912 (6912)
I0428 23:26:49.213753 31705 net.cpp:165] Memory required for data: 519247936
I0428 23:26:49.213757 31705 layer_factory.hpp:77] Creating layer conv6_2_mbox_priorbox
I0428 23:26:49.213768 31705 net.cpp:100] Creating Layer conv6_2_mbox_priorbox
I0428 23:26:49.213773 31705 net.cpp:434] conv6_2_mbox_priorbox <- conv6_2_conv6_2_relu_0_split_3
I0428 23:26:49.213780 31705 net.cpp:434] conv6_2_mbox_priorbox <- data_data_0_split_4
I0428 23:26:49.213788 31705 net.cpp:408] conv6_2_mbox_priorbox -> conv6_2_mbox_priorbox
I0428 23:26:49.213834 31705 net.cpp:150] Setting up conv6_2_mbox_priorbox
I0428 23:26:49.213841 31705 net.cpp:157] Top shape: 1 2 13824 (27648)
I0428 23:26:49.213845 31705 net.cpp:165] Memory required for data: 519358528
I0428 23:26:49.213848 31705 layer_factory.hpp:77] Creating layer conv7_2_mbox_loc
I0428 23:26:49.213862 31705 net.cpp:100] Creating Layer conv7_2_mbox_loc
I0428 23:26:49.213868 31705 net.cpp:434] conv7_2_mbox_loc <- conv7_2_conv7_2_relu_0_split_1
I0428 23:26:49.213897 31705 net.cpp:408] conv7_2_mbox_loc -> conv7_2_mbox_loc
I0428 23:26:49.227385 31705 net.cpp:150] Setting up conv7_2_mbox_loc
I0428 23:26:49.227406 31705 net.cpp:157] Top shape: 1 288 6 6 (10368)
I0428 23:26:49.227416 31705 net.cpp:165] Memory required for data: 519400000
I0428 23:26:49.227448 31705 layer_factory.hpp:77] Creating layer conv7_2_mbox_loc_perm
I0428 23:26:49.227464 31705 net.cpp:100] Creating Layer conv7_2_mbox_loc_perm
I0428 23:26:49.227493 31705 net.cpp:434] conv7_2_mbox_loc_perm <- conv7_2_mbox_loc
I0428 23:26:49.227504 31705 net.cpp:408] conv7_2_mbox_loc_perm -> conv7_2_mbox_loc_perm
I0428 23:26:49.227684 31705 net.cpp:150] Setting up conv7_2_mbox_loc_perm
I0428 23:26:49.227694 31705 net.cpp:157] Top shape: 1 6 6 288 (10368)
I0428 23:26:49.227696 31705 net.cpp:165] Memory required for data: 519441472
I0428 23:26:49.227702 31705 layer_factory.hpp:77] Creating layer conv7_2_mbox_loc_flat
I0428 23:26:49.227710 31705 net.cpp:100] Creating Layer conv7_2_mbox_loc_flat
I0428 23:26:49.227715 31705 net.cpp:434] conv7_2_mbox_loc_flat <- conv7_2_mbox_loc_perm
I0428 23:26:49.227721 31705 net.cpp:408] conv7_2_mbox_loc_flat -> conv7_2_mbox_loc_flat
I0428 23:26:49.227763 31705 net.cpp:150] Setting up conv7_2_mbox_loc_flat
I0428 23:26:49.227772 31705 net.cpp:157] Top shape: 1 10368 (10368)
I0428 23:26:49.227777 31705 net.cpp:165] Memory required for data: 519482944
I0428 23:26:49.227779 31705 layer_factory.hpp:77] Creating layer conv7_2_mbox_conf
I0428 23:26:49.227790 31705 net.cpp:100] Creating Layer conv7_2_mbox_conf
I0428 23:26:49.227797 31705 net.cpp:434] conv7_2_mbox_conf <- conv7_2_conv7_2_relu_0_split_2
I0428 23:26:49.227802 31705 net.cpp:408] conv7_2_mbox_conf -> conv7_2_mbox_conf
I0428 23:26:49.231554 31705 net.cpp:150] Setting up conv7_2_mbox_conf
I0428 23:26:49.231572 31705 net.cpp:157] Top shape: 1 48 6 6 (1728)
I0428 23:26:49.231580 31705 net.cpp:165] Memory required for data: 519489856
I0428 23:26:49.231592 31705 layer_factory.hpp:77] Creating layer conv7_2_mbox_conf_perm
I0428 23:26:49.231606 31705 net.cpp:100] Creating Layer conv7_2_mbox_conf_perm
I0428 23:26:49.231613 31705 net.cpp:434] conv7_2_mbox_conf_perm <- conv7_2_mbox_conf
I0428 23:26:49.231623 31705 net.cpp:408] conv7_2_mbox_conf_perm -> conv7_2_mbox_conf_perm
I0428 23:26:49.231802 31705 net.cpp:150] Setting up conv7_2_mbox_conf_perm
I0428 23:26:49.231814 31705 net.cpp:157] Top shape: 1 6 6 48 (1728)
I0428 23:26:49.231820 31705 net.cpp:165] Memory required for data: 519496768
I0428 23:26:49.231827 31705 layer_factory.hpp:77] Creating layer conv7_2_mbox_conf_flat
I0428 23:26:49.231842 31705 net.cpp:100] Creating Layer conv7_2_mbox_conf_flat
I0428 23:26:49.231853 31705 net.cpp:434] conv7_2_mbox_conf_flat <- conv7_2_mbox_conf_perm
I0428 23:26:49.231869 31705 net.cpp:408] conv7_2_mbox_conf_flat -> conv7_2_mbox_conf_flat
I0428 23:26:49.231923 31705 net.cpp:150] Setting up conv7_2_mbox_conf_flat
I0428 23:26:49.231935 31705 net.cpp:157] Top shape: 1 1728 (1728)
I0428 23:26:49.231941 31705 net.cpp:165] Memory required for data: 519503680
I0428 23:26:49.231950 31705 layer_factory.hpp:77] Creating layer conv7_2_mbox_priorbox
I0428 23:26:49.231966 31705 net.cpp:100] Creating Layer conv7_2_mbox_priorbox
I0428 23:26:49.231974 31705 net.cpp:434] conv7_2_mbox_priorbox <- conv7_2_conv7_2_relu_0_split_3
I0428 23:26:49.231983 31705 net.cpp:434] conv7_2_mbox_priorbox <- data_data_0_split_5
I0428 23:26:49.231997 31705 net.cpp:408] conv7_2_mbox_priorbox -> conv7_2_mbox_priorbox
I0428 23:26:49.232049 31705 net.cpp:150] Setting up conv7_2_mbox_priorbox
I0428 23:26:49.232061 31705 net.cpp:157] Top shape: 1 2 3456 (6912)
I0428 23:26:49.232067 31705 net.cpp:165] Memory required for data: 519531328
I0428 23:26:49.232075 31705 layer_factory.hpp:77] Creating layer conv8_2_mbox_loc
I0428 23:26:49.232096 31705 net.cpp:100] Creating Layer conv8_2_mbox_loc
I0428 23:26:49.232105 31705 net.cpp:434] conv8_2_mbox_loc <- conv8_2_conv8_2_relu_0_split_1
I0428 23:26:49.232120 31705 net.cpp:408] conv8_2_mbox_loc -> conv8_2_mbox_loc
I0428 23:26:49.245527 31705 net.cpp:150] Setting up conv8_2_mbox_loc
I0428 23:26:49.245551 31705 net.cpp:157] Top shape: 1 288 4 4 (4608)
I0428 23:26:49.245558 31705 net.cpp:165] Memory required for data: 519549760
I0428 23:26:49.245570 31705 layer_factory.hpp:77] Creating layer conv8_2_mbox_loc_perm
I0428 23:26:49.245606 31705 net.cpp:100] Creating Layer conv8_2_mbox_loc_perm
I0428 23:26:49.245616 31705 net.cpp:434] conv8_2_mbox_loc_perm <- conv8_2_mbox_loc
I0428 23:26:49.245623 31705 net.cpp:408] conv8_2_mbox_loc_perm -> conv8_2_mbox_loc_perm
I0428 23:26:49.245807 31705 net.cpp:150] Setting up conv8_2_mbox_loc_perm
I0428 23:26:49.245820 31705 net.cpp:157] Top shape: 1 4 4 288 (4608)
I0428 23:26:49.245826 31705 net.cpp:165] Memory required for data: 519568192
I0428 23:26:49.245831 31705 layer_factory.hpp:77] Creating layer conv8_2_mbox_loc_flat
I0428 23:26:49.245857 31705 net.cpp:100] Creating Layer conv8_2_mbox_loc_flat
I0428 23:26:49.245869 31705 net.cpp:434] conv8_2_mbox_loc_flat <- conv8_2_mbox_loc_perm
I0428 23:26:49.245879 31705 net.cpp:408] conv8_2_mbox_loc_flat -> conv8_2_mbox_loc_flat
I0428 23:26:49.245932 31705 net.cpp:150] Setting up conv8_2_mbox_loc_flat
I0428 23:26:49.245942 31705 net.cpp:157] Top shape: 1 4608 (4608)
I0428 23:26:49.245945 31705 net.cpp:165] Memory required for data: 519586624
I0428 23:26:49.245949 31705 layer_factory.hpp:77] Creating layer conv8_2_mbox_conf
I0428 23:26:49.245962 31705 net.cpp:100] Creating Layer conv8_2_mbox_conf
I0428 23:26:49.245968 31705 net.cpp:434] conv8_2_mbox_conf <- conv8_2_conv8_2_relu_0_split_2
I0428 23:26:49.245975 31705 net.cpp:408] conv8_2_mbox_conf -> conv8_2_mbox_conf
I0428 23:26:49.249951 31705 net.cpp:150] Setting up conv8_2_mbox_conf
I0428 23:26:49.249969 31705 net.cpp:157] Top shape: 1 48 4 4 (768)
I0428 23:26:49.249974 31705 net.cpp:165] Memory required for data: 519589696
I0428 23:26:49.249981 31705 layer_factory.hpp:77] Creating layer conv8_2_mbox_conf_perm
I0428 23:26:49.249989 31705 net.cpp:100] Creating Layer conv8_2_mbox_conf_perm
I0428 23:26:49.249996 31705 net.cpp:434] conv8_2_mbox_conf_perm <- conv8_2_mbox_conf
I0428 23:26:49.250005 31705 net.cpp:408] conv8_2_mbox_conf_perm -> conv8_2_mbox_conf_perm
I0428 23:26:49.250185 31705 net.cpp:150] Setting up conv8_2_mbox_conf_perm
I0428 23:26:49.250195 31705 net.cpp:157] Top shape: 1 4 4 48 (768)
I0428 23:26:49.250205 31705 net.cpp:165] Memory required for data: 519592768
I0428 23:26:49.250210 31705 layer_factory.hpp:77] Creating layer conv8_2_mbox_conf_flat
I0428 23:26:49.250216 31705 net.cpp:100] Creating Layer conv8_2_mbox_conf_flat
I0428 23:26:49.250224 31705 net.cpp:434] conv8_2_mbox_conf_flat <- conv8_2_mbox_conf_perm
I0428 23:26:49.250236 31705 net.cpp:408] conv8_2_mbox_conf_flat -> conv8_2_mbox_conf_flat
I0428 23:26:49.250288 31705 net.cpp:150] Setting up conv8_2_mbox_conf_flat
I0428 23:26:49.250300 31705 net.cpp:157] Top shape: 1 768 (768)
I0428 23:26:49.250306 31705 net.cpp:165] Memory required for data: 519595840
I0428 23:26:49.250316 31705 layer_factory.hpp:77] Creating layer conv8_2_mbox_priorbox
I0428 23:26:49.250331 31705 net.cpp:100] Creating Layer conv8_2_mbox_priorbox
I0428 23:26:49.250337 31705 net.cpp:434] conv8_2_mbox_priorbox <- conv8_2_conv8_2_relu_0_split_3
I0428 23:26:49.250344 31705 net.cpp:434] conv8_2_mbox_priorbox <- data_data_0_split_6
I0428 23:26:49.250355 31705 net.cpp:408] conv8_2_mbox_priorbox -> conv8_2_mbox_priorbox
I0428 23:26:49.250428 31705 net.cpp:150] Setting up conv8_2_mbox_priorbox
I0428 23:26:49.250442 31705 net.cpp:157] Top shape: 1 2 1536 (3072)
I0428 23:26:49.250447 31705 net.cpp:165] Memory required for data: 519608128
I0428 23:26:49.250453 31705 layer_factory.hpp:77] Creating layer conv9_2_mbox_loc
I0428 23:26:49.250474 31705 net.cpp:100] Creating Layer conv9_2_mbox_loc
I0428 23:26:49.250484 31705 net.cpp:434] conv9_2_mbox_loc <- conv9_2_conv9_2_relu_0_split_0
I0428 23:26:49.250497 31705 net.cpp:408] conv9_2_mbox_loc -> conv9_2_mbox_loc
I0428 23:26:49.263695 31705 net.cpp:150] Setting up conv9_2_mbox_loc
I0428 23:26:49.263715 31705 net.cpp:157] Top shape: 1 288 2 2 (1152)
I0428 23:26:49.263747 31705 net.cpp:165] Memory required for data: 519612736
I0428 23:26:49.263764 31705 layer_factory.hpp:77] Creating layer conv9_2_mbox_loc_perm
I0428 23:26:49.263777 31705 net.cpp:100] Creating Layer conv9_2_mbox_loc_perm
I0428 23:26:49.263787 31705 net.cpp:434] conv9_2_mbox_loc_perm <- conv9_2_mbox_loc
I0428 23:26:49.263801 31705 net.cpp:408] conv9_2_mbox_loc_perm -> conv9_2_mbox_loc_perm
I0428 23:26:49.263981 31705 net.cpp:150] Setting up conv9_2_mbox_loc_perm
I0428 23:26:49.263991 31705 net.cpp:157] Top shape: 1 2 2 288 (1152)
I0428 23:26:49.263998 31705 net.cpp:165] Memory required for data: 519617344
I0428 23:26:49.264001 31705 layer_factory.hpp:77] Creating layer conv9_2_mbox_loc_flat
I0428 23:26:49.264009 31705 net.cpp:100] Creating Layer conv9_2_mbox_loc_flat
I0428 23:26:49.264015 31705 net.cpp:434] conv9_2_mbox_loc_flat <- conv9_2_mbox_loc_perm
I0428 23:26:49.264020 31705 net.cpp:408] conv9_2_mbox_loc_flat -> conv9_2_mbox_loc_flat
I0428 23:26:49.264062 31705 net.cpp:150] Setting up conv9_2_mbox_loc_flat
I0428 23:26:49.264071 31705 net.cpp:157] Top shape: 1 1152 (1152)
I0428 23:26:49.264075 31705 net.cpp:165] Memory required for data: 519621952
I0428 23:26:49.264078 31705 layer_factory.hpp:77] Creating layer conv9_2_mbox_conf
I0428 23:26:49.264091 31705 net.cpp:100] Creating Layer conv9_2_mbox_conf
I0428 23:26:49.264097 31705 net.cpp:434] conv9_2_mbox_conf <- conv9_2_conv9_2_relu_0_split_1
I0428 23:26:49.264106 31705 net.cpp:408] conv9_2_mbox_conf -> conv9_2_mbox_conf
I0428 23:26:49.267854 31705 net.cpp:150] Setting up conv9_2_mbox_conf
I0428 23:26:49.267870 31705 net.cpp:157] Top shape: 1 48 2 2 (192)
I0428 23:26:49.267874 31705 net.cpp:165] Memory required for data: 519622720
I0428 23:26:49.267882 31705 layer_factory.hpp:77] Creating layer conv9_2_mbox_conf_perm
I0428 23:26:49.267891 31705 net.cpp:100] Creating Layer conv9_2_mbox_conf_perm
I0428 23:26:49.267899 31705 net.cpp:434] conv9_2_mbox_conf_perm <- conv9_2_mbox_conf
I0428 23:26:49.267906 31705 net.cpp:408] conv9_2_mbox_conf_perm -> conv9_2_mbox_conf_perm
I0428 23:26:49.268079 31705 net.cpp:150] Setting up conv9_2_mbox_conf_perm
I0428 23:26:49.268087 31705 net.cpp:157] Top shape: 1 2 2 48 (192)
I0428 23:26:49.268091 31705 net.cpp:165] Memory required for data: 519623488
I0428 23:26:49.268096 31705 layer_factory.hpp:77] Creating layer conv9_2_mbox_conf_flat
I0428 23:26:49.268105 31705 net.cpp:100] Creating Layer conv9_2_mbox_conf_flat
I0428 23:26:49.268108 31705 net.cpp:434] conv9_2_mbox_conf_flat <- conv9_2_mbox_conf_perm
I0428 23:26:49.268116 31705 net.cpp:408] conv9_2_mbox_conf_flat -> conv9_2_mbox_conf_flat
I0428 23:26:49.268157 31705 net.cpp:150] Setting up conv9_2_mbox_conf_flat
I0428 23:26:49.268167 31705 net.cpp:157] Top shape: 1 192 (192)
I0428 23:26:49.268173 31705 net.cpp:165] Memory required for data: 519624256
I0428 23:26:49.268179 31705 layer_factory.hpp:77] Creating layer conv9_2_mbox_priorbox
I0428 23:26:49.268193 31705 net.cpp:100] Creating Layer conv9_2_mbox_priorbox
I0428 23:26:49.268220 31705 net.cpp:434] conv9_2_mbox_priorbox <- conv9_2_conv9_2_relu_0_split_2
I0428 23:26:49.268230 31705 net.cpp:434] conv9_2_mbox_priorbox <- data_data_0_split_7
I0428 23:26:49.268244 31705 net.cpp:408] conv9_2_mbox_priorbox -> conv9_2_mbox_priorbox
I0428 23:26:49.268301 31705 net.cpp:150] Setting up conv9_2_mbox_priorbox
I0428 23:26:49.268311 31705 net.cpp:157] Top shape: 1 2 384 (768)
I0428 23:26:49.268316 31705 net.cpp:165] Memory required for data: 519627328
I0428 23:26:49.268318 31705 layer_factory.hpp:77] Creating layer mbox_loc
I0428 23:26:49.268326 31705 net.cpp:100] Creating Layer mbox_loc
I0428 23:26:49.268332 31705 net.cpp:434] mbox_loc <- conv3_3_norm_mbox_loc_flat
I0428 23:26:49.268338 31705 net.cpp:434] mbox_loc <- conv4_3_norm_mbox_loc_flat
I0428 23:26:49.268344 31705 net.cpp:434] mbox_loc <- fc7_mbox_loc_flat
I0428 23:26:49.268352 31705 net.cpp:434] mbox_loc <- conv6_2_mbox_loc_flat
I0428 23:26:49.268359 31705 net.cpp:434] mbox_loc <- conv7_2_mbox_loc_flat
I0428 23:26:49.268364 31705 net.cpp:434] mbox_loc <- conv8_2_mbox_loc_flat
I0428 23:26:49.268383 31705 net.cpp:434] mbox_loc <- conv9_2_mbox_loc_flat
I0428 23:26:49.268393 31705 net.cpp:408] mbox_loc -> mbox_loc
I0428 23:26:49.268440 31705 net.cpp:150] Setting up mbox_loc
I0428 23:26:49.268448 31705 net.cpp:157] Top shape: 1 3541248 (3541248)
I0428 23:26:49.268451 31705 net.cpp:165] Memory required for data: 533792320
I0428 23:26:49.268455 31705 layer_factory.hpp:77] Creating layer mbox_conf
I0428 23:26:49.268467 31705 net.cpp:100] Creating Layer mbox_conf
I0428 23:26:49.268473 31705 net.cpp:434] mbox_conf <- conv3_3_norm_mbox_conf_flat
I0428 23:26:49.268479 31705 net.cpp:434] mbox_conf <- conv4_3_norm_mbox_conf_flat
I0428 23:26:49.268484 31705 net.cpp:434] mbox_conf <- fc7_mbox_conf_flat
I0428 23:26:49.268491 31705 net.cpp:434] mbox_conf <- conv6_2_mbox_conf_flat
I0428 23:26:49.268496 31705 net.cpp:434] mbox_conf <- conv7_2_mbox_conf_flat
I0428 23:26:49.268502 31705 net.cpp:434] mbox_conf <- conv8_2_mbox_conf_flat
I0428 23:26:49.268507 31705 net.cpp:434] mbox_conf <- conv9_2_mbox_conf_flat
I0428 23:26:49.268513 31705 net.cpp:408] mbox_conf -> mbox_conf
I0428 23:26:49.268553 31705 net.cpp:150] Setting up mbox_conf
I0428 23:26:49.268563 31705 net.cpp:157] Top shape: 1 590208 (590208)
I0428 23:26:49.268565 31705 net.cpp:165] Memory required for data: 536153152
I0428 23:26:49.268568 31705 layer_factory.hpp:77] Creating layer mbox_priorbox
I0428 23:26:49.268576 31705 net.cpp:100] Creating Layer mbox_priorbox
I0428 23:26:49.268582 31705 net.cpp:434] mbox_priorbox <- conv3_3_norm_mbox_priorbox
I0428 23:26:49.268587 31705 net.cpp:434] mbox_priorbox <- conv4_3_norm_mbox_priorbox
I0428 23:26:49.268594 31705 net.cpp:434] mbox_priorbox <- fc7_mbox_priorbox
I0428 23:26:49.268599 31705 net.cpp:434] mbox_priorbox <- conv6_2_mbox_priorbox
I0428 23:26:49.268604 31705 net.cpp:434] mbox_priorbox <- conv7_2_mbox_priorbox
I0428 23:26:49.268609 31705 net.cpp:434] mbox_priorbox <- conv8_2_mbox_priorbox
I0428 23:26:49.268612 31705 net.cpp:434] mbox_priorbox <- conv9_2_mbox_priorbox
I0428 23:26:49.268616 31705 net.cpp:408] mbox_priorbox -> mbox_priorbox
I0428 23:26:49.268657 31705 net.cpp:150] Setting up mbox_priorbox
I0428 23:26:49.268666 31705 net.cpp:157] Top shape: 1 2 1180416 (2360832)
I0428 23:26:49.268668 31705 net.cpp:165] Memory required for data: 545596480
I0428 23:26:49.268671 31705 layer_factory.hpp:77] Creating layer mbox_conf_reshape
I0428 23:26:49.268688 31705 net.cpp:100] Creating Layer mbox_conf_reshape
I0428 23:26:49.268695 31705 net.cpp:434] mbox_conf_reshape <- mbox_conf
I0428 23:26:49.268702 31705 net.cpp:408] mbox_conf_reshape -> mbox_conf_reshape
I0428 23:26:49.268760 31705 net.cpp:150] Setting up mbox_conf_reshape
I0428 23:26:49.268769 31705 net.cpp:157] Top shape: 1 295104 2 (590208)
I0428 23:26:49.268774 31705 net.cpp:165] Memory required for data: 547957312
I0428 23:26:49.268776 31705 layer_factory.hpp:77] Creating layer mbox_conf_softmax
I0428 23:26:49.268784 31705 net.cpp:100] Creating Layer mbox_conf_softmax
I0428 23:26:49.268790 31705 net.cpp:434] mbox_conf_softmax <- mbox_conf_reshape
I0428 23:26:49.268795 31705 net.cpp:408] mbox_conf_softmax -> mbox_conf_softmax
I0428 23:26:49.269313 31705 net.cpp:150] Setting up mbox_conf_softmax
I0428 23:26:49.269328 31705 net.cpp:157] Top shape: 1 295104 2 (590208)
I0428 23:26:49.269335 31705 net.cpp:165] Memory required for data: 550318144
I0428 23:26:49.269340 31705 layer_factory.hpp:77] Creating layer mbox_conf_flatten
I0428 23:26:49.269348 31705 net.cpp:100] Creating Layer mbox_conf_flatten
I0428 23:26:49.269356 31705 net.cpp:434] mbox_conf_flatten <- mbox_conf_softmax
I0428 23:26:49.269362 31705 net.cpp:408] mbox_conf_flatten -> mbox_conf_flatten
I0428 23:26:49.269407 31705 net.cpp:150] Setting up mbox_conf_flatten
I0428 23:26:49.269417 31705 net.cpp:157] Top shape: 1 590208 (590208)
I0428 23:26:49.269420 31705 net.cpp:165] Memory required for data: 552678976
I0428 23:26:49.269423 31705 layer_factory.hpp:77] Creating layer detection_out
I0428 23:26:49.269438 31705 net.cpp:100] Creating Layer detection_out
I0428 23:26:49.269454 31705 net.cpp:434] detection_out <- mbox_loc
I0428 23:26:49.269460 31705 net.cpp:434] detection_out <- mbox_conf_flatten
I0428 23:26:49.269464 31705 net.cpp:434] detection_out <- mbox_priorbox
I0428 23:26:49.269472 31705 net.cpp:408] detection_out -> detection_out
I0428 23:26:49.269946 31705 net.cpp:150] Setting up detection_out
I0428 23:26:49.269961 31705 net.cpp:157] Top shape: 1 1 1 15 (15)
I0428 23:26:49.269965 31705 net.cpp:165] Memory required for data: 552679036
I0428 23:26:49.269968 31705 layer_factory.hpp:77] Creating layer detection_eval
I0428 23:26:49.269978 31705 net.cpp:100] Creating Layer detection_eval
I0428 23:26:49.269984 31705 net.cpp:434] detection_eval <- detection_out
I0428 23:26:49.269989 31705 net.cpp:434] detection_eval <- label
I0428 23:26:49.269999 31705 net.cpp:408] detection_eval -> detection_eval
I0428 23:26:49.270072 31705 net.cpp:150] Setting up detection_eval
I0428 23:26:49.270081 31705 net.cpp:157] Top shape: 1 1 2 5 (10)
I0428 23:26:49.270084 31705 net.cpp:165] Memory required for data: 552679076
I0428 23:26:49.270088 31705 net.cpp:228] detection_eval does not need backward computation.
I0428 23:26:49.270092 31705 net.cpp:228] detection_out does not need backward computation.
I0428 23:26:49.270097 31705 net.cpp:228] mbox_conf_flatten does not need backward computation.
I0428 23:26:49.270100 31705 net.cpp:228] mbox_conf_softmax does not need backward computation.
…
